…
I1102 06:23:57.171947 12242 net.cpp:322] The NetState phase (0) differed from the phase (1) specified by a rule in layer data
I1102 06:23:57.172758 12242 net.cpp:58] Initializing net from parameters: 
name: "resnet20-cifar10"
state {
  phase: TRAIN
  level: 0
  stage: ""
}
layer {
  name: "data"
  type: "Data"
  top: "data"
  top: "label"
  include {
    phase: TRAIN
  }
  transform_param {
    mirror: true
    crop_size: 32
    mean_file: "data/mean.binaryproto"
  }
  data_param {
    source: "data/train_lmdb"
    batch_size: 100
    backend: LMDB
  }
}
layer {
  name: "first_conv"
  type: "Convolution"
  bottom: "data"
  top: "first_conv"
  param {
    lr_mult: 1
    decay_mult: 1
  }
  convolution_param {
    num_output: 16
    pad: 1
    kernel_size: 3
    stride: 1
    weight_filler {
      type: "msra"
    }
  }
}
layer {
  name: "first_conv_bn"
  type: "BatchNorm"
  bottom: "first_conv"
  top: "first_conv"
  batch_norm_param {
    use_global_stats: false
    moving_average_fraction: 0.95
  }
}
layer {
  name: "first_conv_scale"
  type: "Scale"
  bottom: "first_conv"
  top: "first_conv"
  scale_param {
    bias_term: true
  }
}
layer {
  name: "first_conv_relu"
  type: "ReLU"
  bottom: "first_conv"
  top: "first_conv"
}
layer {
  name: "group0_block0_conv0"
  type: "Convolution"
  bottom: "first_conv"
  top: "group0_block0_conv0"
  param {
    lr_mult: 1
    decay_mult: 1
  }
  convolution_param {
    num_output: 16
    pad: 1
    kernel_size: 3
    stride: 1
    weight_filler {
      type: "msra"
    }
  }
}
layer {
  name: "group0_block0_conv0_bn"
  type: "BatchNorm"
  bottom: "group0_block0_conv0"
  top: "group0_block0_conv0"
  batch_norm_param {
    use_global_stats: false
    moving_average_fraction: 0.95
  }
}
layer {
  name: "group0_block0_conv0_scale"
  type: "Scale"
  bottom: "group0_block0_conv0"
  top: "group0_block0_conv0"
  scale_param {
    bias_term: true
  }
}
layer {
  name: "group0_block0_conv0_relu"
  type: "ReLU"
  bottom: "group0_block0_conv0"
  top: "group0_block0_conv0"
}
layer {
  name: "group0_block0_conv1"
  type: "Convolution"
  bottom: "group0_block0_conv0"
  top: "group0_block0_conv1"
  param {
    lr_mult: 1
    decay_mult: 1
  }
  convolution_param {
    num_output: 16
    pad: 1
    kernel_size: 3
    stride: 1
    weight_filler {
      type: "msra"
    }
  }
}
layer {
  name: "group0_block0_conv1_bn"
  type: "BatchNorm"
  bottom: "group0_block0_conv1"
  top: "group0_block0_conv1"
  batch_norm_param {
    use_global_stats: false
    moving_average_fraction: 0.95
  }
}
layer {
  name: "group0_block0_conv1_scale"
  type: "Scale"
  bottom: "group0_block0_conv1"
  top: "group0_block0_conv1"
  scale_param {
    bias_term: true
  }
}
layer {
  name: "group0_block0_sum"
  type: "Eltwise"
  bottom: "group0_block0_conv1"
  bottom: "first_conv"
  top: "group0_block0_sum"
  eltwise_param {
    operation: SUM
  }
}
layer {
  name: "group0_block1_conv0"
  type: "Convolution"
  bottom: "group0_block0_sum"
  top: "group0_block1_conv0"
  param {
    lr_mult: 1
    decay_mult: 1
  }
  convolution_param {
    num_output: 16
    pad: 1
    kernel_size: 3
    stride: 1
    weight_filler {
      type: "msra"
    }
  }
}
layer {
  name: "group0_block1_conv0_bn"
  type: "BatchNorm"
  bottom: "group0_block1_conv0"
  top: "group0_block1_conv0"
  batch_norm_param {
    use_global_stats: false
    moving_average_fraction: 0.95
  }
}
layer {
  name: "group0_block1_conv0_scale"
  type: "Scale"
  bottom: "group0_block1_conv0"
  top: "group0_block1_conv0"
  scale_param {
    bias_term: true
  }
}
layer {
  name: "group0_block1_conv0_relu"
  type: "ReLU"
  bottom: "group0_block1_conv0"
  top: "group0_block1_conv0"
}
layer {
  name: "group0_block1_conv1"
  type: "Convolution"
  bottom: "group0_block1_conv0"
  top: "group0_block1_conv1"
  param {
    lr_mult: 1
    decay_mult: 1
  }
  convolution_param {
    num_output: 16
    pad: 1
    kernel_size: 3
    stride: 1
    weight_filler {
      type: "msra"
    }
  }
}
layer {
  name: "group0_block1_conv1_bn"
  type: "BatchNorm"
  bottom: "group0_block1_conv1"
  top: "group0_block1_conv1"
  batch_norm_param {
    use_global_stats: false
    moving_average_fraction: 0.95
  }
}
layer {
  name: "group0_block1_conv1_scale"
  type: "Scale"
  bottom: "group0_block1_conv1"
  top: "group0_block1_conv1"
  scale_param {
    bias_term: true
  }
}
layer {
  name: "group0_block1_sum"
  type: "Eltwise"
  bottom: "group0_block1_conv1"
  bottom: "group0_block0_sum"
  top: "group0_block1_sum"
  eltwise_param {
    operation: SUM
  }
}
layer {
  name: "group0_block2_conv0"
  type: "Convolution"
  bottom: "group0_block1_sum"
  top: "group0_block2_conv0"
  param {
    lr_mult: 1
    decay_mult: 1
  }
  convolution_param {
    num_output: 16
    pad: 1
    kernel_size: 3
    stride: 1
    weight_filler {
      type: "msra"
    }
  }
}
layer {
  name: "group0_block2_conv0_bn"
  type: "BatchNorm"
  bottom: "group0_block2_conv0"
  top: "group0_block2_conv0"
  batch_norm_param {
    use_global_stats: false
    moving_average_fraction: 0.95
  }
}
layer {
  name: "group0_block2_conv0_scale"
  type: "Scale"
  bottom: "group0_block2_conv0"
  top: "group0_block2_conv0"
  scale_param {
    bias_term: true
  }
}
layer {
  name: "group0_block2_conv0_relu"
  type: "ReLU"
  bottom: "group0_block2_conv0"
  top: "group0_block2_conv0"
}
layer {
  name: "group0_block2_conv1"
  type: "Convolution"
  bottom: "group0_block2_conv0"
  top: "group0_block2_conv1"
  param {
    lr_mult: 1
    decay_mult: 1
  }
  convolution_param {
    num_output: 16
    pad: 1
    kernel_size: 3
    stride: 1
    weight_filler {
      type: "msra"
    }
  }
}
layer {
  name: "group0_block2_conv1_bn"
  type: "BatchNorm"
  bottom: "group0_block2_conv1"
  top: "group0_block2_conv1"
  batch_norm_param {
    use_global_stats: false
    moving_average_fraction: 0.95
  }
}
layer {
  name: "group0_block2_conv1_scale"
  type: "Scale"
  bottom: "group0_block2_conv1"
  top: "group0_block2_conv1"
  scale_param {
    bias_term: true
  }
}
layer {
  name: "group0_block2_sum"
  type: "Eltwise"
  bottom: "group0_block2_conv1"
  bottom: "group0_block1_sum"
  top: "group0_block2_sum"
  eltwise_param {
    operation: SUM
  }
}
layer {
  name: "group1_block0_conv0"
  type: "Convolution"
  bottom: "group0_block2_sum"
  top: "group1_block0_conv0"
  param {
    lr_mult: 1
    decay_mult: 1
  }
  convolution_param {
    num_output: 32
    pad: 1
    kernel_size: 3
    stride: 2
    weight_filler {
      type: "msra"
    }
  }
}
layer {
  name: "group1_block0_conv0_bn"
  type: "BatchNorm"
  bottom: "group1_block0_conv0"
  top: "group1_block0_conv0"
  batch_norm_param {
    use_global_stats: false
    moving_average_fraction: 0.95
  }
}
layer {
  name: "group1_block0_conv0_scale"
  type: "Scale"
  bottom: "group1_block0_conv0"
  top: "group1_block0_conv0"
  scale_param {
    bias_term: true
  }
}
layer {
  name: "group1_block0_conv0_relu"
  type: "ReLU"
  bottom: "group1_block0_conv0"
  top: "group1_block0_conv0"
}
layer {
  name: "group1_block0_conv1"
  type: "Convolution"
  bottom: "group1_block0_conv0"
  top: "group1_block0_conv1"
  param {
    lr_mult: 1
    decay_mult: 1
  }
  convolution_param {
    num_output: 32
    pad: 1
    kernel_size: 3
    stride: 1
    weight_filler {
      type: "msra"
    }
  }
}
layer {
  name: "group1_block0_conv1_bn"
  type: "BatchNorm"
  bottom: "group1_block0_conv1"
  top: "group1_block0_conv1"
  batch_norm_param {
    use_global_stats: false
    moving_average_fraction: 0.95
  }
}
layer {
  name: "group1_block0_conv1_scale"
  type: "Scale"
  bottom: "group1_block0_conv1"
  top: "group1_block0_conv1"
  scale_param {
    bias_term: true
  }
}
layer {
  name: "group1_block0_proj"
  type: "Convolution"
  bottom: "group0_block2_sum"
  top: "group1_block0_proj"
  param {
    lr_mult: 1
    decay_mult: 1
  }
  convolution_param {
    num_output: 32
    pad: 0
    kernel_size: 2
    stride: 2
    weight_filler {
      type: "msra"
    }
  }
}
layer {
  name: "group1_block0_proj_bn"
  type: "BatchNorm"
  bottom: "group1_block0_proj"
  top: "group1_block0_proj"
  batch_norm_param {
    use_global_stats: false
    moving_average_fraction: 0.95
  }
}
layer {
  name: "group1_block0_proj_scale"
  type: "Scale"
  bottom: "group1_block0_proj"
  top: "group1_block0_proj"
  scale_param {
    bias_term: true
  }
}
layer {
  name: "group1_block0_sum"
  type: "Eltwise"
  bottom: "group1_block0_proj"
  bottom: "group1_block0_conv1"
  top: "group1_block0_sum"
  eltwise_param {
    operation: SUM
  }
}
layer {
  name: "group1_block1_conv0"
  type: "Convolution"
  bottom: "group1_block0_sum"
  top: "group1_block1_conv0"
  param {
    lr_mult: 1
    decay_mult: 1
  }
  convolution_param {
    num_output: 32
    pad: 1
    kernel_size: 3
    stride: 1
    weight_filler {
      type: "msra"
    }
  }
}
layer {
  name: "group1_block1_conv0_bn"
  type: "BatchNorm"
  bottom: "group1_block1_conv0"
  top: "group1_block1_conv0"
  batch_norm_param {
    use_global_stats: false
    moving_average_fraction: 0.95
  }
}
layer {
  name: "group1_block1_conv0_scale"
  type: "Scale"
  bottom: "group1_block1_conv0"
  top: "group1_block1_conv0"
  scale_param {
    bias_term: true
  }
}
layer {
  name: "group1_block1_conv0_relu"
  type: "ReLU"
  bottom: "group1_block1_conv0"
  top: "group1_block1_conv0"
}
layer {
  name: "group1_block1_conv1"
  type: "Convolution"
  bottom: "group1_block1_conv0"
  top: "group1_block1_conv1"
  param {
    lr_mult: 1
    decay_mult: 1
  }
  convolution_param {
    num_output: 32
    pad: 1
    kernel_size: 3
    stride: 1
    weight_filler {
      type: "msra"
    }
  }
}
layer {
  name: "group1_block1_conv1_bn"
  type: "BatchNorm"
  bottom: "group1_block1_conv1"
  top: "group1_block1_conv1"
  batch_norm_param {
    use_global_stats: false
    moving_average_fraction: 0.95
  }
}
layer {
  name: "group1_block1_conv1_scale"
  type: "Scale"
  bottom: "group1_block1_conv1"
  top: "group1_block1_conv1"
  scale_param {
    bias_term: true
  }
}
layer {
  name: "group1_block1_sum"
  type: "Eltwise"
  bottom: "group1_block1_conv1"
  bottom: "group1_block0_sum"
  top: "group1_block1_sum"
  eltwise_param {
    operation: SUM
  }
}
layer {
  name: "group1_block2_conv0"
  type: "Convolution"
  bottom: "group1_block1_sum"
  top: "group1_block2_conv0"
  param {
    lr_mult: 1
    decay_mult: 1
  }
  convolution_param {
    num_output: 32
    pad: 1
    kernel_size: 3
    stride: 1
    weight_filler {
      type: "msra"
    }
  }
}
layer {
  name: "group1_block2_conv0_bn"
  type: "BatchNorm"
  bottom: "group1_block2_conv0"
  top: "group1_block2_conv0"
  batch_norm_param {
    use_global_stats: false
    moving_average_fraction: 0.95
  }
}
layer {
  name: "group1_block2_conv0_scale"
  type: "Scale"
  bottom: "group1_block2_conv0"
  top: "group1_block2_conv0"
  scale_param {
    bias_term: true
  }
}
layer {
  name: "group1_block2_conv0_relu"
  type: "ReLU"
  bottom: "group1_block2_conv0"
  top: "group1_block2_conv0"
}
layer {
  name: "group1_block2_conv1"
  type: "Convolution"
  bottom: "group1_block2_conv0"
  top: "group1_block2_conv1"
  param {
    lr_mult: 1
    decay_mult: 1
  }
  convolution_param {
    num_output: 32
    pad: 1
    kernel_size: 3
    stride: 1
    weight_filler {
      type: "msra"
    }
  }
}
layer {
  name: "group1_block2_conv1_bn"
  type: "BatchNorm"
  bottom: "group1_block2_conv1"
  top: "group1_block2_conv1"
  batch_norm_param {
    use_global_stats: false
    moving_average_fraction: 0.95
  }
}
layer {
  name: "group1_block2_conv1_scale"
  type: "Scale"
  bottom: "group1_block2_conv1"
  top: "group1_block2_conv1"
  scale_param {
    bias_term: true
  }
}
layer {
  name: "group1_block2_sum"
  type: "Eltwise"
  bottom: "group1_block2_conv1"
  bottom: "group1_block1_sum"
  top: "group1_block2_sum"
  eltwise_param {
    operation: SUM
  }
}
layer {
  name: "group2_block0_conv0"
  type: "Convolution"
  bottom: "group1_block2_sum"
  top: "group2_block0_conv0"
  param {
    lr_mult: 1
    decay_mult: 1
  }
  convolution_param {
    num_output: 64
    pad: 1
    kernel_size: 3
    stride: 2
    weight_filler {
      type: "msra"
    }
  }
}
layer {
  name: "group2_block0_conv0_bn"
  type: "BatchNorm"
  bottom: "group2_block0_conv0"
  top: "group2_block0_conv0"
  batch_norm_param {
    use_global_stats: false
    moving_average_fraction: 0.95
  }
}
layer {
  name: "group2_block0_conv0_scale"
  type: "Scale"
  bottom: "group2_block0_conv0"
  top: "group2_block0_conv0"
  scale_param {
    bias_term: true
  }
}
layer {
  name: "group2_block0_conv0_relu"
  type: "ReLU"
  bottom: "group2_block0_conv0"
  top: "group2_block0_conv0"
}
layer {
  name: "group2_block0_conv1"
  type: "Convolution"
  bottom: "group2_block0_conv0"
  top: "group2_block0_conv1"
  param {
    lr_mult: 1
    decay_mult: 1
  }
  convolution_param {
    num_output: 64
    pad: 1
    kernel_size: 3
    stride: 1
    weight_filler {
      type: "msra"
    }
  }
}
layer {
  name: "group2_block0_conv1_bn"
  type: "BatchNorm"
  bottom: "group2_block0_conv1"
  top: "group2_block0_conv1"
  batch_norm_param {
    use_global_stats: false
    moving_average_fraction: 0.95
  }
}
layer {
  name: "group2_block0_conv1_scale"
  type: "Scale"
  bottom: "group2_block0_conv1"
  top: "group2_block0_conv1"
  scale_param {
    bias_term: true
  }
}
layer {
  name: "group2_block0_proj"
  type: "Convolution"
  bottom: "group1_block2_sum"
  top: "group2_block0_proj"
  param {
    lr_mult: 1
    decay_mult: 1
  }
  convolution_param {
    num_output: 64
    pad: 0
    kernel_size: 2
    stride: 2
    weight_filler {
      type: "msra"
    }
  }
}
layer {
  name: "group2_block0_proj_bn"
  type: "BatchNorm"
  bottom: "group2_block0_proj"
  top: "group2_block0_proj"
  batch_norm_param {
    use_global_stats: false
    moving_average_fraction: 0.95
  }
}
layer {
  name: "group2_block0_proj_scale"
  type: "Scale"
  bottom: "group2_block0_proj"
  top: "group2_block0_proj"
  scale_param {
    bias_term: true
  }
}
layer {
  name: "group2_block0_sum"
  type: "Eltwise"
  bottom: "group2_block0_proj"
  bottom: "group2_block0_conv1"
  top: "group2_block0_sum"
  eltwise_param {
    operation: SUM
  }
}
layer {
  name: "group2_block1_conv0"
  type: "Convolution"
  bottom: "group2_block0_sum"
  top: "group2_block1_conv0"
  param {
    lr_mult: 1
    decay_mult: 1
  }
  convolution_param {
    num_output: 64
    pad: 1
    kernel_size: 3
    stride: 1
    weight_filler {
      type: "msra"
    }
  }
}
layer {
  name: "group2_block1_conv0_bn"
  type: "BatchNorm"
  bottom: "group2_block1_conv0"
  top: "group2_block1_conv0"
  batch_norm_param {
    use_global_stats: false
    moving_average_fraction: 0.95
  }
}
layer {
  name: "group2_block1_conv0_scale"
  type: "Scale"
  bottom: "group2_block1_conv0"
  top: "group2_block1_conv0"
  scale_param {
    bias_term: true
  }
}
layer {
  name: "group2_block1_conv0_relu"
  type: "ReLU"
  bottom: "group2_block1_conv0"
  top: "group2_block1_conv0"
}
layer {
  name: "group2_block1_conv1"
  type: "Convolution"
  bottom: "group2_block1_conv0"
  top: "group2_block1_conv1"
  param {
    lr_mult: 1
    decay_mult: 1
  }
  convolution_param {
    num_output: 64
    pad: 1
    kernel_size: 3
    stride: 1
    weight_filler {
      type: "msra"
    }
  }
}
layer {
  name: "group2_block1_conv1_bn"
  type: "BatchNorm"
  bottom: "group2_block1_conv1"
  top: "group2_block1_conv1"
  batch_norm_param {
    use_global_stats: false
    moving_average_fraction: 0.95
  }
}
layer {
  name: "group2_block1_conv1_scale"
  type: "Scale"
  bottom: "group2_block1_conv1"
  top: "group2_block1_conv1"
  scale_param {
    bias_term: true
  }
}
layer {
  name: "group2_block1_sum"
  type: "Eltwise"
  bottom: "group2_block1_conv1"
  bottom: "group2_block0_sum"
  top: "group2_block1_sum"
  eltwise_param {
    operation: SUM
  }
}
layer {
  name: "group2_block2_conv0"
  type: "Convolution"
  bottom: "group2_block1_sum"
  top: "group2_block2_conv0"
  param {
    lr_mult: 1
    decay_mult: 1
  }
  convolution_param {
    num_output: 64
    pad: 1
    kernel_size: 3
    stride: 1
    weight_filler {
      type: "msra"
    }
  }
}
layer {
  name: "group2_block2_conv0_bn"
  type: "BatchNorm"
  bottom: "group2_block2_conv0"
  top: "group2_block2_conv0"
  batch_norm_param {
    use_global_stats: false
    moving_average_fraction: 0.95
  }
}
layer {
  name: "group2_block2_conv0_scale"
  type: "Scale"
  bottom: "group2_block2_conv0"
  top: "group2_block2_conv0"
  scale_param {
    bias_term: true
  }
}
layer {
  name: "group2_block2_conv0_relu"
  type: "ReLU"
  bottom: "group2_block2_conv0"
  top: "group2_block2_conv0"
}
layer {
  name: "group2_block2_conv1"
  type: "Convolution"
  bottom: "group2_block2_conv0"
  top: "group2_block2_conv1"
  param {
    lr_mult: 1
    decay_mult: 1
  }
  convolution_param {
    num_output: 64
    pad: 1
    kernel_size: 3
    stride: 1
    weight_filler {
      type: "msra"
    }
  }
}
layer {
  name: "group2_block2_conv1_bn"
  type: "BatchNorm"
  bottom: "group2_block2_conv1"
  top: "group2_block2_conv1"
  batch_norm_param {
    use_global_stats: false
    moving_average_fraction: 0.95
  }
}
layer {
  name: "group2_block2_conv1_scale"
  type: "Scale"
  bottom: "group2_block2_conv1"
  top: "group2_block2_conv1"
  scale_param {
    bias_term: true
  }
}
layer {
  name: "group2_block2_sum"
  type: "Eltwise"
  bottom: "group2_block2_conv1"
  bottom: "group2_block1_sum"
  top: "group2_block2_sum"
  eltwise_param {
    operation: SUM
  }
}
layer {
  name: "global_avg_pool"
  type: "Pooling"
  bottom: "group2_block2_sum"
  top: "global_avg_pool"
  pooling_param {
    pool: AVE
    global_pooling: true
  }
}
layer {
  name: "fc"
  type: "InnerProduct"
  bottom: "global_avg_pool"
  top: "fc"
  param {
    lr_mult: 1
    decay_mult: 1
  }
  param {
    lr_mult: 2
    decay_mult: 0
  }
  inner_product_param {
    num_output: 10
    weight_filler {
      type: "msra"
    }
    bias_filler {
      type: "constant"
      value: 0
    }
  }
}
layer {
  name: "loss"
  type: "SoftmaxWithLoss"
  bottom: "fc"
  bottom: "label"
  top: "loss"
}
layer {
  name: "softmax"
  type: "Softmax"
  bottom: "fc"
  top: "softmax"
}
layer {
  name: "Accuracy"
  type: "Accuracy"
  bottom: "softmax"
  bottom: "label"
  top: "Accuracy"
}
I1102 06:23:57.173339 12242 layer_factory.hpp:77] Creating layer data
I1102 06:23:57.173809 12242 net.cpp:100] Creating Layer data
I1102 06:23:57.173894 12242 net.cpp:408] data -> data
I1102 06:23:57.174007 12242 net.cpp:408] data -> label
I1102 06:23:57.174042 12242 data_transformer.cpp:25] Loading mean file from: data/mean.binaryproto
I1102 06:23:57.174105 12245 db_lmdb.cpp:35] Opened lmdb data/train_lmdb
I1102 06:23:57.174228 12242 data_layer.cpp:41] output data size: 100,3,32,32
I1102 06:23:57.174365 12242 net.cpp:150] Setting up data
I1102 06:23:57.174391 12242 net.cpp:157] Top shape: 100 3 32 32 (307200)
I1102 06:23:57.174407 12242 net.cpp:157] Top shape: 100 (100)
I1102 06:23:57.174417 12242 net.cpp:165] Memory required for data: 1229200
I1102 06:23:57.174440 12242 layer_factory.hpp:77] Creating layer label_data_1_split
I1102 06:23:57.174463 12242 net.cpp:100] Creating Layer label_data_1_split
I1102 06:23:57.174480 12242 net.cpp:434] label_data_1_split <- label
I1102 06:23:57.174510 12242 net.cpp:408] label_data_1_split -> label_data_1_split_0
I1102 06:23:57.174530 12242 net.cpp:408] label_data_1_split -> label_data_1_split_1
I1102 06:23:57.174557 12242 net.cpp:150] Setting up label_data_1_split
I1102 06:23:57.174573 12242 net.cpp:157] Top shape: 100 (100)
I1102 06:23:57.174584 12242 net.cpp:157] Top shape: 100 (100)
I1102 06:23:57.174593 12242 net.cpp:165] Memory required for data: 1230000
I1102 06:23:57.174649 12242 layer_factory.hpp:77] Creating layer first_conv
I1102 06:23:57.174685 12242 net.cpp:100] Creating Layer first_conv
I1102 06:23:57.174700 12242 net.cpp:434] first_conv <- data
I1102 06:23:57.174716 12242 net.cpp:408] first_conv -> first_conv
I1102 06:23:57.174875 12242 net.cpp:150] Setting up first_conv
I1102 06:23:57.174952 12242 net.cpp:157] Top shape: 100 16 32 32 (1638400)
I1102 06:23:57.174969 12242 net.cpp:165] Memory required for data: 7783600
I1102 06:23:57.175168 12242 layer_factory.hpp:77] Creating layer first_conv_bn
I1102 06:23:57.175264 12242 net.cpp:100] Creating Layer first_conv_bn
I1102 06:23:57.175282 12242 net.cpp:434] first_conv_bn <- first_conv
I1102 06:23:57.175330 12242 net.cpp:395] first_conv_bn -> first_conv (in-place)
I1102 06:23:57.175405 12242 net.cpp:150] Setting up first_conv_bn
I1102 06:23:57.175423 12242 net.cpp:157] Top shape: 100 16 32 32 (1638400)
I1102 06:23:57.175446 12242 net.cpp:165] Memory required for data: 14337200
I1102 06:23:57.175487 12242 layer_factory.hpp:77] Creating layer first_conv_scale
I1102 06:23:57.175523 12242 net.cpp:100] Creating Layer first_conv_scale
I1102 06:23:57.175539 12242 net.cpp:434] first_conv_scale <- first_conv
I1102 06:23:57.175585 12242 net.cpp:395] first_conv_scale -> first_conv (in-place)
I1102 06:23:57.175940 12242 layer_factory.hpp:77] Creating layer first_conv_scale
I1102 06:23:57.176106 12242 net.cpp:150] Setting up first_conv_scale
I1102 06:23:57.176125 12242 net.cpp:157] Top shape: 100 16 32 32 (1638400)
I1102 06:23:57.176133 12242 net.cpp:165] Memory required for data: 20890800
I1102 06:23:57.176148 12242 layer_factory.hpp:77] Creating layer first_conv_relu
I1102 06:23:57.176167 12242 net.cpp:100] Creating Layer first_conv_relu
I1102 06:23:57.176177 12242 net.cpp:434] first_conv_relu <- first_conv
I1102 06:23:57.176189 12242 net.cpp:395] first_conv_relu -> first_conv (in-place)
I1102 06:23:57.176204 12242 net.cpp:150] Setting up first_conv_relu
I1102 06:23:57.176218 12242 net.cpp:157] Top shape: 100 16 32 32 (1638400)
I1102 06:23:57.176229 12242 net.cpp:165] Memory required for data: 27444400
I1102 06:23:57.176237 12242 layer_factory.hpp:77] Creating layer first_conv_first_conv_relu_0_split
I1102 06:23:57.176250 12242 net.cpp:100] Creating Layer first_conv_first_conv_relu_0_split
I1102 06:23:57.176260 12242 net.cpp:434] first_conv_first_conv_relu_0_split <- first_conv
I1102 06:23:57.176275 12242 net.cpp:408] first_conv_first_conv_relu_0_split -> first_conv_first_conv_relu_0_split_0
I1102 06:23:57.176333 12242 net.cpp:408] first_conv_first_conv_relu_0_split -> first_conv_first_conv_relu_0_split_1
I1102 06:23:57.176357 12242 net.cpp:150] Setting up first_conv_first_conv_relu_0_split
I1102 06:23:57.176373 12242 net.cpp:157] Top shape: 100 16 32 32 (1638400)
I1102 06:23:57.176384 12242 net.cpp:157] Top shape: 100 16 32 32 (1638400)
I1102 06:23:57.176393 12242 net.cpp:165] Memory required for data: 40551600
I1102 06:23:57.176403 12242 layer_factory.hpp:77] Creating layer group0_block0_conv0
I1102 06:23:57.176422 12242 net.cpp:100] Creating Layer group0_block0_conv0
I1102 06:23:57.176434 12242 net.cpp:434] group0_block0_conv0 <- first_conv_first_conv_relu_0_split_0
I1102 06:23:57.176484 12242 net.cpp:408] group0_block0_conv0 -> group0_block0_conv0
I1102 06:23:57.176746 12242 net.cpp:150] Setting up group0_block0_conv0
I1102 06:23:57.176764 12242 net.cpp:157] Top shape: 100 16 32 32 (1638400)
I1102 06:23:57.176774 12242 net.cpp:165] Memory required for data: 47105200
I1102 06:23:57.176792 12242 layer_factory.hpp:77] Creating layer group0_block0_conv0_bn
I1102 06:23:57.176812 12242 net.cpp:100] Creating Layer group0_block0_conv0_bn
I1102 06:23:57.176822 12242 net.cpp:434] group0_block0_conv0_bn <- group0_block0_conv0
I1102 06:23:57.176836 12242 net.cpp:395] group0_block0_conv0_bn -> group0_block0_conv0 (in-place)
I1102 06:23:57.177070 12242 net.cpp:150] Setting up group0_block0_conv0_bn
I1102 06:23:57.177090 12242 net.cpp:157] Top shape: 100 16 32 32 (1638400)
I1102 06:23:57.177099 12242 net.cpp:165] Memory required for data: 53658800
I1102 06:23:57.177170 12242 layer_factory.hpp:77] Creating layer group0_block0_conv0_scale
I1102 06:23:57.177336 12242 net.cpp:100] Creating Layer group0_block0_conv0_scale
I1102 06:23:57.177361 12242 net.cpp:434] group0_block0_conv0_scale <- group0_block0_conv0
I1102 06:23:57.177377 12242 net.cpp:395] group0_block0_conv0_scale -> group0_block0_conv0 (in-place)
I1102 06:23:57.177399 12242 layer_factory.hpp:77] Creating layer group0_block0_conv0_scale
I1102 06:23:57.177608 12242 net.cpp:150] Setting up group0_block0_conv0_scale
I1102 06:23:57.177626 12242 net.cpp:157] Top shape: 100 16 32 32 (1638400)
I1102 06:23:57.177636 12242 net.cpp:165] Memory required for data: 60212400
I1102 06:23:57.177650 12242 layer_factory.hpp:77] Creating layer group0_block0_conv0_relu
I1102 06:23:57.177664 12242 net.cpp:100] Creating Layer group0_block0_conv0_relu
I1102 06:23:57.177721 12242 net.cpp:434] group0_block0_conv0_relu <- group0_block0_conv0
I1102 06:23:57.177741 12242 net.cpp:395] group0_block0_conv0_relu -> group0_block0_conv0 (in-place)
I1102 06:23:57.177755 12242 net.cpp:150] Setting up group0_block0_conv0_relu
I1102 06:23:57.177767 12242 net.cpp:157] Top shape: 100 16 32 32 (1638400)
I1102 06:23:57.177777 12242 net.cpp:165] Memory required for data: 66766000
I1102 06:23:57.177785 12242 layer_factory.hpp:77] Creating layer group0_block0_conv1
I1102 06:23:57.177887 12242 net.cpp:100] Creating Layer group0_block0_conv1
I1102 06:23:57.177906 12242 net.cpp:434] group0_block0_conv1 <- group0_block0_conv0
I1102 06:23:57.177922 12242 net.cpp:408] group0_block0_conv1 -> group0_block0_conv1
I1102 06:23:57.178194 12242 net.cpp:150] Setting up group0_block0_conv1
I1102 06:23:57.178442 12242 net.cpp:157] Top shape: 100 16 32 32 (1638400)
I1102 06:23:57.178454 12242 net.cpp:165] Memory required for data: 73319600
I1102 06:23:57.178504 12242 layer_factory.hpp:77] Creating layer group0_block0_conv1_bn
I1102 06:23:57.178524 12242 net.cpp:100] Creating Layer group0_block0_conv1_bn
I1102 06:23:57.178535 12242 net.cpp:434] group0_block0_conv1_bn <- group0_block0_conv1
I1102 06:23:57.179011 12242 net.cpp:395] group0_block0_conv1_bn -> group0_block0_conv1 (in-place)
I1102 06:23:57.179195 12242 net.cpp:150] Setting up group0_block0_conv1_bn
I1102 06:23:57.179250 12242 net.cpp:157] Top shape: 100 16 32 32 (1638400)
I1102 06:23:57.179419 12242 net.cpp:165] Memory required for data: 79873200
I1102 06:23:57.179446 12242 layer_factory.hpp:77] Creating layer group0_block0_conv1_scale
I1102 06:23:57.179466 12242 net.cpp:100] Creating Layer group0_block0_conv1_scale
I1102 06:23:57.179477 12242 net.cpp:434] group0_block0_conv1_scale <- group0_block0_conv1
I1102 06:23:57.179607 12242 net.cpp:395] group0_block0_conv1_scale -> group0_block0_conv1 (in-place)
I1102 06:23:57.179636 12242 layer_factory.hpp:77] Creating layer group0_block0_conv1_scale
I1102 06:23:57.179868 12242 net.cpp:150] Setting up group0_block0_conv1_scale
I1102 06:23:57.179888 12242 net.cpp:157] Top shape: 100 16 32 32 (1638400)
I1102 06:23:57.179898 12242 net.cpp:165] Memory required for data: 86426800
I1102 06:23:57.179913 12242 layer_factory.hpp:77] Creating layer group0_block0_sum
I1102 06:23:57.180053 12242 net.cpp:100] Creating Layer group0_block0_sum
I1102 06:23:57.180070 12242 net.cpp:434] group0_block0_sum <- group0_block0_conv1
I1102 06:23:57.180083 12242 net.cpp:434] group0_block0_sum <- first_conv_first_conv_relu_0_split_1
I1102 06:23:57.180101 12242 net.cpp:408] group0_block0_sum -> group0_block0_sum
I1102 06:23:57.180132 12242 net.cpp:150] Setting up group0_block0_sum
I1102 06:23:57.180248 12242 net.cpp:157] Top shape: 100 16 32 32 (1638400)
I1102 06:23:57.180258 12242 net.cpp:165] Memory required for data: 92980400
I1102 06:23:57.180268 12242 layer_factory.hpp:77] Creating layer group0_block0_sum_group0_block0_sum_0_split
I1102 06:23:57.180281 12242 net.cpp:100] Creating Layer group0_block0_sum_group0_block0_sum_0_split
I1102 06:23:57.180291 12242 net.cpp:434] group0_block0_sum_group0_block0_sum_0_split <- group0_block0_sum
I1102 06:23:57.180477 12242 net.cpp:408] group0_block0_sum_group0_block0_sum_0_split -> group0_block0_sum_group0_block0_sum_0_split_0
I1102 06:23:57.180595 12242 net.cpp:408] group0_block0_sum_group0_block0_sum_0_split -> group0_block0_sum_group0_block0_sum_0_split_1
I1102 06:23:57.180615 12242 net.cpp:150] Setting up group0_block0_sum_group0_block0_sum_0_split
I1102 06:23:57.180629 12242 net.cpp:157] Top shape: 100 16 32 32 (1638400)
I1102 06:23:57.180640 12242 net.cpp:157] Top shape: 100 16 32 32 (1638400)
I1102 06:23:57.180708 12242 net.cpp:165] Memory required for data: 106087600
I1102 06:23:57.180718 12242 layer_factory.hpp:77] Creating layer group0_block1_conv0
I1102 06:23:57.180858 12242 net.cpp:100] Creating Layer group0_block1_conv0
I1102 06:23:57.180874 12242 net.cpp:434] group0_block1_conv0 <- group0_block0_sum_group0_block0_sum_0_split_0
I1102 06:23:57.180891 12242 net.cpp:408] group0_block1_conv0 -> group0_block1_conv0
I1102 06:23:57.181205 12242 net.cpp:150] Setting up group0_block1_conv0
I1102 06:23:57.181224 12242 net.cpp:157] Top shape: 100 16 32 32 (1638400)
I1102 06:23:57.181234 12242 net.cpp:165] Memory required for data: 112641200
I1102 06:23:57.181248 12242 layer_factory.hpp:77] Creating layer group0_block1_conv0_bn
I1102 06:23:57.181262 12242 net.cpp:100] Creating Layer group0_block1_conv0_bn
I1102 06:23:57.181279 12242 net.cpp:434] group0_block1_conv0_bn <- group0_block1_conv0
I1102 06:23:57.181341 12242 net.cpp:395] group0_block1_conv0_bn -> group0_block1_conv0 (in-place)
I1102 06:23:57.181524 12242 net.cpp:150] Setting up group0_block1_conv0_bn
I1102 06:23:57.181537 12242 net.cpp:157] Top shape: 100 16 32 32 (1638400)
I1102 06:23:57.181712 12242 net.cpp:165] Memory required for data: 119194800
I1102 06:23:57.181725 12242 layer_factory.hpp:77] Creating layer group0_block1_conv0_scale
I1102 06:23:57.181776 12242 net.cpp:100] Creating Layer group0_block1_conv0_scale
I1102 06:23:57.181787 12242 net.cpp:434] group0_block1_conv0_scale <- group0_block1_conv0
I1102 06:23:57.181797 12242 net.cpp:395] group0_block1_conv0_scale -> group0_block1_conv0 (in-place)
I1102 06:23:57.181813 12242 layer_factory.hpp:77] Creating layer group0_block1_conv0_scale
I1102 06:23:57.181967 12242 net.cpp:150] Setting up group0_block1_conv0_scale
I1102 06:23:57.181982 12242 net.cpp:157] Top shape: 100 16 32 32 (1638400)
I1102 06:23:57.181988 12242 net.cpp:165] Memory required for data: 125748400
I1102 06:23:57.182000 12242 layer_factory.hpp:77] Creating layer group0_block1_conv0_relu
I1102 06:23:57.182014 12242 net.cpp:100] Creating Layer group0_block1_conv0_relu
I1102 06:23:57.182021 12242 net.cpp:434] group0_block1_conv0_relu <- group0_block1_conv0
I1102 06:23:57.182034 12242 net.cpp:395] group0_block1_conv0_relu -> group0_block1_conv0 (in-place)
I1102 06:23:57.182056 12242 net.cpp:150] Setting up group0_block1_conv0_relu
I1102 06:23:57.182066 12242 net.cpp:157] Top shape: 100 16 32 32 (1638400)
I1102 06:23:57.182072 12242 net.cpp:165] Memory required for data: 132302000
I1102 06:23:57.182080 12242 layer_factory.hpp:77] Creating layer group0_block1_conv1
I1102 06:23:57.182096 12242 net.cpp:100] Creating Layer group0_block1_conv1
I1102 06:23:57.182104 12242 net.cpp:434] group0_block1_conv1 <- group0_block1_conv0
I1102 06:23:57.182116 12242 net.cpp:408] group0_block1_conv1 -> group0_block1_conv1
I1102 06:23:57.182188 12242 net.cpp:150] Setting up group0_block1_conv1
I1102 06:23:57.182206 12242 net.cpp:157] Top shape: 100 16 32 32 (1638400)
I1102 06:23:57.182214 12242 net.cpp:165] Memory required for data: 138855600
I1102 06:23:57.182224 12242 layer_factory.hpp:77] Creating layer group0_block1_conv1_bn
I1102 06:23:57.182440 12242 net.cpp:100] Creating Layer group0_block1_conv1_bn
I1102 06:23:57.182448 12242 net.cpp:434] group0_block1_conv1_bn <- group0_block1_conv1
I1102 06:23:57.182458 12242 net.cpp:395] group0_block1_conv1_bn -> group0_block1_conv1 (in-place)
I1102 06:23:57.182492 12242 net.cpp:150] Setting up group0_block1_conv1_bn
I1102 06:23:57.182555 12242 net.cpp:157] Top shape: 100 16 32 32 (1638400)
I1102 06:23:57.182564 12242 net.cpp:165] Memory required for data: 145409200
I1102 06:23:57.182605 12242 layer_factory.hpp:77] Creating layer group0_block1_conv1_scale
I1102 06:23:57.182674 12242 net.cpp:100] Creating Layer group0_block1_conv1_scale
I1102 06:23:57.182682 12242 net.cpp:434] group0_block1_conv1_scale <- group0_block1_conv1
I1102 06:23:57.182725 12242 net.cpp:395] group0_block1_conv1_scale -> group0_block1_conv1 (in-place)
I1102 06:23:57.182847 12242 layer_factory.hpp:77] Creating layer group0_block1_conv1_scale
I1102 06:23:57.182893 12242 net.cpp:150] Setting up group0_block1_conv1_scale
I1102 06:23:57.182904 12242 net.cpp:157] Top shape: 100 16 32 32 (1638400)
I1102 06:23:57.182911 12242 net.cpp:165] Memory required for data: 151962800
I1102 06:23:57.182921 12242 layer_factory.hpp:77] Creating layer group0_block1_sum
I1102 06:23:57.182936 12242 net.cpp:100] Creating Layer group0_block1_sum
I1102 06:23:57.182945 12242 net.cpp:434] group0_block1_sum <- group0_block1_conv1
I1102 06:23:57.182953 12242 net.cpp:434] group0_block1_sum <- group0_block0_sum_group0_block0_sum_0_split_1
I1102 06:23:57.182965 12242 net.cpp:408] group0_block1_sum -> group0_block1_sum
I1102 06:23:57.182982 12242 net.cpp:150] Setting up group0_block1_sum
I1102 06:23:57.182991 12242 net.cpp:157] Top shape: 100 16 32 32 (1638400)
I1102 06:23:57.182998 12242 net.cpp:165] Memory required for data: 158516400
I1102 06:23:57.183004 12242 layer_factory.hpp:77] Creating layer group0_block1_sum_group0_block1_sum_0_split
I1102 06:23:57.183013 12242 net.cpp:100] Creating Layer group0_block1_sum_group0_block1_sum_0_split
I1102 06:23:57.183020 12242 net.cpp:434] group0_block1_sum_group0_block1_sum_0_split <- group0_block1_sum
I1102 06:23:57.183033 12242 net.cpp:408] group0_block1_sum_group0_block1_sum_0_split -> group0_block1_sum_group0_block1_sum_0_split_0
I1102 06:23:57.183110 12242 net.cpp:408] group0_block1_sum_group0_block1_sum_0_split -> group0_block1_sum_group0_block1_sum_0_split_1
I1102 06:23:57.183130 12242 net.cpp:150] Setting up group0_block1_sum_group0_block1_sum_0_split
I1102 06:23:57.183145 12242 net.cpp:157] Top shape: 100 16 32 32 (1638400)
I1102 06:23:57.183154 12242 net.cpp:157] Top shape: 100 16 32 32 (1638400)
I1102 06:23:57.183171 12242 net.cpp:165] Memory required for data: 171623600
I1102 06:23:57.183179 12242 layer_factory.hpp:77] Creating layer group0_block2_conv0
I1102 06:23:57.183193 12242 net.cpp:100] Creating Layer group0_block2_conv0
I1102 06:23:57.183200 12242 net.cpp:434] group0_block2_conv0 <- group0_block1_sum_group0_block1_sum_0_split_0
I1102 06:23:57.183219 12242 net.cpp:408] group0_block2_conv0 -> group0_block2_conv0
I1102 06:23:57.183364 12242 net.cpp:150] Setting up group0_block2_conv0
I1102 06:23:57.183378 12242 net.cpp:157] Top shape: 100 16 32 32 (1638400)
I1102 06:23:57.183384 12242 net.cpp:165] Memory required for data: 178177200
I1102 06:23:57.183395 12242 layer_factory.hpp:77] Creating layer group0_block2_conv0_bn
I1102 06:23:57.183405 12242 net.cpp:100] Creating Layer group0_block2_conv0_bn
I1102 06:23:57.183413 12242 net.cpp:434] group0_block2_conv0_bn <- group0_block2_conv0
I1102 06:23:57.183421 12242 net.cpp:395] group0_block2_conv0_bn -> group0_block2_conv0 (in-place)
I1102 06:23:57.183495 12242 net.cpp:150] Setting up group0_block2_conv0_bn
I1102 06:23:57.183508 12242 net.cpp:157] Top shape: 100 16 32 32 (1638400)
I1102 06:23:57.183516 12242 net.cpp:165] Memory required for data: 184730800
I1102 06:23:57.183527 12242 layer_factory.hpp:77] Creating layer group0_block2_conv0_scale
I1102 06:23:57.183557 12242 net.cpp:100] Creating Layer group0_block2_conv0_scale
I1102 06:23:57.183569 12242 net.cpp:434] group0_block2_conv0_scale <- group0_block2_conv0
I1102 06:23:57.183640 12242 net.cpp:395] group0_block2_conv0_scale -> group0_block2_conv0 (in-place)
I1102 06:23:57.183714 12242 layer_factory.hpp:77] Creating layer group0_block2_conv0_scale
I1102 06:23:57.183746 12242 net.cpp:150] Setting up group0_block2_conv0_scale
I1102 06:23:57.183756 12242 net.cpp:157] Top shape: 100 16 32 32 (1638400)
I1102 06:23:57.183763 12242 net.cpp:165] Memory required for data: 191284400
I1102 06:23:57.183791 12242 layer_factory.hpp:77] Creating layer group0_block2_conv0_relu
I1102 06:23:57.183801 12242 net.cpp:100] Creating Layer group0_block2_conv0_relu
I1102 06:23:57.183809 12242 net.cpp:434] group0_block2_conv0_relu <- group0_block2_conv0
I1102 06:23:57.183822 12242 net.cpp:395] group0_block2_conv0_relu -> group0_block2_conv0 (in-place)
I1102 06:23:57.183833 12242 net.cpp:150] Setting up group0_block2_conv0_relu
I1102 06:23:57.183842 12242 net.cpp:157] Top shape: 100 16 32 32 (1638400)
I1102 06:23:57.183848 12242 net.cpp:165] Memory required for data: 197838000
I1102 06:23:57.183898 12242 layer_factory.hpp:77] Creating layer group0_block2_conv1
I1102 06:23:57.183950 12242 net.cpp:100] Creating Layer group0_block2_conv1
I1102 06:23:57.183959 12242 net.cpp:434] group0_block2_conv1 <- group0_block2_conv0
I1102 06:23:57.183974 12242 net.cpp:408] group0_block2_conv1 -> group0_block2_conv1
I1102 06:23:57.184113 12242 net.cpp:150] Setting up group0_block2_conv1
I1102 06:23:57.184170 12242 net.cpp:157] Top shape: 100 16 32 32 (1638400)
I1102 06:23:57.184212 12242 net.cpp:165] Memory required for data: 204391600
I1102 06:23:57.184224 12242 layer_factory.hpp:77] Creating layer group0_block2_conv1_bn
I1102 06:23:57.184269 12242 net.cpp:100] Creating Layer group0_block2_conv1_bn
I1102 06:23:57.184283 12242 net.cpp:434] group0_block2_conv1_bn <- group0_block2_conv1
I1102 06:23:57.184296 12242 net.cpp:395] group0_block2_conv1_bn -> group0_block2_conv1 (in-place)
I1102 06:23:57.184360 12242 net.cpp:150] Setting up group0_block2_conv1_bn
I1102 06:23:57.184377 12242 net.cpp:157] Top shape: 100 16 32 32 (1638400)
I1102 06:23:57.184384 12242 net.cpp:165] Memory required for data: 210945200
I1102 06:23:57.184397 12242 layer_factory.hpp:77] Creating layer group0_block2_conv1_scale
I1102 06:23:57.184407 12242 net.cpp:100] Creating Layer group0_block2_conv1_scale
I1102 06:23:57.184413 12242 net.cpp:434] group0_block2_conv1_scale <- group0_block2_conv1
I1102 06:23:57.184466 12242 net.cpp:395] group0_block2_conv1_scale -> group0_block2_conv1 (in-place)
I1102 06:23:57.184483 12242 layer_factory.hpp:77] Creating layer group0_block2_conv1_scale
I1102 06:23:57.184579 12242 net.cpp:150] Setting up group0_block2_conv1_scale
I1102 06:23:57.184653 12242 net.cpp:157] Top shape: 100 16 32 32 (1638400)
I1102 06:23:57.184662 12242 net.cpp:165] Memory required for data: 217498800
I1102 06:23:57.184705 12242 layer_factory.hpp:77] Creating layer group0_block2_sum
I1102 06:23:57.184728 12242 net.cpp:100] Creating Layer group0_block2_sum
I1102 06:23:57.184737 12242 net.cpp:434] group0_block2_sum <- group0_block2_conv1
I1102 06:23:57.184746 12242 net.cpp:434] group0_block2_sum <- group0_block1_sum_group0_block1_sum_0_split_1
I1102 06:23:57.184756 12242 net.cpp:408] group0_block2_sum -> group0_block2_sum
I1102 06:23:57.184801 12242 net.cpp:150] Setting up group0_block2_sum
I1102 06:23:57.184814 12242 net.cpp:157] Top shape: 100 16 32 32 (1638400)
I1102 06:23:57.184821 12242 net.cpp:165] Memory required for data: 224052400
I1102 06:23:57.184828 12242 layer_factory.hpp:77] Creating layer group0_block2_sum_group0_block2_sum_0_split
I1102 06:23:57.184839 12242 net.cpp:100] Creating Layer group0_block2_sum_group0_block2_sum_0_split
I1102 06:23:57.184873 12242 net.cpp:434] group0_block2_sum_group0_block2_sum_0_split <- group0_block2_sum
I1102 06:23:57.184908 12242 net.cpp:408] group0_block2_sum_group0_block2_sum_0_split -> group0_block2_sum_group0_block2_sum_0_split_0
I1102 06:23:57.184923 12242 net.cpp:408] group0_block2_sum_group0_block2_sum_0_split -> group0_block2_sum_group0_block2_sum_0_split_1
I1102 06:23:57.184942 12242 net.cpp:150] Setting up group0_block2_sum_group0_block2_sum_0_split
I1102 06:23:57.184952 12242 net.cpp:157] Top shape: 100 16 32 32 (1638400)
I1102 06:23:57.184996 12242 net.cpp:157] Top shape: 100 16 32 32 (1638400)
I1102 06:23:57.185003 12242 net.cpp:165] Memory required for data: 237159600
I1102 06:23:57.185010 12242 layer_factory.hpp:77] Creating layer group1_block0_conv0
I1102 06:23:57.185022 12242 net.cpp:100] Creating Layer group1_block0_conv0
I1102 06:23:57.185045 12242 net.cpp:434] group1_block0_conv0 <- group0_block2_sum_group0_block2_sum_0_split_0
I1102 06:23:57.185091 12242 net.cpp:408] group1_block0_conv0 -> group1_block0_conv0
I1102 06:23:57.185238 12242 net.cpp:150] Setting up group1_block0_conv0
I1102 06:23:57.185252 12242 net.cpp:157] Top shape: 100 32 16 16 (819200)
I1102 06:23:57.185259 12242 net.cpp:165] Memory required for data: 240436400
I1102 06:23:57.185271 12242 layer_factory.hpp:77] Creating layer group1_block0_conv0_bn
I1102 06:23:57.185282 12242 net.cpp:100] Creating Layer group1_block0_conv0_bn
I1102 06:23:57.185305 12242 net.cpp:434] group1_block0_conv0_bn <- group1_block0_conv0
I1102 06:23:57.185322 12242 net.cpp:395] group1_block0_conv0_bn -> group1_block0_conv0 (in-place)
I1102 06:23:57.185345 12242 net.cpp:150] Setting up group1_block0_conv0_bn
I1102 06:23:57.185355 12242 net.cpp:157] Top shape: 100 32 16 16 (819200)
I1102 06:23:57.185361 12242 net.cpp:165] Memory required for data: 243713200
I1102 06:23:57.185392 12242 layer_factory.hpp:77] Creating layer group1_block0_conv0_scale
I1102 06:23:57.185405 12242 net.cpp:100] Creating Layer group1_block0_conv0_scale
I1102 06:23:57.185413 12242 net.cpp:434] group1_block0_conv0_scale <- group1_block0_conv0
I1102 06:23:57.185423 12242 net.cpp:395] group1_block0_conv0_scale -> group1_block0_conv0 (in-place)
I1102 06:23:57.185439 12242 layer_factory.hpp:77] Creating layer group1_block0_conv0_scale
I1102 06:23:57.185466 12242 net.cpp:150] Setting up group1_block0_conv0_scale
I1102 06:23:57.185477 12242 net.cpp:157] Top shape: 100 32 16 16 (819200)
I1102 06:23:57.185482 12242 net.cpp:165] Memory required for data: 246990000
I1102 06:23:57.185493 12242 layer_factory.hpp:77] Creating layer group1_block0_conv0_relu
I1102 06:23:57.185504 12242 net.cpp:100] Creating Layer group1_block0_conv0_relu
I1102 06:23:57.185513 12242 net.cpp:434] group1_block0_conv0_relu <- group1_block0_conv0
I1102 06:23:57.185525 12242 net.cpp:395] group1_block0_conv0_relu -> group1_block0_conv0 (in-place)
I1102 06:23:57.185536 12242 net.cpp:150] Setting up group1_block0_conv0_relu
I1102 06:23:57.185546 12242 net.cpp:157] Top shape: 100 32 16 16 (819200)
I1102 06:23:57.185552 12242 net.cpp:165] Memory required for data: 250266800
I1102 06:23:57.185559 12242 layer_factory.hpp:77] Creating layer group1_block0_conv1
I1102 06:23:57.185575 12242 net.cpp:100] Creating Layer group1_block0_conv1
I1102 06:23:57.185583 12242 net.cpp:434] group1_block0_conv1 <- group1_block0_conv0
I1102 06:23:57.185595 12242 net.cpp:408] group1_block0_conv1 -> group1_block0_conv1
I1102 06:23:57.185768 12242 net.cpp:150] Setting up group1_block0_conv1
I1102 06:23:57.185786 12242 net.cpp:157] Top shape: 100 32 16 16 (819200)
I1102 06:23:57.185794 12242 net.cpp:165] Memory required for data: 253543600
I1102 06:23:57.185803 12242 layer_factory.hpp:77] Creating layer group1_block0_conv1_bn
I1102 06:23:57.185813 12242 net.cpp:100] Creating Layer group1_block0_conv1_bn
I1102 06:23:57.185820 12242 net.cpp:434] group1_block0_conv1_bn <- group1_block0_conv1
I1102 06:23:57.185837 12242 net.cpp:395] group1_block0_conv1_bn -> group1_block0_conv1 (in-place)
I1102 06:23:57.185864 12242 net.cpp:150] Setting up group1_block0_conv1_bn
I1102 06:23:57.185881 12242 net.cpp:157] Top shape: 100 32 16 16 (819200)
I1102 06:23:57.185889 12242 net.cpp:165] Memory required for data: 256820400
I1102 06:23:57.185902 12242 layer_factory.hpp:77] Creating layer group1_block0_conv1_scale
I1102 06:23:57.185915 12242 net.cpp:100] Creating Layer group1_block0_conv1_scale
I1102 06:23:57.185922 12242 net.cpp:434] group1_block0_conv1_scale <- group1_block0_conv1
I1102 06:23:57.185932 12242 net.cpp:395] group1_block0_conv1_scale -> group1_block0_conv1 (in-place)
I1102 06:23:57.185948 12242 layer_factory.hpp:77] Creating layer group1_block0_conv1_scale
I1102 06:23:57.185973 12242 net.cpp:150] Setting up group1_block0_conv1_scale
I1102 06:23:57.185983 12242 net.cpp:157] Top shape: 100 32 16 16 (819200)
I1102 06:23:57.185991 12242 net.cpp:165] Memory required for data: 260097200
I1102 06:23:57.186017 12242 layer_factory.hpp:77] Creating layer group1_block0_proj
I1102 06:23:57.186033 12242 net.cpp:100] Creating Layer group1_block0_proj
I1102 06:23:57.186041 12242 net.cpp:434] group1_block0_proj <- group0_block2_sum_group0_block2_sum_0_split_1
I1102 06:23:57.186056 12242 net.cpp:408] group1_block0_proj -> group1_block0_proj
I1102 06:23:57.186126 12242 net.cpp:150] Setting up group1_block0_proj
I1102 06:23:57.186136 12242 net.cpp:157] Top shape: 100 32 16 16 (819200)
I1102 06:23:57.186143 12242 net.cpp:165] Memory required for data: 263374000
I1102 06:23:57.186166 12242 layer_factory.hpp:77] Creating layer group1_block0_proj_bn
I1102 06:23:57.186179 12242 net.cpp:100] Creating Layer group1_block0_proj_bn
I1102 06:23:57.186187 12242 net.cpp:434] group1_block0_proj_bn <- group1_block0_proj
I1102 06:23:57.186197 12242 net.cpp:395] group1_block0_proj_bn -> group1_block0_proj (in-place)
I1102 06:23:57.186226 12242 net.cpp:150] Setting up group1_block0_proj_bn
I1102 06:23:57.186235 12242 net.cpp:157] Top shape: 100 32 16 16 (819200)
I1102 06:23:57.186241 12242 net.cpp:165] Memory required for data: 266650800
I1102 06:23:57.186254 12242 layer_factory.hpp:77] Creating layer group1_block0_proj_scale
I1102 06:23:57.186262 12242 net.cpp:100] Creating Layer group1_block0_proj_scale
I1102 06:23:57.186270 12242 net.cpp:434] group1_block0_proj_scale <- group1_block0_proj
I1102 06:23:57.186280 12242 net.cpp:395] group1_block0_proj_scale -> group1_block0_proj (in-place)
I1102 06:23:57.186295 12242 layer_factory.hpp:77] Creating layer group1_block0_proj_scale
I1102 06:23:57.186324 12242 net.cpp:150] Setting up group1_block0_proj_scale
I1102 06:23:57.186334 12242 net.cpp:157] Top shape: 100 32 16 16 (819200)
I1102 06:23:57.186347 12242 net.cpp:165] Memory required for data: 269927600
I1102 06:23:57.186357 12242 layer_factory.hpp:77] Creating layer group1_block0_sum
I1102 06:23:57.186372 12242 net.cpp:100] Creating Layer group1_block0_sum
I1102 06:23:57.186383 12242 net.cpp:434] group1_block0_sum <- group1_block0_proj
I1102 06:23:57.186390 12242 net.cpp:434] group1_block0_sum <- group1_block0_conv1
I1102 06:23:57.186400 12242 net.cpp:408] group1_block0_sum -> group1_block0_sum
I1102 06:23:57.186413 12242 net.cpp:150] Setting up group1_block0_sum
I1102 06:23:57.186422 12242 net.cpp:157] Top shape: 100 32 16 16 (819200)
I1102 06:23:57.186429 12242 net.cpp:165] Memory required for data: 273204400
I1102 06:23:57.186435 12242 layer_factory.hpp:77] Creating layer group1_block0_sum_group1_block0_sum_0_split
I1102 06:23:57.186449 12242 net.cpp:100] Creating Layer group1_block0_sum_group1_block0_sum_0_split
I1102 06:23:57.186456 12242 net.cpp:434] group1_block0_sum_group1_block0_sum_0_split <- group1_block0_sum
I1102 06:23:57.186466 12242 net.cpp:408] group1_block0_sum_group1_block0_sum_0_split -> group1_block0_sum_group1_block0_sum_0_split_0
I1102 06:23:57.186481 12242 net.cpp:408] group1_block0_sum_group1_block0_sum_0_split -> group1_block0_sum_group1_block0_sum_0_split_1
I1102 06:23:57.186494 12242 net.cpp:150] Setting up group1_block0_sum_group1_block0_sum_0_split
I1102 06:23:57.186504 12242 net.cpp:157] Top shape: 100 32 16 16 (819200)
I1102 06:23:57.186512 12242 net.cpp:157] Top shape: 100 32 16 16 (819200)
I1102 06:23:57.186519 12242 net.cpp:165] Memory required for data: 279758000
I1102 06:23:57.186525 12242 layer_factory.hpp:77] Creating layer group1_block1_conv0
I1102 06:23:57.186540 12242 net.cpp:100] Creating Layer group1_block1_conv0
I1102 06:23:57.186548 12242 net.cpp:434] group1_block1_conv0 <- group1_block0_sum_group1_block0_sum_0_split_0
I1102 06:23:57.186565 12242 net.cpp:408] group1_block1_conv0 -> group1_block1_conv0
I1102 06:23:57.186734 12242 net.cpp:150] Setting up group1_block1_conv0
I1102 06:23:57.186750 12242 net.cpp:157] Top shape: 100 32 16 16 (819200)
I1102 06:23:57.186758 12242 net.cpp:165] Memory required for data: 283034800
I1102 06:23:57.186767 12242 layer_factory.hpp:77] Creating layer group1_block1_conv0_bn
I1102 06:23:57.186780 12242 net.cpp:100] Creating Layer group1_block1_conv0_bn
I1102 06:23:57.186801 12242 net.cpp:434] group1_block1_conv0_bn <- group1_block1_conv0
I1102 06:23:57.186815 12242 net.cpp:395] group1_block1_conv0_bn -> group1_block1_conv0 (in-place)
I1102 06:23:57.186842 12242 net.cpp:150] Setting up group1_block1_conv0_bn
I1102 06:23:57.186861 12242 net.cpp:157] Top shape: 100 32 16 16 (819200)
I1102 06:23:57.186867 12242 net.cpp:165] Memory required for data: 286311600
I1102 06:23:57.186879 12242 layer_factory.hpp:77] Creating layer group1_block1_conv0_scale
I1102 06:23:57.186892 12242 net.cpp:100] Creating Layer group1_block1_conv0_scale
I1102 06:23:57.186899 12242 net.cpp:434] group1_block1_conv0_scale <- group1_block1_conv0
I1102 06:23:57.186909 12242 net.cpp:395] group1_block1_conv0_scale -> group1_block1_conv0 (in-place)
I1102 06:23:57.186928 12242 layer_factory.hpp:77] Creating layer group1_block1_conv0_scale
I1102 06:23:57.186951 12242 net.cpp:150] Setting up group1_block1_conv0_scale
I1102 06:23:57.186961 12242 net.cpp:157] Top shape: 100 32 16 16 (819200)
I1102 06:23:57.186967 12242 net.cpp:165] Memory required for data: 289588400
I1102 06:23:57.186977 12242 layer_factory.hpp:77] Creating layer group1_block1_conv0_relu
I1102 06:23:57.186991 12242 net.cpp:100] Creating Layer group1_block1_conv0_relu
I1102 06:23:57.186998 12242 net.cpp:434] group1_block1_conv0_relu <- group1_block1_conv0
I1102 06:23:57.187007 12242 net.cpp:395] group1_block1_conv0_relu -> group1_block1_conv0 (in-place)
I1102 06:23:57.187018 12242 net.cpp:150] Setting up group1_block1_conv0_relu
I1102 06:23:57.187027 12242 net.cpp:157] Top shape: 100 32 16 16 (819200)
I1102 06:23:57.187033 12242 net.cpp:165] Memory required for data: 292865200
I1102 06:23:57.187041 12242 layer_factory.hpp:77] Creating layer group1_block1_conv1
I1102 06:23:57.187055 12242 net.cpp:100] Creating Layer group1_block1_conv1
I1102 06:23:57.187064 12242 net.cpp:434] group1_block1_conv1 <- group1_block1_conv0
I1102 06:23:57.187078 12242 net.cpp:408] group1_block1_conv1 -> group1_block1_conv1
I1102 06:23:57.187247 12242 net.cpp:150] Setting up group1_block1_conv1
I1102 06:23:57.187261 12242 net.cpp:157] Top shape: 100 32 16 16 (819200)
I1102 06:23:57.187269 12242 net.cpp:165] Memory required for data: 296142000
I1102 06:23:57.187279 12242 layer_factory.hpp:77] Creating layer group1_block1_conv1_bn
I1102 06:23:57.187289 12242 net.cpp:100] Creating Layer group1_block1_conv1_bn
I1102 06:23:57.187297 12242 net.cpp:434] group1_block1_conv1_bn <- group1_block1_conv1
I1102 06:23:57.187309 12242 net.cpp:395] group1_block1_conv1_bn -> group1_block1_conv1 (in-place)
I1102 06:23:57.187335 12242 net.cpp:150] Setting up group1_block1_conv1_bn
I1102 06:23:57.187347 12242 net.cpp:157] Top shape: 100 32 16 16 (819200)
I1102 06:23:57.187355 12242 net.cpp:165] Memory required for data: 299418800
I1102 06:23:57.187366 12242 layer_factory.hpp:77] Creating layer group1_block1_conv1_scale
I1102 06:23:57.187376 12242 net.cpp:100] Creating Layer group1_block1_conv1_scale
I1102 06:23:57.187382 12242 net.cpp:434] group1_block1_conv1_scale <- group1_block1_conv1
I1102 06:23:57.187394 12242 net.cpp:395] group1_block1_conv1_scale -> group1_block1_conv1 (in-place)
I1102 06:23:57.187409 12242 layer_factory.hpp:77] Creating layer group1_block1_conv1_scale
I1102 06:23:57.187443 12242 net.cpp:150] Setting up group1_block1_conv1_scale
I1102 06:23:57.187456 12242 net.cpp:157] Top shape: 100 32 16 16 (819200)
I1102 06:23:57.187463 12242 net.cpp:165] Memory required for data: 302695600
I1102 06:23:57.187472 12242 layer_factory.hpp:77] Creating layer group1_block1_sum
I1102 06:23:57.187484 12242 net.cpp:100] Creating Layer group1_block1_sum
I1102 06:23:57.187491 12242 net.cpp:434] group1_block1_sum <- group1_block1_conv1
I1102 06:23:57.187500 12242 net.cpp:434] group1_block1_sum <- group1_block0_sum_group1_block0_sum_0_split_1
I1102 06:23:57.187515 12242 net.cpp:408] group1_block1_sum -> group1_block1_sum
I1102 06:23:57.187531 12242 net.cpp:150] Setting up group1_block1_sum
I1102 06:23:57.187541 12242 net.cpp:157] Top shape: 100 32 16 16 (819200)
I1102 06:23:57.187562 12242 net.cpp:165] Memory required for data: 305972400
I1102 06:23:57.187569 12242 layer_factory.hpp:77] Creating layer group1_block1_sum_group1_block1_sum_0_split
I1102 06:23:57.187580 12242 net.cpp:100] Creating Layer group1_block1_sum_group1_block1_sum_0_split
I1102 06:23:57.187592 12242 net.cpp:434] group1_block1_sum_group1_block1_sum_0_split <- group1_block1_sum
I1102 06:23:57.187608 12242 net.cpp:408] group1_block1_sum_group1_block1_sum_0_split -> group1_block1_sum_group1_block1_sum_0_split_0
I1102 06:23:57.187621 12242 net.cpp:408] group1_block1_sum_group1_block1_sum_0_split -> group1_block1_sum_group1_block1_sum_0_split_1
I1102 06:23:57.187645 12242 net.cpp:150] Setting up group1_block1_sum_group1_block1_sum_0_split
I1102 06:23:57.187656 12242 net.cpp:157] Top shape: 100 32 16 16 (819200)
I1102 06:23:57.187664 12242 net.cpp:157] Top shape: 100 32 16 16 (819200)
I1102 06:23:57.187671 12242 net.cpp:165] Memory required for data: 312526000
I1102 06:23:57.187677 12242 layer_factory.hpp:77] Creating layer group1_block2_conv0
I1102 06:23:57.187693 12242 net.cpp:100] Creating Layer group1_block2_conv0
I1102 06:23:57.187700 12242 net.cpp:434] group1_block2_conv0 <- group1_block1_sum_group1_block1_sum_0_split_0
I1102 06:23:57.187711 12242 net.cpp:408] group1_block2_conv0 -> group1_block2_conv0
I1102 06:23:57.187888 12242 net.cpp:150] Setting up group1_block2_conv0
I1102 06:23:57.188225 12242 net.cpp:157] Top shape: 100 32 16 16 (819200)
I1102 06:23:57.188235 12242 net.cpp:165] Memory required for data: 315802800
I1102 06:23:57.188274 12242 layer_factory.hpp:77] Creating layer group1_block2_conv0_bn
I1102 06:23:57.188289 12242 net.cpp:100] Creating Layer group1_block2_conv0_bn
I1102 06:23:57.188297 12242 net.cpp:434] group1_block2_conv0_bn <- group1_block2_conv0
I1102 06:23:57.188308 12242 net.cpp:395] group1_block2_conv0_bn -> group1_block2_conv0 (in-place)
I1102 06:23:57.188359 12242 net.cpp:150] Setting up group1_block2_conv0_bn
I1102 06:23:57.188383 12242 net.cpp:157] Top shape: 100 32 16 16 (819200)
I1102 06:23:57.188390 12242 net.cpp:165] Memory required for data: 319079600
I1102 06:23:57.188403 12242 layer_factory.hpp:77] Creating layer group1_block2_conv0_scale
I1102 06:23:57.188413 12242 net.cpp:100] Creating Layer group1_block2_conv0_scale
I1102 06:23:57.188421 12242 net.cpp:434] group1_block2_conv0_scale <- group1_block2_conv0
I1102 06:23:57.188432 12242 net.cpp:395] group1_block2_conv0_scale -> group1_block2_conv0 (in-place)
I1102 06:23:57.188480 12242 layer_factory.hpp:77] Creating layer group1_block2_conv0_scale
I1102 06:23:57.188508 12242 net.cpp:150] Setting up group1_block2_conv0_scale
I1102 06:23:57.188542 12242 net.cpp:157] Top shape: 100 32 16 16 (819200)
I1102 06:23:57.188549 12242 net.cpp:165] Memory required for data: 322356400
I1102 06:23:57.188560 12242 layer_factory.hpp:77] Creating layer group1_block2_conv0_relu
I1102 06:23:57.188573 12242 net.cpp:100] Creating Layer group1_block2_conv0_relu
I1102 06:23:57.188580 12242 net.cpp:434] group1_block2_conv0_relu <- group1_block2_conv0
I1102 06:23:57.188627 12242 net.cpp:395] group1_block2_conv0_relu -> group1_block2_conv0 (in-place)
I1102 06:23:57.188639 12242 net.cpp:150] Setting up group1_block2_conv0_relu
I1102 06:23:57.188649 12242 net.cpp:157] Top shape: 100 32 16 16 (819200)
I1102 06:23:57.188655 12242 net.cpp:165] Memory required for data: 325633200
I1102 06:23:57.188663 12242 layer_factory.hpp:77] Creating layer group1_block2_conv1
I1102 06:23:57.188673 12242 net.cpp:100] Creating Layer group1_block2_conv1
I1102 06:23:57.188709 12242 net.cpp:434] group1_block2_conv1 <- group1_block2_conv0
I1102 06:23:57.188730 12242 net.cpp:408] group1_block2_conv1 -> group1_block2_conv1
I1102 06:23:57.188935 12242 net.cpp:150] Setting up group1_block2_conv1
I1102 06:23:57.188948 12242 net.cpp:157] Top shape: 100 32 16 16 (819200)
I1102 06:23:57.188956 12242 net.cpp:165] Memory required for data: 328910000
I1102 06:23:57.188966 12242 layer_factory.hpp:77] Creating layer group1_block2_conv1_bn
I1102 06:23:57.189018 12242 net.cpp:100] Creating Layer group1_block2_conv1_bn
I1102 06:23:57.189038 12242 net.cpp:434] group1_block2_conv1_bn <- group1_block2_conv1
I1102 06:23:57.189081 12242 net.cpp:395] group1_block2_conv1_bn -> group1_block2_conv1 (in-place)
I1102 06:23:57.189107 12242 net.cpp:150] Setting up group1_block2_conv1_bn
I1102 06:23:57.189121 12242 net.cpp:157] Top shape: 100 32 16 16 (819200)
I1102 06:23:57.189126 12242 net.cpp:165] Memory required for data: 332186800
I1102 06:23:57.189138 12242 layer_factory.hpp:77] Creating layer group1_block2_conv1_scale
I1102 06:23:57.189175 12242 net.cpp:100] Creating Layer group1_block2_conv1_scale
I1102 06:23:57.189183 12242 net.cpp:434] group1_block2_conv1_scale <- group1_block2_conv1
I1102 06:23:57.189196 12242 net.cpp:395] group1_block2_conv1_scale -> group1_block2_conv1 (in-place)
I1102 06:23:57.189213 12242 layer_factory.hpp:77] Creating layer group1_block2_conv1_scale
I1102 06:23:57.189278 12242 net.cpp:150] Setting up group1_block2_conv1_scale
I1102 06:23:57.189334 12242 net.cpp:157] Top shape: 100 32 16 16 (819200)
I1102 06:23:57.189344 12242 net.cpp:165] Memory required for data: 335463600
I1102 06:23:57.189376 12242 layer_factory.hpp:77] Creating layer group1_block2_sum
I1102 06:23:57.189389 12242 net.cpp:100] Creating Layer group1_block2_sum
I1102 06:23:57.189398 12242 net.cpp:434] group1_block2_sum <- group1_block2_conv1
I1102 06:23:57.189405 12242 net.cpp:434] group1_block2_sum <- group1_block1_sum_group1_block1_sum_0_split_1
I1102 06:23:57.189419 12242 net.cpp:408] group1_block2_sum -> group1_block2_sum
I1102 06:23:57.189461 12242 net.cpp:150] Setting up group1_block2_sum
I1102 06:23:57.189484 12242 net.cpp:157] Top shape: 100 32 16 16 (819200)
I1102 06:23:57.189491 12242 net.cpp:165] Memory required for data: 338740400
I1102 06:23:57.189497 12242 layer_factory.hpp:77] Creating layer group1_block2_sum_group1_block2_sum_0_split
I1102 06:23:57.189532 12242 net.cpp:100] Creating Layer group1_block2_sum_group1_block2_sum_0_split
I1102 06:23:57.189543 12242 net.cpp:434] group1_block2_sum_group1_block2_sum_0_split <- group1_block2_sum
I1102 06:23:57.189577 12242 net.cpp:408] group1_block2_sum_group1_block2_sum_0_split -> group1_block2_sum_group1_block2_sum_0_split_0
I1102 06:23:57.189594 12242 net.cpp:408] group1_block2_sum_group1_block2_sum_0_split -> group1_block2_sum_group1_block2_sum_0_split_1
I1102 06:23:57.189611 12242 net.cpp:150] Setting up group1_block2_sum_group1_block2_sum_0_split
I1102 06:23:57.189620 12242 net.cpp:157] Top shape: 100 32 16 16 (819200)
I1102 06:23:57.189666 12242 net.cpp:157] Top shape: 100 32 16 16 (819200)
I1102 06:23:57.189672 12242 net.cpp:165] Memory required for data: 345294000
I1102 06:23:57.189679 12242 layer_factory.hpp:77] Creating layer group2_block0_conv0
I1102 06:23:57.189757 12242 net.cpp:100] Creating Layer group2_block0_conv0
I1102 06:23:57.189769 12242 net.cpp:434] group2_block0_conv0 <- group1_block2_sum_group1_block2_sum_0_split_0
I1102 06:23:57.189780 12242 net.cpp:408] group2_block0_conv0 -> group2_block0_conv0
I1102 06:23:57.190170 12242 net.cpp:150] Setting up group2_block0_conv0
I1102 06:23:57.190183 12242 net.cpp:157] Top shape: 100 64 8 8 (409600)
I1102 06:23:57.190196 12242 net.cpp:165] Memory required for data: 346932400
I1102 06:23:57.190207 12242 layer_factory.hpp:77] Creating layer group2_block0_conv0_bn
I1102 06:23:57.190223 12242 net.cpp:100] Creating Layer group2_block0_conv0_bn
I1102 06:23:57.190232 12242 net.cpp:434] group2_block0_conv0_bn <- group2_block0_conv0
I1102 06:23:57.190244 12242 net.cpp:395] group2_block0_conv0_bn -> group2_block0_conv0 (in-place)
I1102 06:23:57.190269 12242 net.cpp:150] Setting up group2_block0_conv0_bn
I1102 06:23:57.190282 12242 net.cpp:157] Top shape: 100 64 8 8 (409600)
I1102 06:23:57.190289 12242 net.cpp:165] Memory required for data: 348570800
I1102 06:23:57.190301 12242 layer_factory.hpp:77] Creating layer group2_block0_conv0_scale
I1102 06:23:57.190311 12242 net.cpp:100] Creating Layer group2_block0_conv0_scale
I1102 06:23:57.190320 12242 net.cpp:434] group2_block0_conv0_scale <- group2_block0_conv0
I1102 06:23:57.190351 12242 net.cpp:395] group2_block0_conv0_scale -> group2_block0_conv0 (in-place)
I1102 06:23:57.190367 12242 layer_factory.hpp:77] Creating layer group2_block0_conv0_scale
I1102 06:23:57.190392 12242 net.cpp:150] Setting up group2_block0_conv0_scale
I1102 06:23:57.190402 12242 net.cpp:157] Top shape: 100 64 8 8 (409600)
I1102 06:23:57.190408 12242 net.cpp:165] Memory required for data: 350209200
I1102 06:23:57.190418 12242 layer_factory.hpp:77] Creating layer group2_block0_conv0_relu
I1102 06:23:57.190430 12242 net.cpp:100] Creating Layer group2_block0_conv0_relu
I1102 06:23:57.190438 12242 net.cpp:434] group2_block0_conv0_relu <- group2_block0_conv0
I1102 06:23:57.190448 12242 net.cpp:395] group2_block0_conv0_relu -> group2_block0_conv0 (in-place)
I1102 06:23:57.190459 12242 net.cpp:150] Setting up group2_block0_conv0_relu
I1102 06:23:57.190469 12242 net.cpp:157] Top shape: 100 64 8 8 (409600)
I1102 06:23:57.190475 12242 net.cpp:165] Memory required for data: 351847600
I1102 06:23:57.190481 12242 layer_factory.hpp:77] Creating layer group2_block0_conv1
I1102 06:23:57.190497 12242 net.cpp:100] Creating Layer group2_block0_conv1
I1102 06:23:57.190510 12242 net.cpp:434] group2_block0_conv1 <- group2_block0_conv0
I1102 06:23:57.190524 12242 net.cpp:408] group2_block0_conv1 -> group2_block0_conv1
I1102 06:23:57.191164 12242 net.cpp:150] Setting up group2_block0_conv1
I1102 06:23:57.191179 12242 net.cpp:157] Top shape: 100 64 8 8 (409600)
I1102 06:23:57.191186 12242 net.cpp:165] Memory required for data: 353486000
I1102 06:23:57.191197 12242 layer_factory.hpp:77] Creating layer group2_block0_conv1_bn
I1102 06:23:57.191207 12242 net.cpp:100] Creating Layer group2_block0_conv1_bn
I1102 06:23:57.191215 12242 net.cpp:434] group2_block0_conv1_bn <- group2_block0_conv1
I1102 06:23:57.191228 12242 net.cpp:395] group2_block0_conv1_bn -> group2_block0_conv1 (in-place)
I1102 06:23:57.191251 12242 net.cpp:150] Setting up group2_block0_conv1_bn
I1102 06:23:57.191262 12242 net.cpp:157] Top shape: 100 64 8 8 (409600)
I1102 06:23:57.191267 12242 net.cpp:165] Memory required for data: 355124400
I1102 06:23:57.191280 12242 layer_factory.hpp:77] Creating layer group2_block0_conv1_scale
I1102 06:23:57.191290 12242 net.cpp:100] Creating Layer group2_block0_conv1_scale
I1102 06:23:57.191298 12242 net.cpp:434] group2_block0_conv1_scale <- group2_block0_conv1
I1102 06:23:57.191308 12242 net.cpp:395] group2_block0_conv1_scale -> group2_block0_conv1 (in-place)
I1102 06:23:57.191323 12242 layer_factory.hpp:77] Creating layer group2_block0_conv1_scale
I1102 06:23:57.191344 12242 net.cpp:150] Setting up group2_block0_conv1_scale
I1102 06:23:57.191354 12242 net.cpp:157] Top shape: 100 64 8 8 (409600)
I1102 06:23:57.191360 12242 net.cpp:165] Memory required for data: 356762800
I1102 06:23:57.191371 12242 layer_factory.hpp:77] Creating layer group2_block0_proj
I1102 06:23:57.191386 12242 net.cpp:100] Creating Layer group2_block0_proj
I1102 06:23:57.191395 12242 net.cpp:434] group2_block0_proj <- group1_block2_sum_group1_block2_sum_0_split_1
I1102 06:23:57.191408 12242 net.cpp:408] group2_block0_proj -> group2_block0_proj
I1102 06:23:57.191560 12242 net.cpp:150] Setting up group2_block0_proj
I1102 06:23:57.191571 12242 net.cpp:157] Top shape: 100 64 8 8 (409600)
I1102 06:23:57.191577 12242 net.cpp:165] Memory required for data: 358401200
I1102 06:23:57.191587 12242 layer_factory.hpp:77] Creating layer group2_block0_proj_bn
I1102 06:23:57.191608 12242 net.cpp:100] Creating Layer group2_block0_proj_bn
I1102 06:23:57.191617 12242 net.cpp:434] group2_block0_proj_bn <- group2_block0_proj
I1102 06:23:57.191625 12242 net.cpp:395] group2_block0_proj_bn -> group2_block0_proj (in-place)
I1102 06:23:57.191650 12242 net.cpp:150] Setting up group2_block0_proj_bn
I1102 06:23:57.191660 12242 net.cpp:157] Top shape: 100 64 8 8 (409600)
I1102 06:23:57.191668 12242 net.cpp:165] Memory required for data: 360039600
I1102 06:23:57.191679 12242 layer_factory.hpp:77] Creating layer group2_block0_proj_scale
I1102 06:23:57.191692 12242 net.cpp:100] Creating Layer group2_block0_proj_scale
I1102 06:23:57.191715 12242 net.cpp:434] group2_block0_proj_scale <- group2_block0_proj
I1102 06:23:57.191727 12242 net.cpp:395] group2_block0_proj_scale -> group2_block0_proj (in-place)
I1102 06:23:57.191745 12242 layer_factory.hpp:77] Creating layer group2_block0_proj_scale
I1102 06:23:57.191771 12242 net.cpp:150] Setting up group2_block0_proj_scale
I1102 06:23:57.191779 12242 net.cpp:157] Top shape: 100 64 8 8 (409600)
I1102 06:23:57.191787 12242 net.cpp:165] Memory required for data: 361678000
I1102 06:23:57.191797 12242 layer_factory.hpp:77] Creating layer group2_block0_sum
I1102 06:23:57.191807 12242 net.cpp:100] Creating Layer group2_block0_sum
I1102 06:23:57.191813 12242 net.cpp:434] group2_block0_sum <- group2_block0_proj
I1102 06:23:57.191822 12242 net.cpp:434] group2_block0_sum <- group2_block0_conv1
I1102 06:23:57.191834 12242 net.cpp:408] group2_block0_sum -> group2_block0_sum
I1102 06:23:57.191846 12242 net.cpp:150] Setting up group2_block0_sum
I1102 06:23:57.191855 12242 net.cpp:157] Top shape: 100 64 8 8 (409600)
I1102 06:23:57.191862 12242 net.cpp:165] Memory required for data: 363316400
I1102 06:23:57.191869 12242 layer_factory.hpp:77] Creating layer group2_block0_sum_group2_block0_sum_0_split
I1102 06:23:57.191879 12242 net.cpp:100] Creating Layer group2_block0_sum_group2_block0_sum_0_split
I1102 06:23:57.191886 12242 net.cpp:434] group2_block0_sum_group2_block0_sum_0_split <- group2_block0_sum
I1102 06:23:57.191903 12242 net.cpp:408] group2_block0_sum_group2_block0_sum_0_split -> group2_block0_sum_group2_block0_sum_0_split_0
I1102 06:23:57.191915 12242 net.cpp:408] group2_block0_sum_group2_block0_sum_0_split -> group2_block0_sum_group2_block0_sum_0_split_1
I1102 06:23:57.191931 12242 net.cpp:150] Setting up group2_block0_sum_group2_block0_sum_0_split
I1102 06:23:57.191941 12242 net.cpp:157] Top shape: 100 64 8 8 (409600)
I1102 06:23:57.191949 12242 net.cpp:157] Top shape: 100 64 8 8 (409600)
I1102 06:23:57.191956 12242 net.cpp:165] Memory required for data: 366593200
I1102 06:23:57.191962 12242 layer_factory.hpp:77] Creating layer group2_block1_conv0
I1102 06:23:57.191974 12242 net.cpp:100] Creating Layer group2_block1_conv0
I1102 06:23:57.191982 12242 net.cpp:434] group2_block1_conv0 <- group2_block0_sum_group2_block0_sum_0_split_0
I1102 06:23:57.191997 12242 net.cpp:408] group2_block1_conv0 -> group2_block1_conv0
I1102 06:23:57.192620 12242 net.cpp:150] Setting up group2_block1_conv0
I1102 06:23:57.192636 12242 net.cpp:157] Top shape: 100 64 8 8 (409600)
I1102 06:23:57.192642 12242 net.cpp:165] Memory required for data: 368231600
I1102 06:23:57.192652 12242 layer_factory.hpp:77] Creating layer group2_block1_conv0_bn
I1102 06:23:57.192662 12242 net.cpp:100] Creating Layer group2_block1_conv0_bn
I1102 06:23:57.192669 12242 net.cpp:434] group2_block1_conv0_bn <- group2_block1_conv0
I1102 06:23:57.192678 12242 net.cpp:395] group2_block1_conv0_bn -> group2_block1_conv0 (in-place)
I1102 06:23:57.192699 12242 net.cpp:150] Setting up group2_block1_conv0_bn
I1102 06:23:57.192708 12242 net.cpp:157] Top shape: 100 64 8 8 (409600)
I1102 06:23:57.192714 12242 net.cpp:165] Memory required for data: 369870000
I1102 06:23:57.192725 12242 layer_factory.hpp:77] Creating layer group2_block1_conv0_scale
I1102 06:23:57.192737 12242 net.cpp:100] Creating Layer group2_block1_conv0_scale
I1102 06:23:57.192744 12242 net.cpp:434] group2_block1_conv0_scale <- group2_block1_conv0
I1102 06:23:57.192754 12242 net.cpp:395] group2_block1_conv0_scale -> group2_block1_conv0 (in-place)
I1102 06:23:57.192767 12242 layer_factory.hpp:77] Creating layer group2_block1_conv0_scale
I1102 06:23:57.192787 12242 net.cpp:150] Setting up group2_block1_conv0_scale
I1102 06:23:57.192796 12242 net.cpp:157] Top shape: 100 64 8 8 (409600)
I1102 06:23:57.192802 12242 net.cpp:165] Memory required for data: 371508400
I1102 06:23:57.192812 12242 layer_factory.hpp:77] Creating layer group2_block1_conv0_relu
I1102 06:23:57.192821 12242 net.cpp:100] Creating Layer group2_block1_conv0_relu
I1102 06:23:57.192827 12242 net.cpp:434] group2_block1_conv0_relu <- group2_block1_conv0
I1102 06:23:57.192852 12242 net.cpp:395] group2_block1_conv0_relu -> group2_block1_conv0 (in-place)
I1102 06:23:57.192863 12242 net.cpp:150] Setting up group2_block1_conv0_relu
I1102 06:23:57.192872 12242 net.cpp:157] Top shape: 100 64 8 8 (409600)
I1102 06:23:57.192878 12242 net.cpp:165] Memory required for data: 373146800
I1102 06:23:57.192883 12242 layer_factory.hpp:77] Creating layer group2_block1_conv1
I1102 06:23:57.192895 12242 net.cpp:100] Creating Layer group2_block1_conv1
I1102 06:23:57.192903 12242 net.cpp:434] group2_block1_conv1 <- group2_block1_conv0
I1102 06:23:57.192911 12242 net.cpp:408] group2_block1_conv1 -> group2_block1_conv1
I1102 06:23:57.193610 12242 net.cpp:150] Setting up group2_block1_conv1
I1102 06:23:57.193627 12242 net.cpp:157] Top shape: 100 64 8 8 (409600)
I1102 06:23:57.193634 12242 net.cpp:165] Memory required for data: 374785200
I1102 06:23:57.193645 12242 layer_factory.hpp:77] Creating layer group2_block1_conv1_bn
I1102 06:23:57.193657 12242 net.cpp:100] Creating Layer group2_block1_conv1_bn
I1102 06:23:57.193665 12242 net.cpp:434] group2_block1_conv1_bn <- group2_block1_conv1
I1102 06:23:57.193675 12242 net.cpp:395] group2_block1_conv1_bn -> group2_block1_conv1 (in-place)
I1102 06:23:57.193696 12242 net.cpp:150] Setting up group2_block1_conv1_bn
I1102 06:23:57.193706 12242 net.cpp:157] Top shape: 100 64 8 8 (409600)
I1102 06:23:57.193711 12242 net.cpp:165] Memory required for data: 376423600
I1102 06:23:57.193744 12242 layer_factory.hpp:77] Creating layer group2_block1_conv1_scale
I1102 06:23:57.193755 12242 net.cpp:100] Creating Layer group2_block1_conv1_scale
I1102 06:23:57.193763 12242 net.cpp:434] group2_block1_conv1_scale <- group2_block1_conv1
I1102 06:23:57.193773 12242 net.cpp:395] group2_block1_conv1_scale -> group2_block1_conv1 (in-place)
I1102 06:23:57.193789 12242 layer_factory.hpp:77] Creating layer group2_block1_conv1_scale
I1102 06:23:57.193811 12242 net.cpp:150] Setting up group2_block1_conv1_scale
I1102 06:23:57.193835 12242 net.cpp:157] Top shape: 100 64 8 8 (409600)
I1102 06:23:57.193842 12242 net.cpp:165] Memory required for data: 378062000
I1102 06:23:57.193852 12242 layer_factory.hpp:77] Creating layer group2_block1_sum
I1102 06:23:57.193862 12242 net.cpp:100] Creating Layer group2_block1_sum
I1102 06:23:57.193869 12242 net.cpp:434] group2_block1_sum <- group2_block1_conv1
I1102 06:23:57.193877 12242 net.cpp:434] group2_block1_sum <- group2_block0_sum_group2_block0_sum_0_split_1
I1102 06:23:57.193891 12242 net.cpp:408] group2_block1_sum -> group2_block1_sum
I1102 06:23:57.193903 12242 net.cpp:150] Setting up group2_block1_sum
I1102 06:23:57.193912 12242 net.cpp:157] Top shape: 100 64 8 8 (409600)
I1102 06:23:57.193918 12242 net.cpp:165] Memory required for data: 379700400
I1102 06:23:57.193925 12242 layer_factory.hpp:77] Creating layer group2_block1_sum_group2_block1_sum_0_split
I1102 06:23:57.193934 12242 net.cpp:100] Creating Layer group2_block1_sum_group2_block1_sum_0_split
I1102 06:23:57.193940 12242 net.cpp:434] group2_block1_sum_group2_block1_sum_0_split <- group2_block1_sum
I1102 06:23:57.193950 12242 net.cpp:408] group2_block1_sum_group2_block1_sum_0_split -> group2_block1_sum_group2_block1_sum_0_split_0
I1102 06:23:57.193963 12242 net.cpp:408] group2_block1_sum_group2_block1_sum_0_split -> group2_block1_sum_group2_block1_sum_0_split_1
I1102 06:23:57.193977 12242 net.cpp:150] Setting up group2_block1_sum_group2_block1_sum_0_split
I1102 06:23:57.193986 12242 net.cpp:157] Top shape: 100 64 8 8 (409600)
I1102 06:23:57.193994 12242 net.cpp:157] Top shape: 100 64 8 8 (409600)
I1102 06:23:57.194000 12242 net.cpp:165] Memory required for data: 382977200
I1102 06:23:57.194006 12242 layer_factory.hpp:77] Creating layer group2_block2_conv0
I1102 06:23:57.194020 12242 net.cpp:100] Creating Layer group2_block2_conv0
I1102 06:23:57.194026 12242 net.cpp:434] group2_block2_conv0 <- group2_block1_sum_group2_block1_sum_0_split_0
I1102 06:23:57.194036 12242 net.cpp:408] group2_block2_conv0 -> group2_block2_conv0
I1102 06:23:57.194663 12242 net.cpp:150] Setting up group2_block2_conv0
I1102 06:23:57.194690 12242 net.cpp:157] Top shape: 100 64 8 8 (409600)
I1102 06:23:57.194697 12242 net.cpp:165] Memory required for data: 384615600
I1102 06:23:57.194707 12242 layer_factory.hpp:77] Creating layer group2_block2_conv0_bn
I1102 06:23:57.194720 12242 net.cpp:100] Creating Layer group2_block2_conv0_bn
I1102 06:23:57.194730 12242 net.cpp:434] group2_block2_conv0_bn <- group2_block2_conv0
I1102 06:23:57.194741 12242 net.cpp:395] group2_block2_conv0_bn -> group2_block2_conv0 (in-place)
I1102 06:23:57.194766 12242 net.cpp:150] Setting up group2_block2_conv0_bn
I1102 06:23:57.194785 12242 net.cpp:157] Top shape: 100 64 8 8 (409600)
I1102 06:23:57.194794 12242 net.cpp:165] Memory required for data: 386254000
I1102 06:23:57.194806 12242 layer_factory.hpp:77] Creating layer group2_block2_conv0_scale
I1102 06:23:57.194815 12242 net.cpp:100] Creating Layer group2_block2_conv0_scale
I1102 06:23:57.194823 12242 net.cpp:434] group2_block2_conv0_scale <- group2_block2_conv0
I1102 06:23:57.194834 12242 net.cpp:395] group2_block2_conv0_scale -> group2_block2_conv0 (in-place)
I1102 06:23:57.194849 12242 layer_factory.hpp:77] Creating layer group2_block2_conv0_scale
I1102 06:23:57.194870 12242 net.cpp:150] Setting up group2_block2_conv0_scale
I1102 06:23:57.194880 12242 net.cpp:157] Top shape: 100 64 8 8 (409600)
I1102 06:23:57.194885 12242 net.cpp:165] Memory required for data: 387892400
I1102 06:23:57.194895 12242 layer_factory.hpp:77] Creating layer group2_block2_conv0_relu
I1102 06:23:57.194905 12242 net.cpp:100] Creating Layer group2_block2_conv0_relu
I1102 06:23:57.194911 12242 net.cpp:434] group2_block2_conv0_relu <- group2_block2_conv0
I1102 06:23:57.194919 12242 net.cpp:395] group2_block2_conv0_relu -> group2_block2_conv0 (in-place)
I1102 06:23:57.194929 12242 net.cpp:150] Setting up group2_block2_conv0_relu
I1102 06:23:57.194938 12242 net.cpp:157] Top shape: 100 64 8 8 (409600)
I1102 06:23:57.194944 12242 net.cpp:165] Memory required for data: 389530800
I1102 06:23:57.194950 12242 layer_factory.hpp:77] Creating layer group2_block2_conv1
I1102 06:23:57.194964 12242 net.cpp:100] Creating Layer group2_block2_conv1
I1102 06:23:57.194972 12242 net.cpp:434] group2_block2_conv1 <- group2_block2_conv0
I1102 06:23:57.194983 12242 net.cpp:408] group2_block2_conv1 -> group2_block2_conv1
I1102 06:23:57.195605 12242 net.cpp:150] Setting up group2_block2_conv1
I1102 06:23:57.195617 12242 net.cpp:157] Top shape: 100 64 8 8 (409600)
I1102 06:23:57.195624 12242 net.cpp:165] Memory required for data: 391169200
I1102 06:23:57.195634 12242 layer_factory.hpp:77] Creating layer group2_block2_conv1_bn
I1102 06:23:57.195643 12242 net.cpp:100] Creating Layer group2_block2_conv1_bn
I1102 06:23:57.195650 12242 net.cpp:434] group2_block2_conv1_bn <- group2_block2_conv1
I1102 06:23:57.195659 12242 net.cpp:395] group2_block2_conv1_bn -> group2_block2_conv1 (in-place)
I1102 06:23:57.195680 12242 net.cpp:150] Setting up group2_block2_conv1_bn
I1102 06:23:57.195695 12242 net.cpp:157] Top shape: 100 64 8 8 (409600)
I1102 06:23:57.195703 12242 net.cpp:165] Memory required for data: 392807600
I1102 06:23:57.195713 12242 layer_factory.hpp:77] Creating layer group2_block2_conv1_scale
I1102 06:23:57.195724 12242 net.cpp:100] Creating Layer group2_block2_conv1_scale
I1102 06:23:57.195730 12242 net.cpp:434] group2_block2_conv1_scale <- group2_block2_conv1
I1102 06:23:57.195739 12242 net.cpp:395] group2_block2_conv1_scale -> group2_block2_conv1 (in-place)
I1102 06:23:57.195754 12242 layer_factory.hpp:77] Creating layer group2_block2_conv1_scale
I1102 06:23:57.195775 12242 net.cpp:150] Setting up group2_block2_conv1_scale
I1102 06:23:57.195783 12242 net.cpp:157] Top shape: 100 64 8 8 (409600)
I1102 06:23:57.195789 12242 net.cpp:165] Memory required for data: 394446000
I1102 06:23:57.195799 12242 layer_factory.hpp:77] Creating layer group2_block2_sum
I1102 06:23:57.195811 12242 net.cpp:100] Creating Layer group2_block2_sum
I1102 06:23:57.195818 12242 net.cpp:434] group2_block2_sum <- group2_block2_conv1
I1102 06:23:57.195840 12242 net.cpp:434] group2_block2_sum <- group2_block1_sum_group2_block1_sum_0_split_1
I1102 06:23:57.195852 12242 net.cpp:408] group2_block2_sum -> group2_block2_sum
I1102 06:23:57.195863 12242 net.cpp:150] Setting up group2_block2_sum
I1102 06:23:57.195873 12242 net.cpp:157] Top shape: 100 64 8 8 (409600)
I1102 06:23:57.195879 12242 net.cpp:165] Memory required for data: 396084400
I1102 06:23:57.195885 12242 layer_factory.hpp:77] Creating layer global_avg_pool
I1102 06:23:57.195895 12242 net.cpp:100] Creating Layer global_avg_pool
I1102 06:23:57.195902 12242 net.cpp:434] global_avg_pool <- group2_block2_sum
I1102 06:23:57.195912 12242 net.cpp:408] global_avg_pool -> global_avg_pool
I1102 06:23:57.195943 12242 net.cpp:150] Setting up global_avg_pool
I1102 06:23:57.195956 12242 net.cpp:157] Top shape: 100 64 1 1 (6400)
I1102 06:23:57.195962 12242 net.cpp:165] Memory required for data: 396110000
I1102 06:23:57.195969 12242 layer_factory.hpp:77] Creating layer fc
I1102 06:23:57.195986 12242 net.cpp:100] Creating Layer fc
I1102 06:23:57.195997 12242 net.cpp:434] fc <- global_avg_pool
I1102 06:23:57.196009 12242 net.cpp:408] fc -> fc
I1102 06:23:57.196045 12242 net.cpp:150] Setting up fc
I1102 06:23:57.196054 12242 net.cpp:157] Top shape: 100 10 (1000)
I1102 06:23:57.196060 12242 net.cpp:165] Memory required for data: 396114000
I1102 06:23:57.196069 12242 layer_factory.hpp:77] Creating layer fc_fc_0_split
I1102 06:23:57.196079 12242 net.cpp:100] Creating Layer fc_fc_0_split
I1102 06:23:57.196085 12242 net.cpp:434] fc_fc_0_split <- fc
I1102 06:23:57.196094 12242 net.cpp:408] fc_fc_0_split -> fc_fc_0_split_0
I1102 06:23:57.196105 12242 net.cpp:408] fc_fc_0_split -> fc_fc_0_split_1
I1102 06:23:57.196118 12242 net.cpp:150] Setting up fc_fc_0_split
I1102 06:23:57.196127 12242 net.cpp:157] Top shape: 100 10 (1000)
I1102 06:23:57.196135 12242 net.cpp:157] Top shape: 100 10 (1000)
I1102 06:23:57.196141 12242 net.cpp:165] Memory required for data: 396122000
I1102 06:23:57.196146 12242 layer_factory.hpp:77] Creating layer loss
I1102 06:23:57.196156 12242 net.cpp:100] Creating Layer loss
I1102 06:23:57.196163 12242 net.cpp:434] loss <- fc_fc_0_split_0
I1102 06:23:57.196171 12242 net.cpp:434] loss <- label_data_1_split_0
I1102 06:23:57.196180 12242 net.cpp:408] loss -> loss
I1102 06:23:57.196194 12242 layer_factory.hpp:77] Creating layer loss
I1102 06:23:57.196223 12242 net.cpp:150] Setting up loss
I1102 06:23:57.196233 12242 net.cpp:157] Top shape: (1)
I1102 06:23:57.196238 12242 net.cpp:160]     with loss weight 1
I1102 06:23:57.196300 12242 net.cpp:165] Memory required for data: 396122004
I1102 06:23:57.196323 12242 layer_factory.hpp:77] Creating layer softmax
I1102 06:23:57.196336 12242 net.cpp:100] Creating Layer softmax
I1102 06:23:57.196342 12242 net.cpp:434] softmax <- fc_fc_0_split_1
I1102 06:23:57.196352 12242 net.cpp:408] softmax -> softmax
I1102 06:23:57.196364 12242 net.cpp:150] Setting up softmax
I1102 06:23:57.196373 12242 net.cpp:157] Top shape: 100 10 (1000)
I1102 06:23:57.196380 12242 net.cpp:165] Memory required for data: 396126004
I1102 06:23:57.196386 12242 layer_factory.hpp:77] Creating layer Accuracy
I1102 06:23:57.196395 12242 net.cpp:100] Creating Layer Accuracy
I1102 06:23:57.196403 12242 net.cpp:434] Accuracy <- softmax
I1102 06:23:57.196410 12242 net.cpp:434] Accuracy <- label_data_1_split_1
I1102 06:23:57.196424 12242 net.cpp:408] Accuracy -> Accuracy
…
