…
I1105 05:49:59.929040 13040 net.cpp:322] The NetState phase (0) differed from the phase (1) specified by a rule in layer data
I1105 05:49:59.929867 13040 net.cpp:58] Initializing net from parameters: 
name: "resnet20-cifar10"
state {
  phase: TRAIN
  level: 0
  stage: ""
}
layer {
  name: "data"
  type: "Data"
  top: "data"
  top: "label"
  include {
    phase: TRAIN
  }
  transform_param {
    mirror: true
    crop_size: 32
    mean_file: "data/mean.binaryproto"
  }
  data_param {
    source: "data2/test_lmdb"
    batch_size: 100
    backend: LMDB
  }
}
layer {
  name: "first_conv"
  type: "Convolution"
  bottom: "data"
  top: "first_conv"
  param {
    lr_mult: 1
    decay_mult: 1
  }
  convolution_param {
    num_output: 16
    pad: 1
    kernel_size: 3
    stride: 1
    weight_filler {
      type: "msra"
    }
  }
}
layer {
  name: "first_conv_bn"
  type: "BatchNorm"
  bottom: "first_conv"
  top: "first_conv"
  batch_norm_param {
    use_global_stats: false
    moving_average_fraction: 0.95
  }
}
layer {
  name: "first_conv_scale"
  type: "Scale"
  bottom: "first_conv"
  top: "first_conv"
  scale_param {
    bias_term: true
  }
}
layer {
  name: "first_conv_relu"
  type: "ReLU"
  bottom: "first_conv"
  top: "first_conv"
}
layer {
  name: "group0_block0_conv0"
  type: "Convolution"
  bottom: "first_conv"
  top: "group0_block0_conv0"
  param {
    lr_mult: 1
    decay_mult: 1
  }
  convolution_param {
    num_output: 16
    pad: 1
    kernel_size: 3
    stride: 1
    weight_filler {
      type: "msra"
    }
  }
}
layer {
  name: "group0_block0_conv0_bn"
  type: "BatchNorm"
  bottom: "group0_block0_conv0"
  top: "group0_block0_conv0"
  batch_norm_param {
    use_global_stats: false
    moving_average_fraction: 0.95
  }
}
layer {
  name: "group0_block0_conv0_scale"
  type: "Scale"
  bottom: "group0_block0_conv0"
  top: "group0_block0_conv0"
  scale_param {
    bias_term: true
  }
}
layer {
  name: "group0_block0_conv0_relu"
  type: "ReLU"
  bottom: "group0_block0_conv0"
  top: "group0_block0_conv0"
}
layer {
  name: "group0_block0_conv1"
  type: "Convolution"
  bottom: "group0_block0_conv0"
  top: "group0_block0_conv1"
  param {
    lr_mult: 1
    decay_mult: 1
  }
  convolution_param {
    num_output: 16
    pad: 1
    kernel_size: 3
    stride: 1
    weight_filler {
      type: "msra"
    }
  }
}
layer {
  name: "group0_block0_conv1_bn"
  type: "BatchNorm"
  bottom: "group0_block0_conv1"
  top: "group0_block0_conv1"
  batch_norm_param {
    use_global_stats: false
    moving_average_fraction: 0.95
  }
}
layer {
  name: "group0_block0_conv1_scale"
  type: "Scale"
  bottom: "group0_block0_conv1"
  top: "group0_block0_conv1"
  scale_param {
    bias_term: true
  }
}
layer {
  name: "group0_block0_sum"
  type: "Eltwise"
  bottom: "group0_block0_conv1"
  bottom: "first_conv"
  top: "group0_block0_sum"
  eltwise_param {
    operation: SUM
  }
}
layer {
  name: "group0_block1_conv0"
  type: "Convolution"
  bottom: "group0_block0_sum"
  top: "group0_block1_conv0"
  param {
    lr_mult: 1
    decay_mult: 1
  }
  convolution_param {
    num_output: 16
    pad: 1
    kernel_size: 3
    stride: 1
    weight_filler {
      type: "msra"
    }
  }
}
layer {
  name: "group0_block1_conv0_bn"
  type: "BatchNorm"
  bottom: "group0_block1_conv0"
  top: "group0_block1_conv0"
  batch_norm_param {
    use_global_stats: false
    moving_average_fraction: 0.95
  }
}
layer {
  name: "group0_block1_conv0_scale"
  type: "Scale"
  bottom: "group0_block1_conv0"
  top: "group0_block1_conv0"
  scale_param {
    bias_term: true
  }
}
layer {
  name: "group0_block1_conv0_relu"
  type: "ReLU"
  bottom: "group0_block1_conv0"
  top: "group0_block1_conv0"
}
layer {
  name: "group0_block1_conv1"
  type: "Convolution"
  bottom: "group0_block1_conv0"
  top: "group0_block1_conv1"
  param {
    lr_mult: 1
    decay_mult: 1
  }
  convolution_param {
    num_output: 16
    pad: 1
    kernel_size: 3
    stride: 1
    weight_filler {
      type: "msra"
    }
  }
}
layer {
  name: "group0_block1_conv1_bn"
  type: "BatchNorm"
  bottom: "group0_block1_conv1"
  top: "group0_block1_conv1"
  batch_norm_param {
    use_global_stats: false
    moving_average_fraction: 0.95
  }
}
layer {
  name: "group0_block1_conv1_scale"
  type: "Scale"
  bottom: "group0_block1_conv1"
  top: "group0_block1_conv1"
  scale_param {
    bias_term: true
  }
}
layer {
  name: "group0_block1_sum"
  type: "Eltwise"
  bottom: "group0_block1_conv1"
  bottom: "group0_block0_sum"
  top: "group0_block1_sum"
  eltwise_param {
    operation: SUM
  }
}
layer {
  name: "group0_block2_conv0"
  type: "Convolution"
  bottom: "group0_block1_sum"
  top: "group0_block2_conv0"
  param {
    lr_mult: 1
    decay_mult: 1
  }
  convolution_param {
    num_output: 16
    pad: 1
    kernel_size: 3
    stride: 1
    weight_filler {
      type: "msra"
    }
  }
}
layer {
  name: "group0_block2_conv0_bn"
  type: "BatchNorm"
  bottom: "group0_block2_conv0"
  top: "group0_block2_conv0"
  batch_norm_param {
    use_global_stats: false
    moving_average_fraction: 0.95
  }
}
layer {
  name: "group0_block2_conv0_scale"
  type: "Scale"
  bottom: "group0_block2_conv0"
  top: "group0_block2_conv0"
  scale_param {
    bias_term: true
  }
}
layer {
  name: "group0_block2_conv0_relu"
  type: "ReLU"
  bottom: "group0_block2_conv0"
  top: "group0_block2_conv0"
}
layer {
  name: "group0_block2_conv1"
  type: "Convolution"
  bottom: "group0_block2_conv0"
  top: "group0_block2_conv1"
  param {
    lr_mult: 1
    decay_mult: 1
  }
  convolution_param {
    num_output: 16
    pad: 1
    kernel_size: 3
    stride: 1
    weight_filler {
      type: "msra"
    }
  }
}
layer {
  name: "group0_block2_conv1_bn"
  type: "BatchNorm"
  bottom: "group0_block2_conv1"
  top: "group0_block2_conv1"
  batch_norm_param {
    use_global_stats: false
    moving_average_fraction: 0.95
  }
}
layer {
  name: "group0_block2_conv1_scale"
  type: "Scale"
  bottom: "group0_block2_conv1"
  top: "group0_block2_conv1"
  scale_param {
    bias_term: true
  }
}
layer {
  name: "group0_block2_sum"
  type: "Eltwise"
  bottom: "group0_block2_conv1"
  bottom: "group0_block1_sum"
  top: "group0_block2_sum"
  eltwise_param {
    operation: SUM
  }
}
layer {
  name: "group1_block0_conv0"
  type: "Convolution"
  bottom: "group0_block2_sum"
  top: "group1_block0_conv0"
  param {
    lr_mult: 1
    decay_mult: 1
  }
  convolution_param {
    num_output: 32
    pad: 1
    kernel_size: 3
    stride: 2
    weight_filler {
      type: "msra"
    }
  }
}
layer {
  name: "group1_block0_conv0_bn"
  type: "BatchNorm"
  bottom: "group1_block0_conv0"
  top: "group1_block0_conv0"
  batch_norm_param {
    use_global_stats: false
    moving_average_fraction: 0.95
  }
}
layer {
  name: "group1_block0_conv0_scale"
  type: "Scale"
  bottom: "group1_block0_conv0"
  top: "group1_block0_conv0"
  scale_param {
    bias_term: true
  }
}
layer {
  name: "group1_block0_conv0_relu"
  type: "ReLU"
  bottom: "group1_block0_conv0"
  top: "group1_block0_conv0"
}
layer {
  name: "group1_block0_conv1"
  type: "Convolution"
  bottom: "group1_block0_conv0"
  top: "group1_block0_conv1"
  param {
    lr_mult: 1
    decay_mult: 1
  }
  convolution_param {
    num_output: 32
    pad: 1
    kernel_size: 3
    stride: 1
    weight_filler {
      type: "msra"
    }
  }
}
layer {
  name: "group1_block0_conv1_bn"
  type: "BatchNorm"
  bottom: "group1_block0_conv1"
  top: "group1_block0_conv1"
  batch_norm_param {
    use_global_stats: false
    moving_average_fraction: 0.95
  }
}
layer {
  name: "group1_block0_conv1_scale"
  type: "Scale"
  bottom: "group1_block0_conv1"
  top: "group1_block0_conv1"
  scale_param {
    bias_term: true
  }
}
layer {
  name: "group1_block0_proj"
  type: "Convolution"
  bottom: "group0_block2_sum"
  top: "group1_block0_proj"
  param {
    lr_mult: 1
    decay_mult: 1
  }
  convolution_param {
    num_output: 32
    pad: 0
    kernel_size: 2
    stride: 2
    weight_filler {
      type: "msra"
    }
  }
}
layer {
  name: "group1_block0_proj_bn"
  type: "BatchNorm"
  bottom: "group1_block0_proj"
  top: "group1_block0_proj"
  batch_norm_param {
    use_global_stats: false
    moving_average_fraction: 0.95
  }
}
layer {
  name: "group1_block0_proj_scale"
  type: "Scale"
  bottom: "group1_block0_proj"
  top: "group1_block0_proj"
  scale_param {
    bias_term: true
  }
}
layer {
  name: "group1_block0_sum"
  type: "Eltwise"
  bottom: "group1_block0_proj"
  bottom: "group1_block0_conv1"
  top: "group1_block0_sum"
  eltwise_param {
    operation: SUM
  }
}
layer {
  name: "group1_block1_conv0"
  type: "Convolution"
  bottom: "group1_block0_sum"
  top: "group1_block1_conv0"
  param {
    lr_mult: 1
    decay_mult: 1
  }
  convolution_param {
    num_output: 32
    pad: 1
    kernel_size: 3
    stride: 1
    weight_filler {
      type: "msra"
    }
  }
}
layer {
  name: "group1_block1_conv0_bn"
  type: "BatchNorm"
  bottom: "group1_block1_conv0"
  top: "group1_block1_conv0"
  batch_norm_param {
    use_global_stats: false
    moving_average_fraction: 0.95
  }
}
layer {
  name: "group1_block1_conv0_scale"
  type: "Scale"
  bottom: "group1_block1_conv0"
  top: "group1_block1_conv0"
  scale_param {
    bias_term: true
  }
}
layer {
  name: "group1_block1_conv0_relu"
  type: "ReLU"
  bottom: "group1_block1_conv0"
  top: "group1_block1_conv0"
}
layer {
  name: "group1_block1_conv1"
  type: "Convolution"
  bottom: "group1_block1_conv0"
  top: "group1_block1_conv1"
  param {
    lr_mult: 1
    decay_mult: 1
  }
  convolution_param {
    num_output: 32
    pad: 1
    kernel_size: 3
    stride: 1
    weight_filler {
      type: "msra"
    }
  }
}
layer {
  name: "group1_block1_conv1_bn"
  type: "BatchNorm"
  bottom: "group1_block1_conv1"
  top: "group1_block1_conv1"
  batch_norm_param {
    use_global_stats: false
    moving_average_fraction: 0.95
  }
}
layer {
  name: "group1_block1_conv1_scale"
  type: "Scale"
  bottom: "group1_block1_conv1"
  top: "group1_block1_conv1"
  scale_param {
    bias_term: true
  }
}
layer {
  name: "group1_block1_sum"
  type: "Eltwise"
  bottom: "group1_block1_conv1"
  bottom: "group1_block0_sum"
  top: "group1_block1_sum"
  eltwise_param {
    operation: SUM
  }
}
layer {
  name: "group1_block2_conv0"
  type: "Convolution"
  bottom: "group1_block1_sum"
  top: "group1_block2_conv0"
  param {
    lr_mult: 1
    decay_mult: 1
  }
  convolution_param {
    num_output: 32
    pad: 1
    kernel_size: 3
    stride: 1
    weight_filler {
      type: "msra"
    }
  }
}
layer {
  name: "group1_block2_conv0_bn"
  type: "BatchNorm"
  bottom: "group1_block2_conv0"
  top: "group1_block2_conv0"
  batch_norm_param {
    use_global_stats: false
    moving_average_fraction: 0.95
  }
}
layer {
  name: "group1_block2_conv0_scale"
  type: "Scale"
  bottom: "group1_block2_conv0"
  top: "group1_block2_conv0"
  scale_param {
    bias_term: true
  }
}
layer {
  name: "group1_block2_conv0_relu"
  type: "ReLU"
  bottom: "group1_block2_conv0"
  top: "group1_block2_conv0"
}
layer {
  name: "group1_block2_conv1"
  type: "Convolution"
  bottom: "group1_block2_conv0"
  top: "group1_block2_conv1"
  param {
    lr_mult: 1
    decay_mult: 1
  }
  convolution_param {
    num_output: 32
    pad: 1
    kernel_size: 3
    stride: 1
    weight_filler {
      type: "msra"
    }
  }
}
layer {
  name: "group1_block2_conv1_bn"
  type: "BatchNorm"
  bottom: "group1_block2_conv1"
  top: "group1_block2_conv1"
  batch_norm_param {
    use_global_stats: false
    moving_average_fraction: 0.95
  }
}
layer {
  name: "group1_block2_conv1_scale"
  type: "Scale"
  bottom: "group1_block2_conv1"
  top: "group1_block2_conv1"
  scale_param {
    bias_term: true
  }
}
layer {
  name: "group1_block2_sum"
  type: "Eltwise"
  bottom: "group1_block2_conv1"
  bottom: "group1_block1_sum"
  top: "group1_block2_sum"
  eltwise_param {
    operation: SUM
  }
}
layer {
  name: "group2_block0_conv0"
  type: "Convolution"
  bottom: "group1_block2_sum"
  top: "group2_block0_conv0"
  param {
    lr_mult: 1
    decay_mult: 1
  }
  convolution_param {
    num_output: 64
    pad: 1
    kernel_size: 3
    stride: 2
    weight_filler {
      type: "msra"
    }
  }
}
layer {
  name: "group2_block0_conv0_bn"
  type: "BatchNorm"
  bottom: "group2_block0_conv0"
  top: "group2_block0_conv0"
  batch_norm_param {
    use_global_stats: false
    moving_average_fraction: 0.95
  }
}
layer {
  name: "group2_block0_conv0_scale"
  type: "Scale"
  bottom: "group2_block0_conv0"
  top: "group2_block0_conv0"
  scale_param {
    bias_term: true
  }
}
layer {
  name: "group2_block0_conv0_relu"
  type: "ReLU"
  bottom: "group2_block0_conv0"
  top: "group2_block0_conv0"
}
layer {
  name: "group2_block0_conv1"
  type: "Convolution"
  bottom: "group2_block0_conv0"
  top: "group2_block0_conv1"
  param {
    lr_mult: 1
    decay_mult: 1
  }
  convolution_param {
    num_output: 64
    pad: 1
    kernel_size: 3
    stride: 1
    weight_filler {
      type: "msra"
    }
  }
}
layer {
  name: "group2_block0_conv1_bn"
  type: "BatchNorm"
  bottom: "group2_block0_conv1"
  top: "group2_block0_conv1"
  batch_norm_param {
    use_global_stats: false
    moving_average_fraction: 0.95
  }
}
layer {
  name: "group2_block0_conv1_scale"
  type: "Scale"
  bottom: "group2_block0_conv1"
  top: "group2_block0_conv1"
  scale_param {
    bias_term: true
  }
}
layer {
  name: "group2_block0_proj"
  type: "Convolution"
  bottom: "group1_block2_sum"
  top: "group2_block0_proj"
  param {
    lr_mult: 1
    decay_mult: 1
  }
  convolution_param {
    num_output: 64
    pad: 0
    kernel_size: 2
    stride: 2
    weight_filler {
      type: "msra"
    }
  }
}
layer {
  name: "group2_block0_proj_bn"
  type: "BatchNorm"
  bottom: "group2_block0_proj"
  top: "group2_block0_proj"
  batch_norm_param {
    use_global_stats: false
    moving_average_fraction: 0.95
  }
}
layer {
  name: "group2_block0_proj_scale"
  type: "Scale"
  bottom: "group2_block0_proj"
  top: "group2_block0_proj"
  scale_param {
    bias_term: true
  }
}
layer {
  name: "group2_block0_sum"
  type: "Eltwise"
  bottom: "group2_block0_proj"
  bottom: "group2_block0_conv1"
  top: "group2_block0_sum"
  eltwise_param {
    operation: SUM
  }
}
layer {
  name: "group2_block1_conv0"
  type: "Convolution"
  bottom: "group2_block0_sum"
  top: "group2_block1_conv0"
  param {
    lr_mult: 1
    decay_mult: 1
  }
  convolution_param {
    num_output: 64
    pad: 1
    kernel_size: 3
    stride: 1
    weight_filler {
      type: "msra"
    }
  }
}
layer {
  name: "group2_block1_conv0_bn"
  type: "BatchNorm"
  bottom: "group2_block1_conv0"
  top: "group2_block1_conv0"
  batch_norm_param {
    use_global_stats: false
    moving_average_fraction: 0.95
  }
}
layer {
  name: "group2_block1_conv0_scale"
  type: "Scale"
  bottom: "group2_block1_conv0"
  top: "group2_block1_conv0"
  scale_param {
    bias_term: true
  }
}
layer {
  name: "group2_block1_conv0_relu"
  type: "ReLU"
  bottom: "group2_block1_conv0"
  top: "group2_block1_conv0"
}
layer {
  name: "group2_block1_conv1"
  type: "Convolution"
  bottom: "group2_block1_conv0"
  top: "group2_block1_conv1"
  param {
    lr_mult: 1
    decay_mult: 1
  }
  convolution_param {
    num_output: 64
    pad: 1
    kernel_size: 3
    stride: 1
    weight_filler {
      type: "msra"
    }
  }
}
layer {
  name: "group2_block1_conv1_bn"
  type: "BatchNorm"
  bottom: "group2_block1_conv1"
  top: "group2_block1_conv1"
  batch_norm_param {
    use_global_stats: false
    moving_average_fraction: 0.95
  }
}
layer {
  name: "group2_block1_conv1_scale"
  type: "Scale"
  bottom: "group2_block1_conv1"
  top: "group2_block1_conv1"
  scale_param {
    bias_term: true
  }
}
layer {
  name: "group2_block1_sum"
  type: "Eltwise"
  bottom: "group2_block1_conv1"
  bottom: "group2_block0_sum"
  top: "group2_block1_sum"
  eltwise_param {
    operation: SUM
  }
}
layer {
  name: "group2_block2_conv0"
  type: "Convolution"
  bottom: "group2_block1_sum"
  top: "group2_block2_conv0"
  param {
    lr_mult: 1
    decay_mult: 1
  }
  convolution_param {
    num_output: 64
    pad: 1
    kernel_size: 3
    stride: 1
    weight_filler {
      type: "msra"
    }
  }
}
layer {
  name: "group2_block2_conv0_bn"
  type: "BatchNorm"
  bottom: "group2_block2_conv0"
  top: "group2_block2_conv0"
  batch_norm_param {
    use_global_stats: false
    moving_average_fraction: 0.95
  }
}
layer {
  name: "group2_block2_conv0_scale"
  type: "Scale"
  bottom: "group2_block2_conv0"
  top: "group2_block2_conv0"
  scale_param {
    bias_term: true
  }
}
layer {
  name: "group2_block2_conv0_relu"
  type: "ReLU"
  bottom: "group2_block2_conv0"
  top: "group2_block2_conv0"
}
layer {
  name: "group2_block2_conv1"
  type: "Convolution"
  bottom: "group2_block2_conv0"
  top: "group2_block2_conv1"
  param {
    lr_mult: 1
    decay_mult: 1
  }
  convolution_param {
    num_output: 64
    pad: 1
    kernel_size: 3
    stride: 1
    weight_filler {
      type: "msra"
    }
  }
}
layer {
  name: "group2_block2_conv1_bn"
  type: "BatchNorm"
  bottom: "group2_block2_conv1"
  top: "group2_block2_conv1"
  batch_norm_param {
    use_global_stats: false
    moving_average_fraction: 0.95
  }
}
layer {
  name: "group2_block2_conv1_scale"
  type: "Scale"
  bottom: "group2_block2_conv1"
  top: "group2_block2_conv1"
  scale_param {
    bias_term: true
  }
}
layer {
  name: "group2_block2_sum"
  type: "Eltwise"
  bottom: "group2_block2_conv1"
  bottom: "group2_block1_sum"
  top: "group2_block2_sum"
  eltwise_param {
    operation: SUM
  }
}
layer {
  name: "global_avg_pool"
  type: "Pooling"
  bottom: "group2_block2_sum"
  top: "global_avg_pool"
  pooling_param {
    pool: AVE
    global_pooling: true
  }
}
layer {
  name: "fc"
  type: "InnerProduct"
  bottom: "global_avg_pool"
  top: "fc"
  param {
    lr_mult: 1
    decay_mult: 1
  }
  param {
    lr_mult: 2
    decay_mult: 0
  }
  inner_product_param {
    num_output: 12
    weight_filler {
      type: "msra"
    }
    bias_filler {
      type: "constant"
      value: 0
    }
  }
}
layer {
  name: "loss"
  type: "SoftmaxWithLoss"
  bottom: "fc"
  bottom: "label"
  top: "loss"
}
layer {
  name: "softmax"
  type: "Softmax"
  bottom: "fc"
  top: "softmax"
}
layer {
  name: "Accuracy"
  type: "Accuracy"
  bottom: "softmax"
  bottom: "label"
  top: "Accuracy"
}
I1105 05:49:59.930425 13040 layer_factory.hpp:77] Creating layer data
I1105 05:49:59.930889 13040 net.cpp:100] Creating Layer data
I1105 05:49:59.930951 13040 net.cpp:408] data -> data
I1105 05:49:59.931069 13040 net.cpp:408] data -> label
I1105 05:49:59.931102 13040 data_transformer.cpp:25] Loading mean file from: data/mean.binaryproto
I1105 05:49:59.931164 13043 db_lmdb.cpp:35] Opened lmdb data2/test_lmdb
I1105 05:49:59.931293 13040 data_layer.cpp:41] output data size: 100,3,32,32
I1105 05:49:59.931452 13040 net.cpp:150] Setting up data
I1105 05:49:59.931476 13040 net.cpp:157] Top shape: 100 3 32 32 (307200)
I1105 05:49:59.931495 13040 net.cpp:157] Top shape: 100 (100)
I1105 05:49:59.931505 13040 net.cpp:165] Memory required for data: 1229200
I1105 05:49:59.931522 13040 layer_factory.hpp:77] Creating layer label_data_1_split
I1105 05:49:59.931548 13040 net.cpp:100] Creating Layer label_data_1_split
I1105 05:49:59.931565 13040 net.cpp:434] label_data_1_split <- label
I1105 05:49:59.931591 13040 net.cpp:408] label_data_1_split -> label_data_1_split_0
I1105 05:49:59.931612 13040 net.cpp:408] label_data_1_split -> label_data_1_split_1
I1105 05:49:59.931639 13040 net.cpp:150] Setting up label_data_1_split
I1105 05:49:59.931656 13040 net.cpp:157] Top shape: 100 (100)
I1105 05:49:59.931668 13040 net.cpp:157] Top shape: 100 (100)
I1105 05:49:59.931677 13040 net.cpp:165] Memory required for data: 1230000
I1105 05:49:59.931731 13040 layer_factory.hpp:77] Creating layer first_conv
I1105 05:49:59.931766 13040 net.cpp:100] Creating Layer first_conv
I1105 05:49:59.931780 13040 net.cpp:434] first_conv <- data
I1105 05:49:59.931797 13040 net.cpp:408] first_conv -> first_conv
I1105 05:49:59.931898 13040 net.cpp:150] Setting up first_conv
I1105 05:49:59.931916 13040 net.cpp:157] Top shape: 100 16 32 32 (1638400)
I1105 05:49:59.931927 13040 net.cpp:165] Memory required for data: 7783600
I1105 05:49:59.931969 13040 layer_factory.hpp:77] Creating layer first_conv_bn
I1105 05:49:59.932001 13040 net.cpp:100] Creating Layer first_conv_bn
I1105 05:49:59.932014 13040 net.cpp:434] first_conv_bn <- first_conv
I1105 05:49:59.932029 13040 net.cpp:395] first_conv_bn -> first_conv (in-place)
I1105 05:49:59.932071 13040 net.cpp:150] Setting up first_conv_bn
I1105 05:49:59.932088 13040 net.cpp:157] Top shape: 100 16 32 32 (1638400)
I1105 05:49:59.932098 13040 net.cpp:165] Memory required for data: 14337200
I1105 05:49:59.932122 13040 layer_factory.hpp:77] Creating layer first_conv_scale
I1105 05:49:59.932155 13040 net.cpp:100] Creating Layer first_conv_scale
I1105 05:49:59.932168 13040 net.cpp:434] first_conv_scale <- first_conv
I1105 05:49:59.932183 13040 net.cpp:395] first_conv_scale -> first_conv (in-place)
I1105 05:49:59.932216 13040 layer_factory.hpp:77] Creating layer first_conv_scale
I1105 05:49:59.932272 13040 net.cpp:150] Setting up first_conv_scale
I1105 05:49:59.932291 13040 net.cpp:157] Top shape: 100 16 32 32 (1638400)
I1105 05:49:59.932299 13040 net.cpp:165] Memory required for data: 20890800
I1105 05:49:59.932315 13040 layer_factory.hpp:77] Creating layer first_conv_relu
I1105 05:49:59.932335 13040 net.cpp:100] Creating Layer first_conv_relu
I1105 05:49:59.932349 13040 net.cpp:434] first_conv_relu <- first_conv
I1105 05:49:59.932363 13040 net.cpp:395] first_conv_relu -> first_conv (in-place)
I1105 05:49:59.932377 13040 net.cpp:150] Setting up first_conv_relu
I1105 05:49:59.932394 13040 net.cpp:157] Top shape: 100 16 32 32 (1638400)
I1105 05:49:59.932404 13040 net.cpp:165] Memory required for data: 27444400
I1105 05:49:59.932413 13040 layer_factory.hpp:77] Creating layer first_conv_first_conv_relu_0_split
I1105 05:49:59.932427 13040 net.cpp:100] Creating Layer first_conv_first_conv_relu_0_split
I1105 05:49:59.932440 13040 net.cpp:434] first_conv_first_conv_relu_0_split <- first_conv
I1105 05:49:59.932456 13040 net.cpp:408] first_conv_first_conv_relu_0_split -> first_conv_first_conv_relu_0_split_0
I1105 05:49:59.932476 13040 net.cpp:408] first_conv_first_conv_relu_0_split -> first_conv_first_conv_relu_0_split_1
I1105 05:49:59.932502 13040 net.cpp:150] Setting up first_conv_first_conv_relu_0_split
I1105 05:49:59.932518 13040 net.cpp:157] Top shape: 100 16 32 32 (1638400)
I1105 05:49:59.932529 13040 net.cpp:157] Top shape: 100 16 32 32 (1638400)
I1105 05:49:59.932538 13040 net.cpp:165] Memory required for data: 40551600
I1105 05:49:59.932548 13040 layer_factory.hpp:77] Creating layer group0_block0_conv0
I1105 05:49:59.932565 13040 net.cpp:100] Creating Layer group0_block0_conv0
I1105 05:49:59.932579 13040 net.cpp:434] group0_block0_conv0 <- first_conv_first_conv_relu_0_split_0
I1105 05:49:59.932595 13040 net.cpp:408] group0_block0_conv0 -> group0_block0_conv0
I1105 05:49:59.932706 13040 net.cpp:150] Setting up group0_block0_conv0
I1105 05:49:59.932726 13040 net.cpp:157] Top shape: 100 16 32 32 (1638400)
I1105 05:49:59.932736 13040 net.cpp:165] Memory required for data: 47105200
I1105 05:49:59.932770 13040 layer_factory.hpp:77] Creating layer group0_block0_conv0_bn
I1105 05:49:59.932791 13040 net.cpp:100] Creating Layer group0_block0_conv0_bn
I1105 05:49:59.932802 13040 net.cpp:434] group0_block0_conv0_bn <- group0_block0_conv0
I1105 05:49:59.932818 13040 net.cpp:395] group0_block0_conv0_bn -> group0_block0_conv0 (in-place)
I1105 05:49:59.932858 13040 net.cpp:150] Setting up group0_block0_conv0_bn
I1105 05:49:59.932875 13040 net.cpp:157] Top shape: 100 16 32 32 (1638400)
I1105 05:49:59.932885 13040 net.cpp:165] Memory required for data: 53658800
I1105 05:49:59.932929 13040 layer_factory.hpp:77] Creating layer group0_block0_conv0_scale
I1105 05:49:59.932947 13040 net.cpp:100] Creating Layer group0_block0_conv0_scale
I1105 05:49:59.932958 13040 net.cpp:434] group0_block0_conv0_scale <- group0_block0_conv0
I1105 05:49:59.932981 13040 net.cpp:395] group0_block0_conv0_scale -> group0_block0_conv0 (in-place)
I1105 05:49:59.933007 13040 layer_factory.hpp:77] Creating layer group0_block0_conv0_scale
I1105 05:49:59.933084 13040 net.cpp:150] Setting up group0_block0_conv0_scale
I1105 05:49:59.933100 13040 net.cpp:157] Top shape: 100 16 32 32 (1638400)
I1105 05:49:59.933109 13040 net.cpp:165] Memory required for data: 60212400
I1105 05:49:59.933125 13040 layer_factory.hpp:77] Creating layer group0_block0_conv0_relu
I1105 05:49:59.933141 13040 net.cpp:100] Creating Layer group0_block0_conv0_relu
I1105 05:49:59.933152 13040 net.cpp:434] group0_block0_conv0_relu <- group0_block0_conv0
I1105 05:49:59.933166 13040 net.cpp:395] group0_block0_conv0_relu -> group0_block0_conv0 (in-place)
I1105 05:49:59.933183 13040 net.cpp:150] Setting up group0_block0_conv0_relu
I1105 05:49:59.933197 13040 net.cpp:157] Top shape: 100 16 32 32 (1638400)
I1105 05:49:59.933207 13040 net.cpp:165] Memory required for data: 66766000
I1105 05:49:59.933219 13040 layer_factory.hpp:77] Creating layer group0_block0_conv1
I1105 05:49:59.933241 13040 net.cpp:100] Creating Layer group0_block0_conv1
I1105 05:49:59.933261 13040 net.cpp:434] group0_block0_conv1 <- group0_block0_conv0
I1105 05:49:59.933279 13040 net.cpp:408] group0_block0_conv1 -> group0_block0_conv1
I1105 05:49:59.933413 13040 net.cpp:150] Setting up group0_block0_conv1
I1105 05:49:59.933435 13040 net.cpp:157] Top shape: 100 16 32 32 (1638400)
I1105 05:49:59.933449 13040 net.cpp:165] Memory required for data: 73319600
I1105 05:49:59.933464 13040 layer_factory.hpp:77] Creating layer group0_block0_conv1_bn
I1105 05:49:59.933482 13040 net.cpp:100] Creating Layer group0_block0_conv1_bn
I1105 05:49:59.933493 13040 net.cpp:434] group0_block0_conv1_bn <- group0_block0_conv1
I1105 05:49:59.933509 13040 net.cpp:395] group0_block0_conv1_bn -> group0_block0_conv1 (in-place)
I1105 05:49:59.933564 13040 net.cpp:150] Setting up group0_block0_conv1_bn
I1105 05:49:59.933588 13040 net.cpp:157] Top shape: 100 16 32 32 (1638400)
I1105 05:49:59.933601 13040 net.cpp:165] Memory required for data: 79873200
I1105 05:49:59.933636 13040 layer_factory.hpp:77] Creating layer group0_block0_conv1_scale
I1105 05:49:59.933656 13040 net.cpp:100] Creating Layer group0_block0_conv1_scale
I1105 05:49:59.933667 13040 net.cpp:434] group0_block0_conv1_scale <- group0_block0_conv1
I1105 05:49:59.933681 13040 net.cpp:395] group0_block0_conv1_scale -> group0_block0_conv1 (in-place)
I1105 05:49:59.933704 13040 layer_factory.hpp:77] Creating layer group0_block0_conv1_scale
I1105 05:49:59.933779 13040 net.cpp:150] Setting up group0_block0_conv1_scale
I1105 05:49:59.933795 13040 net.cpp:157] Top shape: 100 16 32 32 (1638400)
I1105 05:49:59.933805 13040 net.cpp:165] Memory required for data: 86426800
I1105 05:49:59.933820 13040 layer_factory.hpp:77] Creating layer group0_block0_sum
I1105 05:49:59.933840 13040 net.cpp:100] Creating Layer group0_block0_sum
I1105 05:49:59.933853 13040 net.cpp:434] group0_block0_sum <- group0_block0_conv1
I1105 05:49:59.933866 13040 net.cpp:434] group0_block0_sum <- first_conv_first_conv_relu_0_split_1
I1105 05:49:59.933888 13040 net.cpp:408] group0_block0_sum -> group0_block0_sum
I1105 05:49:59.933914 13040 net.cpp:150] Setting up group0_block0_sum
I1105 05:49:59.933930 13040 net.cpp:157] Top shape: 100 16 32 32 (1638400)
I1105 05:49:59.933940 13040 net.cpp:165] Memory required for data: 92980400
I1105 05:49:59.933950 13040 layer_factory.hpp:77] Creating layer group0_block0_sum_group0_block0_sum_0_split
I1105 05:49:59.933964 13040 net.cpp:100] Creating Layer group0_block0_sum_group0_block0_sum_0_split
I1105 05:49:59.933974 13040 net.cpp:434] group0_block0_sum_group0_block0_sum_0_split <- group0_block0_sum
I1105 05:49:59.933989 13040 net.cpp:408] group0_block0_sum_group0_block0_sum_0_split -> group0_block0_sum_group0_block0_sum_0_split_0
I1105 05:49:59.934056 13040 net.cpp:408] group0_block0_sum_group0_block0_sum_0_split -> group0_block0_sum_group0_block0_sum_0_split_1
I1105 05:49:59.934083 13040 net.cpp:150] Setting up group0_block0_sum_group0_block0_sum_0_split
I1105 05:49:59.934099 13040 net.cpp:157] Top shape: 100 16 32 32 (1638400)
I1105 05:49:59.934113 13040 net.cpp:157] Top shape: 100 16 32 32 (1638400)
I1105 05:49:59.934126 13040 net.cpp:165] Memory required for data: 106087600
I1105 05:49:59.934137 13040 layer_factory.hpp:77] Creating layer group0_block1_conv0
I1105 05:49:59.934165 13040 net.cpp:100] Creating Layer group0_block1_conv0
I1105 05:49:59.934180 13040 net.cpp:434] group0_block1_conv0 <- group0_block0_sum_group0_block0_sum_0_split_0
I1105 05:49:59.934200 13040 net.cpp:408] group0_block1_conv0 -> group0_block1_conv0
I1105 05:49:59.934298 13040 net.cpp:150] Setting up group0_block1_conv0
I1105 05:49:59.934315 13040 net.cpp:157] Top shape: 100 16 32 32 (1638400)
I1105 05:49:59.934327 13040 net.cpp:165] Memory required for data: 112641200
I1105 05:49:59.934346 13040 layer_factory.hpp:77] Creating layer group0_block1_conv0_bn
I1105 05:49:59.934361 13040 net.cpp:100] Creating Layer group0_block1_conv0_bn
I1105 05:49:59.934373 13040 net.cpp:434] group0_block1_conv0_bn <- group0_block1_conv0
I1105 05:49:59.934387 13040 net.cpp:395] group0_block1_conv0_bn -> group0_block1_conv0 (in-place)
I1105 05:49:59.934418 13040 net.cpp:150] Setting up group0_block1_conv0_bn
I1105 05:49:59.934440 13040 net.cpp:157] Top shape: 100 16 32 32 (1638400)
I1105 05:49:59.934450 13040 net.cpp:165] Memory required for data: 119194800
I1105 05:49:59.934468 13040 layer_factory.hpp:77] Creating layer group0_block1_conv0_scale
I1105 05:49:59.934494 13040 net.cpp:100] Creating Layer group0_block1_conv0_scale
I1105 05:49:59.934504 13040 net.cpp:434] group0_block1_conv0_scale <- group0_block1_conv0
I1105 05:49:59.934522 13040 net.cpp:395] group0_block1_conv0_scale -> group0_block1_conv0 (in-place)
I1105 05:49:59.934545 13040 layer_factory.hpp:77] Creating layer group0_block1_conv0_scale
I1105 05:49:59.934593 13040 net.cpp:150] Setting up group0_block1_conv0_scale
I1105 05:49:59.934610 13040 net.cpp:157] Top shape: 100 16 32 32 (1638400)
I1105 05:49:59.934620 13040 net.cpp:165] Memory required for data: 125748400
I1105 05:49:59.934635 13040 layer_factory.hpp:77] Creating layer group0_block1_conv0_relu
I1105 05:49:59.934650 13040 net.cpp:100] Creating Layer group0_block1_conv0_relu
I1105 05:49:59.934660 13040 net.cpp:434] group0_block1_conv0_relu <- group0_block1_conv0
I1105 05:49:59.934674 13040 net.cpp:395] group0_block1_conv0_relu -> group0_block1_conv0 (in-place)
I1105 05:49:59.934690 13040 net.cpp:150] Setting up group0_block1_conv0_relu
I1105 05:49:59.934703 13040 net.cpp:157] Top shape: 100 16 32 32 (1638400)
I1105 05:49:59.934712 13040 net.cpp:165] Memory required for data: 132302000
I1105 05:49:59.934722 13040 layer_factory.hpp:77] Creating layer group0_block1_conv1
I1105 05:49:59.934777 13040 net.cpp:100] Creating Layer group0_block1_conv1
I1105 05:49:59.934790 13040 net.cpp:434] group0_block1_conv1 <- group0_block1_conv0
I1105 05:49:59.934808 13040 net.cpp:408] group0_block1_conv1 -> group0_block1_conv1
I1105 05:49:59.934902 13040 net.cpp:150] Setting up group0_block1_conv1
I1105 05:49:59.934924 13040 net.cpp:157] Top shape: 100 16 32 32 (1638400)
I1105 05:49:59.934934 13040 net.cpp:165] Memory required for data: 138855600
I1105 05:49:59.934949 13040 layer_factory.hpp:77] Creating layer group0_block1_conv1_bn
I1105 05:49:59.934963 13040 net.cpp:100] Creating Layer group0_block1_conv1_bn
I1105 05:49:59.934974 13040 net.cpp:434] group0_block1_conv1_bn <- group0_block1_conv1
I1105 05:49:59.934994 13040 net.cpp:395] group0_block1_conv1_bn -> group0_block1_conv1 (in-place)
I1105 05:49:59.935029 13040 net.cpp:150] Setting up group0_block1_conv1_bn
I1105 05:49:59.935045 13040 net.cpp:157] Top shape: 100 16 32 32 (1638400)
I1105 05:49:59.935055 13040 net.cpp:165] Memory required for data: 145409200
I1105 05:49:59.935111 13040 layer_factory.hpp:77] Creating layer group0_block1_conv1_scale
I1105 05:49:59.935128 13040 net.cpp:100] Creating Layer group0_block1_conv1_scale
I1105 05:49:59.935140 13040 net.cpp:434] group0_block1_conv1_scale <- group0_block1_conv1
I1105 05:49:59.935173 13040 net.cpp:395] group0_block1_conv1_scale -> group0_block1_conv1 (in-place)
I1105 05:49:59.935214 13040 layer_factory.hpp:77] Creating layer group0_block1_conv1_scale
I1105 05:49:59.935258 13040 net.cpp:150] Setting up group0_block1_conv1_scale
I1105 05:49:59.935278 13040 net.cpp:157] Top shape: 100 16 32 32 (1638400)
I1105 05:49:59.935287 13040 net.cpp:165] Memory required for data: 151962800
I1105 05:49:59.935302 13040 layer_factory.hpp:77] Creating layer group0_block1_sum
I1105 05:49:59.935326 13040 net.cpp:100] Creating Layer group0_block1_sum
I1105 05:49:59.935340 13040 net.cpp:434] group0_block1_sum <- group0_block1_conv1
I1105 05:49:59.935353 13040 net.cpp:434] group0_block1_sum <- group0_block0_sum_group0_block0_sum_0_split_1
I1105 05:49:59.935369 13040 net.cpp:408] group0_block1_sum -> group0_block1_sum
I1105 05:49:59.935385 13040 net.cpp:150] Setting up group0_block1_sum
I1105 05:49:59.935401 13040 net.cpp:157] Top shape: 100 16 32 32 (1638400)
I1105 05:49:59.935410 13040 net.cpp:165] Memory required for data: 158516400
I1105 05:49:59.935420 13040 layer_factory.hpp:77] Creating layer group0_block1_sum_group0_block1_sum_0_split
I1105 05:49:59.935432 13040 net.cpp:100] Creating Layer group0_block1_sum_group0_block1_sum_0_split
I1105 05:49:59.935442 13040 net.cpp:434] group0_block1_sum_group0_block1_sum_0_split <- group0_block1_sum
I1105 05:49:59.935461 13040 net.cpp:408] group0_block1_sum_group0_block1_sum_0_split -> group0_block1_sum_group0_block1_sum_0_split_0
I1105 05:49:59.935480 13040 net.cpp:408] group0_block1_sum_group0_block1_sum_0_split -> group0_block1_sum_group0_block1_sum_0_split_1
I1105 05:49:59.935506 13040 net.cpp:150] Setting up group0_block1_sum_group0_block1_sum_0_split
I1105 05:49:59.935523 13040 net.cpp:157] Top shape: 100 16 32 32 (1638400)
I1105 05:49:59.935536 13040 net.cpp:157] Top shape: 100 16 32 32 (1638400)
I1105 05:49:59.935546 13040 net.cpp:165] Memory required for data: 171623600
I1105 05:49:59.935556 13040 layer_factory.hpp:77] Creating layer group0_block2_conv0
I1105 05:49:59.935575 13040 net.cpp:100] Creating Layer group0_block2_conv0
I1105 05:49:59.935587 13040 net.cpp:434] group0_block2_conv0 <- group0_block1_sum_group0_block1_sum_0_split_0
I1105 05:49:59.935613 13040 net.cpp:408] group0_block2_conv0 -> group0_block2_conv0
I1105 05:49:59.935708 13040 net.cpp:150] Setting up group0_block2_conv0
I1105 05:49:59.935724 13040 net.cpp:157] Top shape: 100 16 32 32 (1638400)
I1105 05:49:59.935734 13040 net.cpp:165] Memory required for data: 178177200
I1105 05:49:59.935747 13040 layer_factory.hpp:77] Creating layer group0_block2_conv0_bn
I1105 05:49:59.935761 13040 net.cpp:100] Creating Layer group0_block2_conv0_bn
I1105 05:49:59.935771 13040 net.cpp:434] group0_block2_conv0_bn <- group0_block2_conv0
I1105 05:49:59.935789 13040 net.cpp:395] group0_block2_conv0_bn -> group0_block2_conv0 (in-place)
I1105 05:49:59.935819 13040 net.cpp:150] Setting up group0_block2_conv0_bn
I1105 05:49:59.935837 13040 net.cpp:157] Top shape: 100 16 32 32 (1638400)
I1105 05:49:59.936347 13040 net.cpp:165] Memory required for data: 184730800
I1105 05:49:59.936369 13040 layer_factory.hpp:77] Creating layer group0_block2_conv0_scale
I1105 05:49:59.936390 13040 net.cpp:100] Creating Layer group0_block2_conv0_scale
I1105 05:49:59.936404 13040 net.cpp:434] group0_block2_conv0_scale <- group0_block2_conv0
I1105 05:49:59.936419 13040 net.cpp:395] group0_block2_conv0_scale -> group0_block2_conv0 (in-place)
I1105 05:49:59.936439 13040 layer_factory.hpp:77] Creating layer group0_block2_conv0_scale
I1105 05:49:59.936480 13040 net.cpp:150] Setting up group0_block2_conv0_scale
I1105 05:49:59.936498 13040 net.cpp:157] Top shape: 100 16 32 32 (1638400)
I1105 05:49:59.936507 13040 net.cpp:165] Memory required for data: 191284400
I1105 05:49:59.936547 13040 layer_factory.hpp:77] Creating layer group0_block2_conv0_relu
I1105 05:49:59.936563 13040 net.cpp:100] Creating Layer group0_block2_conv0_relu
I1105 05:49:59.936580 13040 net.cpp:434] group0_block2_conv0_relu <- group0_block2_conv0
I1105 05:49:59.936600 13040 net.cpp:395] group0_block2_conv0_relu -> group0_block2_conv0 (in-place)
I1105 05:49:59.936617 13040 net.cpp:150] Setting up group0_block2_conv0_relu
I1105 05:49:59.936640 13040 net.cpp:157] Top shape: 100 16 32 32 (1638400)
I1105 05:49:59.936651 13040 net.cpp:165] Memory required for data: 197838000
I1105 05:49:59.936661 13040 layer_factory.hpp:77] Creating layer group0_block2_conv1
I1105 05:49:59.936682 13040 net.cpp:100] Creating Layer group0_block2_conv1
I1105 05:49:59.936695 13040 net.cpp:434] group0_block2_conv1 <- group0_block2_conv0
I1105 05:49:59.936712 13040 net.cpp:408] group0_block2_conv1 -> group0_block2_conv1
I1105 05:49:59.936808 13040 net.cpp:150] Setting up group0_block2_conv1
I1105 05:49:59.936838 13040 net.cpp:157] Top shape: 100 16 32 32 (1638400)
I1105 05:49:59.936854 13040 net.cpp:165] Memory required for data: 204391600
I1105 05:49:59.936874 13040 layer_factory.hpp:77] Creating layer group0_block2_conv1_bn
I1105 05:49:59.936893 13040 net.cpp:100] Creating Layer group0_block2_conv1_bn
I1105 05:49:59.936908 13040 net.cpp:434] group0_block2_conv1_bn <- group0_block2_conv1
I1105 05:49:59.936926 13040 net.cpp:395] group0_block2_conv1_bn -> group0_block2_conv1 (in-place)
I1105 05:49:59.936974 13040 net.cpp:150] Setting up group0_block2_conv1_bn
I1105 05:49:59.936990 13040 net.cpp:157] Top shape: 100 16 32 32 (1638400)
I1105 05:49:59.936998 13040 net.cpp:165] Memory required for data: 210945200
I1105 05:49:59.937022 13040 layer_factory.hpp:77] Creating layer group0_block2_conv1_scale
I1105 05:49:59.937053 13040 net.cpp:100] Creating Layer group0_block2_conv1_scale
I1105 05:49:59.937068 13040 net.cpp:434] group0_block2_conv1_scale <- group0_block2_conv1
I1105 05:49:59.937083 13040 net.cpp:395] group0_block2_conv1_scale -> group0_block2_conv1 (in-place)
I1105 05:49:59.937108 13040 layer_factory.hpp:77] Creating layer group0_block2_conv1_scale
I1105 05:49:59.937151 13040 net.cpp:150] Setting up group0_block2_conv1_scale
I1105 05:49:59.937185 13040 net.cpp:157] Top shape: 100 16 32 32 (1638400)
I1105 05:49:59.937197 13040 net.cpp:165] Memory required for data: 217498800
I1105 05:49:59.937221 13040 layer_factory.hpp:77] Creating layer group0_block2_sum
I1105 05:49:59.937254 13040 net.cpp:100] Creating Layer group0_block2_sum
I1105 05:49:59.937268 13040 net.cpp:434] group0_block2_sum <- group0_block2_conv1
I1105 05:49:59.937281 13040 net.cpp:434] group0_block2_sum <- group0_block1_sum_group0_block1_sum_0_split_1
I1105 05:49:59.937319 13040 net.cpp:408] group0_block2_sum -> group0_block2_sum
I1105 05:49:59.937338 13040 net.cpp:150] Setting up group0_block2_sum
I1105 05:49:59.937355 13040 net.cpp:157] Top shape: 100 16 32 32 (1638400)
I1105 05:49:59.937364 13040 net.cpp:165] Memory required for data: 224052400
I1105 05:49:59.937374 13040 layer_factory.hpp:77] Creating layer group0_block2_sum_group0_block2_sum_0_split
I1105 05:49:59.937392 13040 net.cpp:100] Creating Layer group0_block2_sum_group0_block2_sum_0_split
I1105 05:49:59.937404 13040 net.cpp:434] group0_block2_sum_group0_block2_sum_0_split <- group0_block2_sum
I1105 05:49:59.937425 13040 net.cpp:408] group0_block2_sum_group0_block2_sum_0_split -> group0_block2_sum_group0_block2_sum_0_split_0
I1105 05:49:59.937443 13040 net.cpp:408] group0_block2_sum_group0_block2_sum_0_split -> group0_block2_sum_group0_block2_sum_0_split_1
I1105 05:49:59.937470 13040 net.cpp:150] Setting up group0_block2_sum_group0_block2_sum_0_split
I1105 05:49:59.937494 13040 net.cpp:157] Top shape: 100 16 32 32 (1638400)
I1105 05:49:59.937506 13040 net.cpp:157] Top shape: 100 16 32 32 (1638400)
I1105 05:49:59.937515 13040 net.cpp:165] Memory required for data: 237159600
I1105 05:49:59.937525 13040 layer_factory.hpp:77] Creating layer group1_block0_conv0
I1105 05:49:59.937543 13040 net.cpp:100] Creating Layer group1_block0_conv0
I1105 05:49:59.937577 13040 net.cpp:434] group1_block0_conv0 <- group0_block2_sum_group0_block2_sum_0_split_0
I1105 05:49:59.937599 13040 net.cpp:408] group1_block0_conv0 -> group1_block0_conv0
I1105 05:49:59.937752 13040 net.cpp:150] Setting up group1_block0_conv0
I1105 05:49:59.937767 13040 net.cpp:157] Top shape: 100 32 16 16 (819200)
I1105 05:49:59.937783 13040 net.cpp:165] Memory required for data: 240436400
I1105 05:49:59.937800 13040 layer_factory.hpp:77] Creating layer group1_block0_conv0_bn
I1105 05:49:59.937824 13040 net.cpp:100] Creating Layer group1_block0_conv0_bn
I1105 05:49:59.937835 13040 net.cpp:434] group1_block0_conv0_bn <- group1_block0_conv0
I1105 05:49:59.937855 13040 net.cpp:395] group1_block0_conv0_bn -> group1_block0_conv0 (in-place)
I1105 05:49:59.937893 13040 net.cpp:150] Setting up group1_block0_conv0_bn
I1105 05:49:59.937908 13040 net.cpp:157] Top shape: 100 32 16 16 (819200)
I1105 05:49:59.937918 13040 net.cpp:165] Memory required for data: 243713200
I1105 05:49:59.937935 13040 layer_factory.hpp:77] Creating layer group1_block0_conv0_scale
I1105 05:49:59.937957 13040 net.cpp:100] Creating Layer group1_block0_conv0_scale
I1105 05:49:59.937969 13040 net.cpp:434] group1_block0_conv0_scale <- group1_block0_conv0
I1105 05:49:59.937983 13040 net.cpp:395] group1_block0_conv0_scale -> group1_block0_conv0 (in-place)
I1105 05:49:59.938015 13040 layer_factory.hpp:77] Creating layer group1_block0_conv0_scale
I1105 05:49:59.938055 13040 net.cpp:150] Setting up group1_block0_conv0_scale
I1105 05:49:59.938083 13040 net.cpp:157] Top shape: 100 32 16 16 (819200)
I1105 05:49:59.938096 13040 net.cpp:165] Memory required for data: 246990000
I1105 05:49:59.938110 13040 layer_factory.hpp:77] Creating layer group1_block0_conv0_relu
I1105 05:49:59.938133 13040 net.cpp:100] Creating Layer group1_block0_conv0_relu
I1105 05:49:59.938143 13040 net.cpp:434] group1_block0_conv0_relu <- group1_block0_conv0
I1105 05:49:59.938159 13040 net.cpp:395] group1_block0_conv0_relu -> group1_block0_conv0 (in-place)
I1105 05:49:59.938182 13040 net.cpp:150] Setting up group1_block0_conv0_relu
I1105 05:49:59.938196 13040 net.cpp:157] Top shape: 100 32 16 16 (819200)
I1105 05:49:59.938208 13040 net.cpp:165] Memory required for data: 250266800
I1105 05:49:59.938218 13040 layer_factory.hpp:77] Creating layer group1_block0_conv1
I1105 05:49:59.938242 13040 net.cpp:100] Creating Layer group1_block0_conv1
I1105 05:49:59.938258 13040 net.cpp:434] group1_block0_conv1 <- group1_block0_conv0
I1105 05:49:59.938274 13040 net.cpp:408] group1_block0_conv1 -> group1_block0_conv1
I1105 05:49:59.938515 13040 net.cpp:150] Setting up group1_block0_conv1
I1105 05:49:59.938542 13040 net.cpp:157] Top shape: 100 32 16 16 (819200)
I1105 05:49:59.938557 13040 net.cpp:165] Memory required for data: 253543600
I1105 05:49:59.938573 13040 layer_factory.hpp:77] Creating layer group1_block0_conv1_bn
I1105 05:49:59.938592 13040 net.cpp:100] Creating Layer group1_block0_conv1_bn
I1105 05:49:59.938602 13040 net.cpp:434] group1_block0_conv1_bn <- group1_block0_conv1
I1105 05:49:59.938630 13040 net.cpp:395] group1_block0_conv1_bn -> group1_block0_conv1 (in-place)
I1105 05:49:59.938678 13040 net.cpp:150] Setting up group1_block0_conv1_bn
I1105 05:49:59.938699 13040 net.cpp:157] Top shape: 100 32 16 16 (819200)
I1105 05:49:59.938712 13040 net.cpp:165] Memory required for data: 256820400
I1105 05:49:59.938730 13040 layer_factory.hpp:77] Creating layer group1_block0_conv1_scale
I1105 05:49:59.938750 13040 net.cpp:100] Creating Layer group1_block0_conv1_scale
I1105 05:49:59.938763 13040 net.cpp:434] group1_block0_conv1_scale <- group1_block0_conv1
I1105 05:49:59.938777 13040 net.cpp:395] group1_block0_conv1_scale -> group1_block0_conv1 (in-place)
I1105 05:49:59.938802 13040 layer_factory.hpp:77] Creating layer group1_block0_conv1_scale
I1105 05:49:59.938853 13040 net.cpp:150] Setting up group1_block0_conv1_scale
I1105 05:49:59.938879 13040 net.cpp:157] Top shape: 100 32 16 16 (819200)
I1105 05:49:59.938889 13040 net.cpp:165] Memory required for data: 260097200
I1105 05:49:59.938926 13040 layer_factory.hpp:77] Creating layer group1_block0_proj
I1105 05:49:59.938952 13040 net.cpp:100] Creating Layer group1_block0_proj
I1105 05:49:59.938966 13040 net.cpp:434] group1_block0_proj <- group0_block2_sum_group0_block2_sum_0_split_1
I1105 05:49:59.938997 13040 net.cpp:408] group1_block0_proj -> group1_block0_proj
I1105 05:49:59.939100 13040 net.cpp:150] Setting up group1_block0_proj
I1105 05:49:59.939116 13040 net.cpp:157] Top shape: 100 32 16 16 (819200)
I1105 05:49:59.939126 13040 net.cpp:165] Memory required for data: 263374000
I1105 05:49:59.939159 13040 layer_factory.hpp:77] Creating layer group1_block0_proj_bn
I1105 05:49:59.939182 13040 net.cpp:100] Creating Layer group1_block0_proj_bn
I1105 05:49:59.939200 13040 net.cpp:434] group1_block0_proj_bn <- group1_block0_proj
I1105 05:49:59.939231 13040 net.cpp:395] group1_block0_proj_bn -> group1_block0_proj (in-place)
I1105 05:49:59.939266 13040 net.cpp:150] Setting up group1_block0_proj_bn
I1105 05:49:59.939281 13040 net.cpp:157] Top shape: 100 32 16 16 (819200)
I1105 05:49:59.939291 13040 net.cpp:165] Memory required for data: 266650800
I1105 05:49:59.939308 13040 layer_factory.hpp:77] Creating layer group1_block0_proj_scale
I1105 05:49:59.939324 13040 net.cpp:100] Creating Layer group1_block0_proj_scale
I1105 05:49:59.939334 13040 net.cpp:434] group1_block0_proj_scale <- group1_block0_proj
I1105 05:49:59.939347 13040 net.cpp:395] group1_block0_proj_scale -> group1_block0_proj (in-place)
I1105 05:49:59.939386 13040 layer_factory.hpp:77] Creating layer group1_block0_proj_scale
I1105 05:49:59.939424 13040 net.cpp:150] Setting up group1_block0_proj_scale
I1105 05:49:59.939440 13040 net.cpp:157] Top shape: 100 32 16 16 (819200)
I1105 05:49:59.939451 13040 net.cpp:165] Memory required for data: 269927600
I1105 05:49:59.939466 13040 layer_factory.hpp:77] Creating layer group1_block0_sum
I1105 05:49:59.939488 13040 net.cpp:100] Creating Layer group1_block0_sum
I1105 05:49:59.939502 13040 net.cpp:434] group1_block0_sum <- group1_block0_proj
I1105 05:49:59.939523 13040 net.cpp:434] group1_block0_sum <- group1_block0_conv1
I1105 05:49:59.939549 13040 net.cpp:408] group1_block0_sum -> group1_block0_sum
I1105 05:49:59.939574 13040 net.cpp:150] Setting up group1_block0_sum
I1105 05:49:59.939594 13040 net.cpp:157] Top shape: 100 32 16 16 (819200)
I1105 05:49:59.939604 13040 net.cpp:165] Memory required for data: 273204400
I1105 05:49:59.939620 13040 layer_factory.hpp:77] Creating layer group1_block0_sum_group1_block0_sum_0_split
I1105 05:49:59.939651 13040 net.cpp:100] Creating Layer group1_block0_sum_group1_block0_sum_0_split
I1105 05:49:59.939663 13040 net.cpp:434] group1_block0_sum_group1_block0_sum_0_split <- group1_block0_sum
I1105 05:49:59.939684 13040 net.cpp:408] group1_block0_sum_group1_block0_sum_0_split -> group1_block0_sum_group1_block0_sum_0_split_0
I1105 05:49:59.939708 13040 net.cpp:408] group1_block0_sum_group1_block0_sum_0_split -> group1_block0_sum_group1_block0_sum_0_split_1
I1105 05:49:59.939730 13040 net.cpp:150] Setting up group1_block0_sum_group1_block0_sum_0_split
I1105 05:49:59.939746 13040 net.cpp:157] Top shape: 100 32 16 16 (819200)
I1105 05:49:59.939762 13040 net.cpp:157] Top shape: 100 32 16 16 (819200)
I1105 05:49:59.939779 13040 net.cpp:165] Memory required for data: 279758000
I1105 05:49:59.939790 13040 layer_factory.hpp:77] Creating layer group1_block1_conv0
I1105 05:49:59.939810 13040 net.cpp:100] Creating Layer group1_block1_conv0
I1105 05:49:59.939823 13040 net.cpp:434] group1_block1_conv0 <- group1_block0_sum_group1_block0_sum_0_split_0
I1105 05:49:59.939848 13040 net.cpp:408] group1_block1_conv0 -> group1_block1_conv0
I1105 05:49:59.940083 13040 net.cpp:150] Setting up group1_block1_conv0
I1105 05:49:59.940099 13040 net.cpp:157] Top shape: 100 32 16 16 (819200)
I1105 05:49:59.940109 13040 net.cpp:165] Memory required for data: 283034800
I1105 05:49:59.940134 13040 layer_factory.hpp:77] Creating layer group1_block1_conv0_bn
I1105 05:49:59.940150 13040 net.cpp:100] Creating Layer group1_block1_conv0_bn
I1105 05:49:59.940196 13040 net.cpp:434] group1_block1_conv0_bn <- group1_block1_conv0
I1105 05:49:59.940215 13040 net.cpp:395] group1_block1_conv0_bn -> group1_block1_conv0 (in-place)
I1105 05:49:59.940271 13040 net.cpp:150] Setting up group1_block1_conv0_bn
I1105 05:49:59.940306 13040 net.cpp:157] Top shape: 100 32 16 16 (819200)
I1105 05:49:59.940318 13040 net.cpp:165] Memory required for data: 286311600
I1105 05:49:59.940336 13040 layer_factory.hpp:77] Creating layer group1_block1_conv0_scale
I1105 05:49:59.940362 13040 net.cpp:100] Creating Layer group1_block1_conv0_scale
I1105 05:49:59.940377 13040 net.cpp:434] group1_block1_conv0_scale <- group1_block1_conv0
I1105 05:49:59.940392 13040 net.cpp:395] group1_block1_conv0_scale -> group1_block1_conv0 (in-place)
I1105 05:49:59.940423 13040 layer_factory.hpp:77] Creating layer group1_block1_conv0_scale
I1105 05:49:59.940464 13040 net.cpp:150] Setting up group1_block1_conv0_scale
I1105 05:49:59.940481 13040 net.cpp:157] Top shape: 100 32 16 16 (819200)
I1105 05:49:59.940490 13040 net.cpp:165] Memory required for data: 289588400
I1105 05:49:59.940505 13040 layer_factory.hpp:77] Creating layer group1_block1_conv0_relu
I1105 05:49:59.940523 13040 net.cpp:100] Creating Layer group1_block1_conv0_relu
I1105 05:49:59.940536 13040 net.cpp:434] group1_block1_conv0_relu <- group1_block1_conv0
I1105 05:49:59.940559 13040 net.cpp:395] group1_block1_conv0_relu -> group1_block1_conv0 (in-place)
I1105 05:49:59.940578 13040 net.cpp:150] Setting up group1_block1_conv0_relu
I1105 05:49:59.940598 13040 net.cpp:157] Top shape: 100 32 16 16 (819200)
I1105 05:49:59.940608 13040 net.cpp:165] Memory required for data: 292865200
I1105 05:49:59.940618 13040 layer_factory.hpp:77] Creating layer group1_block1_conv1
I1105 05:49:59.940639 13040 net.cpp:100] Creating Layer group1_block1_conv1
I1105 05:49:59.940659 13040 net.cpp:434] group1_block1_conv1 <- group1_block1_conv0
I1105 05:49:59.940678 13040 net.cpp:408] group1_block1_conv1 -> group1_block1_conv1
I1105 05:49:59.940915 13040 net.cpp:150] Setting up group1_block1_conv1
I1105 05:49:59.940938 13040 net.cpp:157] Top shape: 100 32 16 16 (819200)
I1105 05:49:59.940948 13040 net.cpp:165] Memory required for data: 296142000
I1105 05:49:59.940963 13040 layer_factory.hpp:77] Creating layer group1_block1_conv1_bn
I1105 05:49:59.940976 13040 net.cpp:100] Creating Layer group1_block1_conv1_bn
I1105 05:49:59.940989 13040 net.cpp:434] group1_block1_conv1_bn <- group1_block1_conv1
I1105 05:49:59.941009 13040 net.cpp:395] group1_block1_conv1_bn -> group1_block1_conv1 (in-place)
I1105 05:49:59.941043 13040 net.cpp:150] Setting up group1_block1_conv1_bn
I1105 05:49:59.941063 13040 net.cpp:157] Top shape: 100 32 16 16 (819200)
I1105 05:49:59.941076 13040 net.cpp:165] Memory required for data: 299418800
I1105 05:49:59.941093 13040 layer_factory.hpp:77] Creating layer group1_block1_conv1_scale
I1105 05:49:59.941109 13040 net.cpp:100] Creating Layer group1_block1_conv1_scale
I1105 05:49:59.941120 13040 net.cpp:434] group1_block1_conv1_scale <- group1_block1_conv1
I1105 05:49:59.941138 13040 net.cpp:395] group1_block1_conv1_scale -> group1_block1_conv1 (in-place)
I1105 05:49:59.941170 13040 layer_factory.hpp:77] Creating layer group1_block1_conv1_scale
I1105 05:49:59.941208 13040 net.cpp:150] Setting up group1_block1_conv1_scale
I1105 05:49:59.941238 13040 net.cpp:157] Top shape: 100 32 16 16 (819200)
I1105 05:49:59.941248 13040 net.cpp:165] Memory required for data: 302695600
I1105 05:49:59.941263 13040 layer_factory.hpp:77] Creating layer group1_block1_sum
I1105 05:49:59.941279 13040 net.cpp:100] Creating Layer group1_block1_sum
I1105 05:49:59.941329 13040 net.cpp:434] group1_block1_sum <- group1_block1_conv1
I1105 05:49:59.941345 13040 net.cpp:434] group1_block1_sum <- group1_block0_sum_group1_block0_sum_0_split_1
I1105 05:49:59.941365 13040 net.cpp:408] group1_block1_sum -> group1_block1_sum
I1105 05:49:59.941393 13040 net.cpp:150] Setting up group1_block1_sum
I1105 05:49:59.941422 13040 net.cpp:157] Top shape: 100 32 16 16 (819200)
I1105 05:49:59.941435 13040 net.cpp:165] Memory required for data: 305972400
I1105 05:49:59.941484 13040 layer_factory.hpp:77] Creating layer group1_block1_sum_group1_block1_sum_0_split
I1105 05:49:59.941499 13040 net.cpp:100] Creating Layer group1_block1_sum_group1_block1_sum_0_split
I1105 05:49:59.941507 13040 net.cpp:434] group1_block1_sum_group1_block1_sum_0_split <- group1_block1_sum
I1105 05:49:59.941521 13040 net.cpp:408] group1_block1_sum_group1_block1_sum_0_split -> group1_block1_sum_group1_block1_sum_0_split_0
I1105 05:49:59.941550 13040 net.cpp:408] group1_block1_sum_group1_block1_sum_0_split -> group1_block1_sum_group1_block1_sum_0_split_1
I1105 05:49:59.941588 13040 net.cpp:150] Setting up group1_block1_sum_group1_block1_sum_0_split
I1105 05:49:59.941606 13040 net.cpp:157] Top shape: 100 32 16 16 (819200)
I1105 05:49:59.941617 13040 net.cpp:157] Top shape: 100 32 16 16 (819200)
I1105 05:49:59.941622 13040 net.cpp:165] Memory required for data: 312526000
I1105 05:49:59.941629 13040 layer_factory.hpp:77] Creating layer group1_block2_conv0
I1105 05:49:59.941646 13040 net.cpp:100] Creating Layer group1_block2_conv0
I1105 05:49:59.941655 13040 net.cpp:434] group1_block2_conv0 <- group1_block1_sum_group1_block1_sum_0_split_0
I1105 05:49:59.941668 13040 net.cpp:408] group1_block2_conv0 -> group1_block2_conv0
I1105 05:49:59.941848 13040 net.cpp:150] Setting up group1_block2_conv0
I1105 05:49:59.941869 13040 net.cpp:157] Top shape: 100 32 16 16 (819200)
I1105 05:49:59.941876 13040 net.cpp:165] Memory required for data: 315802800
I1105 05:49:59.941887 13040 layer_factory.hpp:77] Creating layer group1_block2_conv0_bn
I1105 05:49:59.941902 13040 net.cpp:100] Creating Layer group1_block2_conv0_bn
I1105 05:49:59.941921 13040 net.cpp:434] group1_block2_conv0_bn <- group1_block2_conv0
I1105 05:49:59.941932 13040 net.cpp:395] group1_block2_conv0_bn -> group1_block2_conv0 (in-place)
I1105 05:49:59.941963 13040 net.cpp:150] Setting up group1_block2_conv0_bn
I1105 05:49:59.941978 13040 net.cpp:157] Top shape: 100 32 16 16 (819200)
I1105 05:49:59.941987 13040 net.cpp:165] Memory required for data: 319079600
I1105 05:49:59.942000 13040 layer_factory.hpp:77] Creating layer group1_block2_conv0_scale
I1105 05:49:59.942018 13040 net.cpp:100] Creating Layer group1_block2_conv0_scale
I1105 05:49:59.942029 13040 net.cpp:434] group1_block2_conv0_scale <- group1_block2_conv0
I1105 05:49:59.942047 13040 net.cpp:395] group1_block2_conv0_scale -> group1_block2_conv0 (in-place)
I1105 05:49:59.942073 13040 layer_factory.hpp:77] Creating layer group1_block2_conv0_scale
I1105 05:49:59.942101 13040 net.cpp:150] Setting up group1_block2_conv0_scale
I1105 05:49:59.942112 13040 net.cpp:157] Top shape: 100 32 16 16 (819200)
I1105 05:49:59.942119 13040 net.cpp:165] Memory required for data: 322356400
I1105 05:49:59.942129 13040 layer_factory.hpp:77] Creating layer group1_block2_conv0_relu
I1105 05:49:59.942143 13040 net.cpp:100] Creating Layer group1_block2_conv0_relu
I1105 05:49:59.942158 13040 net.cpp:434] group1_block2_conv0_relu <- group1_block2_conv0
I1105 05:49:59.942173 13040 net.cpp:395] group1_block2_conv0_relu -> group1_block2_conv0 (in-place)
I1105 05:49:59.942185 13040 net.cpp:150] Setting up group1_block2_conv0_relu
I1105 05:49:59.942206 13040 net.cpp:157] Top shape: 100 32 16 16 (819200)
I1105 05:49:59.942214 13040 net.cpp:165] Memory required for data: 325633200
I1105 05:49:59.942222 13040 layer_factory.hpp:77] Creating layer group1_block2_conv1
I1105 05:49:59.942234 13040 net.cpp:100] Creating Layer group1_block2_conv1
I1105 05:49:59.942242 13040 net.cpp:434] group1_block2_conv1 <- group1_block2_conv0
I1105 05:49:59.942256 13040 net.cpp:408] group1_block2_conv1 -> group1_block2_conv1
I1105 05:49:59.942428 13040 net.cpp:150] Setting up group1_block2_conv1
I1105 05:49:59.942445 13040 net.cpp:157] Top shape: 100 32 16 16 (819200)
I1105 05:49:59.942453 13040 net.cpp:165] Memory required for data: 328910000
I1105 05:49:59.942463 13040 layer_factory.hpp:77] Creating layer group1_block2_conv1_bn
I1105 05:49:59.942478 13040 net.cpp:100] Creating Layer group1_block2_conv1_bn
I1105 05:49:59.942509 13040 net.cpp:434] group1_block2_conv1_bn <- group1_block2_conv1
I1105 05:49:59.942523 13040 net.cpp:395] group1_block2_conv1_bn -> group1_block2_conv1 (in-place)
I1105 05:49:59.942555 13040 net.cpp:150] Setting up group1_block2_conv1_bn
I1105 05:49:59.942572 13040 net.cpp:157] Top shape: 100 32 16 16 (819200)
I1105 05:49:59.942579 13040 net.cpp:165] Memory required for data: 332186800
I1105 05:49:59.942591 13040 layer_factory.hpp:77] Creating layer group1_block2_conv1_scale
I1105 05:49:59.942603 13040 net.cpp:100] Creating Layer group1_block2_conv1_scale
I1105 05:49:59.942611 13040 net.cpp:434] group1_block2_conv1_scale <- group1_block2_conv1
I1105 05:49:59.942643 13040 net.cpp:395] group1_block2_conv1_scale -> group1_block2_conv1 (in-place)
I1105 05:49:59.942661 13040 layer_factory.hpp:77] Creating layer group1_block2_conv1_scale
I1105 05:49:59.942695 13040 net.cpp:150] Setting up group1_block2_conv1_scale
I1105 05:49:59.942711 13040 net.cpp:157] Top shape: 100 32 16 16 (819200)
I1105 05:49:59.942718 13040 net.cpp:165] Memory required for data: 335463600
I1105 05:49:59.942728 13040 layer_factory.hpp:77] Creating layer group1_block2_sum
I1105 05:49:59.942739 13040 net.cpp:100] Creating Layer group1_block2_sum
I1105 05:49:59.942747 13040 net.cpp:434] group1_block2_sum <- group1_block2_conv1
I1105 05:49:59.942756 13040 net.cpp:434] group1_block2_sum <- group1_block1_sum_group1_block1_sum_0_split_1
I1105 05:49:59.942770 13040 net.cpp:408] group1_block2_sum -> group1_block2_sum
I1105 05:49:59.942791 13040 net.cpp:150] Setting up group1_block2_sum
I1105 05:49:59.942803 13040 net.cpp:157] Top shape: 100 32 16 16 (819200)
I1105 05:49:59.942811 13040 net.cpp:165] Memory required for data: 338740400
I1105 05:49:59.942817 13040 layer_factory.hpp:77] Creating layer group1_block2_sum_group1_block2_sum_0_split
I1105 05:49:59.942827 13040 net.cpp:100] Creating Layer group1_block2_sum_group1_block2_sum_0_split
I1105 05:49:59.942837 13040 net.cpp:434] group1_block2_sum_group1_block2_sum_0_split <- group1_block2_sum
I1105 05:49:59.942852 13040 net.cpp:408] group1_block2_sum_group1_block2_sum_0_split -> group1_block2_sum_group1_block2_sum_0_split_0
I1105 05:49:59.942879 13040 net.cpp:408] group1_block2_sum_group1_block2_sum_0_split -> group1_block2_sum_group1_block2_sum_0_split_1
I1105 05:49:59.942896 13040 net.cpp:150] Setting up group1_block2_sum_group1_block2_sum_0_split
I1105 05:49:59.942906 13040 net.cpp:157] Top shape: 100 32 16 16 (819200)
I1105 05:49:59.942915 13040 net.cpp:157] Top shape: 100 32 16 16 (819200)
I1105 05:49:59.942922 13040 net.cpp:165] Memory required for data: 345294000
I1105 05:49:59.942929 13040 layer_factory.hpp:77] Creating layer group2_block0_conv0
I1105 05:49:59.942967 13040 net.cpp:100] Creating Layer group2_block0_conv0
I1105 05:49:59.942977 13040 net.cpp:434] group2_block0_conv0 <- group1_block2_sum_group1_block2_sum_0_split_0
I1105 05:49:59.942996 13040 net.cpp:408] group2_block0_conv0 -> group2_block0_conv0
I1105 05:49:59.943339 13040 net.cpp:150] Setting up group2_block0_conv0
I1105 05:49:59.943361 13040 net.cpp:157] Top shape: 100 64 8 8 (409600)
I1105 05:49:59.943382 13040 net.cpp:165] Memory required for data: 346932400
I1105 05:49:59.943395 13040 layer_factory.hpp:77] Creating layer group2_block0_conv0_bn
I1105 05:49:59.943409 13040 net.cpp:100] Creating Layer group2_block0_conv0_bn
I1105 05:49:59.943424 13040 net.cpp:434] group2_block0_conv0_bn <- group2_block0_conv0
I1105 05:49:59.943441 13040 net.cpp:395] group2_block0_conv0_bn -> group2_block0_conv0 (in-place)
I1105 05:49:59.943466 13040 net.cpp:150] Setting up group2_block0_conv0_bn
I1105 05:49:59.943482 13040 net.cpp:157] Top shape: 100 64 8 8 (409600)
I1105 05:49:59.943490 13040 net.cpp:165] Memory required for data: 348570800
I1105 05:49:59.943502 13040 layer_factory.hpp:77] Creating layer group2_block0_conv0_scale
I1105 05:49:59.943512 13040 net.cpp:100] Creating Layer group2_block0_conv0_scale
I1105 05:49:59.943521 13040 net.cpp:434] group2_block0_conv0_scale <- group2_block0_conv0
I1105 05:49:59.943533 13040 net.cpp:395] group2_block0_conv0_scale -> group2_block0_conv0 (in-place)
I1105 05:49:59.943575 13040 layer_factory.hpp:77] Creating layer group2_block0_conv0_scale
I1105 05:49:59.943601 13040 net.cpp:150] Setting up group2_block0_conv0_scale
I1105 05:49:59.943619 13040 net.cpp:157] Top shape: 100 64 8 8 (409600)
I1105 05:49:59.943627 13040 net.cpp:165] Memory required for data: 350209200
I1105 05:49:59.943637 13040 layer_factory.hpp:77] Creating layer group2_block0_conv0_relu
I1105 05:49:59.943655 13040 net.cpp:100] Creating Layer group2_block0_conv0_relu
I1105 05:49:59.943663 13040 net.cpp:434] group2_block0_conv0_relu <- group2_block0_conv0
I1105 05:49:59.943672 13040 net.cpp:395] group2_block0_conv0_relu -> group2_block0_conv0 (in-place)
I1105 05:49:59.943683 13040 net.cpp:150] Setting up group2_block0_conv0_relu
I1105 05:49:59.943693 13040 net.cpp:157] Top shape: 100 64 8 8 (409600)
I1105 05:49:59.943699 13040 net.cpp:165] Memory required for data: 351847600
I1105 05:49:59.943707 13040 layer_factory.hpp:77] Creating layer group2_block0_conv1
I1105 05:49:59.943723 13040 net.cpp:100] Creating Layer group2_block0_conv1
I1105 05:49:59.943733 13040 net.cpp:434] group2_block0_conv1 <- group2_block0_conv0
I1105 05:49:59.943747 13040 net.cpp:408] group2_block0_conv1 -> group2_block0_conv1
I1105 05:49:59.944407 13040 net.cpp:150] Setting up group2_block0_conv1
I1105 05:49:59.944428 13040 net.cpp:157] Top shape: 100 64 8 8 (409600)
I1105 05:49:59.944435 13040 net.cpp:165] Memory required for data: 353486000
I1105 05:49:59.944450 13040 layer_factory.hpp:77] Creating layer group2_block0_conv1_bn
I1105 05:49:59.944461 13040 net.cpp:100] Creating Layer group2_block0_conv1_bn
I1105 05:49:59.944469 13040 net.cpp:434] group2_block0_conv1_bn <- group2_block0_conv1
I1105 05:49:59.944483 13040 net.cpp:395] group2_block0_conv1_bn -> group2_block0_conv1 (in-place)
I1105 05:49:59.944510 13040 net.cpp:150] Setting up group2_block0_conv1_bn
I1105 05:49:59.944527 13040 net.cpp:157] Top shape: 100 64 8 8 (409600)
I1105 05:49:59.944538 13040 net.cpp:165] Memory required for data: 355124400
I1105 05:49:59.944550 13040 layer_factory.hpp:77] Creating layer group2_block0_conv1_scale
I1105 05:49:59.944561 13040 net.cpp:100] Creating Layer group2_block0_conv1_scale
I1105 05:49:59.944568 13040 net.cpp:434] group2_block0_conv1_scale <- group2_block0_conv1
I1105 05:49:59.944577 13040 net.cpp:395] group2_block0_conv1_scale -> group2_block0_conv1 (in-place)
I1105 05:49:59.944592 13040 layer_factory.hpp:77] Creating layer group2_block0_conv1_scale
I1105 05:49:59.944617 13040 net.cpp:150] Setting up group2_block0_conv1_scale
I1105 05:49:59.944633 13040 net.cpp:157] Top shape: 100 64 8 8 (409600)
I1105 05:49:59.944640 13040 net.cpp:165] Memory required for data: 356762800
I1105 05:49:59.944653 13040 layer_factory.hpp:77] Creating layer group2_block0_proj
I1105 05:49:59.944679 13040 net.cpp:100] Creating Layer group2_block0_proj
I1105 05:49:59.944686 13040 net.cpp:434] group2_block0_proj <- group1_block2_sum_group1_block2_sum_0_split_1
I1105 05:49:59.944699 13040 net.cpp:408] group2_block0_proj -> group2_block0_proj
I1105 05:49:59.944864 13040 net.cpp:150] Setting up group2_block0_proj
I1105 05:49:59.944876 13040 net.cpp:157] Top shape: 100 64 8 8 (409600)
I1105 05:49:59.944883 13040 net.cpp:165] Memory required for data: 358401200
I1105 05:49:59.944895 13040 layer_factory.hpp:77] Creating layer group2_block0_proj_bn
I1105 05:49:59.944910 13040 net.cpp:100] Creating Layer group2_block0_proj_bn
I1105 05:49:59.944924 13040 net.cpp:434] group2_block0_proj_bn <- group2_block0_proj
I1105 05:49:59.944934 13040 net.cpp:395] group2_block0_proj_bn -> group2_block0_proj (in-place)
I1105 05:49:59.944963 13040 net.cpp:150] Setting up group2_block0_proj_bn
I1105 05:49:59.944974 13040 net.cpp:157] Top shape: 100 64 8 8 (409600)
I1105 05:49:59.944986 13040 net.cpp:165] Memory required for data: 360039600
I1105 05:49:59.944999 13040 layer_factory.hpp:77] Creating layer group2_block0_proj_scale
I1105 05:49:59.945009 13040 net.cpp:100] Creating Layer group2_block0_proj_scale
I1105 05:49:59.945046 13040 net.cpp:434] group2_block0_proj_scale <- group2_block0_proj
I1105 05:49:59.945061 13040 net.cpp:395] group2_block0_proj_scale -> group2_block0_proj (in-place)
I1105 05:49:59.945080 13040 layer_factory.hpp:77] Creating layer group2_block0_proj_scale
I1105 05:49:59.945106 13040 net.cpp:150] Setting up group2_block0_proj_scale
I1105 05:49:59.945122 13040 net.cpp:157] Top shape: 100 64 8 8 (409600)
I1105 05:49:59.945129 13040 net.cpp:165] Memory required for data: 361678000
I1105 05:49:59.945140 13040 layer_factory.hpp:77] Creating layer group2_block0_sum
I1105 05:49:59.945150 13040 net.cpp:100] Creating Layer group2_block0_sum
I1105 05:49:59.945158 13040 net.cpp:434] group2_block0_sum <- group2_block0_proj
I1105 05:49:59.945166 13040 net.cpp:434] group2_block0_sum <- group2_block0_conv1
I1105 05:49:59.945180 13040 net.cpp:408] group2_block0_sum -> group2_block0_sum
I1105 05:49:59.945197 13040 net.cpp:150] Setting up group2_block0_sum
I1105 05:49:59.945207 13040 net.cpp:157] Top shape: 100 64 8 8 (409600)
I1105 05:49:59.945214 13040 net.cpp:165] Memory required for data: 363316400
I1105 05:49:59.945220 13040 layer_factory.hpp:77] Creating layer group2_block0_sum_group2_block0_sum_0_split
I1105 05:49:59.945235 13040 net.cpp:100] Creating Layer group2_block0_sum_group2_block0_sum_0_split
I1105 05:49:59.945242 13040 net.cpp:434] group2_block0_sum_group2_block0_sum_0_split <- group2_block0_sum
I1105 05:49:59.945255 13040 net.cpp:408] group2_block0_sum_group2_block0_sum_0_split -> group2_block0_sum_group2_block0_sum_0_split_0
I1105 05:49:59.945268 13040 net.cpp:408] group2_block0_sum_group2_block0_sum_0_split -> group2_block0_sum_group2_block0_sum_0_split_1
I1105 05:49:59.945315 13040 net.cpp:150] Setting up group2_block0_sum_group2_block0_sum_0_split
I1105 05:49:59.945329 13040 net.cpp:157] Top shape: 100 64 8 8 (409600)
I1105 05:49:59.945340 13040 net.cpp:157] Top shape: 100 64 8 8 (409600)
I1105 05:49:59.945348 13040 net.cpp:165] Memory required for data: 366593200
I1105 05:49:59.945354 13040 layer_factory.hpp:77] Creating layer group2_block1_conv0
I1105 05:49:59.945368 13040 net.cpp:100] Creating Layer group2_block1_conv0
I1105 05:49:59.945376 13040 net.cpp:434] group2_block1_conv0 <- group2_block0_sum_group2_block0_sum_0_split_0
I1105 05:49:59.945392 13040 net.cpp:408] group2_block1_conv0 -> group2_block1_conv0
I1105 05:49:59.946038 13040 net.cpp:150] Setting up group2_block1_conv0
I1105 05:49:59.946060 13040 net.cpp:157] Top shape: 100 64 8 8 (409600)
I1105 05:49:59.946069 13040 net.cpp:165] Memory required for data: 368231600
I1105 05:49:59.946079 13040 layer_factory.hpp:77] Creating layer group2_block1_conv0_bn
I1105 05:49:59.946090 13040 net.cpp:100] Creating Layer group2_block1_conv0_bn
I1105 05:49:59.946097 13040 net.cpp:434] group2_block1_conv0_bn <- group2_block1_conv0
I1105 05:49:59.946106 13040 net.cpp:395] group2_block1_conv0_bn -> group2_block1_conv0 (in-place)
I1105 05:49:59.946128 13040 net.cpp:150] Setting up group2_block1_conv0_bn
I1105 05:49:59.946140 13040 net.cpp:157] Top shape: 100 64 8 8 (409600)
I1105 05:49:59.946146 13040 net.cpp:165] Memory required for data: 369870000
I1105 05:49:59.946157 13040 layer_factory.hpp:77] Creating layer group2_block1_conv0_scale
I1105 05:49:59.946173 13040 net.cpp:100] Creating Layer group2_block1_conv0_scale
I1105 05:49:59.946182 13040 net.cpp:434] group2_block1_conv0_scale <- group2_block1_conv0
I1105 05:49:59.946190 13040 net.cpp:395] group2_block1_conv0_scale -> group2_block1_conv0 (in-place)
I1105 05:49:59.946205 13040 layer_factory.hpp:77] Creating layer group2_block1_conv0_scale
I1105 05:49:59.946234 13040 net.cpp:150] Setting up group2_block1_conv0_scale
I1105 05:49:59.946251 13040 net.cpp:157] Top shape: 100 64 8 8 (409600)
I1105 05:49:59.946257 13040 net.cpp:165] Memory required for data: 371508400
I1105 05:49:59.946267 13040 layer_factory.hpp:77] Creating layer group2_block1_conv0_relu
I1105 05:49:59.946276 13040 net.cpp:100] Creating Layer group2_block1_conv0_relu
I1105 05:49:59.946285 13040 net.cpp:434] group2_block1_conv0_relu <- group2_block1_conv0
I1105 05:49:59.946322 13040 net.cpp:395] group2_block1_conv0_relu -> group2_block1_conv0 (in-place)
I1105 05:49:59.946334 13040 net.cpp:150] Setting up group2_block1_conv0_relu
I1105 05:49:59.946343 13040 net.cpp:157] Top shape: 100 64 8 8 (409600)
I1105 05:49:59.946349 13040 net.cpp:165] Memory required for data: 373146800
I1105 05:49:59.946357 13040 layer_factory.hpp:77] Creating layer group2_block1_conv1
I1105 05:49:59.946369 13040 net.cpp:100] Creating Layer group2_block1_conv1
I1105 05:49:59.946377 13040 net.cpp:434] group2_block1_conv1 <- group2_block1_conv0
I1105 05:49:59.946388 13040 net.cpp:408] group2_block1_conv1 -> group2_block1_conv1
I1105 05:49:59.947031 13040 net.cpp:150] Setting up group2_block1_conv1
I1105 05:49:59.947042 13040 net.cpp:157] Top shape: 100 64 8 8 (409600)
I1105 05:49:59.947049 13040 net.cpp:165] Memory required for data: 374785200
I1105 05:49:59.947063 13040 layer_factory.hpp:77] Creating layer group2_block1_conv1_bn
I1105 05:49:59.947088 13040 net.cpp:100] Creating Layer group2_block1_conv1_bn
I1105 05:49:59.947095 13040 net.cpp:434] group2_block1_conv1_bn <- group2_block1_conv1
I1105 05:49:59.947104 13040 net.cpp:395] group2_block1_conv1_bn -> group2_block1_conv1 (in-place)
I1105 05:49:59.947125 13040 net.cpp:150] Setting up group2_block1_conv1_bn
I1105 05:49:59.947140 13040 net.cpp:157] Top shape: 100 64 8 8 (409600)
I1105 05:49:59.947146 13040 net.cpp:165] Memory required for data: 376423600
I1105 05:49:59.947183 13040 layer_factory.hpp:77] Creating layer group2_block1_conv1_scale
I1105 05:49:59.947198 13040 net.cpp:100] Creating Layer group2_block1_conv1_scale
I1105 05:49:59.947206 13040 net.cpp:434] group2_block1_conv1_scale <- group2_block1_conv1
I1105 05:49:59.947216 13040 net.cpp:395] group2_block1_conv1_scale -> group2_block1_conv1 (in-place)
I1105 05:49:59.947232 13040 layer_factory.hpp:77] Creating layer group2_block1_conv1_scale
I1105 05:49:59.947258 13040 net.cpp:150] Setting up group2_block1_conv1_scale
I1105 05:49:59.947275 13040 net.cpp:157] Top shape: 100 64 8 8 (409600)
I1105 05:49:59.947283 13040 net.cpp:165] Memory required for data: 378062000
I1105 05:49:59.947293 13040 layer_factory.hpp:77] Creating layer group2_block1_sum
I1105 05:49:59.947304 13040 net.cpp:100] Creating Layer group2_block1_sum
I1105 05:49:59.947310 13040 net.cpp:434] group2_block1_sum <- group2_block1_conv1
I1105 05:49:59.947319 13040 net.cpp:434] group2_block1_sum <- group2_block0_sum_group2_block0_sum_0_split_1
I1105 05:49:59.947332 13040 net.cpp:408] group2_block1_sum -> group2_block1_sum
I1105 05:49:59.947347 13040 net.cpp:150] Setting up group2_block1_sum
I1105 05:49:59.947361 13040 net.cpp:157] Top shape: 100 64 8 8 (409600)
I1105 05:49:59.947367 13040 net.cpp:165] Memory required for data: 379700400
I1105 05:49:59.947374 13040 layer_factory.hpp:77] Creating layer group2_block1_sum_group2_block1_sum_0_split
I1105 05:49:59.947384 13040 net.cpp:100] Creating Layer group2_block1_sum_group2_block1_sum_0_split
I1105 05:49:59.947391 13040 net.cpp:434] group2_block1_sum_group2_block1_sum_0_split <- group2_block1_sum
I1105 05:49:59.947402 13040 net.cpp:408] group2_block1_sum_group2_block1_sum_0_split -> group2_block1_sum_group2_block1_sum_0_split_0
I1105 05:49:59.947415 13040 net.cpp:408] group2_block1_sum_group2_block1_sum_0_split -> group2_block1_sum_group2_block1_sum_0_split_1
I1105 05:49:59.947430 13040 net.cpp:150] Setting up group2_block1_sum_group2_block1_sum_0_split
I1105 05:49:59.947446 13040 net.cpp:157] Top shape: 100 64 8 8 (409600)
I1105 05:49:59.947455 13040 net.cpp:157] Top shape: 100 64 8 8 (409600)
I1105 05:49:59.947461 13040 net.cpp:165] Memory required for data: 382977200
I1105 05:49:59.947468 13040 layer_factory.hpp:77] Creating layer group2_block2_conv0
I1105 05:49:59.947480 13040 net.cpp:100] Creating Layer group2_block2_conv0
I1105 05:49:59.947487 13040 net.cpp:434] group2_block2_conv0 <- group2_block1_sum_group2_block1_sum_0_split_0
I1105 05:49:59.947499 13040 net.cpp:408] group2_block2_conv0 -> group2_block2_conv0
I1105 05:49:59.948129 13040 net.cpp:150] Setting up group2_block2_conv0
I1105 05:49:59.948154 13040 net.cpp:157] Top shape: 100 64 8 8 (409600)
I1105 05:49:59.948161 13040 net.cpp:165] Memory required for data: 384615600
I1105 05:49:59.948174 13040 layer_factory.hpp:77] Creating layer group2_block2_conv0_bn
I1105 05:49:59.948189 13040 net.cpp:100] Creating Layer group2_block2_conv0_bn
I1105 05:49:59.948195 13040 net.cpp:434] group2_block2_conv0_bn <- group2_block2_conv0
I1105 05:49:59.948205 13040 net.cpp:395] group2_block2_conv0_bn -> group2_block2_conv0 (in-place)
I1105 05:49:59.948232 13040 net.cpp:150] Setting up group2_block2_conv0_bn
I1105 05:49:59.948248 13040 net.cpp:157] Top shape: 100 64 8 8 (409600)
I1105 05:49:59.948256 13040 net.cpp:165] Memory required for data: 386254000
I1105 05:49:59.948267 13040 layer_factory.hpp:77] Creating layer group2_block2_conv0_scale
I1105 05:49:59.948277 13040 net.cpp:100] Creating Layer group2_block2_conv0_scale
I1105 05:49:59.948288 13040 net.cpp:434] group2_block2_conv0_scale <- group2_block2_conv0
I1105 05:49:59.948302 13040 net.cpp:395] group2_block2_conv0_scale -> group2_block2_conv0 (in-place)
I1105 05:49:59.948317 13040 layer_factory.hpp:77] Creating layer group2_block2_conv0_scale
I1105 05:49:59.948343 13040 net.cpp:150] Setting up group2_block2_conv0_scale
I1105 05:49:59.948354 13040 net.cpp:157] Top shape: 100 64 8 8 (409600)
I1105 05:49:59.948360 13040 net.cpp:165] Memory required for data: 387892400
I1105 05:49:59.948370 13040 layer_factory.hpp:77] Creating layer group2_block2_conv0_relu
I1105 05:49:59.948379 13040 net.cpp:100] Creating Layer group2_block2_conv0_relu
I1105 05:49:59.948387 13040 net.cpp:434] group2_block2_conv0_relu <- group2_block2_conv0
I1105 05:49:59.948396 13040 net.cpp:395] group2_block2_conv0_relu -> group2_block2_conv0 (in-place)
I1105 05:49:59.948406 13040 net.cpp:150] Setting up group2_block2_conv0_relu
I1105 05:49:59.948415 13040 net.cpp:157] Top shape: 100 64 8 8 (409600)
I1105 05:49:59.948422 13040 net.cpp:165] Memory required for data: 389530800
I1105 05:49:59.948428 13040 layer_factory.hpp:77] Creating layer group2_block2_conv1
I1105 05:49:59.948443 13040 net.cpp:100] Creating Layer group2_block2_conv1
I1105 05:49:59.948457 13040 net.cpp:434] group2_block2_conv1 <- group2_block2_conv0
I1105 05:49:59.948472 13040 net.cpp:408] group2_block2_conv1 -> group2_block2_conv1
I1105 05:49:59.949097 13040 net.cpp:150] Setting up group2_block2_conv1
I1105 05:49:59.949110 13040 net.cpp:157] Top shape: 100 64 8 8 (409600)
I1105 05:49:59.949117 13040 net.cpp:165] Memory required for data: 391169200
I1105 05:49:59.949131 13040 layer_factory.hpp:77] Creating layer group2_block2_conv1_bn
I1105 05:49:59.949141 13040 net.cpp:100] Creating Layer group2_block2_conv1_bn
I1105 05:49:59.949148 13040 net.cpp:434] group2_block2_conv1_bn <- group2_block2_conv1
I1105 05:49:59.949158 13040 net.cpp:395] group2_block2_conv1_bn -> group2_block2_conv1 (in-place)
I1105 05:49:59.949179 13040 net.cpp:150] Setting up group2_block2_conv1_bn
I1105 05:49:59.949205 13040 net.cpp:157] Top shape: 100 64 8 8 (409600)
I1105 05:49:59.949213 13040 net.cpp:165] Memory required for data: 392807600
I1105 05:49:59.949223 13040 layer_factory.hpp:77] Creating layer group2_block2_conv1_scale
I1105 05:49:59.949240 13040 net.cpp:100] Creating Layer group2_block2_conv1_scale
I1105 05:49:59.949249 13040 net.cpp:434] group2_block2_conv1_scale <- group2_block2_conv1
I1105 05:49:59.949257 13040 net.cpp:395] group2_block2_conv1_scale -> group2_block2_conv1 (in-place)
I1105 05:49:59.949272 13040 layer_factory.hpp:77] Creating layer group2_block2_conv1_scale
I1105 05:49:59.949318 13040 net.cpp:150] Setting up group2_block2_conv1_scale
I1105 05:49:59.949334 13040 net.cpp:157] Top shape: 100 64 8 8 (409600)
I1105 05:49:59.949342 13040 net.cpp:165] Memory required for data: 394446000
I1105 05:49:59.949352 13040 layer_factory.hpp:77] Creating layer group2_block2_sum
I1105 05:49:59.949364 13040 net.cpp:100] Creating Layer group2_block2_sum
I1105 05:49:59.949373 13040 net.cpp:434] group2_block2_sum <- group2_block2_conv1
I1105 05:49:59.949380 13040 net.cpp:434] group2_block2_sum <- group2_block1_sum_group2_block1_sum_0_split_1
I1105 05:49:59.949414 13040 net.cpp:408] group2_block2_sum -> group2_block2_sum
I1105 05:49:59.949426 13040 net.cpp:150] Setting up group2_block2_sum
I1105 05:49:59.949435 13040 net.cpp:157] Top shape: 100 64 8 8 (409600)
I1105 05:49:59.949442 13040 net.cpp:165] Memory required for data: 396084400
I1105 05:49:59.949448 13040 layer_factory.hpp:77] Creating layer global_avg_pool
I1105 05:49:59.949460 13040 net.cpp:100] Creating Layer global_avg_pool
I1105 05:49:59.949470 13040 net.cpp:434] global_avg_pool <- group2_block2_sum
I1105 05:49:59.949481 13040 net.cpp:408] global_avg_pool -> global_avg_pool
I1105 05:49:59.949517 13040 net.cpp:150] Setting up global_avg_pool
I1105 05:49:59.949527 13040 net.cpp:157] Top shape: 100 64 1 1 (6400)
I1105 05:49:59.949534 13040 net.cpp:165] Memory required for data: 396110000
I1105 05:49:59.949542 13040 layer_factory.hpp:77] Creating layer fc
I1105 05:49:59.949558 13040 net.cpp:100] Creating Layer fc
I1105 05:49:59.949570 13040 net.cpp:434] fc <- global_avg_pool
I1105 05:49:59.949591 13040 net.cpp:408] fc -> fc
I1105 05:49:59.949628 13040 net.cpp:150] Setting up fc
I1105 05:49:59.949643 13040 net.cpp:157] Top shape: 100 12 (1200)
I1105 05:49:59.949651 13040 net.cpp:165] Memory required for data: 396114800
I1105 05:49:59.949661 13040 layer_factory.hpp:77] Creating layer fc_fc_0_split
I1105 05:49:59.949669 13040 net.cpp:100] Creating Layer fc_fc_0_split
I1105 05:49:59.949676 13040 net.cpp:434] fc_fc_0_split <- fc
I1105 05:49:59.949688 13040 net.cpp:408] fc_fc_0_split -> fc_fc_0_split_0
I1105 05:49:59.949699 13040 net.cpp:408] fc_fc_0_split -> fc_fc_0_split_1
I1105 05:49:59.949717 13040 net.cpp:150] Setting up fc_fc_0_split
I1105 05:49:59.949726 13040 net.cpp:157] Top shape: 100 12 (1200)
I1105 05:49:59.949735 13040 net.cpp:157] Top shape: 100 12 (1200)
I1105 05:49:59.949741 13040 net.cpp:165] Memory required for data: 396124400
I1105 05:49:59.949748 13040 layer_factory.hpp:77] Creating layer loss
I1105 05:49:59.949756 13040 net.cpp:100] Creating Layer loss
I1105 05:49:59.949764 13040 net.cpp:434] loss <- fc_fc_0_split_0
I1105 05:49:59.949771 13040 net.cpp:434] loss <- label_data_1_split_0
I1105 05:49:59.949781 13040 net.cpp:408] loss -> loss
I1105 05:49:59.949795 13040 layer_factory.hpp:77] Creating layer loss
I1105 05:49:59.949832 13040 net.cpp:150] Setting up loss
I1105 05:49:59.949843 13040 net.cpp:157] Top shape: (1)
I1105 05:49:59.949849 13040 net.cpp:160]     with loss weight 1
I1105 05:49:59.949885 13040 net.cpp:165] Memory required for data: 396124404
I1105 05:49:59.949892 13040 layer_factory.hpp:77] Creating layer softmax
I1105 05:49:59.949901 13040 net.cpp:100] Creating Layer softmax
I1105 05:49:59.949908 13040 net.cpp:434] softmax <- fc_fc_0_split_1
I1105 05:49:59.949918 13040 net.cpp:408] softmax -> softmax
I1105 05:49:59.949934 13040 net.cpp:150] Setting up softmax
I1105 05:49:59.949947 13040 net.cpp:157] Top shape: 100 12 (1200)
I1105 05:49:59.949954 13040 net.cpp:165] Memory required for data: 396129204
I1105 05:49:59.949960 13040 layer_factory.hpp:77] Creating layer Accuracy
I1105 05:49:59.949970 13040 net.cpp:100] Creating Layer Accuracy
I1105 05:49:59.949977 13040 net.cpp:434] Accuracy <- softmax
I1105 05:49:59.949985 13040 net.cpp:434] Accuracy <- label_data_1_split_1
I1105 05:49:59.949995 13040 net.cpp:408] Accuracy -> Accuracy
…
