…
I1102 11:20:06.930258 12330 net.cpp:322] The NetState phase (0) differed from the phase (1) specified by a rule in layer data
I1102 11:20:06.931057 12330 net.cpp:58] Initializing net from parameters: 
name: "resnet20-cifar10"
state {
  phase: TRAIN
  level: 0
  stage: ""
}
layer {
  name: "data"
  type: "Data"
  top: "data"
  top: "label"
  include {
    phase: TRAIN
  }
  transform_param {
    mirror: true
    crop_size: 32
    mean_file: "data/mean.binaryproto"
  }
  data_param {
    source: "data/train_lmdb"
    batch_size: 100
    backend: LMDB
  }
}
layer {
  name: "first_conv"
  type: "Convolution"
  bottom: "data"
  top: "first_conv"
  param {
    lr_mult: 1
    decay_mult: 1
  }
  convolution_param {
    num_output: 16
    pad: 1
    kernel_size: 3
    stride: 1
    weight_filler {
      type: "msra"
    }
  }
}
layer {
  name: "first_conv_bn"
  type: "BatchNorm"
  bottom: "first_conv"
  top: "first_conv"
  batch_norm_param {
    use_global_stats: false
    moving_average_fraction: 0.95
  }
}
layer {
  name: "first_conv_scale"
  type: "Scale"
  bottom: "first_conv"
  top: "first_conv"
  scale_param {
    bias_term: true
  }
}
layer {
  name: "first_conv_relu"
  type: "ReLU"
  bottom: "first_conv"
  top: "first_conv"
}
layer {
  name: "group0_block0_conv0"
  type: "Convolution"
  bottom: "first_conv"
  top: "group0_block0_conv0"
  param {
    lr_mult: 1
    decay_mult: 1
  }
  convolution_param {
    num_output: 16
    pad: 1
    kernel_size: 3
    stride: 1
    weight_filler {
      type: "msra"
    }
  }
}
layer {
  name: "group0_block0_conv0_bn"
  type: "BatchNorm"
  bottom: "group0_block0_conv0"
  top: "group0_block0_conv0"
  batch_norm_param {
    use_global_stats: false
    moving_average_fraction: 0.95
  }
}
layer {
  name: "group0_block0_conv0_scale"
  type: "Scale"
  bottom: "group0_block0_conv0"
  top: "group0_block0_conv0"
  scale_param {
    bias_term: true
  }
}
layer {
  name: "group0_block0_conv0_relu"
  type: "ReLU"
  bottom: "group0_block0_conv0"
  top: "group0_block0_conv0"
}
layer {
  name: "group0_block0_conv1"
  type: "Convolution"
  bottom: "group0_block0_conv0"
  top: "group0_block0_conv1"
  param {
    lr_mult: 1
    decay_mult: 1
  }
  convolution_param {
    num_output: 16
    pad: 1
    kernel_size: 3
    stride: 1
    weight_filler {
      type: "msra"
    }
  }
}
layer {
  name: "group0_block0_conv1_bn"
  type: "BatchNorm"
  bottom: "group0_block0_conv1"
  top: "group0_block0_conv1"
  batch_norm_param {
    use_global_stats: false
    moving_average_fraction: 0.95
  }
}
layer {
  name: "group0_block0_conv1_scale"
  type: "Scale"
  bottom: "group0_block0_conv1"
  top: "group0_block0_conv1"
  scale_param {
    bias_term: true
  }
}
layer {
  name: "group0_block0_sum"
  type: "Eltwise"
  bottom: "group0_block0_conv1"
  bottom: "first_conv"
  top: "group0_block0_sum"
  eltwise_param {
    operation: SUM
  }
}
layer {
  name: "group0_block1_conv0"
  type: "Convolution"
  bottom: "group0_block0_sum"
  top: "group0_block1_conv0"
  param {
    lr_mult: 1
    decay_mult: 1
  }
  convolution_param {
    num_output: 16
    pad: 1
    kernel_size: 3
    stride: 1
    weight_filler {
      type: "msra"
    }
  }
}
layer {
  name: "group0_block1_conv0_bn"
  type: "BatchNorm"
  bottom: "group0_block1_conv0"
  top: "group0_block1_conv0"
  batch_norm_param {
    use_global_stats: false
    moving_average_fraction: 0.95
  }
}
layer {
  name: "group0_block1_conv0_scale"
  type: "Scale"
  bottom: "group0_block1_conv0"
  top: "group0_block1_conv0"
  scale_param {
    bias_term: true
  }
}
layer {
  name: "group0_block1_conv0_relu"
  type: "ReLU"
  bottom: "group0_block1_conv0"
  top: "group0_block1_conv0"
}
layer {
  name: "group0_block1_conv1"
  type: "Convolution"
  bottom: "group0_block1_conv0"
  top: "group0_block1_conv1"
  param {
    lr_mult: 1
    decay_mult: 1
  }
  convolution_param {
    num_output: 16
    pad: 1
    kernel_size: 3
    stride: 1
    weight_filler {
      type: "msra"
    }
  }
}
layer {
  name: "group0_block1_conv1_bn"
  type: "BatchNorm"
  bottom: "group0_block1_conv1"
  top: "group0_block1_conv1"
  batch_norm_param {
    use_global_stats: false
    moving_average_fraction: 0.95
  }
}
layer {
  name: "group0_block1_conv1_scale"
  type: "Scale"
  bottom: "group0_block1_conv1"
  top: "group0_block1_conv1"
  scale_param {
    bias_term: true
  }
}
layer {
  name: "group0_block1_sum"
  type: "Eltwise"
  bottom: "group0_block1_conv1"
  bottom: "group0_block0_sum"
  top: "group0_block1_sum"
  eltwise_param {
    operation: SUM
  }
}
layer {
  name: "group0_block2_conv0"
  type: "Convolution"
  bottom: "group0_block1_sum"
  top: "group0_block2_conv0"
  param {
    lr_mult: 1
    decay_mult: 1
  }
  convolution_param {
    num_output: 16
    pad: 1
    kernel_size: 3
    stride: 1
    weight_filler {
      type: "msra"
    }
  }
}
layer {
  name: "group0_block2_conv0_bn"
  type: "BatchNorm"
  bottom: "group0_block2_conv0"
  top: "group0_block2_conv0"
  batch_norm_param {
    use_global_stats: false
    moving_average_fraction: 0.95
  }
}
layer {
  name: "group0_block2_conv0_scale"
  type: "Scale"
  bottom: "group0_block2_conv0"
  top: "group0_block2_conv0"
  scale_param {
    bias_term: true
  }
}
layer {
  name: "group0_block2_conv0_relu"
  type: "ReLU"
  bottom: "group0_block2_conv0"
  top: "group0_block2_conv0"
}
layer {
  name: "group0_block2_conv1"
  type: "Convolution"
  bottom: "group0_block2_conv0"
  top: "group0_block2_conv1"
  param {
    lr_mult: 1
    decay_mult: 1
  }
  convolution_param {
    num_output: 16
    pad: 1
    kernel_size: 3
    stride: 1
    weight_filler {
      type: "msra"
    }
  }
}
layer {
  name: "group0_block2_conv1_bn"
  type: "BatchNorm"
  bottom: "group0_block2_conv1"
  top: "group0_block2_conv1"
  batch_norm_param {
    use_global_stats: false
    moving_average_fraction: 0.95
  }
}
layer {
  name: "group0_block2_conv1_scale"
  type: "Scale"
  bottom: "group0_block2_conv1"
  top: "group0_block2_conv1"
  scale_param {
    bias_term: true
  }
}
layer {
  name: "group0_block2_sum"
  type: "Eltwise"
  bottom: "group0_block2_conv1"
  bottom: "group0_block1_sum"
  top: "group0_block2_sum"
  eltwise_param {
    operation: SUM
  }
}
layer {
  name: "group1_block0_conv0"
  type: "Convolution"
  bottom: "group0_block2_sum"
  top: "group1_block0_conv0"
  param {
    lr_mult: 1
    decay_mult: 1
  }
  convolution_param {
    num_output: 32
    pad: 1
    kernel_size: 3
    stride: 2
    weight_filler {
      type: "msra"
    }
  }
}
layer {
  name: "group1_block0_conv0_bn"
  type: "BatchNorm"
  bottom: "group1_block0_conv0"
  top: "group1_block0_conv0"
  batch_norm_param {
    use_global_stats: false
    moving_average_fraction: 0.95
  }
}
layer {
  name: "group1_block0_conv0_scale"
  type: "Scale"
  bottom: "group1_block0_conv0"
  top: "group1_block0_conv0"
  scale_param {
    bias_term: true
  }
}
layer {
  name: "group1_block0_conv0_relu"
  type: "ReLU"
  bottom: "group1_block0_conv0"
  top: "group1_block0_conv0"
}
layer {
  name: "group1_block0_conv1"
  type: "Convolution"
  bottom: "group1_block0_conv0"
  top: "group1_block0_conv1"
  param {
    lr_mult: 1
    decay_mult: 1
  }
  convolution_param {
    num_output: 32
    pad: 1
    kernel_size: 3
    stride: 1
    weight_filler {
      type: "msra"
    }
  }
}
layer {
  name: "group1_block0_conv1_bn"
  type: "BatchNorm"
  bottom: "group1_block0_conv1"
  top: "group1_block0_conv1"
  batch_norm_param {
    use_global_stats: false
    moving_average_fraction: 0.95
  }
}
layer {
  name: "group1_block0_conv1_scale"
  type: "Scale"
  bottom: "group1_block0_conv1"
  top: "group1_block0_conv1"
  scale_param {
    bias_term: true
  }
}
layer {
  name: "group1_block0_proj"
  type: "Convolution"
  bottom: "group0_block2_sum"
  top: "group1_block0_proj"
  param {
    lr_mult: 1
    decay_mult: 1
  }
  convolution_param {
    num_output: 32
    pad: 0
    kernel_size: 2
    stride: 2
    weight_filler {
      type: "msra"
    }
  }
}
layer {
  name: "group1_block0_proj_bn"
  type: "BatchNorm"
  bottom: "group1_block0_proj"
  top: "group1_block0_proj"
  batch_norm_param {
    use_global_stats: false
    moving_average_fraction: 0.95
  }
}
layer {
  name: "group1_block0_proj_scale"
  type: "Scale"
  bottom: "group1_block0_proj"
  top: "group1_block0_proj"
  scale_param {
    bias_term: true
  }
}
layer {
  name: "group1_block0_sum"
  type: "Eltwise"
  bottom: "group1_block0_proj"
  bottom: "group1_block0_conv1"
  top: "group1_block0_sum"
  eltwise_param {
    operation: SUM
  }
}
layer {
  name: "group1_block1_conv0"
  type: "Convolution"
  bottom: "group1_block0_sum"
  top: "group1_block1_conv0"
  param {
    lr_mult: 1
    decay_mult: 1
  }
  convolution_param {
    num_output: 32
    pad: 1
    kernel_size: 3
    stride: 1
    weight_filler {
      type: "msra"
    }
  }
}
layer {
  name: "group1_block1_conv0_bn"
  type: "BatchNorm"
  bottom: "group1_block1_conv0"
  top: "group1_block1_conv0"
  batch_norm_param {
    use_global_stats: false
    moving_average_fraction: 0.95
  }
}
layer {
  name: "group1_block1_conv0_scale"
  type: "Scale"
  bottom: "group1_block1_conv0"
  top: "group1_block1_conv0"
  scale_param {
    bias_term: true
  }
}
layer {
  name: "group1_block1_conv0_relu"
  type: "ReLU"
  bottom: "group1_block1_conv0"
  top: "group1_block1_conv0"
}
layer {
  name: "group1_block1_conv1"
  type: "Convolution"
  bottom: "group1_block1_conv0"
  top: "group1_block1_conv1"
  param {
    lr_mult: 1
    decay_mult: 1
  }
  convolution_param {
    num_output: 32
    pad: 1
    kernel_size: 3
    stride: 1
    weight_filler {
      type: "msra"
    }
  }
}
layer {
  name: "group1_block1_conv1_bn"
  type: "BatchNorm"
  bottom: "group1_block1_conv1"
  top: "group1_block1_conv1"
  batch_norm_param {
    use_global_stats: false
    moving_average_fraction: 0.95
  }
}
layer {
  name: "group1_block1_conv1_scale"
  type: "Scale"
  bottom: "group1_block1_conv1"
  top: "group1_block1_conv1"
  scale_param {
    bias_term: true
  }
}
layer {
  name: "group1_block1_sum"
  type: "Eltwise"
  bottom: "group1_block1_conv1"
  bottom: "group1_block0_sum"
  top: "group1_block1_sum"
  eltwise_param {
    operation: SUM
  }
}
layer {
  name: "group1_block2_conv0"
  type: "Convolution"
  bottom: "group1_block1_sum"
  top: "group1_block2_conv0"
  param {
    lr_mult: 1
    decay_mult: 1
  }
  convolution_param {
    num_output: 32
    pad: 1
    kernel_size: 3
    stride: 1
    weight_filler {
      type: "msra"
    }
  }
}
layer {
  name: "group1_block2_conv0_bn"
  type: "BatchNorm"
  bottom: "group1_block2_conv0"
  top: "group1_block2_conv0"
  batch_norm_param {
    use_global_stats: false
    moving_average_fraction: 0.95
  }
}
layer {
  name: "group1_block2_conv0_scale"
  type: "Scale"
  bottom: "group1_block2_conv0"
  top: "group1_block2_conv0"
  scale_param {
    bias_term: true
  }
}
layer {
  name: "group1_block2_conv0_relu"
  type: "ReLU"
  bottom: "group1_block2_conv0"
  top: "group1_block2_conv0"
}
layer {
  name: "group1_block2_conv1"
  type: "Convolution"
  bottom: "group1_block2_conv0"
  top: "group1_block2_conv1"
  param {
    lr_mult: 1
    decay_mult: 1
  }
  convolution_param {
    num_output: 32
    pad: 1
    kernel_size: 3
    stride: 1
    weight_filler {
      type: "msra"
    }
  }
}
layer {
  name: "group1_block2_conv1_bn"
  type: "BatchNorm"
  bottom: "group1_block2_conv1"
  top: "group1_block2_conv1"
  batch_norm_param {
    use_global_stats: false
    moving_average_fraction: 0.95
  }
}
layer {
  name: "group1_block2_conv1_scale"
  type: "Scale"
  bottom: "group1_block2_conv1"
  top: "group1_block2_conv1"
  scale_param {
    bias_term: true
  }
}
layer {
  name: "group1_block2_sum"
  type: "Eltwise"
  bottom: "group1_block2_conv1"
  bottom: "group1_block1_sum"
  top: "group1_block2_sum"
  eltwise_param {
    operation: SUM
  }
}
layer {
  name: "group2_block0_conv0"
  type: "Convolution"
  bottom: "group1_block2_sum"
  top: "group2_block0_conv0"
  param {
    lr_mult: 1
    decay_mult: 1
  }
  convolution_param {
    num_output: 64
    pad: 1
    kernel_size: 3
    stride: 2
    weight_filler {
      type: "msra"
    }
  }
}
layer {
  name: "group2_block0_conv0_bn"
  type: "BatchNorm"
  bottom: "group2_block0_conv0"
  top: "group2_block0_conv0"
  batch_norm_param {
    use_global_stats: false
    moving_average_fraction: 0.95
  }
}
layer {
  name: "group2_block0_conv0_scale"
  type: "Scale"
  bottom: "group2_block0_conv0"
  top: "group2_block0_conv0"
  scale_param {
    bias_term: true
  }
}
layer {
  name: "group2_block0_conv0_relu"
  type: "ReLU"
  bottom: "group2_block0_conv0"
  top: "group2_block0_conv0"
}
layer {
  name: "group2_block0_conv1"
  type: "Convolution"
  bottom: "group2_block0_conv0"
  top: "group2_block0_conv1"
  param {
    lr_mult: 1
    decay_mult: 1
  }
  convolution_param {
    num_output: 64
    pad: 1
    kernel_size: 3
    stride: 1
    weight_filler {
      type: "msra"
    }
  }
}
layer {
  name: "group2_block0_conv1_bn"
  type: "BatchNorm"
  bottom: "group2_block0_conv1"
  top: "group2_block0_conv1"
  batch_norm_param {
    use_global_stats: false
    moving_average_fraction: 0.95
  }
}
layer {
  name: "group2_block0_conv1_scale"
  type: "Scale"
  bottom: "group2_block0_conv1"
  top: "group2_block0_conv1"
  scale_param {
    bias_term: true
  }
}
layer {
  name: "group2_block0_proj"
  type: "Convolution"
  bottom: "group1_block2_sum"
  top: "group2_block0_proj"
  param {
    lr_mult: 1
    decay_mult: 1
  }
  convolution_param {
    num_output: 64
    pad: 0
    kernel_size: 2
    stride: 2
    weight_filler {
      type: "msra"
    }
  }
}
layer {
  name: "group2_block0_proj_bn"
  type: "BatchNorm"
  bottom: "group2_block0_proj"
  top: "group2_block0_proj"
  batch_norm_param {
    use_global_stats: false
    moving_average_fraction: 0.95
  }
}
layer {
  name: "group2_block0_proj_scale"
  type: "Scale"
  bottom: "group2_block0_proj"
  top: "group2_block0_proj"
  scale_param {
    bias_term: true
  }
}
layer {
  name: "group2_block0_sum"
  type: "Eltwise"
  bottom: "group2_block0_proj"
  bottom: "group2_block0_conv1"
  top: "group2_block0_sum"
  eltwise_param {
    operation: SUM
  }
}
layer {
  name: "group2_block1_conv0"
  type: "Convolution"
  bottom: "group2_block0_sum"
  top: "group2_block1_conv0"
  param {
    lr_mult: 1
    decay_mult: 1
  }
  convolution_param {
    num_output: 64
    pad: 1
    kernel_size: 3
    stride: 1
    weight_filler {
      type: "msra"
    }
  }
}
layer {
  name: "group2_block1_conv0_bn"
  type: "BatchNorm"
  bottom: "group2_block1_conv0"
  top: "group2_block1_conv0"
  batch_norm_param {
    use_global_stats: false
    moving_average_fraction: 0.95
  }
}
layer {
  name: "group2_block1_conv0_scale"
  type: "Scale"
  bottom: "group2_block1_conv0"
  top: "group2_block1_conv0"
  scale_param {
    bias_term: true
  }
}
layer {
  name: "group2_block1_conv0_relu"
  type: "ReLU"
  bottom: "group2_block1_conv0"
  top: "group2_block1_conv0"
}
layer {
  name: "group2_block1_conv1"
  type: "Convolution"
  bottom: "group2_block1_conv0"
  top: "group2_block1_conv1"
  param {
    lr_mult: 1
    decay_mult: 1
  }
  convolution_param {
    num_output: 64
    pad: 1
    kernel_size: 3
    stride: 1
    weight_filler {
      type: "msra"
    }
  }
}
layer {
  name: "group2_block1_conv1_bn"
  type: "BatchNorm"
  bottom: "group2_block1_conv1"
  top: "group2_block1_conv1"
  batch_norm_param {
    use_global_stats: false
    moving_average_fraction: 0.95
  }
}
layer {
  name: "group2_block1_conv1_scale"
  type: "Scale"
  bottom: "group2_block1_conv1"
  top: "group2_block1_conv1"
  scale_param {
    bias_term: true
  }
}
layer {
  name: "group2_block1_sum"
  type: "Eltwise"
  bottom: "group2_block1_conv1"
  bottom: "group2_block0_sum"
  top: "group2_block1_sum"
  eltwise_param {
    operation: SUM
  }
}
layer {
  name: "group2_block2_conv0"
  type: "Convolution"
  bottom: "group2_block1_sum"
  top: "group2_block2_conv0"
  param {
    lr_mult: 1
    decay_mult: 1
  }
  convolution_param {
    num_output: 64
    pad: 1
    kernel_size: 3
    stride: 1
    weight_filler {
      type: "msra"
    }
  }
}
layer {
  name: "group2_block2_conv0_bn"
  type: "BatchNorm"
  bottom: "group2_block2_conv0"
  top: "group2_block2_conv0"
  batch_norm_param {
    use_global_stats: false
    moving_average_fraction: 0.95
  }
}
layer {
  name: "group2_block2_conv0_scale"
  type: "Scale"
  bottom: "group2_block2_conv0"
  top: "group2_block2_conv0"
  scale_param {
    bias_term: true
  }
}
layer {
  name: "group2_block2_conv0_relu"
  type: "ReLU"
  bottom: "group2_block2_conv0"
  top: "group2_block2_conv0"
}
layer {
  name: "group2_block2_conv1"
  type: "Convolution"
  bottom: "group2_block2_conv0"
  top: "group2_block2_conv1"
  param {
    lr_mult: 1
    decay_mult: 1
  }
  convolution_param {
    num_output: 64
    pad: 1
    kernel_size: 3
    stride: 1
    weight_filler {
      type: "msra"
    }
  }
}
layer {
  name: "group2_block2_conv1_bn"
  type: "BatchNorm"
  bottom: "group2_block2_conv1"
  top: "group2_block2_conv1"
  batch_norm_param {
    use_global_stats: false
    moving_average_fraction: 0.95
  }
}
layer {
  name: "group2_block2_conv1_scale"
  type: "Scale"
  bottom: "group2_block2_conv1"
  top: "group2_block2_conv1"
  scale_param {
    bias_term: true
  }
}
layer {
  name: "group2_block2_sum"
  type: "Eltwise"
  bottom: "group2_block2_conv1"
  bottom: "group2_block1_sum"
  top: "group2_block2_sum"
  eltwise_param {
    operation: SUM
  }
}
layer {
  name: "global_avg_pool"
  type: "Pooling"
  bottom: "group2_block2_sum"
  top: "global_avg_pool"
  pooling_param {
    pool: AVE
    global_pooling: true
  }
}
layer {
  name: "fc"
  type: "InnerProduct"
  bottom: "global_avg_pool"
  top: "fc"
  param {
    lr_mult: 1
    decay_mult: 1
  }
  param {
    lr_mult: 2
    decay_mult: 0
  }
  inner_product_param {
    num_output: 12
    weight_filler {
      type: "msra"
    }
    bias_filler {
      type: "constant"
      value: 0
    }
  }
}
layer {
  name: "loss"
  type: "SoftmaxWithLoss"
  bottom: "fc"
  bottom: "label"
  top: "loss"
}
layer {
  name: "softmax"
  type: "Softmax"
  bottom: "fc"
  top: "softmax"
}
layer {
  name: "Accuracy"
  type: "Accuracy"
  bottom: "softmax"
  bottom: "label"
  top: "Accuracy"
}
I1102 11:20:06.931603 12330 layer_factory.hpp:77] Creating layer data
I1102 11:20:06.932067 12330 net.cpp:100] Creating Layer data
I1102 11:20:06.932132 12330 net.cpp:408] data -> data
I1102 11:20:06.932257 12330 net.cpp:408] data -> label
I1102 11:20:06.932291 12330 data_transformer.cpp:25] Loading mean file from: data/mean.binaryproto
I1102 11:20:06.932369 12333 db_lmdb.cpp:35] Opened lmdb data/train_lmdb
I1102 11:20:06.932476 12330 data_layer.cpp:41] output data size: 100,3,32,32
I1102 11:20:06.932633 12330 net.cpp:150] Setting up data
I1102 11:20:06.932662 12330 net.cpp:157] Top shape: 100 3 32 32 (307200)
I1102 11:20:06.932675 12330 net.cpp:157] Top shape: 100 (100)
I1102 11:20:06.932685 12330 net.cpp:165] Memory required for data: 1229200
I1102 11:20:06.932703 12330 layer_factory.hpp:77] Creating layer label_data_1_split
I1102 11:20:06.932723 12330 net.cpp:100] Creating Layer label_data_1_split
I1102 11:20:06.932739 12330 net.cpp:434] label_data_1_split <- label
I1102 11:20:06.932765 12330 net.cpp:408] label_data_1_split -> label_data_1_split_0
I1102 11:20:06.932785 12330 net.cpp:408] label_data_1_split -> label_data_1_split_1
I1102 11:20:06.932811 12330 net.cpp:150] Setting up label_data_1_split
I1102 11:20:06.932826 12330 net.cpp:157] Top shape: 100 (100)
I1102 11:20:06.932838 12330 net.cpp:157] Top shape: 100 (100)
I1102 11:20:06.932848 12330 net.cpp:165] Memory required for data: 1230000
I1102 11:20:06.932903 12330 layer_factory.hpp:77] Creating layer first_conv
I1102 11:20:06.932936 12330 net.cpp:100] Creating Layer first_conv
I1102 11:20:06.932951 12330 net.cpp:434] first_conv <- data
I1102 11:20:06.932968 12330 net.cpp:408] first_conv -> first_conv
I1102 11:20:06.933096 12330 net.cpp:150] Setting up first_conv
I1102 11:20:06.933125 12330 net.cpp:157] Top shape: 100 16 32 32 (1638400)
I1102 11:20:06.933136 12330 net.cpp:165] Memory required for data: 7783600
I1102 11:20:06.933212 12330 layer_factory.hpp:77] Creating layer first_conv_bn
I1102 11:20:06.933245 12330 net.cpp:100] Creating Layer first_conv_bn
I1102 11:20:06.933259 12330 net.cpp:434] first_conv_bn <- first_conv
I1102 11:20:06.933279 12330 net.cpp:395] first_conv_bn -> first_conv (in-place)
I1102 11:20:06.933363 12330 net.cpp:150] Setting up first_conv_bn
I1102 11:20:06.933385 12330 net.cpp:157] Top shape: 100 16 32 32 (1638400)
I1102 11:20:06.933395 12330 net.cpp:165] Memory required for data: 14337200
I1102 11:20:06.933418 12330 layer_factory.hpp:77] Creating layer first_conv_scale
I1102 11:20:06.933442 12330 net.cpp:100] Creating Layer first_conv_scale
I1102 11:20:06.933454 12330 net.cpp:434] first_conv_scale <- first_conv
I1102 11:20:06.933468 12330 net.cpp:395] first_conv_scale -> first_conv (in-place)
I1102 11:20:06.933497 12330 layer_factory.hpp:77] Creating layer first_conv_scale
I1102 11:20:06.933547 12330 net.cpp:150] Setting up first_conv_scale
I1102 11:20:06.933564 12330 net.cpp:157] Top shape: 100 16 32 32 (1638400)
I1102 11:20:06.933573 12330 net.cpp:165] Memory required for data: 20890800
I1102 11:20:06.933589 12330 layer_factory.hpp:77] Creating layer first_conv_relu
I1102 11:20:06.933604 12330 net.cpp:100] Creating Layer first_conv_relu
I1102 11:20:06.933615 12330 net.cpp:434] first_conv_relu <- first_conv
I1102 11:20:06.933629 12330 net.cpp:395] first_conv_relu -> first_conv (in-place)
I1102 11:20:06.933643 12330 net.cpp:150] Setting up first_conv_relu
I1102 11:20:06.933657 12330 net.cpp:157] Top shape: 100 16 32 32 (1638400)
I1102 11:20:06.933666 12330 net.cpp:165] Memory required for data: 27444400
I1102 11:20:06.933676 12330 layer_factory.hpp:77] Creating layer first_conv_first_conv_relu_0_split
I1102 11:20:06.933689 12330 net.cpp:100] Creating Layer first_conv_first_conv_relu_0_split
I1102 11:20:06.933701 12330 net.cpp:434] first_conv_first_conv_relu_0_split <- first_conv
I1102 11:20:06.933714 12330 net.cpp:408] first_conv_first_conv_relu_0_split -> first_conv_first_conv_relu_0_split_0
I1102 11:20:06.933732 12330 net.cpp:408] first_conv_first_conv_relu_0_split -> first_conv_first_conv_relu_0_split_1
I1102 11:20:06.933754 12330 net.cpp:150] Setting up first_conv_first_conv_relu_0_split
I1102 11:20:06.933768 12330 net.cpp:157] Top shape: 100 16 32 32 (1638400)
I1102 11:20:06.933781 12330 net.cpp:157] Top shape: 100 16 32 32 (1638400)
I1102 11:20:06.933790 12330 net.cpp:165] Memory required for data: 40551600
I1102 11:20:06.933800 12330 layer_factory.hpp:77] Creating layer group0_block0_conv0
I1102 11:20:06.933818 12330 net.cpp:100] Creating Layer group0_block0_conv0
I1102 11:20:06.933830 12330 net.cpp:434] group0_block0_conv0 <- first_conv_first_conv_relu_0_split_0
I1102 11:20:06.933845 12330 net.cpp:408] group0_block0_conv0 -> group0_block0_conv0
I1102 11:20:06.933945 12330 net.cpp:150] Setting up group0_block0_conv0
I1102 11:20:06.933960 12330 net.cpp:157] Top shape: 100 16 32 32 (1638400)
I1102 11:20:06.933970 12330 net.cpp:165] Memory required for data: 47105200
I1102 11:20:06.933993 12330 layer_factory.hpp:77] Creating layer group0_block0_conv0_bn
I1102 11:20:06.934013 12330 net.cpp:100] Creating Layer group0_block0_conv0_bn
I1102 11:20:06.934025 12330 net.cpp:434] group0_block0_conv0_bn <- group0_block0_conv0
I1102 11:20:06.934039 12330 net.cpp:395] group0_block0_conv0_bn -> group0_block0_conv0 (in-place)
I1102 11:20:06.934072 12330 net.cpp:150] Setting up group0_block0_conv0_bn
I1102 11:20:06.934087 12330 net.cpp:157] Top shape: 100 16 32 32 (1638400)
I1102 11:20:06.934097 12330 net.cpp:165] Memory required for data: 53658800
I1102 11:20:06.934140 12330 layer_factory.hpp:77] Creating layer group0_block0_conv0_scale
I1102 11:20:06.934155 12330 net.cpp:100] Creating Layer group0_block0_conv0_scale
I1102 11:20:06.934166 12330 net.cpp:434] group0_block0_conv0_scale <- group0_block0_conv0
I1102 11:20:06.934185 12330 net.cpp:395] group0_block0_conv0_scale -> group0_block0_conv0 (in-place)
I1102 11:20:06.934207 12330 layer_factory.hpp:77] Creating layer group0_block0_conv0_scale
I1102 11:20:06.934418 12330 net.cpp:150] Setting up group0_block0_conv0_scale
I1102 11:20:06.934439 12330 net.cpp:157] Top shape: 100 16 32 32 (1638400)
I1102 11:20:06.934449 12330 net.cpp:165] Memory required for data: 60212400
I1102 11:20:06.934464 12330 layer_factory.hpp:77] Creating layer group0_block0_conv0_relu
I1102 11:20:06.934478 12330 net.cpp:100] Creating Layer group0_block0_conv0_relu
I1102 11:20:06.934489 12330 net.cpp:434] group0_block0_conv0_relu <- group0_block0_conv0
I1102 11:20:06.934504 12330 net.cpp:395] group0_block0_conv0_relu -> group0_block0_conv0 (in-place)
I1102 11:20:06.934518 12330 net.cpp:150] Setting up group0_block0_conv0_relu
I1102 11:20:06.934531 12330 net.cpp:157] Top shape: 100 16 32 32 (1638400)
I1102 11:20:06.934540 12330 net.cpp:165] Memory required for data: 66766000
I1102 11:20:06.934551 12330 layer_factory.hpp:77] Creating layer group0_block0_conv1
I1102 11:20:06.934571 12330 net.cpp:100] Creating Layer group0_block0_conv1
I1102 11:20:06.934582 12330 net.cpp:434] group0_block0_conv1 <- group0_block0_conv0
I1102 11:20:06.934602 12330 net.cpp:408] group0_block0_conv1 -> group0_block0_conv1
I1102 11:20:06.934703 12330 net.cpp:150] Setting up group0_block0_conv1
I1102 11:20:06.934720 12330 net.cpp:157] Top shape: 100 16 32 32 (1638400)
I1102 11:20:06.934729 12330 net.cpp:165] Memory required for data: 73319600
I1102 11:20:06.934743 12330 layer_factory.hpp:77] Creating layer group0_block0_conv1_bn
I1102 11:20:06.934762 12330 net.cpp:100] Creating Layer group0_block0_conv1_bn
I1102 11:20:06.934773 12330 net.cpp:434] group0_block0_conv1_bn <- group0_block0_conv1
I1102 11:20:06.934787 12330 net.cpp:395] group0_block0_conv1_bn -> group0_block0_conv1 (in-place)
I1102 11:20:06.935119 12330 net.cpp:150] Setting up group0_block0_conv1_bn
I1102 11:20:06.935153 12330 net.cpp:157] Top shape: 100 16 32 32 (1638400)
I1102 11:20:06.935163 12330 net.cpp:165] Memory required for data: 79873200
I1102 11:20:06.935197 12330 layer_factory.hpp:77] Creating layer group0_block0_conv1_scale
I1102 11:20:06.935214 12330 net.cpp:100] Creating Layer group0_block0_conv1_scale
I1102 11:20:06.935225 12330 net.cpp:434] group0_block0_conv1_scale <- group0_block0_conv1
I1102 11:20:06.935240 12330 net.cpp:395] group0_block0_conv1_scale -> group0_block0_conv1 (in-place)
I1102 11:20:06.935262 12330 layer_factory.hpp:77] Creating layer group0_block0_conv1_scale
I1102 11:20:06.935331 12330 net.cpp:150] Setting up group0_block0_conv1_scale
I1102 11:20:06.935348 12330 net.cpp:157] Top shape: 100 16 32 32 (1638400)
I1102 11:20:06.935356 12330 net.cpp:165] Memory required for data: 86426800
I1102 11:20:06.935371 12330 layer_factory.hpp:77] Creating layer group0_block0_sum
I1102 11:20:06.935387 12330 net.cpp:100] Creating Layer group0_block0_sum
I1102 11:20:06.935398 12330 net.cpp:434] group0_block0_sum <- group0_block0_conv1
I1102 11:20:06.935410 12330 net.cpp:434] group0_block0_sum <- first_conv_first_conv_relu_0_split_1
I1102 11:20:06.935433 12330 net.cpp:408] group0_block0_sum -> group0_block0_sum
I1102 11:20:06.935458 12330 net.cpp:150] Setting up group0_block0_sum
I1102 11:20:06.935472 12330 net.cpp:157] Top shape: 100 16 32 32 (1638400)
I1102 11:20:06.935482 12330 net.cpp:165] Memory required for data: 92980400
I1102 11:20:06.935492 12330 layer_factory.hpp:77] Creating layer group0_block0_sum_group0_block0_sum_0_split
I1102 11:20:06.935505 12330 net.cpp:100] Creating Layer group0_block0_sum_group0_block0_sum_0_split
I1102 11:20:06.935515 12330 net.cpp:434] group0_block0_sum_group0_block0_sum_0_split <- group0_block0_sum
I1102 11:20:06.935529 12330 net.cpp:408] group0_block0_sum_group0_block0_sum_0_split -> group0_block0_sum_group0_block0_sum_0_split_0
I1102 11:20:06.935572 12330 net.cpp:408] group0_block0_sum_group0_block0_sum_0_split -> group0_block0_sum_group0_block0_sum_0_split_1
I1102 11:20:06.935591 12330 net.cpp:150] Setting up group0_block0_sum_group0_block0_sum_0_split
I1102 11:20:06.935606 12330 net.cpp:157] Top shape: 100 16 32 32 (1638400)
I1102 11:20:06.935617 12330 net.cpp:157] Top shape: 100 16 32 32 (1638400)
I1102 11:20:06.935626 12330 net.cpp:165] Memory required for data: 106087600
I1102 11:20:06.935636 12330 layer_factory.hpp:77] Creating layer group0_block1_conv0
I1102 11:20:06.935693 12330 net.cpp:100] Creating Layer group0_block1_conv0
I1102 11:20:06.935705 12330 net.cpp:434] group0_block1_conv0 <- group0_block0_sum_group0_block0_sum_0_split_0
I1102 11:20:06.935721 12330 net.cpp:408] group0_block1_conv0 -> group0_block1_conv0
I1102 11:20:06.935820 12330 net.cpp:150] Setting up group0_block1_conv0
I1102 11:20:06.935860 12330 net.cpp:157] Top shape: 100 16 32 32 (1638400)
I1102 11:20:06.935870 12330 net.cpp:165] Memory required for data: 112641200
I1102 11:20:06.935886 12330 layer_factory.hpp:77] Creating layer group0_block1_conv0_bn
I1102 11:20:06.935925 12330 net.cpp:100] Creating Layer group0_block1_conv0_bn
I1102 11:20:06.935940 12330 net.cpp:434] group0_block1_conv0_bn <- group0_block1_conv0
I1102 11:20:06.935953 12330 net.cpp:395] group0_block1_conv0_bn -> group0_block1_conv0 (in-place)
I1102 11:20:06.935987 12330 net.cpp:150] Setting up group0_block1_conv0_bn
I1102 11:20:06.936003 12330 net.cpp:157] Top shape: 100 16 32 32 (1638400)
I1102 11:20:06.936017 12330 net.cpp:165] Memory required for data: 119194800
I1102 11:20:06.936034 12330 layer_factory.hpp:77] Creating layer group0_block1_conv0_scale
I1102 11:20:06.936051 12330 net.cpp:100] Creating Layer group0_block1_conv0_scale
I1102 11:20:06.936064 12330 net.cpp:434] group0_block1_conv0_scale <- group0_block1_conv0
I1102 11:20:06.936079 12330 net.cpp:395] group0_block1_conv0_scale -> group0_block1_conv0 (in-place)
I1102 11:20:06.936107 12330 layer_factory.hpp:77] Creating layer group0_block1_conv0_scale
I1102 11:20:06.936149 12330 net.cpp:150] Setting up group0_block1_conv0_scale
I1102 11:20:06.936167 12330 net.cpp:157] Top shape: 100 16 32 32 (1638400)
I1102 11:20:06.936179 12330 net.cpp:165] Memory required for data: 125748400
I1102 11:20:06.936194 12330 layer_factory.hpp:77] Creating layer group0_block1_conv0_relu
I1102 11:20:06.936214 12330 net.cpp:100] Creating Layer group0_block1_conv0_relu
I1102 11:20:06.936228 12330 net.cpp:434] group0_block1_conv0_relu <- group0_block1_conv0
I1102 11:20:06.936241 12330 net.cpp:395] group0_block1_conv0_relu -> group0_block1_conv0 (in-place)
I1102 11:20:06.936255 12330 net.cpp:150] Setting up group0_block1_conv0_relu
I1102 11:20:06.936271 12330 net.cpp:157] Top shape: 100 16 32 32 (1638400)
I1102 11:20:06.936280 12330 net.cpp:165] Memory required for data: 132302000
I1102 11:20:06.936290 12330 layer_factory.hpp:77] Creating layer group0_block1_conv1
I1102 11:20:06.936306 12330 net.cpp:100] Creating Layer group0_block1_conv1
I1102 11:20:06.936318 12330 net.cpp:434] group0_block1_conv1 <- group0_block1_conv0
I1102 11:20:06.936337 12330 net.cpp:408] group0_block1_conv1 -> group0_block1_conv1
I1102 11:20:06.936432 12330 net.cpp:150] Setting up group0_block1_conv1
I1102 11:20:06.936450 12330 net.cpp:157] Top shape: 100 16 32 32 (1638400)
I1102 11:20:06.936463 12330 net.cpp:165] Memory required for data: 138855600
I1102 11:20:06.936477 12330 layer_factory.hpp:77] Creating layer group0_block1_conv1_bn
I1102 11:20:06.936494 12330 net.cpp:100] Creating Layer group0_block1_conv1_bn
I1102 11:20:06.936511 12330 net.cpp:434] group0_block1_conv1_bn <- group0_block1_conv1
I1102 11:20:06.936524 12330 net.cpp:395] group0_block1_conv1_bn -> group0_block1_conv1 (in-place)
I1102 11:20:06.936558 12330 net.cpp:150] Setting up group0_block1_conv1_bn
I1102 11:20:06.936573 12330 net.cpp:157] Top shape: 100 16 32 32 (1638400)
I1102 11:20:06.936583 12330 net.cpp:165] Memory required for data: 145409200
I1102 11:20:06.936630 12330 layer_factory.hpp:77] Creating layer group0_block1_conv1_scale
I1102 11:20:06.936647 12330 net.cpp:100] Creating Layer group0_block1_conv1_scale
I1102 11:20:06.936661 12330 net.cpp:434] group0_block1_conv1_scale <- group0_block1_conv1
I1102 11:20:06.936674 12330 net.cpp:395] group0_block1_conv1_scale -> group0_block1_conv1 (in-place)
I1102 11:20:06.936698 12330 layer_factory.hpp:77] Creating layer group0_block1_conv1_scale
I1102 11:20:06.936743 12330 net.cpp:150] Setting up group0_block1_conv1_scale
I1102 11:20:06.936765 12330 net.cpp:157] Top shape: 100 16 32 32 (1638400)
I1102 11:20:06.936777 12330 net.cpp:165] Memory required for data: 151962800
I1102 11:20:06.936792 12330 layer_factory.hpp:77] Creating layer group0_block1_sum
I1102 11:20:06.936815 12330 net.cpp:100] Creating Layer group0_block1_sum
I1102 11:20:06.936830 12330 net.cpp:434] group0_block1_sum <- group0_block1_conv1
I1102 11:20:06.936841 12330 net.cpp:434] group0_block1_sum <- group0_block0_sum_group0_block0_sum_0_split_1
I1102 11:20:06.936854 12330 net.cpp:408] group0_block1_sum -> group0_block1_sum
I1102 11:20:06.936875 12330 net.cpp:150] Setting up group0_block1_sum
I1102 11:20:06.936892 12330 net.cpp:157] Top shape: 100 16 32 32 (1638400)
I1102 11:20:06.936904 12330 net.cpp:165] Memory required for data: 158516400
I1102 11:20:06.936913 12330 layer_factory.hpp:77] Creating layer group0_block1_sum_group0_block1_sum_0_split
I1102 11:20:06.936926 12330 net.cpp:100] Creating Layer group0_block1_sum_group0_block1_sum_0_split
I1102 11:20:06.936936 12330 net.cpp:434] group0_block1_sum_group0_block1_sum_0_split <- group0_block1_sum
I1102 11:20:06.936949 12330 net.cpp:408] group0_block1_sum_group0_block1_sum_0_split -> group0_block1_sum_group0_block1_sum_0_split_0
I1102 11:20:06.936974 12330 net.cpp:408] group0_block1_sum_group0_block1_sum_0_split -> group0_block1_sum_group0_block1_sum_0_split_1
I1102 11:20:06.937001 12330 net.cpp:150] Setting up group0_block1_sum_group0_block1_sum_0_split
I1102 11:20:06.937018 12330 net.cpp:157] Top shape: 100 16 32 32 (1638400)
I1102 11:20:06.937031 12330 net.cpp:157] Top shape: 100 16 32 32 (1638400)
I1102 11:20:06.937042 12330 net.cpp:165] Memory required for data: 171623600
I1102 11:20:06.937052 12330 layer_factory.hpp:77] Creating layer group0_block2_conv0
I1102 11:20:06.937069 12330 net.cpp:100] Creating Layer group0_block2_conv0
I1102 11:20:06.937083 12330 net.cpp:434] group0_block2_conv0 <- group0_block1_sum_group0_block1_sum_0_split_0
I1102 11:20:06.937101 12330 net.cpp:408] group0_block2_conv0 -> group0_block2_conv0
I1102 11:20:06.937198 12330 net.cpp:150] Setting up group0_block2_conv0
I1102 11:20:06.937218 12330 net.cpp:157] Top shape: 100 16 32 32 (1638400)
I1102 11:20:06.937232 12330 net.cpp:165] Memory required for data: 178177200
I1102 11:20:06.937245 12330 layer_factory.hpp:77] Creating layer group0_block2_conv0_bn
I1102 11:20:06.937261 12330 net.cpp:100] Creating Layer group0_block2_conv0_bn
I1102 11:20:06.937274 12330 net.cpp:434] group0_block2_conv0_bn <- group0_block2_conv0
I1102 11:20:06.937324 12330 net.cpp:395] group0_block2_conv0_bn -> group0_block2_conv0 (in-place)
I1102 11:20:06.937356 12330 net.cpp:150] Setting up group0_block2_conv0_bn
I1102 11:20:06.937374 12330 net.cpp:157] Top shape: 100 16 32 32 (1638400)
I1102 11:20:06.937387 12330 net.cpp:165] Memory required for data: 184730800
I1102 11:20:06.937408 12330 layer_factory.hpp:77] Creating layer group0_block2_conv0_scale
I1102 11:20:06.937428 12330 net.cpp:100] Creating Layer group0_block2_conv0_scale
I1102 11:20:06.937445 12330 net.cpp:434] group0_block2_conv0_scale <- group0_block2_conv0
I1102 11:20:06.937454 12330 net.cpp:395] group0_block2_conv0_scale -> group0_block2_conv0 (in-place)
I1102 11:20:06.937471 12330 layer_factory.hpp:77] Creating layer group0_block2_conv0_scale
I1102 11:20:06.937505 12330 net.cpp:150] Setting up group0_block2_conv0_scale
I1102 11:20:06.937516 12330 net.cpp:157] Top shape: 100 16 32 32 (1638400)
I1102 11:20:06.937523 12330 net.cpp:165] Memory required for data: 191284400
I1102 11:20:06.937551 12330 layer_factory.hpp:77] Creating layer group0_block2_conv0_relu
I1102 11:20:06.937563 12330 net.cpp:100] Creating Layer group0_block2_conv0_relu
I1102 11:20:06.937571 12330 net.cpp:434] group0_block2_conv0_relu <- group0_block2_conv0
I1102 11:20:06.937582 12330 net.cpp:395] group0_block2_conv0_relu -> group0_block2_conv0 (in-place)
I1102 11:20:06.937597 12330 net.cpp:150] Setting up group0_block2_conv0_relu
I1102 11:20:06.937605 12330 net.cpp:157] Top shape: 100 16 32 32 (1638400)
I1102 11:20:06.937611 12330 net.cpp:165] Memory required for data: 197838000
I1102 11:20:06.937618 12330 layer_factory.hpp:77] Creating layer group0_block2_conv1
I1102 11:20:06.937633 12330 net.cpp:100] Creating Layer group0_block2_conv1
I1102 11:20:06.937644 12330 net.cpp:434] group0_block2_conv1 <- group0_block2_conv0
I1102 11:20:06.937654 12330 net.cpp:408] group0_block2_conv1 -> group0_block2_conv1
I1102 11:20:06.937721 12330 net.cpp:150] Setting up group0_block2_conv1
I1102 11:20:06.937782 12330 net.cpp:157] Top shape: 100 16 32 32 (1638400)
I1102 11:20:06.937791 12330 net.cpp:165] Memory required for data: 204391600
I1102 11:20:06.937832 12330 layer_factory.hpp:77] Creating layer group0_block2_conv1_bn
I1102 11:20:06.937845 12330 net.cpp:100] Creating Layer group0_block2_conv1_bn
I1102 11:20:06.937855 12330 net.cpp:434] group0_block2_conv1_bn <- group0_block2_conv1
I1102 11:20:06.937868 12330 net.cpp:395] group0_block2_conv1_bn -> group0_block2_conv1 (in-place)
I1102 11:20:06.937893 12330 net.cpp:150] Setting up group0_block2_conv1_bn
I1102 11:20:06.937908 12330 net.cpp:157] Top shape: 100 16 32 32 (1638400)
I1102 11:20:06.937918 12330 net.cpp:165] Memory required for data: 210945200
I1102 11:20:06.937929 12330 layer_factory.hpp:77] Creating layer group0_block2_conv1_scale
I1102 11:20:06.937942 12330 net.cpp:100] Creating Layer group0_block2_conv1_scale
I1102 11:20:06.937949 12330 net.cpp:434] group0_block2_conv1_scale <- group0_block2_conv1
I1102 11:20:06.937958 12330 net.cpp:395] group0_block2_conv1_scale -> group0_block2_conv1 (in-place)
I1102 11:20:06.937974 12330 layer_factory.hpp:77] Creating layer group0_block2_conv1_scale
I1102 11:20:06.938004 12330 net.cpp:150] Setting up group0_block2_conv1_scale
I1102 11:20:06.938019 12330 net.cpp:157] Top shape: 100 16 32 32 (1638400)
I1102 11:20:06.938025 12330 net.cpp:165] Memory required for data: 217498800
I1102 11:20:06.938035 12330 layer_factory.hpp:77] Creating layer group0_block2_sum
I1102 11:20:06.938056 12330 net.cpp:100] Creating Layer group0_block2_sum
I1102 11:20:06.938066 12330 net.cpp:434] group0_block2_sum <- group0_block2_conv1
I1102 11:20:06.938074 12330 net.cpp:434] group0_block2_sum <- group0_block1_sum_group0_block1_sum_0_split_1
I1102 11:20:06.938084 12330 net.cpp:408] group0_block2_sum -> group0_block2_sum
I1102 11:20:06.938099 12330 net.cpp:150] Setting up group0_block2_sum
I1102 11:20:06.938112 12330 net.cpp:157] Top shape: 100 16 32 32 (1638400)
I1102 11:20:06.938117 12330 net.cpp:165] Memory required for data: 224052400
I1102 11:20:06.938127 12330 layer_factory.hpp:77] Creating layer group0_block2_sum_group0_block2_sum_0_split
I1102 11:20:06.938136 12330 net.cpp:100] Creating Layer group0_block2_sum_group0_block2_sum_0_split
I1102 11:20:06.938143 12330 net.cpp:434] group0_block2_sum_group0_block2_sum_0_split <- group0_block2_sum
I1102 11:20:06.938153 12330 net.cpp:408] group0_block2_sum_group0_block2_sum_0_split -> group0_block2_sum_group0_block2_sum_0_split_0
I1102 11:20:06.938171 12330 net.cpp:408] group0_block2_sum_group0_block2_sum_0_split -> group0_block2_sum_group0_block2_sum_0_split_1
I1102 11:20:06.938191 12330 net.cpp:150] Setting up group0_block2_sum_group0_block2_sum_0_split
I1102 11:20:06.938204 12330 net.cpp:157] Top shape: 100 16 32 32 (1638400)
I1102 11:20:06.938212 12330 net.cpp:157] Top shape: 100 16 32 32 (1638400)
I1102 11:20:06.938218 12330 net.cpp:165] Memory required for data: 237159600
I1102 11:20:06.938225 12330 layer_factory.hpp:77] Creating layer group1_block0_conv0
I1102 11:20:06.938237 12330 net.cpp:100] Creating Layer group1_block0_conv0
I1102 11:20:06.938261 12330 net.cpp:434] group1_block0_conv0 <- group0_block2_sum_group0_block2_sum_0_split_0
I1102 11:20:06.938277 12330 net.cpp:408] group1_block0_conv0 -> group1_block0_conv0
I1102 11:20:06.938377 12330 net.cpp:150] Setting up group1_block0_conv0
I1102 11:20:06.938390 12330 net.cpp:157] Top shape: 100 32 16 16 (819200)
I1102 11:20:06.938396 12330 net.cpp:165] Memory required for data: 240436400
I1102 11:20:06.938482 12330 layer_factory.hpp:77] Creating layer group1_block0_conv0_bn
I1102 11:20:06.938493 12330 net.cpp:100] Creating Layer group1_block0_conv0_bn
I1102 11:20:06.938501 12330 net.cpp:434] group1_block0_conv0_bn <- group1_block0_conv0
I1102 11:20:06.938513 12330 net.cpp:395] group1_block0_conv0_bn -> group1_block0_conv0 (in-place)
I1102 11:20:06.938536 12330 net.cpp:150] Setting up group1_block0_conv0_bn
I1102 11:20:06.938549 12330 net.cpp:157] Top shape: 100 32 16 16 (819200)
I1102 11:20:06.938555 12330 net.cpp:165] Memory required for data: 243713200
I1102 11:20:06.938566 12330 layer_factory.hpp:77] Creating layer group1_block0_conv0_scale
I1102 11:20:06.938578 12330 net.cpp:100] Creating Layer group1_block0_conv0_scale
I1102 11:20:06.938588 12330 net.cpp:434] group1_block0_conv0_scale <- group1_block0_conv0
I1102 11:20:06.938604 12330 net.cpp:395] group1_block0_conv0_scale -> group1_block0_conv0 (in-place)
I1102 11:20:06.938622 12330 layer_factory.hpp:77] Creating layer group1_block0_conv0_scale
I1102 11:20:06.938714 12330 net.cpp:150] Setting up group1_block0_conv0_scale
I1102 11:20:06.938730 12330 net.cpp:157] Top shape: 100 32 16 16 (819200)
I1102 11:20:06.938738 12330 net.cpp:165] Memory required for data: 246990000
I1102 11:20:06.938750 12330 layer_factory.hpp:77] Creating layer group1_block0_conv0_relu
I1102 11:20:06.938761 12330 net.cpp:100] Creating Layer group1_block0_conv0_relu
I1102 11:20:06.938768 12330 net.cpp:434] group1_block0_conv0_relu <- group1_block0_conv0
I1102 11:20:06.938777 12330 net.cpp:395] group1_block0_conv0_relu -> group1_block0_conv0 (in-place)
I1102 11:20:06.938791 12330 net.cpp:150] Setting up group1_block0_conv0_relu
I1102 11:20:06.938802 12330 net.cpp:157] Top shape: 100 32 16 16 (819200)
I1102 11:20:06.938810 12330 net.cpp:165] Memory required for data: 250266800
I1102 11:20:06.938817 12330 layer_factory.hpp:77] Creating layer group1_block0_conv1
I1102 11:20:06.938832 12330 net.cpp:100] Creating Layer group1_block0_conv1
I1102 11:20:06.938841 12330 net.cpp:434] group1_block0_conv1 <- group1_block0_conv0
I1102 11:20:06.938855 12330 net.cpp:408] group1_block0_conv1 -> group1_block0_conv1
I1102 11:20:06.939025 12330 net.cpp:150] Setting up group1_block0_conv1
I1102 11:20:06.939039 12330 net.cpp:157] Top shape: 100 32 16 16 (819200)
I1102 11:20:06.939046 12330 net.cpp:165] Memory required for data: 253543600
I1102 11:20:06.939056 12330 layer_factory.hpp:77] Creating layer group1_block0_conv1_bn
I1102 11:20:06.939072 12330 net.cpp:100] Creating Layer group1_block0_conv1_bn
I1102 11:20:06.939082 12330 net.cpp:434] group1_block0_conv1_bn <- group1_block0_conv1
I1102 11:20:06.939091 12330 net.cpp:395] group1_block0_conv1_bn -> group1_block0_conv1 (in-place)
I1102 11:20:06.939116 12330 net.cpp:150] Setting up group1_block0_conv1_bn
I1102 11:20:06.939129 12330 net.cpp:157] Top shape: 100 32 16 16 (819200)
I1102 11:20:06.939136 12330 net.cpp:165] Memory required for data: 256820400
I1102 11:20:06.939147 12330 layer_factory.hpp:77] Creating layer group1_block0_conv1_scale
I1102 11:20:06.939158 12330 net.cpp:100] Creating Layer group1_block0_conv1_scale
I1102 11:20:06.939165 12330 net.cpp:434] group1_block0_conv1_scale <- group1_block0_conv1
I1102 11:20:06.939178 12330 net.cpp:395] group1_block0_conv1_scale -> group1_block0_conv1 (in-place)
I1102 11:20:06.939195 12330 layer_factory.hpp:77] Creating layer group1_block0_conv1_scale
I1102 11:20:06.939226 12330 net.cpp:150] Setting up group1_block0_conv1_scale
I1102 11:20:06.939244 12330 net.cpp:157] Top shape: 100 32 16 16 (819200)
I1102 11:20:06.939252 12330 net.cpp:165] Memory required for data: 260097200
I1102 11:20:06.939278 12330 layer_factory.hpp:77] Creating layer group1_block0_proj
I1102 11:20:06.939296 12330 net.cpp:100] Creating Layer group1_block0_proj
I1102 11:20:06.939306 12330 net.cpp:434] group1_block0_proj <- group0_block2_sum_group0_block2_sum_0_split_1
I1102 11:20:06.939318 12330 net.cpp:408] group1_block0_proj -> group1_block0_proj
I1102 11:20:06.939384 12330 net.cpp:150] Setting up group1_block0_proj
I1102 11:20:06.939396 12330 net.cpp:157] Top shape: 100 32 16 16 (819200)
I1102 11:20:06.939465 12330 net.cpp:165] Memory required for data: 263374000
I1102 11:20:06.939484 12330 layer_factory.hpp:77] Creating layer group1_block0_proj_bn
I1102 11:20:06.939499 12330 net.cpp:100] Creating Layer group1_block0_proj_bn
I1102 11:20:06.939510 12330 net.cpp:434] group1_block0_proj_bn <- group1_block0_proj
I1102 11:20:06.939520 12330 net.cpp:395] group1_block0_proj_bn -> group1_block0_proj (in-place)
I1102 11:20:06.939544 12330 net.cpp:150] Setting up group1_block0_proj_bn
I1102 11:20:06.939556 12330 net.cpp:157] Top shape: 100 32 16 16 (819200)
I1102 11:20:06.939563 12330 net.cpp:165] Memory required for data: 266650800
I1102 11:20:06.939574 12330 layer_factory.hpp:77] Creating layer group1_block0_proj_scale
I1102 11:20:06.939586 12330 net.cpp:100] Creating Layer group1_block0_proj_scale
I1102 11:20:06.939595 12330 net.cpp:434] group1_block0_proj_scale <- group1_block0_proj
I1102 11:20:06.939607 12330 net.cpp:395] group1_block0_proj_scale -> group1_block0_proj (in-place)
I1102 11:20:06.939625 12330 layer_factory.hpp:77] Creating layer group1_block0_proj_scale
I1102 11:20:06.939651 12330 net.cpp:150] Setting up group1_block0_proj_scale
I1102 11:20:06.939663 12330 net.cpp:157] Top shape: 100 32 16 16 (819200)
I1102 11:20:06.939669 12330 net.cpp:165] Memory required for data: 269927600
I1102 11:20:06.939679 12330 layer_factory.hpp:77] Creating layer group1_block0_sum
I1102 11:20:06.939689 12330 net.cpp:100] Creating Layer group1_block0_sum
I1102 11:20:06.939698 12330 net.cpp:434] group1_block0_sum <- group1_block0_proj
I1102 11:20:06.939707 12330 net.cpp:434] group1_block0_sum <- group1_block0_conv1
I1102 11:20:06.939719 12330 net.cpp:408] group1_block0_sum -> group1_block0_sum
I1102 11:20:06.939734 12330 net.cpp:150] Setting up group1_block0_sum
I1102 11:20:06.939746 12330 net.cpp:157] Top shape: 100 32 16 16 (819200)
I1102 11:20:06.939752 12330 net.cpp:165] Memory required for data: 273204400
I1102 11:20:06.939759 12330 layer_factory.hpp:77] Creating layer group1_block0_sum_group1_block0_sum_0_split
I1102 11:20:06.939769 12330 net.cpp:100] Creating Layer group1_block0_sum_group1_block0_sum_0_split
I1102 11:20:06.939775 12330 net.cpp:434] group1_block0_sum_group1_block0_sum_0_split <- group1_block0_sum
I1102 11:20:06.939792 12330 net.cpp:408] group1_block0_sum_group1_block0_sum_0_split -> group1_block0_sum_group1_block0_sum_0_split_0
I1102 11:20:06.939806 12330 net.cpp:408] group1_block0_sum_group1_block0_sum_0_split -> group1_block0_sum_group1_block0_sum_0_split_1
I1102 11:20:06.939821 12330 net.cpp:150] Setting up group1_block0_sum_group1_block0_sum_0_split
I1102 11:20:06.939832 12330 net.cpp:157] Top shape: 100 32 16 16 (819200)
I1102 11:20:06.939841 12330 net.cpp:157] Top shape: 100 32 16 16 (819200)
I1102 11:20:06.939847 12330 net.cpp:165] Memory required for data: 279758000
I1102 11:20:06.939853 12330 layer_factory.hpp:77] Creating layer group1_block1_conv0
I1102 11:20:06.939868 12330 net.cpp:100] Creating Layer group1_block1_conv0
I1102 11:20:06.939878 12330 net.cpp:434] group1_block1_conv0 <- group1_block0_sum_group1_block0_sum_0_split_0
I1102 11:20:06.939889 12330 net.cpp:408] group1_block1_conv0 -> group1_block1_conv0
I1102 11:20:06.940058 12330 net.cpp:150] Setting up group1_block1_conv0
I1102 11:20:06.940073 12330 net.cpp:157] Top shape: 100 32 16 16 (819200)
I1102 11:20:06.940079 12330 net.cpp:165] Memory required for data: 283034800
I1102 11:20:06.940089 12330 layer_factory.hpp:77] Creating layer group1_block1_conv0_bn
I1102 11:20:06.940104 12330 net.cpp:100] Creating Layer group1_block1_conv0_bn
I1102 11:20:06.940126 12330 net.cpp:434] group1_block1_conv0_bn <- group1_block1_conv0
I1102 11:20:06.940136 12330 net.cpp:395] group1_block1_conv0_bn -> group1_block1_conv0 (in-place)
I1102 11:20:06.940162 12330 net.cpp:150] Setting up group1_block1_conv0_bn
I1102 11:20:06.940174 12330 net.cpp:157] Top shape: 100 32 16 16 (819200)
I1102 11:20:06.940181 12330 net.cpp:165] Memory required for data: 286311600
I1102 11:20:06.940196 12330 layer_factory.hpp:77] Creating layer group1_block1_conv0_scale
I1102 11:20:06.940208 12330 net.cpp:100] Creating Layer group1_block1_conv0_scale
I1102 11:20:06.940218 12330 net.cpp:434] group1_block1_conv0_scale <- group1_block1_conv0
I1102 11:20:06.940233 12330 net.cpp:395] group1_block1_conv0_scale -> group1_block1_conv0 (in-place)
I1102 11:20:06.940263 12330 layer_factory.hpp:77] Creating layer group1_block1_conv0_scale
I1102 11:20:06.940291 12330 net.cpp:150] Setting up group1_block1_conv0_scale
I1102 11:20:06.940304 12330 net.cpp:157] Top shape: 100 32 16 16 (819200)
I1102 11:20:06.940310 12330 net.cpp:165] Memory required for data: 289588400
I1102 11:20:06.940320 12330 layer_factory.hpp:77] Creating layer group1_block1_conv0_relu
I1102 11:20:06.940330 12330 net.cpp:100] Creating Layer group1_block1_conv0_relu
I1102 11:20:06.940338 12330 net.cpp:434] group1_block1_conv0_relu <- group1_block1_conv0
I1102 11:20:06.940353 12330 net.cpp:395] group1_block1_conv0_relu -> group1_block1_conv0 (in-place)
I1102 11:20:06.940371 12330 net.cpp:150] Setting up group1_block1_conv0_relu
I1102 11:20:06.940382 12330 net.cpp:157] Top shape: 100 32 16 16 (819200)
I1102 11:20:06.940389 12330 net.cpp:165] Memory required for data: 292865200
I1102 11:20:06.940395 12330 layer_factory.hpp:77] Creating layer group1_block1_conv1
I1102 11:20:06.940412 12330 net.cpp:100] Creating Layer group1_block1_conv1
I1102 11:20:06.940418 12330 net.cpp:434] group1_block1_conv1 <- group1_block1_conv0
I1102 11:20:06.940428 12330 net.cpp:408] group1_block1_conv1 -> group1_block1_conv1
I1102 11:20:06.940596 12330 net.cpp:150] Setting up group1_block1_conv1
I1102 11:20:06.940613 12330 net.cpp:157] Top shape: 100 32 16 16 (819200)
I1102 11:20:06.940620 12330 net.cpp:165] Memory required for data: 296142000
I1102 11:20:06.940630 12330 layer_factory.hpp:77] Creating layer group1_block1_conv1_bn
I1102 11:20:06.940645 12330 net.cpp:100] Creating Layer group1_block1_conv1_bn
I1102 11:20:06.940654 12330 net.cpp:434] group1_block1_conv1_bn <- group1_block1_conv1
I1102 11:20:06.940666 12330 net.cpp:395] group1_block1_conv1_bn -> group1_block1_conv1 (in-place)
I1102 11:20:06.940690 12330 net.cpp:150] Setting up group1_block1_conv1_bn
I1102 11:20:06.940699 12330 net.cpp:157] Top shape: 100 32 16 16 (819200)
I1102 11:20:06.940706 12330 net.cpp:165] Memory required for data: 299418800
I1102 11:20:06.940717 12330 layer_factory.hpp:77] Creating layer group1_block1_conv1_scale
I1102 11:20:06.940729 12330 net.cpp:100] Creating Layer group1_block1_conv1_scale
I1102 11:20:06.940737 12330 net.cpp:434] group1_block1_conv1_scale <- group1_block1_conv1
I1102 11:20:06.940747 12330 net.cpp:395] group1_block1_conv1_scale -> group1_block1_conv1 (in-place)
I1102 11:20:06.940762 12330 layer_factory.hpp:77] Creating layer group1_block1_conv1_scale
I1102 11:20:06.940791 12330 net.cpp:150] Setting up group1_block1_conv1_scale
I1102 11:20:06.940801 12330 net.cpp:157] Top shape: 100 32 16 16 (819200)
I1102 11:20:06.940809 12330 net.cpp:165] Memory required for data: 302695600
I1102 11:20:06.940819 12330 layer_factory.hpp:77] Creating layer group1_block1_sum
I1102 11:20:06.940832 12330 net.cpp:100] Creating Layer group1_block1_sum
I1102 11:20:06.940840 12330 net.cpp:434] group1_block1_sum <- group1_block1_conv1
I1102 11:20:06.940847 12330 net.cpp:434] group1_block1_sum <- group1_block0_sum_group1_block0_sum_0_split_1
I1102 11:20:06.940857 12330 net.cpp:408] group1_block1_sum -> group1_block1_sum
I1102 11:20:06.940870 12330 net.cpp:150] Setting up group1_block1_sum
I1102 11:20:06.940886 12330 net.cpp:157] Top shape: 100 32 16 16 (819200)
I1102 11:20:06.940907 12330 net.cpp:165] Memory required for data: 305972400
I1102 11:20:06.940914 12330 layer_factory.hpp:77] Creating layer group1_block1_sum_group1_block1_sum_0_split
I1102 11:20:06.940923 12330 net.cpp:100] Creating Layer group1_block1_sum_group1_block1_sum_0_split
I1102 11:20:06.940930 12330 net.cpp:434] group1_block1_sum_group1_block1_sum_0_split <- group1_block1_sum
I1102 11:20:06.940939 12330 net.cpp:408] group1_block1_sum_group1_block1_sum_0_split -> group1_block1_sum_group1_block1_sum_0_split_0
I1102 11:20:06.940951 12330 net.cpp:408] group1_block1_sum_group1_block1_sum_0_split -> group1_block1_sum_group1_block1_sum_0_split_1
I1102 11:20:06.940975 12330 net.cpp:150] Setting up group1_block1_sum_group1_block1_sum_0_split
I1102 11:20:06.940985 12330 net.cpp:157] Top shape: 100 32 16 16 (819200)
I1102 11:20:06.940994 12330 net.cpp:157] Top shape: 100 32 16 16 (819200)
I1102 11:20:06.941000 12330 net.cpp:165] Memory required for data: 312526000
I1102 11:20:06.941006 12330 layer_factory.hpp:77] Creating layer group1_block2_conv0
I1102 11:20:06.941021 12330 net.cpp:100] Creating Layer group1_block2_conv0
I1102 11:20:06.941028 12330 net.cpp:434] group1_block2_conv0 <- group1_block1_sum_group1_block1_sum_0_split_0
I1102 11:20:06.941040 12330 net.cpp:408] group1_block2_conv0 -> group1_block2_conv0
I1102 11:20:06.941202 12330 net.cpp:150] Setting up group1_block2_conv0
I1102 11:20:06.941220 12330 net.cpp:157] Top shape: 100 32 16 16 (819200)
I1102 11:20:06.941227 12330 net.cpp:165] Memory required for data: 315802800
I1102 11:20:06.941237 12330 layer_factory.hpp:77] Creating layer group1_block2_conv0_bn
I1102 11:20:06.941247 12330 net.cpp:100] Creating Layer group1_block2_conv0_bn
I1102 11:20:06.941254 12330 net.cpp:434] group1_block2_conv0_bn <- group1_block2_conv0
I1102 11:20:06.941267 12330 net.cpp:395] group1_block2_conv0_bn -> group1_block2_conv0 (in-place)
I1102 11:20:06.941301 12330 net.cpp:150] Setting up group1_block2_conv0_bn
I1102 11:20:06.941313 12330 net.cpp:157] Top shape: 100 32 16 16 (819200)
I1102 11:20:06.941319 12330 net.cpp:165] Memory required for data: 319079600
I1102 11:20:06.941330 12330 layer_factory.hpp:77] Creating layer group1_block2_conv0_scale
I1102 11:20:06.941344 12330 net.cpp:100] Creating Layer group1_block2_conv0_scale
I1102 11:20:06.941351 12330 net.cpp:434] group1_block2_conv0_scale <- group1_block2_conv0
I1102 11:20:06.941360 12330 net.cpp:395] group1_block2_conv0_scale -> group1_block2_conv0 (in-place)
I1102 11:20:06.941375 12330 layer_factory.hpp:77] Creating layer group1_block2_conv0_scale
I1102 11:20:06.941397 12330 net.cpp:150] Setting up group1_block2_conv0_scale
I1102 11:20:06.941407 12330 net.cpp:157] Top shape: 100 32 16 16 (819200)
I1102 11:20:06.941413 12330 net.cpp:165] Memory required for data: 322356400
I1102 11:20:06.941423 12330 layer_factory.hpp:77] Creating layer group1_block2_conv0_relu
I1102 11:20:06.941436 12330 net.cpp:100] Creating Layer group1_block2_conv0_relu
I1102 11:20:06.941442 12330 net.cpp:434] group1_block2_conv0_relu <- group1_block2_conv0
I1102 11:20:06.941450 12330 net.cpp:395] group1_block2_conv0_relu -> group1_block2_conv0 (in-place)
I1102 11:20:06.941460 12330 net.cpp:150] Setting up group1_block2_conv0_relu
I1102 11:20:06.941469 12330 net.cpp:157] Top shape: 100 32 16 16 (819200)
I1102 11:20:06.941475 12330 net.cpp:165] Memory required for data: 325633200
I1102 11:20:06.941481 12330 layer_factory.hpp:77] Creating layer group1_block2_conv1
I1102 11:20:06.941495 12330 net.cpp:100] Creating Layer group1_block2_conv1
I1102 11:20:06.941504 12330 net.cpp:434] group1_block2_conv1 <- group1_block2_conv0
I1102 11:20:06.941516 12330 net.cpp:408] group1_block2_conv1 -> group1_block2_conv1
I1102 11:20:06.942145 12330 net.cpp:150] Setting up group1_block2_conv1
I1102 11:20:06.942157 12330 net.cpp:157] Top shape: 100 32 16 16 (819200)
I1102 11:20:06.942164 12330 net.cpp:165] Memory required for data: 328910000
I1102 11:20:06.942174 12330 layer_factory.hpp:77] Creating layer group1_block2_conv1_bn
I1102 11:20:06.942185 12330 net.cpp:100] Creating Layer group1_block2_conv1_bn
I1102 11:20:06.942208 12330 net.cpp:434] group1_block2_conv1_bn <- group1_block2_conv1
I1102 11:20:06.942220 12330 net.cpp:395] group1_block2_conv1_bn -> group1_block2_conv1 (in-place)
I1102 11:20:06.942245 12330 net.cpp:150] Setting up group1_block2_conv1_bn
I1102 11:20:06.942255 12330 net.cpp:157] Top shape: 100 32 16 16 (819200)
I1102 11:20:06.942260 12330 net.cpp:165] Memory required for data: 332186800
I1102 11:20:06.942271 12330 layer_factory.hpp:77] Creating layer group1_block2_conv1_scale
I1102 11:20:06.942284 12330 net.cpp:100] Creating Layer group1_block2_conv1_scale
I1102 11:20:06.942291 12330 net.cpp:434] group1_block2_conv1_scale <- group1_block2_conv1
I1102 11:20:06.942301 12330 net.cpp:395] group1_block2_conv1_scale -> group1_block2_conv1 (in-place)
I1102 11:20:06.942317 12330 layer_factory.hpp:77] Creating layer group1_block2_conv1_scale
I1102 11:20:06.942345 12330 net.cpp:150] Setting up group1_block2_conv1_scale
I1102 11:20:06.942354 12330 net.cpp:157] Top shape: 100 32 16 16 (819200)
I1102 11:20:06.942360 12330 net.cpp:165] Memory required for data: 335463600
I1102 11:20:06.942370 12330 layer_factory.hpp:77] Creating layer group1_block2_sum
I1102 11:20:06.942383 12330 net.cpp:100] Creating Layer group1_block2_sum
I1102 11:20:06.942389 12330 net.cpp:434] group1_block2_sum <- group1_block2_conv1
I1102 11:20:06.942397 12330 net.cpp:434] group1_block2_sum <- group1_block1_sum_group1_block1_sum_0_split_1
I1102 11:20:06.942407 12330 net.cpp:408] group1_block2_sum -> group1_block2_sum
I1102 11:20:06.942422 12330 net.cpp:150] Setting up group1_block2_sum
I1102 11:20:06.942431 12330 net.cpp:157] Top shape: 100 32 16 16 (819200)
I1102 11:20:06.942437 12330 net.cpp:165] Memory required for data: 338740400
I1102 11:20:06.942445 12330 layer_factory.hpp:77] Creating layer group1_block2_sum_group1_block2_sum_0_split
I1102 11:20:06.942452 12330 net.cpp:100] Creating Layer group1_block2_sum_group1_block2_sum_0_split
I1102 11:20:06.942459 12330 net.cpp:434] group1_block2_sum_group1_block2_sum_0_split <- group1_block2_sum
I1102 11:20:06.942472 12330 net.cpp:408] group1_block2_sum_group1_block2_sum_0_split -> group1_block2_sum_group1_block2_sum_0_split_0
I1102 11:20:06.942484 12330 net.cpp:408] group1_block2_sum_group1_block2_sum_0_split -> group1_block2_sum_group1_block2_sum_0_split_1
I1102 11:20:06.942497 12330 net.cpp:150] Setting up group1_block2_sum_group1_block2_sum_0_split
I1102 11:20:06.942505 12330 net.cpp:157] Top shape: 100 32 16 16 (819200)
I1102 11:20:06.942513 12330 net.cpp:157] Top shape: 100 32 16 16 (819200)
I1102 11:20:06.942519 12330 net.cpp:165] Memory required for data: 345294000
I1102 11:20:06.942525 12330 layer_factory.hpp:77] Creating layer group2_block0_conv0
I1102 11:20:06.942558 12330 net.cpp:100] Creating Layer group2_block0_conv0
I1102 11:20:06.942565 12330 net.cpp:434] group2_block0_conv0 <- group1_block2_sum_group1_block2_sum_0_split_0
I1102 11:20:06.942576 12330 net.cpp:408] group2_block0_conv0 -> group2_block0_conv0
I1102 11:20:06.943023 12330 net.cpp:150] Setting up group2_block0_conv0
I1102 11:20:06.943039 12330 net.cpp:157] Top shape: 100 64 8 8 (409600)
I1102 11:20:06.943048 12330 net.cpp:165] Memory required for data: 346932400
I1102 11:20:06.943058 12330 layer_factory.hpp:77] Creating layer group2_block0_conv0_bn
I1102 11:20:06.943073 12330 net.cpp:100] Creating Layer group2_block0_conv0_bn
I1102 11:20:06.943157 12330 net.cpp:434] group2_block0_conv0_bn <- group2_block0_conv0
I1102 11:20:06.943167 12330 net.cpp:395] group2_block0_conv0_bn -> group2_block0_conv0 (in-place)
I1102 11:20:06.943200 12330 net.cpp:150] Setting up group2_block0_conv0_bn
I1102 11:20:06.943212 12330 net.cpp:157] Top shape: 100 64 8 8 (409600)
I1102 11:20:06.943230 12330 net.cpp:165] Memory required for data: 348570800
I1102 11:20:06.943269 12330 layer_factory.hpp:77] Creating layer group2_block0_conv0_scale
I1102 11:20:06.943351 12330 net.cpp:100] Creating Layer group2_block0_conv0_scale
I1102 11:20:06.943361 12330 net.cpp:434] group2_block0_conv0_scale <- group2_block0_conv0
I1102 11:20:06.943392 12330 net.cpp:395] group2_block0_conv0_scale -> group2_block0_conv0 (in-place)
I1102 11:20:06.943408 12330 layer_factory.hpp:77] Creating layer group2_block0_conv0_scale
I1102 11:20:06.943431 12330 net.cpp:150] Setting up group2_block0_conv0_scale
I1102 11:20:06.943440 12330 net.cpp:157] Top shape: 100 64 8 8 (409600)
I1102 11:20:06.943447 12330 net.cpp:165] Memory required for data: 350209200
I1102 11:20:06.943457 12330 layer_factory.hpp:77] Creating layer group2_block0_conv0_relu
I1102 11:20:06.943466 12330 net.cpp:100] Creating Layer group2_block0_conv0_relu
I1102 11:20:06.943472 12330 net.cpp:434] group2_block0_conv0_relu <- group2_block0_conv0
I1102 11:20:06.943485 12330 net.cpp:395] group2_block0_conv0_relu -> group2_block0_conv0 (in-place)
I1102 11:20:06.943495 12330 net.cpp:150] Setting up group2_block0_conv0_relu
I1102 11:20:06.943503 12330 net.cpp:157] Top shape: 100 64 8 8 (409600)
I1102 11:20:06.943509 12330 net.cpp:165] Memory required for data: 351847600
I1102 11:20:06.943516 12330 layer_factory.hpp:77] Creating layer group2_block0_conv1
I1102 11:20:06.943531 12330 net.cpp:100] Creating Layer group2_block0_conv1
I1102 11:20:06.943537 12330 net.cpp:434] group2_block0_conv1 <- group2_block0_conv0
I1102 11:20:06.943547 12330 net.cpp:408] group2_block0_conv1 -> group2_block0_conv1
I1102 11:20:06.944180 12330 net.cpp:150] Setting up group2_block0_conv1
I1102 11:20:06.944195 12330 net.cpp:157] Top shape: 100 64 8 8 (409600)
I1102 11:20:06.944202 12330 net.cpp:165] Memory required for data: 353486000
I1102 11:20:06.944212 12330 layer_factory.hpp:77] Creating layer group2_block0_conv1_bn
I1102 11:20:06.944226 12330 net.cpp:100] Creating Layer group2_block0_conv1_bn
I1102 11:20:06.944233 12330 net.cpp:434] group2_block0_conv1_bn <- group2_block0_conv1
I1102 11:20:06.944242 12330 net.cpp:395] group2_block0_conv1_bn -> group2_block0_conv1 (in-place)
I1102 11:20:06.944264 12330 net.cpp:150] Setting up group2_block0_conv1_bn
I1102 11:20:06.944274 12330 net.cpp:157] Top shape: 100 64 8 8 (409600)
I1102 11:20:06.944280 12330 net.cpp:165] Memory required for data: 355124400
I1102 11:20:06.944291 12330 layer_factory.hpp:77] Creating layer group2_block0_conv1_scale
I1102 11:20:06.944301 12330 net.cpp:100] Creating Layer group2_block0_conv1_scale
I1102 11:20:06.944308 12330 net.cpp:434] group2_block0_conv1_scale <- group2_block0_conv1
I1102 11:20:06.944319 12330 net.cpp:395] group2_block0_conv1_scale -> group2_block0_conv1 (in-place)
I1102 11:20:06.944334 12330 layer_factory.hpp:77] Creating layer group2_block0_conv1_scale
I1102 11:20:06.944355 12330 net.cpp:150] Setting up group2_block0_conv1_scale
I1102 11:20:06.944363 12330 net.cpp:157] Top shape: 100 64 8 8 (409600)
I1102 11:20:06.944370 12330 net.cpp:165] Memory required for data: 356762800
I1102 11:20:06.944380 12330 layer_factory.hpp:77] Creating layer group2_block0_proj
I1102 11:20:06.944391 12330 net.cpp:100] Creating Layer group2_block0_proj
I1102 11:20:06.944398 12330 net.cpp:434] group2_block0_proj <- group1_block2_sum_group1_block2_sum_0_split_1
I1102 11:20:06.944411 12330 net.cpp:408] group2_block0_proj -> group2_block0_proj
I1102 11:20:06.944560 12330 net.cpp:150] Setting up group2_block0_proj
I1102 11:20:06.944569 12330 net.cpp:157] Top shape: 100 64 8 8 (409600)
I1102 11:20:06.944576 12330 net.cpp:165] Memory required for data: 358401200
I1102 11:20:06.944586 12330 layer_factory.hpp:77] Creating layer group2_block0_proj_bn
I1102 11:20:06.944597 12330 net.cpp:100] Creating Layer group2_block0_proj_bn
I1102 11:20:06.944604 12330 net.cpp:434] group2_block0_proj_bn <- group2_block0_proj
I1102 11:20:06.944617 12330 net.cpp:395] group2_block0_proj_bn -> group2_block0_proj (in-place)
I1102 11:20:06.944638 12330 net.cpp:150] Setting up group2_block0_proj_bn
I1102 11:20:06.944648 12330 net.cpp:157] Top shape: 100 64 8 8 (409600)
I1102 11:20:06.944654 12330 net.cpp:165] Memory required for data: 360039600
I1102 11:20:06.944665 12330 layer_factory.hpp:77] Creating layer group2_block0_proj_scale
I1102 11:20:06.944674 12330 net.cpp:100] Creating Layer group2_block0_proj_scale
I1102 11:20:06.944694 12330 net.cpp:434] group2_block0_proj_scale <- group2_block0_proj
I1102 11:20:06.944707 12330 net.cpp:395] group2_block0_proj_scale -> group2_block0_proj (in-place)
I1102 11:20:06.944722 12330 layer_factory.hpp:77] Creating layer group2_block0_proj_scale
I1102 11:20:06.944746 12330 net.cpp:150] Setting up group2_block0_proj_scale
I1102 11:20:06.944757 12330 net.cpp:157] Top shape: 100 64 8 8 (409600)
I1102 11:20:06.944764 12330 net.cpp:165] Memory required for data: 361678000
I1102 11:20:06.944774 12330 layer_factory.hpp:77] Creating layer group2_block0_sum
I1102 11:20:06.944783 12330 net.cpp:100] Creating Layer group2_block0_sum
I1102 11:20:06.944790 12330 net.cpp:434] group2_block0_sum <- group2_block0_proj
I1102 11:20:06.944798 12330 net.cpp:434] group2_block0_sum <- group2_block0_conv1
I1102 11:20:06.944808 12330 net.cpp:408] group2_block0_sum -> group2_block0_sum
I1102 11:20:06.944823 12330 net.cpp:150] Setting up group2_block0_sum
I1102 11:20:06.944831 12330 net.cpp:157] Top shape: 100 64 8 8 (409600)
I1102 11:20:06.944838 12330 net.cpp:165] Memory required for data: 363316400
I1102 11:20:06.944844 12330 layer_factory.hpp:77] Creating layer group2_block0_sum_group2_block0_sum_0_split
I1102 11:20:06.944852 12330 net.cpp:100] Creating Layer group2_block0_sum_group2_block0_sum_0_split
I1102 11:20:06.944859 12330 net.cpp:434] group2_block0_sum_group2_block0_sum_0_split <- group2_block0_sum
I1102 11:20:06.944871 12330 net.cpp:408] group2_block0_sum_group2_block0_sum_0_split -> group2_block0_sum_group2_block0_sum_0_split_0
I1102 11:20:06.944885 12330 net.cpp:408] group2_block0_sum_group2_block0_sum_0_split -> group2_block0_sum_group2_block0_sum_0_split_1
I1102 11:20:06.944896 12330 net.cpp:150] Setting up group2_block0_sum_group2_block0_sum_0_split
I1102 11:20:06.944905 12330 net.cpp:157] Top shape: 100 64 8 8 (409600)
I1102 11:20:06.944913 12330 net.cpp:157] Top shape: 100 64 8 8 (409600)
I1102 11:20:06.944919 12330 net.cpp:165] Memory required for data: 366593200
I1102 11:20:06.944926 12330 layer_factory.hpp:77] Creating layer group2_block1_conv0
I1102 11:20:06.944939 12330 net.cpp:100] Creating Layer group2_block1_conv0
I1102 11:20:06.944947 12330 net.cpp:434] group2_block1_conv0 <- group2_block0_sum_group2_block0_sum_0_split_0
I1102 11:20:06.944960 12330 net.cpp:408] group2_block1_conv0 -> group2_block1_conv0
I1102 11:20:06.945605 12330 net.cpp:150] Setting up group2_block1_conv0
I1102 11:20:06.945909 12330 net.cpp:157] Top shape: 100 64 8 8 (409600)
I1102 11:20:06.945924 12330 net.cpp:165] Memory required for data: 368231600
I1102 11:20:06.945946 12330 layer_factory.hpp:77] Creating layer group2_block1_conv0_bn
I1102 11:20:06.945971 12330 net.cpp:100] Creating Layer group2_block1_conv0_bn
I1102 11:20:06.945981 12330 net.cpp:434] group2_block1_conv0_bn <- group2_block1_conv0
I1102 11:20:06.946002 12330 net.cpp:395] group2_block1_conv0_bn -> group2_block1_conv0 (in-place)
I1102 11:20:06.946041 12330 net.cpp:150] Setting up group2_block1_conv0_bn
I1102 11:20:06.946054 12330 net.cpp:157] Top shape: 100 64 8 8 (409600)
I1102 11:20:06.946061 12330 net.cpp:165] Memory required for data: 369870000
I1102 11:20:06.946075 12330 layer_factory.hpp:77] Creating layer group2_block1_conv0_scale
I1102 11:20:06.946094 12330 net.cpp:100] Creating Layer group2_block1_conv0_scale
I1102 11:20:06.946104 12330 net.cpp:434] group2_block1_conv0_scale <- group2_block1_conv0
I1102 11:20:06.946115 12330 net.cpp:395] group2_block1_conv0_scale -> group2_block1_conv0 (in-place)
I1102 11:20:06.946153 12330 layer_factory.hpp:77] Creating layer group2_block1_conv0_scale
I1102 11:20:06.946189 12330 net.cpp:150] Setting up group2_block1_conv0_scale
I1102 11:20:06.946202 12330 net.cpp:157] Top shape: 100 64 8 8 (409600)
I1102 11:20:06.946208 12330 net.cpp:165] Memory required for data: 371508400
I1102 11:20:06.946219 12330 layer_factory.hpp:77] Creating layer group2_block1_conv0_relu
I1102 11:20:06.946233 12330 net.cpp:100] Creating Layer group2_block1_conv0_relu
I1102 11:20:06.946244 12330 net.cpp:434] group2_block1_conv0_relu <- group2_block1_conv0
I1102 11:20:06.946298 12330 net.cpp:395] group2_block1_conv0_relu -> group2_block1_conv0 (in-place)
I1102 11:20:06.946313 12330 net.cpp:150] Setting up group2_block1_conv0_relu
I1102 11:20:06.946323 12330 net.cpp:157] Top shape: 100 64 8 8 (409600)
I1102 11:20:06.946331 12330 net.cpp:165] Memory required for data: 373146800
I1102 11:20:06.946339 12330 layer_factory.hpp:77] Creating layer group2_block1_conv1
I1102 11:20:06.946357 12330 net.cpp:100] Creating Layer group2_block1_conv1
I1102 11:20:06.946370 12330 net.cpp:434] group2_block1_conv1 <- group2_block1_conv0
I1102 11:20:06.946389 12330 net.cpp:408] group2_block1_conv1 -> group2_block1_conv1
I1102 11:20:06.947051 12330 net.cpp:150] Setting up group2_block1_conv1
I1102 11:20:06.947065 12330 net.cpp:157] Top shape: 100 64 8 8 (409600)
I1102 11:20:06.947072 12330 net.cpp:165] Memory required for data: 374785200
I1102 11:20:06.947083 12330 layer_factory.hpp:77] Creating layer group2_block1_conv1_bn
I1102 11:20:06.947098 12330 net.cpp:100] Creating Layer group2_block1_conv1_bn
I1102 11:20:06.947108 12330 net.cpp:434] group2_block1_conv1_bn <- group2_block1_conv1
I1102 11:20:06.947119 12330 net.cpp:395] group2_block1_conv1_bn -> group2_block1_conv1 (in-place)
I1102 11:20:06.947146 12330 net.cpp:150] Setting up group2_block1_conv1_bn
I1102 11:20:06.947159 12330 net.cpp:157] Top shape: 100 64 8 8 (409600)
I1102 11:20:06.947165 12330 net.cpp:165] Memory required for data: 376423600
I1102 11:20:06.947208 12330 layer_factory.hpp:77] Creating layer group2_block1_conv1_scale
I1102 11:20:06.947226 12330 net.cpp:100] Creating Layer group2_block1_conv1_scale
I1102 11:20:06.947233 12330 net.cpp:434] group2_block1_conv1_scale <- group2_block1_conv1
I1102 11:20:06.947244 12330 net.cpp:395] group2_block1_conv1_scale -> group2_block1_conv1 (in-place)
I1102 11:20:06.947263 12330 layer_factory.hpp:77] Creating layer group2_block1_conv1_scale
I1102 11:20:06.947283 12330 net.cpp:150] Setting up group2_block1_conv1_scale
I1102 11:20:06.947293 12330 net.cpp:157] Top shape: 100 64 8 8 (409600)
I1102 11:20:06.947300 12330 net.cpp:165] Memory required for data: 378062000
I1102 11:20:06.947310 12330 layer_factory.hpp:77] Creating layer group2_block1_sum
I1102 11:20:06.947329 12330 net.cpp:100] Creating Layer group2_block1_sum
I1102 11:20:06.947335 12330 net.cpp:434] group2_block1_sum <- group2_block1_conv1
I1102 11:20:06.947345 12330 net.cpp:434] group2_block1_sum <- group2_block0_sum_group2_block0_sum_0_split_1
I1102 11:20:06.947355 12330 net.cpp:408] group2_block1_sum -> group2_block1_sum
I1102 11:20:06.947371 12330 net.cpp:150] Setting up group2_block1_sum
I1102 11:20:06.947379 12330 net.cpp:157] Top shape: 100 64 8 8 (409600)
I1102 11:20:06.947386 12330 net.cpp:165] Memory required for data: 379700400
I1102 11:20:06.947392 12330 layer_factory.hpp:77] Creating layer group2_block1_sum_group2_block1_sum_0_split
I1102 11:20:06.947402 12330 net.cpp:100] Creating Layer group2_block1_sum_group2_block1_sum_0_split
I1102 11:20:06.947409 12330 net.cpp:434] group2_block1_sum_group2_block1_sum_0_split <- group2_block1_sum
I1102 11:20:06.947422 12330 net.cpp:408] group2_block1_sum_group2_block1_sum_0_split -> group2_block1_sum_group2_block1_sum_0_split_0
I1102 11:20:06.947434 12330 net.cpp:408] group2_block1_sum_group2_block1_sum_0_split -> group2_block1_sum_group2_block1_sum_0_split_1
I1102 11:20:06.947448 12330 net.cpp:150] Setting up group2_block1_sum_group2_block1_sum_0_split
I1102 11:20:06.947456 12330 net.cpp:157] Top shape: 100 64 8 8 (409600)
I1102 11:20:06.947465 12330 net.cpp:157] Top shape: 100 64 8 8 (409600)
I1102 11:20:06.947471 12330 net.cpp:165] Memory required for data: 382977200
I1102 11:20:06.947479 12330 layer_factory.hpp:77] Creating layer group2_block2_conv0
I1102 11:20:06.947491 12330 net.cpp:100] Creating Layer group2_block2_conv0
I1102 11:20:06.947499 12330 net.cpp:434] group2_block2_conv0 <- group2_block1_sum_group2_block1_sum_0_split_0
I1102 11:20:06.947513 12330 net.cpp:408] group2_block2_conv0 -> group2_block2_conv0
I1102 11:20:06.948134 12330 net.cpp:150] Setting up group2_block2_conv0
I1102 11:20:06.948161 12330 net.cpp:157] Top shape: 100 64 8 8 (409600)
I1102 11:20:06.948169 12330 net.cpp:165] Memory required for data: 384615600
I1102 11:20:06.948179 12330 layer_factory.hpp:77] Creating layer group2_block2_conv0_bn
I1102 11:20:06.948192 12330 net.cpp:100] Creating Layer group2_block2_conv0_bn
I1102 11:20:06.948200 12330 net.cpp:434] group2_block2_conv0_bn <- group2_block2_conv0
I1102 11:20:06.948213 12330 net.cpp:395] group2_block2_conv0_bn -> group2_block2_conv0 (in-place)
I1102 11:20:06.948241 12330 net.cpp:150] Setting up group2_block2_conv0_bn
I1102 11:20:06.948252 12330 net.cpp:157] Top shape: 100 64 8 8 (409600)
I1102 11:20:06.948258 12330 net.cpp:165] Memory required for data: 386254000
I1102 11:20:06.948271 12330 layer_factory.hpp:77] Creating layer group2_block2_conv0_scale
I1102 11:20:06.948284 12330 net.cpp:100] Creating Layer group2_block2_conv0_scale
I1102 11:20:06.948294 12330 net.cpp:434] group2_block2_conv0_scale <- group2_block2_conv0
I1102 11:20:06.948303 12330 net.cpp:395] group2_block2_conv0_scale -> group2_block2_conv0 (in-place)
I1102 11:20:06.948318 12330 layer_factory.hpp:77] Creating layer group2_block2_conv0_scale
I1102 11:20:06.948341 12330 net.cpp:150] Setting up group2_block2_conv0_scale
I1102 11:20:06.948353 12330 net.cpp:157] Top shape: 100 64 8 8 (409600)
I1102 11:20:06.948359 12330 net.cpp:165] Memory required for data: 387892400
I1102 11:20:06.948370 12330 layer_factory.hpp:77] Creating layer group2_block2_conv0_relu
I1102 11:20:06.948380 12330 net.cpp:100] Creating Layer group2_block2_conv0_relu
I1102 11:20:06.948387 12330 net.cpp:434] group2_block2_conv0_relu <- group2_block2_conv0
I1102 11:20:06.948396 12330 net.cpp:395] group2_block2_conv0_relu -> group2_block2_conv0 (in-place)
I1102 11:20:06.948408 12330 net.cpp:150] Setting up group2_block2_conv0_relu
I1102 11:20:06.948417 12330 net.cpp:157] Top shape: 100 64 8 8 (409600)
I1102 11:20:06.948424 12330 net.cpp:165] Memory required for data: 389530800
I1102 11:20:06.948431 12330 layer_factory.hpp:77] Creating layer group2_block2_conv1
I1102 11:20:06.948446 12330 net.cpp:100] Creating Layer group2_block2_conv1
I1102 11:20:06.948457 12330 net.cpp:434] group2_block2_conv1 <- group2_block2_conv0
I1102 11:20:06.948467 12330 net.cpp:408] group2_block2_conv1 -> group2_block2_conv1
I1102 11:20:06.949091 12330 net.cpp:150] Setting up group2_block2_conv1
I1102 11:20:06.949106 12330 net.cpp:157] Top shape: 100 64 8 8 (409600)
I1102 11:20:06.949112 12330 net.cpp:165] Memory required for data: 391169200
I1102 11:20:06.949123 12330 layer_factory.hpp:77] Creating layer group2_block2_conv1_bn
I1102 11:20:06.949133 12330 net.cpp:100] Creating Layer group2_block2_conv1_bn
I1102 11:20:06.949141 12330 net.cpp:434] group2_block2_conv1_bn <- group2_block2_conv1
I1102 11:20:06.949153 12330 net.cpp:395] group2_block2_conv1_bn -> group2_block2_conv1 (in-place)
I1102 11:20:06.949175 12330 net.cpp:150] Setting up group2_block2_conv1_bn
I1102 11:20:06.949187 12330 net.cpp:157] Top shape: 100 64 8 8 (409600)
I1102 11:20:06.949194 12330 net.cpp:165] Memory required for data: 392807600
I1102 11:20:06.949206 12330 layer_factory.hpp:77] Creating layer group2_block2_conv1_scale
I1102 11:20:06.949218 12330 net.cpp:100] Creating Layer group2_block2_conv1_scale
I1102 11:20:06.949224 12330 net.cpp:434] group2_block2_conv1_scale <- group2_block2_conv1
I1102 11:20:06.949234 12330 net.cpp:395] group2_block2_conv1_scale -> group2_block2_conv1 (in-place)
I1102 11:20:06.949249 12330 layer_factory.hpp:77] Creating layer group2_block2_conv1_scale
I1102 11:20:06.949271 12330 net.cpp:150] Setting up group2_block2_conv1_scale
I1102 11:20:06.949283 12330 net.cpp:157] Top shape: 100 64 8 8 (409600)
I1102 11:20:06.953342 12330 net.cpp:165] Memory required for data: 394446000
I1102 11:20:06.953390 12330 layer_factory.hpp:77] Creating layer group2_block2_sum
I1102 11:20:06.953416 12330 net.cpp:100] Creating Layer group2_block2_sum
I1102 11:20:06.953434 12330 net.cpp:434] group2_block2_sum <- group2_block2_conv1
I1102 11:20:06.953495 12330 net.cpp:434] group2_block2_sum <- group2_block1_sum_group2_block1_sum_0_split_1
I1102 11:20:06.953516 12330 net.cpp:408] group2_block2_sum -> group2_block2_sum
I1102 11:20:06.953567 12330 net.cpp:150] Setting up group2_block2_sum
I1102 11:20:06.953585 12330 net.cpp:157] Top shape: 100 64 8 8 (409600)
I1102 11:20:06.953598 12330 net.cpp:165] Memory required for data: 396084400
I1102 11:20:06.953608 12330 layer_factory.hpp:77] Creating layer global_avg_pool
I1102 11:20:06.953624 12330 net.cpp:100] Creating Layer global_avg_pool
I1102 11:20:06.953636 12330 net.cpp:434] global_avg_pool <- group2_block2_sum
I1102 11:20:06.953651 12330 net.cpp:408] global_avg_pool -> global_avg_pool
I1102 11:20:06.953686 12330 net.cpp:150] Setting up global_avg_pool
I1102 11:20:06.953706 12330 net.cpp:157] Top shape: 100 64 1 1 (6400)
I1102 11:20:06.953716 12330 net.cpp:165] Memory required for data: 396110000
I1102 11:20:06.953728 12330 layer_factory.hpp:77] Creating layer fc
I1102 11:20:06.953763 12330 net.cpp:100] Creating Layer fc
I1102 11:20:06.953793 12330 net.cpp:434] fc <- global_avg_pool
I1102 11:20:06.953811 12330 net.cpp:408] fc -> fc
I1102 11:20:06.953893 12330 net.cpp:150] Setting up fc
I1102 11:20:06.953918 12330 net.cpp:157] Top shape: 100 12 (1200)
I1102 11:20:06.953929 12330 net.cpp:165] Memory required for data: 396114800
I1102 11:20:06.953945 12330 layer_factory.hpp:77] Creating layer fc_fc_0_split
I1102 11:20:06.953963 12330 net.cpp:100] Creating Layer fc_fc_0_split
I1102 11:20:06.953980 12330 net.cpp:434] fc_fc_0_split <- fc
I1102 11:20:06.954000 12330 net.cpp:408] fc_fc_0_split -> fc_fc_0_split_0
I1102 11:20:06.954021 12330 net.cpp:408] fc_fc_0_split -> fc_fc_0_split_1
I1102 11:20:06.954042 12330 net.cpp:150] Setting up fc_fc_0_split
I1102 11:20:06.954064 12330 net.cpp:157] Top shape: 100 12 (1200)
I1102 11:20:06.954080 12330 net.cpp:157] Top shape: 100 12 (1200)
I1102 11:20:06.954092 12330 net.cpp:165] Memory required for data: 396124400
I1102 11:20:06.954102 12330 layer_factory.hpp:77] Creating layer loss
I1102 11:20:06.954116 12330 net.cpp:100] Creating Layer loss
I1102 11:20:06.954130 12330 net.cpp:434] loss <- fc_fc_0_split_0
I1102 11:20:06.954143 12330 net.cpp:434] loss <- label_data_1_split_0
I1102 11:20:06.954171 12330 net.cpp:408] loss -> loss
I1102 11:20:06.954193 12330 layer_factory.hpp:77] Creating layer loss
I1102 11:20:06.954257 12330 net.cpp:150] Setting up loss
I1102 11:20:06.954274 12330 net.cpp:157] Top shape: (1)
I1102 11:20:06.954285 12330 net.cpp:160]     with loss weight 1
I1102 11:20:06.954311 12330 net.cpp:165] Memory required for data: 396124404
I1102 11:20:06.954322 12330 layer_factory.hpp:77] Creating layer softmax
I1102 11:20:06.954336 12330 net.cpp:100] Creating Layer softmax
I1102 11:20:06.954346 12330 net.cpp:434] softmax <- fc_fc_0_split_1
I1102 11:20:06.954360 12330 net.cpp:408] softmax -> softmax
I1102 11:20:06.954385 12330 net.cpp:150] Setting up softmax
I1102 11:20:06.954397 12330 net.cpp:157] Top shape: 100 12 (1200)
I1102 11:20:06.954406 12330 net.cpp:165] Memory required for data: 396129204
I1102 11:20:06.954422 12330 layer_factory.hpp:77] Creating layer Accuracy
I1102 11:20:06.954437 12330 net.cpp:100] Creating Layer Accuracy
I1102 11:20:06.954447 12330 net.cpp:434] Accuracy <- softmax
I1102 11:20:06.954459 12330 net.cpp:434] Accuracy <- label_data_1_split_1
I1102 11:20:06.954474 12330 net.cpp:408] Accuracy -> Accuracy
…
