…
I1102 06:12:05.295857 12123 net.cpp:322] The NetState phase (0) differed from the phase (1) specified by a rule in layer data
I1102 06:12:05.296659 12123 net.cpp:58] Initializing net from parameters: 
name: "resnet20-cifar10"
state {
  phase: TRAIN
  level: 0
  stage: ""
}
layer {
  name: "data"
  type: "Data"
  top: "data"
  top: "label"
  include {
    phase: TRAIN
  }
  transform_param {
    mirror: true
    crop_size: 32
    mean_file: "data/mean.binaryproto"
  }
  data_param {
    source: "data/train_lmdb"
    batch_size: 100
    backend: LMDB
  }
}
layer {
  name: "first_conv"
  type: "Convolution"
  bottom: "data"
  top: "first_conv"
  param {
    lr_mult: 1
    decay_mult: 1
  }
  convolution_param {
    num_output: 16
    pad: 1
    kernel_size: 3
    stride: 1
    weight_filler {
      type: "msra"
    }
  }
}
layer {
  name: "first_conv_bn"
  type: "BatchNorm"
  bottom: "first_conv"
  top: "first_conv"
  batch_norm_param {
    use_global_stats: false
    moving_average_fraction: 0.95
  }
}
layer {
  name: "first_conv_scale"
  type: "Scale"
  bottom: "first_conv"
  top: "first_conv"
  scale_param {
    bias_term: true
  }
}
layer {
  name: "first_conv_relu"
  type: "ReLU"
  bottom: "first_conv"
  top: "first_conv"
}
layer {
  name: "group0_block0_conv0"
  type: "Convolution"
  bottom: "first_conv"
  top: "group0_block0_conv0"
  param {
    lr_mult: 1
    decay_mult: 1
  }
  convolution_param {
    num_output: 16
    pad: 1
    kernel_size: 3
    stride: 1
    weight_filler {
      type: "msra"
    }
  }
}
layer {
  name: "group0_block0_conv0_bn"
  type: "BatchNorm"
  bottom: "group0_block0_conv0"
  top: "group0_block0_conv0"
  batch_norm_param {
    use_global_stats: false
    moving_average_fraction: 0.95
  }
}
layer {
  name: "group0_block0_conv0_scale"
  type: "Scale"
  bottom: "group0_block0_conv0"
  top: "group0_block0_conv0"
  scale_param {
    bias_term: true
  }
}
layer {
  name: "group0_block0_conv0_relu"
  type: "ReLU"
  bottom: "group0_block0_conv0"
  top: "group0_block0_conv0"
}
layer {
  name: "group0_block0_conv1"
  type: "Convolution"
  bottom: "group0_block0_conv0"
  top: "group0_block0_conv1"
  param {
    lr_mult: 1
    decay_mult: 1
  }
  convolution_param {
    num_output: 16
    pad: 1
    kernel_size: 3
    stride: 1
    weight_filler {
      type: "msra"
    }
  }
}
layer {
  name: "group0_block0_conv1_bn"
  type: "BatchNorm"
  bottom: "group0_block0_conv1"
  top: "group0_block0_conv1"
  batch_norm_param {
    use_global_stats: false
    moving_average_fraction: 0.95
  }
}
layer {
  name: "group0_block0_conv1_scale"
  type: "Scale"
  bottom: "group0_block0_conv1"
  top: "group0_block0_conv1"
  scale_param {
    bias_term: true
  }
}
layer {
  name: "group0_block0_sum"
  type: "Eltwise"
  bottom: "group0_block0_conv1"
  bottom: "first_conv"
  top: "group0_block0_sum"
  eltwise_param {
    operation: SUM
  }
}
layer {
  name: "group0_block1_conv0"
  type: "Convolution"
  bottom: "group0_block0_sum"
  top: "group0_block1_conv0"
  param {
    lr_mult: 1
    decay_mult: 1
  }
  convolution_param {
    num_output: 16
    pad: 1
    kernel_size: 3
    stride: 1
    weight_filler {
      type: "msra"
    }
  }
}
layer {
  name: "group0_block1_conv0_bn"
  type: "BatchNorm"
  bottom: "group0_block1_conv0"
  top: "group0_block1_conv0"
  batch_norm_param {
    use_global_stats: false
    moving_average_fraction: 0.95
  }
}
layer {
  name: "group0_block1_conv0_scale"
  type: "Scale"
  bottom: "group0_block1_conv0"
  top: "group0_block1_conv0"
  scale_param {
    bias_term: true
  }
}
layer {
  name: "group0_block1_conv0_relu"
  type: "ReLU"
  bottom: "group0_block1_conv0"
  top: "group0_block1_conv0"
}
layer {
  name: "group0_block1_conv1"
  type: "Convolution"
  bottom: "group0_block1_conv0"
  top: "group0_block1_conv1"
  param {
    lr_mult: 1
    decay_mult: 1
  }
  convolution_param {
    num_output: 16
    pad: 1
    kernel_size: 3
    stride: 1
    weight_filler {
      type: "msra"
    }
  }
}
layer {
  name: "group0_block1_conv1_bn"
  type: "BatchNorm"
  bottom: "group0_block1_conv1"
  top: "group0_block1_conv1"
  batch_norm_param {
    use_global_stats: false
    moving_average_fraction: 0.95
  }
}
layer {
  name: "group0_block1_conv1_scale"
  type: "Scale"
  bottom: "group0_block1_conv1"
  top: "group0_block1_conv1"
  scale_param {
    bias_term: true
  }
}
layer {
  name: "group0_block1_sum"
  type: "Eltwise"
  bottom: "group0_block1_conv1"
  bottom: "group0_block0_sum"
  top: "group0_block1_sum"
  eltwise_param {
    operation: SUM
  }
}
layer {
  name: "group0_block2_conv0"
  type: "Convolution"
  bottom: "group0_block1_sum"
  top: "group0_block2_conv0"
  param {
    lr_mult: 1
    decay_mult: 1
  }
  convolution_param {
    num_output: 16
    pad: 1
    kernel_size: 3
    stride: 1
    weight_filler {
      type: "msra"
    }
  }
}
layer {
  name: "group0_block2_conv0_bn"
  type: "BatchNorm"
  bottom: "group0_block2_conv0"
  top: "group0_block2_conv0"
  batch_norm_param {
    use_global_stats: false
    moving_average_fraction: 0.95
  }
}
layer {
  name: "group0_block2_conv0_scale"
  type: "Scale"
  bottom: "group0_block2_conv0"
  top: "group0_block2_conv0"
  scale_param {
    bias_term: true
  }
}
layer {
  name: "group0_block2_conv0_relu"
  type: "ReLU"
  bottom: "group0_block2_conv0"
  top: "group0_block2_conv0"
}
layer {
  name: "group0_block2_conv1"
  type: "Convolution"
  bottom: "group0_block2_conv0"
  top: "group0_block2_conv1"
  param {
    lr_mult: 1
    decay_mult: 1
  }
  convolution_param {
    num_output: 16
    pad: 1
    kernel_size: 3
    stride: 1
    weight_filler {
      type: "msra"
    }
  }
}
layer {
  name: "group0_block2_conv1_bn"
  type: "BatchNorm"
  bottom: "group0_block2_conv1"
  top: "group0_block2_conv1"
  batch_norm_param {
    use_global_stats: false
    moving_average_fraction: 0.95
  }
}
layer {
  name: "group0_block2_conv1_scale"
  type: "Scale"
  bottom: "group0_block2_conv1"
  top: "group0_block2_conv1"
  scale_param {
    bias_term: true
  }
}
layer {
  name: "group0_block2_sum"
  type: "Eltwise"
  bottom: "group0_block2_conv1"
  bottom: "group0_block1_sum"
  top: "group0_block2_sum"
  eltwise_param {
    operation: SUM
  }
}
layer {
  name: "group1_block0_conv0"
  type: "Convolution"
  bottom: "group0_block2_sum"
  top: "group1_block0_conv0"
  param {
    lr_mult: 1
    decay_mult: 1
  }
  convolution_param {
    num_output: 32
    pad: 1
    kernel_size: 3
    stride: 2
    weight_filler {
      type: "msra"
    }
  }
}
layer {
  name: "group1_block0_conv0_bn"
  type: "BatchNorm"
  bottom: "group1_block0_conv0"
  top: "group1_block0_conv0"
  batch_norm_param {
    use_global_stats: false
    moving_average_fraction: 0.95
  }
}
layer {
  name: "group1_block0_conv0_scale"
  type: "Scale"
  bottom: "group1_block0_conv0"
  top: "group1_block0_conv0"
  scale_param {
    bias_term: true
  }
}
layer {
  name: "group1_block0_conv0_relu"
  type: "ReLU"
  bottom: "group1_block0_conv0"
  top: "group1_block0_conv0"
}
layer {
  name: "group1_block0_conv1"
  type: "Convolution"
  bottom: "group1_block0_conv0"
  top: "group1_block0_conv1"
  param {
    lr_mult: 1
    decay_mult: 1
  }
  convolution_param {
    num_output: 32
    pad: 1
    kernel_size: 3
    stride: 1
    weight_filler {
      type: "msra"
    }
  }
}
layer {
  name: "group1_block0_conv1_bn"
  type: "BatchNorm"
  bottom: "group1_block0_conv1"
  top: "group1_block0_conv1"
  batch_norm_param {
    use_global_stats: false
    moving_average_fraction: 0.95
  }
}
layer {
  name: "group1_block0_conv1_scale"
  type: "Scale"
  bottom: "group1_block0_conv1"
  top: "group1_block0_conv1"
  scale_param {
    bias_term: true
  }
}
layer {
  name: "group1_block0_proj"
  type: "Convolution"
  bottom: "group0_block2_sum"
  top: "group1_block0_proj"
  param {
    lr_mult: 1
    decay_mult: 1
  }
  convolution_param {
    num_output: 32
    pad: 0
    kernel_size: 2
    stride: 2
    weight_filler {
      type: "msra"
    }
  }
}
layer {
  name: "group1_block0_proj_bn"
  type: "BatchNorm"
  bottom: "group1_block0_proj"
  top: "group1_block0_proj"
  batch_norm_param {
    use_global_stats: false
    moving_average_fraction: 0.95
  }
}
layer {
  name: "group1_block0_proj_scale"
  type: "Scale"
  bottom: "group1_block0_proj"
  top: "group1_block0_proj"
  scale_param {
    bias_term: true
  }
}
layer {
  name: "group1_block0_sum"
  type: "Eltwise"
  bottom: "group1_block0_proj"
  bottom: "group1_block0_conv1"
  top: "group1_block0_sum"
  eltwise_param {
    operation: SUM
  }
}
layer {
  name: "group1_block1_conv0"
  type: "Convolution"
  bottom: "group1_block0_sum"
  top: "group1_block1_conv0"
  param {
    lr_mult: 1
    decay_mult: 1
  }
  convolution_param {
    num_output: 32
    pad: 1
    kernel_size: 3
    stride: 1
    weight_filler {
      type: "msra"
    }
  }
}
layer {
  name: "group1_block1_conv0_bn"
  type: "BatchNorm"
  bottom: "group1_block1_conv0"
  top: "group1_block1_conv0"
  batch_norm_param {
    use_global_stats: false
    moving_average_fraction: 0.95
  }
}
layer {
  name: "group1_block1_conv0_scale"
  type: "Scale"
  bottom: "group1_block1_conv0"
  top: "group1_block1_conv0"
  scale_param {
    bias_term: true
  }
}
layer {
  name: "group1_block1_conv0_relu"
  type: "ReLU"
  bottom: "group1_block1_conv0"
  top: "group1_block1_conv0"
}
layer {
  name: "group1_block1_conv1"
  type: "Convolution"
  bottom: "group1_block1_conv0"
  top: "group1_block1_conv1"
  param {
    lr_mult: 1
    decay_mult: 1
  }
  convolution_param {
    num_output: 32
    pad: 1
    kernel_size: 3
    stride: 1
    weight_filler {
      type: "msra"
    }
  }
}
layer {
  name: "group1_block1_conv1_bn"
  type: "BatchNorm"
  bottom: "group1_block1_conv1"
  top: "group1_block1_conv1"
  batch_norm_param {
    use_global_stats: false
    moving_average_fraction: 0.95
  }
}
layer {
  name: "group1_block1_conv1_scale"
  type: "Scale"
  bottom: "group1_block1_conv1"
  top: "group1_block1_conv1"
  scale_param {
    bias_term: true
  }
}
layer {
  name: "group1_block1_sum"
  type: "Eltwise"
  bottom: "group1_block1_conv1"
  bottom: "group1_block0_sum"
  top: "group1_block1_sum"
  eltwise_param {
    operation: SUM
  }
}
layer {
  name: "group1_block2_conv0"
  type: "Convolution"
  bottom: "group1_block1_sum"
  top: "group1_block2_conv0"
  param {
    lr_mult: 1
    decay_mult: 1
  }
  convolution_param {
    num_output: 32
    pad: 1
    kernel_size: 3
    stride: 1
    weight_filler {
      type: "msra"
    }
  }
}
layer {
  name: "group1_block2_conv0_bn"
  type: "BatchNorm"
  bottom: "group1_block2_conv0"
  top: "group1_block2_conv0"
  batch_norm_param {
    use_global_stats: false
    moving_average_fraction: 0.95
  }
}
layer {
  name: "group1_block2_conv0_scale"
  type: "Scale"
  bottom: "group1_block2_conv0"
  top: "group1_block2_conv0"
  scale_param {
    bias_term: true
  }
}
layer {
  name: "group1_block2_conv0_relu"
  type: "ReLU"
  bottom: "group1_block2_conv0"
  top: "group1_block2_conv0"
}
layer {
  name: "group1_block2_conv1"
  type: "Convolution"
  bottom: "group1_block2_conv0"
  top: "group1_block2_conv1"
  param {
    lr_mult: 1
    decay_mult: 1
  }
  convolution_param {
    num_output: 32
    pad: 1
    kernel_size: 3
    stride: 1
    weight_filler {
      type: "msra"
    }
  }
}
layer {
  name: "group1_block2_conv1_bn"
  type: "BatchNorm"
  bottom: "group1_block2_conv1"
  top: "group1_block2_conv1"
  batch_norm_param {
    use_global_stats: false
    moving_average_fraction: 0.95
  }
}
layer {
  name: "group1_block2_conv1_scale"
  type: "Scale"
  bottom: "group1_block2_conv1"
  top: "group1_block2_conv1"
  scale_param {
    bias_term: true
  }
}
layer {
  name: "group1_block2_sum"
  type: "Eltwise"
  bottom: "group1_block2_conv1"
  bottom: "group1_block1_sum"
  top: "group1_block2_sum"
  eltwise_param {
    operation: SUM
  }
}
layer {
  name: "group2_block0_conv0"
  type: "Convolution"
  bottom: "group1_block2_sum"
  top: "group2_block0_conv0"
  param {
    lr_mult: 1
    decay_mult: 1
  }
  convolution_param {
    num_output: 64
    pad: 1
    kernel_size: 3
    stride: 2
    weight_filler {
      type: "msra"
    }
  }
}
layer {
  name: "group2_block0_conv0_bn"
  type: "BatchNorm"
  bottom: "group2_block0_conv0"
  top: "group2_block0_conv0"
  batch_norm_param {
    use_global_stats: false
    moving_average_fraction: 0.95
  }
}
layer {
  name: "group2_block0_conv0_scale"
  type: "Scale"
  bottom: "group2_block0_conv0"
  top: "group2_block0_conv0"
  scale_param {
    bias_term: true
  }
}
layer {
  name: "group2_block0_conv0_relu"
  type: "ReLU"
  bottom: "group2_block0_conv0"
  top: "group2_block0_conv0"
}
layer {
  name: "group2_block0_conv1"
  type: "Convolution"
  bottom: "group2_block0_conv0"
  top: "group2_block0_conv1"
  param {
    lr_mult: 1
    decay_mult: 1
  }
  convolution_param {
    num_output: 64
    pad: 1
    kernel_size: 3
    stride: 1
    weight_filler {
      type: "msra"
    }
  }
}
layer {
  name: "group2_block0_conv1_bn"
  type: "BatchNorm"
  bottom: "group2_block0_conv1"
  top: "group2_block0_conv1"
  batch_norm_param {
    use_global_stats: false
    moving_average_fraction: 0.95
  }
}
layer {
  name: "group2_block0_conv1_scale"
  type: "Scale"
  bottom: "group2_block0_conv1"
  top: "group2_block0_conv1"
  scale_param {
    bias_term: true
  }
}
layer {
  name: "group2_block0_proj"
  type: "Convolution"
  bottom: "group1_block2_sum"
  top: "group2_block0_proj"
  param {
    lr_mult: 1
    decay_mult: 1
  }
  convolution_param {
    num_output: 64
    pad: 0
    kernel_size: 2
    stride: 2
    weight_filler {
      type: "msra"
    }
  }
}
layer {
  name: "group2_block0_proj_bn"
  type: "BatchNorm"
  bottom: "group2_block0_proj"
  top: "group2_block0_proj"
  batch_norm_param {
    use_global_stats: false
    moving_average_fraction: 0.95
  }
}
layer {
  name: "group2_block0_proj_scale"
  type: "Scale"
  bottom: "group2_block0_proj"
  top: "group2_block0_proj"
  scale_param {
    bias_term: true
  }
}
layer {
  name: "group2_block0_sum"
  type: "Eltwise"
  bottom: "group2_block0_proj"
  bottom: "group2_block0_conv1"
  top: "group2_block0_sum"
  eltwise_param {
    operation: SUM
  }
}
layer {
  name: "group2_block1_conv0"
  type: "Convolution"
  bottom: "group2_block0_sum"
  top: "group2_block1_conv0"
  param {
    lr_mult: 1
    decay_mult: 1
  }
  convolution_param {
    num_output: 64
    pad: 1
    kernel_size: 3
    stride: 1
    weight_filler {
      type: "msra"
    }
  }
}
layer {
  name: "group2_block1_conv0_bn"
  type: "BatchNorm"
  bottom: "group2_block1_conv0"
  top: "group2_block1_conv0"
  batch_norm_param {
    use_global_stats: false
    moving_average_fraction: 0.95
  }
}
layer {
  name: "group2_block1_conv0_scale"
  type: "Scale"
  bottom: "group2_block1_conv0"
  top: "group2_block1_conv0"
  scale_param {
    bias_term: true
  }
}
layer {
  name: "group2_block1_conv0_relu"
  type: "ReLU"
  bottom: "group2_block1_conv0"
  top: "group2_block1_conv0"
}
layer {
  name: "group2_block1_conv1"
  type: "Convolution"
  bottom: "group2_block1_conv0"
  top: "group2_block1_conv1"
  param {
    lr_mult: 1
    decay_mult: 1
  }
  convolution_param {
    num_output: 64
    pad: 1
    kernel_size: 3
    stride: 1
    weight_filler {
      type: "msra"
    }
  }
}
layer {
  name: "group2_block1_conv1_bn"
  type: "BatchNorm"
  bottom: "group2_block1_conv1"
  top: "group2_block1_conv1"
  batch_norm_param {
    use_global_stats: false
    moving_average_fraction: 0.95
  }
}
layer {
  name: "group2_block1_conv1_scale"
  type: "Scale"
  bottom: "group2_block1_conv1"
  top: "group2_block1_conv1"
  scale_param {
    bias_term: true
  }
}
layer {
  name: "group2_block1_sum"
  type: "Eltwise"
  bottom: "group2_block1_conv1"
  bottom: "group2_block0_sum"
  top: "group2_block1_sum"
  eltwise_param {
    operation: SUM
  }
}
layer {
  name: "group2_block2_conv0"
  type: "Convolution"
  bottom: "group2_block1_sum"
  top: "group2_block2_conv0"
  param {
    lr_mult: 1
    decay_mult: 1
  }
  convolution_param {
    num_output: 64
    pad: 1
    kernel_size: 3
    stride: 1
    weight_filler {
      type: "msra"
    }
  }
}
layer {
  name: "group2_block2_conv0_bn"
  type: "BatchNorm"
  bottom: "group2_block2_conv0"
  top: "group2_block2_conv0"
  batch_norm_param {
    use_global_stats: false
    moving_average_fraction: 0.95
  }
}
layer {
  name: "group2_block2_conv0_scale"
  type: "Scale"
  bottom: "group2_block2_conv0"
  top: "group2_block2_conv0"
  scale_param {
    bias_term: true
  }
}
layer {
  name: "group2_block2_conv0_relu"
  type: "ReLU"
  bottom: "group2_block2_conv0"
  top: "group2_block2_conv0"
}
layer {
  name: "group2_block2_conv1"
  type: "Convolution"
  bottom: "group2_block2_conv0"
  top: "group2_block2_conv1"
  param {
    lr_mult: 1
    decay_mult: 1
  }
  convolution_param {
    num_output: 64
    pad: 1
    kernel_size: 3
    stride: 1
    weight_filler {
      type: "msra"
    }
  }
}
layer {
  name: "group2_block2_conv1_bn"
  type: "BatchNorm"
  bottom: "group2_block2_conv1"
  top: "group2_block2_conv1"
  batch_norm_param {
    use_global_stats: false
    moving_average_fraction: 0.95
  }
}
layer {
  name: "group2_block2_conv1_scale"
  type: "Scale"
  bottom: "group2_block2_conv1"
  top: "group2_block2_conv1"
  scale_param {
    bias_term: true
  }
}
layer {
  name: "group2_block2_sum"
  type: "Eltwise"
  bottom: "group2_block2_conv1"
  bottom: "group2_block1_sum"
  top: "group2_block2_sum"
  eltwise_param {
    operation: SUM
  }
}
layer {
  name: "global_avg_pool"
  type: "Pooling"
  bottom: "group2_block2_sum"
  top: "global_avg_pool"
  pooling_param {
    pool: AVE
    global_pooling: true
  }
}
layer {
  name: "fc"
  type: "InnerProduct"
  bottom: "global_avg_pool"
  top: "fc"
  param {
    lr_mult: 1
    decay_mult: 1
  }
  param {
    lr_mult: 2
    decay_mult: 0
  }
  inner_product_param {
    num_output: 10
    weight_filler {
      type: "msra"
    }
    bias_filler {
      type: "constant"
      value: 0
    }
  }
}
layer {
  name: "loss"
  type: "SoftmaxWithLoss"
  bottom: "fc"
  bottom: "label"
  top: "loss"
}
layer {
  name: "softmax"
  type: "Softmax"
  bottom: "fc"
  top: "softmax"
}
layer {
  name: "Accuracy"
  type: "Accuracy"
  bottom: "softmax"
  bottom: "label"
  top: "Accuracy"
}
I1102 06:12:05.297500 12123 layer_factory.hpp:77] Creating layer data
I1102 06:12:05.297965 12123 net.cpp:100] Creating Layer data
I1102 06:12:05.298035 12123 net.cpp:408] data -> data
I1102 06:12:05.298152 12123 net.cpp:408] data -> label
I1102 06:12:05.298187 12123 data_transformer.cpp:25] Loading mean file from: data/mean.binaryproto
I1102 06:12:05.298243 12126 db_lmdb.cpp:35] Opened lmdb data/train_lmdb
I1102 06:12:05.298681 12123 data_layer.cpp:41] output data size: 100,3,32,32
I1102 06:12:05.298880 12123 net.cpp:150] Setting up data
I1102 06:12:05.298908 12123 net.cpp:157] Top shape: 100 3 32 32 (307200)
I1102 06:12:05.298921 12123 net.cpp:157] Top shape: 100 (100)
I1102 06:12:05.298936 12123 net.cpp:165] Memory required for data: 1229200
I1102 06:12:05.298952 12123 layer_factory.hpp:77] Creating layer label_data_1_split
I1102 06:12:05.298975 12123 net.cpp:100] Creating Layer label_data_1_split
I1102 06:12:05.298992 12123 net.cpp:434] label_data_1_split <- label
I1102 06:12:05.299015 12123 net.cpp:408] label_data_1_split -> label_data_1_split_0
I1102 06:12:05.299038 12123 net.cpp:408] label_data_1_split -> label_data_1_split_1
I1102 06:12:05.299062 12123 net.cpp:150] Setting up label_data_1_split
I1102 06:12:05.299075 12123 net.cpp:157] Top shape: 100 (100)
I1102 06:12:05.299090 12123 net.cpp:157] Top shape: 100 (100)
I1102 06:12:05.299104 12123 net.cpp:165] Memory required for data: 1230000
I1102 06:12:05.299151 12123 layer_factory.hpp:77] Creating layer first_conv
I1102 06:12:05.301236 12127 blocking_queue.cpp:50] Waiting for data
I1102 06:12:05.299187 12123 net.cpp:100] Creating Layer first_conv
I1102 06:12:05.301275 12123 net.cpp:434] first_conv <- data
I1102 06:12:05.303725 12123 net.cpp:408] first_conv -> first_conv
I1102 06:12:05.303841 12123 net.cpp:150] Setting up first_conv
I1102 06:12:05.303864 12123 net.cpp:157] Top shape: 100 16 32 32 (1638400)
I1102 06:12:05.303874 12123 net.cpp:165] Memory required for data: 7783600
I1102 06:12:05.303905 12123 layer_factory.hpp:77] Creating layer first_conv_bn
I1102 06:12:05.303925 12123 net.cpp:100] Creating Layer first_conv_bn
I1102 06:12:05.303935 12123 net.cpp:434] first_conv_bn <- first_conv
I1102 06:12:05.303951 12123 net.cpp:395] first_conv_bn -> first_conv (in-place)
I1102 06:12:05.304014 12123 net.cpp:150] Setting up first_conv_bn
I1102 06:12:05.304046 12123 net.cpp:157] Top shape: 100 16 32 32 (1638400)
I1102 06:12:05.304056 12123 net.cpp:165] Memory required for data: 14337200
I1102 06:12:05.304080 12123 layer_factory.hpp:77] Creating layer first_conv_scale
I1102 06:12:05.304105 12123 net.cpp:100] Creating Layer first_conv_scale
I1102 06:12:05.304121 12123 net.cpp:434] first_conv_scale <- first_conv
I1102 06:12:05.304136 12123 net.cpp:395] first_conv_scale -> first_conv (in-place)
I1102 06:12:05.304164 12123 layer_factory.hpp:77] Creating layer first_conv_scale
I1102 06:12:05.304208 12123 net.cpp:150] Setting up first_conv_scale
I1102 06:12:05.304227 12123 net.cpp:157] Top shape: 100 16 32 32 (1638400)
I1102 06:12:05.304245 12123 net.cpp:165] Memory required for data: 20890800
I1102 06:12:05.304262 12123 layer_factory.hpp:77] Creating layer first_conv_relu
I1102 06:12:05.304281 12123 net.cpp:100] Creating Layer first_conv_relu
I1102 06:12:05.304291 12123 net.cpp:434] first_conv_relu <- first_conv
I1102 06:12:05.304303 12123 net.cpp:395] first_conv_relu -> first_conv (in-place)
I1102 06:12:05.314832 12123 net.cpp:150] Setting up first_conv_relu
I1102 06:12:05.314854 12123 net.cpp:157] Top shape: 100 16 32 32 (1638400)
I1102 06:12:05.314863 12123 net.cpp:165] Memory required for data: 27444400
I1102 06:12:05.314873 12123 layer_factory.hpp:77] Creating layer first_conv_first_conv_relu_0_split
I1102 06:12:05.314887 12123 net.cpp:100] Creating Layer first_conv_first_conv_relu_0_split
I1102 06:12:05.314896 12123 net.cpp:434] first_conv_first_conv_relu_0_split <- first_conv
I1102 06:12:05.314914 12123 net.cpp:408] first_conv_first_conv_relu_0_split -> first_conv_first_conv_relu_0_split_0
I1102 06:12:05.314934 12123 net.cpp:408] first_conv_first_conv_relu_0_split -> first_conv_first_conv_relu_0_split_1
I1102 06:12:05.314946 12123 net.cpp:150] Setting up first_conv_first_conv_relu_0_split
I1102 06:12:05.314955 12123 net.cpp:157] Top shape: 100 16 32 32 (1638400)
I1102 06:12:05.314965 12123 net.cpp:157] Top shape: 100 16 32 32 (1638400)
I1102 06:12:05.314970 12123 net.cpp:165] Memory required for data: 40551600
I1102 06:12:05.314976 12123 layer_factory.hpp:77] Creating layer group0_block0_conv0
I1102 06:12:05.314990 12123 net.cpp:100] Creating Layer group0_block0_conv0
I1102 06:12:05.314996 12123 net.cpp:434] group0_block0_conv0 <- first_conv_first_conv_relu_0_split_0
I1102 06:12:05.315009 12123 net.cpp:408] group0_block0_conv0 -> group0_block0_conv0
I1102 06:12:05.315083 12123 net.cpp:150] Setting up group0_block0_conv0
I1102 06:12:05.315112 12123 net.cpp:157] Top shape: 100 16 32 32 (1638400)
I1102 06:12:05.315135 12123 net.cpp:165] Memory required for data: 47105200
I1102 06:12:05.315163 12123 layer_factory.hpp:77] Creating layer group0_block0_conv0_bn
I1102 06:12:05.315196 12123 net.cpp:100] Creating Layer group0_block0_conv0_bn
I1102 06:12:05.315224 12123 net.cpp:434] group0_block0_conv0_bn <- group0_block0_conv0
I1102 06:12:05.315265 12123 net.cpp:395] group0_block0_conv0_bn -> group0_block0_conv0 (in-place)
I1102 06:12:05.315310 12123 net.cpp:150] Setting up group0_block0_conv0_bn
I1102 06:12:05.315340 12123 net.cpp:157] Top shape: 100 16 32 32 (1638400)
I1102 06:12:05.315379 12123 net.cpp:165] Memory required for data: 53658800
I1102 06:12:05.315409 12123 layer_factory.hpp:77] Creating layer group0_block0_conv0_scale
I1102 06:12:05.315435 12123 net.cpp:100] Creating Layer group0_block0_conv0_scale
I1102 06:12:05.315459 12123 net.cpp:434] group0_block0_conv0_scale <- group0_block0_conv0
I1102 06:12:05.315490 12123 net.cpp:395] group0_block0_conv0_scale -> group0_block0_conv0 (in-place)
I1102 06:12:05.315521 12123 layer_factory.hpp:77] Creating layer group0_block0_conv0_scale
I1102 06:12:05.315564 12123 net.cpp:150] Setting up group0_block0_conv0_scale
I1102 06:12:05.315589 12123 net.cpp:157] Top shape: 100 16 32 32 (1638400)
I1102 06:12:05.315611 12123 net.cpp:165] Memory required for data: 60212400
I1102 06:12:05.315636 12123 layer_factory.hpp:77] Creating layer group0_block0_conv0_relu
I1102 06:12:05.315660 12123 net.cpp:100] Creating Layer group0_block0_conv0_relu
I1102 06:12:05.315681 12123 net.cpp:434] group0_block0_conv0_relu <- group0_block0_conv0
I1102 06:12:05.315706 12123 net.cpp:395] group0_block0_conv0_relu -> group0_block0_conv0 (in-place)
I1102 06:12:05.315732 12123 net.cpp:150] Setting up group0_block0_conv0_relu
I1102 06:12:05.315757 12123 net.cpp:157] Top shape: 100 16 32 32 (1638400)
I1102 06:12:05.315778 12123 net.cpp:165] Memory required for data: 66766000
I1102 06:12:05.315800 12123 layer_factory.hpp:77] Creating layer group0_block0_conv1
I1102 06:12:05.315830 12123 net.cpp:100] Creating Layer group0_block0_conv1
I1102 06:12:05.315852 12123 net.cpp:434] group0_block0_conv1 <- group0_block0_conv0
I1102 06:12:05.315879 12123 net.cpp:408] group0_block0_conv1 -> group0_block0_conv1
I1102 06:12:05.315960 12123 net.cpp:150] Setting up group0_block0_conv1
I1102 06:12:05.315987 12123 net.cpp:157] Top shape: 100 16 32 32 (1638400)
I1102 06:12:05.316009 12123 net.cpp:165] Memory required for data: 73319600
I1102 06:12:05.316033 12123 layer_factory.hpp:77] Creating layer group0_block0_conv1_bn
I1102 06:12:05.316061 12123 net.cpp:100] Creating Layer group0_block0_conv1_bn
I1102 06:12:05.316083 12123 net.cpp:434] group0_block0_conv1_bn <- group0_block0_conv1
I1102 06:12:05.316112 12123 net.cpp:395] group0_block0_conv1_bn -> group0_block0_conv1 (in-place)
I1102 06:12:05.316154 12123 net.cpp:150] Setting up group0_block0_conv1_bn
I1102 06:12:05.316179 12123 net.cpp:157] Top shape: 100 16 32 32 (1638400)
I1102 06:12:05.316200 12123 net.cpp:165] Memory required for data: 79873200
I1102 06:12:05.316231 12123 layer_factory.hpp:77] Creating layer group0_block0_conv1_scale
I1102 06:12:05.316259 12123 net.cpp:100] Creating Layer group0_block0_conv1_scale
I1102 06:12:05.316282 12123 net.cpp:434] group0_block0_conv1_scale <- group0_block0_conv1
I1102 06:12:05.316306 12123 net.cpp:395] group0_block0_conv1_scale -> group0_block0_conv1 (in-place)
I1102 06:12:05.316335 12123 layer_factory.hpp:77] Creating layer group0_block0_conv1_scale
I1102 06:12:05.316395 12123 net.cpp:150] Setting up group0_block0_conv1_scale
I1102 06:12:05.316423 12123 net.cpp:157] Top shape: 100 16 32 32 (1638400)
I1102 06:12:05.316445 12123 net.cpp:165] Memory required for data: 86426800
I1102 06:12:05.316470 12123 layer_factory.hpp:77] Creating layer group0_block0_sum
I1102 06:12:05.316498 12123 net.cpp:100] Creating Layer group0_block0_sum
I1102 06:12:05.316520 12123 net.cpp:434] group0_block0_sum <- group0_block0_conv1
I1102 06:12:05.316532 12123 net.cpp:434] group0_block0_sum <- first_conv_first_conv_relu_0_split_1
I1102 06:12:05.316545 12123 net.cpp:408] group0_block0_sum -> group0_block0_sum
I1102 06:12:05.316561 12123 net.cpp:150] Setting up group0_block0_sum
I1102 06:12:05.316570 12123 net.cpp:157] Top shape: 100 16 32 32 (1638400)
I1102 06:12:05.316577 12123 net.cpp:165] Memory required for data: 92980400
I1102 06:12:05.316583 12123 layer_factory.hpp:77] Creating layer group0_block0_sum_group0_block0_sum_0_split
I1102 06:12:05.316592 12123 net.cpp:100] Creating Layer group0_block0_sum_group0_block0_sum_0_split
I1102 06:12:05.316598 12123 net.cpp:434] group0_block0_sum_group0_block0_sum_0_split <- group0_block0_sum
I1102 06:12:05.316625 12123 net.cpp:408] group0_block0_sum_group0_block0_sum_0_split -> group0_block0_sum_group0_block0_sum_0_split_0
I1102 06:12:05.316638 12123 net.cpp:408] group0_block0_sum_group0_block0_sum_0_split -> group0_block0_sum_group0_block0_sum_0_split_1
I1102 06:12:05.316650 12123 net.cpp:150] Setting up group0_block0_sum_group0_block0_sum_0_split
I1102 06:12:05.316659 12123 net.cpp:157] Top shape: 100 16 32 32 (1638400)
I1102 06:12:05.316668 12123 net.cpp:157] Top shape: 100 16 32 32 (1638400)
I1102 06:12:05.316673 12123 net.cpp:165] Memory required for data: 106087600
I1102 06:12:05.316679 12123 layer_factory.hpp:77] Creating layer group0_block1_conv0
I1102 06:12:05.316697 12123 net.cpp:100] Creating Layer group0_block1_conv0
I1102 06:12:05.316705 12123 net.cpp:434] group0_block1_conv0 <- group0_block0_sum_group0_block0_sum_0_split_0
I1102 06:12:05.316718 12123 net.cpp:408] group0_block1_conv0 -> group0_block1_conv0
I1102 06:12:05.316783 12123 net.cpp:150] Setting up group0_block1_conv0
I1102 06:12:05.316795 12123 net.cpp:157] Top shape: 100 16 32 32 (1638400)
I1102 06:12:05.316802 12123 net.cpp:165] Memory required for data: 112641200
I1102 06:12:05.316812 12123 layer_factory.hpp:77] Creating layer group0_block1_conv0_bn
I1102 06:12:05.316822 12123 net.cpp:100] Creating Layer group0_block1_conv0_bn
I1102 06:12:05.316828 12123 net.cpp:434] group0_block1_conv0_bn <- group0_block1_conv0
I1102 06:12:05.316839 12123 net.cpp:395] group0_block1_conv0_bn -> group0_block1_conv0 (in-place)
I1102 06:12:05.316861 12123 net.cpp:150] Setting up group0_block1_conv0_bn
I1102 06:12:05.316876 12123 net.cpp:157] Top shape: 100 16 32 32 (1638400)
I1102 06:12:05.316884 12123 net.cpp:165] Memory required for data: 119194800
I1102 06:12:05.316895 12123 layer_factory.hpp:77] Creating layer group0_block1_conv0_scale
I1102 06:12:05.316903 12123 net.cpp:100] Creating Layer group0_block1_conv0_scale
I1102 06:12:05.316910 12123 net.cpp:434] group0_block1_conv0_scale <- group0_block1_conv0
I1102 06:12:05.316920 12123 net.cpp:395] group0_block1_conv0_scale -> group0_block1_conv0 (in-place)
I1102 06:12:05.316933 12123 layer_factory.hpp:77] Creating layer group0_block1_conv0_scale
I1102 06:12:05.316962 12123 net.cpp:150] Setting up group0_block1_conv0_scale
I1102 06:12:05.316974 12123 net.cpp:157] Top shape: 100 16 32 32 (1638400)
I1102 06:12:05.316982 12123 net.cpp:165] Memory required for data: 125748400
I1102 06:12:05.316992 12123 layer_factory.hpp:77] Creating layer group0_block1_conv0_relu
I1102 06:12:05.317001 12123 net.cpp:100] Creating Layer group0_block1_conv0_relu
I1102 06:12:05.317008 12123 net.cpp:434] group0_block1_conv0_relu <- group0_block1_conv0
I1102 06:12:05.317019 12123 net.cpp:395] group0_block1_conv0_relu -> group0_block1_conv0 (in-place)
I1102 06:12:05.317029 12123 net.cpp:150] Setting up group0_block1_conv0_relu
I1102 06:12:05.317039 12123 net.cpp:157] Top shape: 100 16 32 32 (1638400)
I1102 06:12:05.317044 12123 net.cpp:165] Memory required for data: 132302000
I1102 06:12:05.317050 12123 layer_factory.hpp:77] Creating layer group0_block1_conv1
I1102 06:12:05.317061 12123 net.cpp:100] Creating Layer group0_block1_conv1
I1102 06:12:05.317068 12123 net.cpp:434] group0_block1_conv1 <- group0_block1_conv0
I1102 06:12:05.317078 12123 net.cpp:408] group0_block1_conv1 -> group0_block1_conv1
I1102 06:12:05.317143 12123 net.cpp:150] Setting up group0_block1_conv1
I1102 06:12:05.317173 12123 net.cpp:157] Top shape: 100 16 32 32 (1638400)
I1102 06:12:05.317193 12123 net.cpp:165] Memory required for data: 138855600
I1102 06:12:05.317219 12123 layer_factory.hpp:77] Creating layer group0_block1_conv1_bn
I1102 06:12:05.317247 12123 net.cpp:100] Creating Layer group0_block1_conv1_bn
I1102 06:12:05.317270 12123 net.cpp:434] group0_block1_conv1_bn <- group0_block1_conv1
I1102 06:12:05.317324 12123 net.cpp:395] group0_block1_conv1_bn -> group0_block1_conv1 (in-place)
I1102 06:12:05.317376 12123 net.cpp:150] Setting up group0_block1_conv1_bn
I1102 06:12:05.317404 12123 net.cpp:157] Top shape: 100 16 32 32 (1638400)
I1102 06:12:05.317440 12123 net.cpp:165] Memory required for data: 145409200
I1102 06:12:05.317477 12123 layer_factory.hpp:77] Creating layer group0_block1_conv1_scale
I1102 06:12:05.317504 12123 net.cpp:100] Creating Layer group0_block1_conv1_scale
I1102 06:12:05.317528 12123 net.cpp:434] group0_block1_conv1_scale <- group0_block1_conv1
I1102 06:12:05.317559 12123 net.cpp:395] group0_block1_conv1_scale -> group0_block1_conv1 (in-place)
I1102 06:12:05.317592 12123 layer_factory.hpp:77] Creating layer group0_block1_conv1_scale
I1102 06:12:05.317636 12123 net.cpp:150] Setting up group0_block1_conv1_scale
I1102 06:12:05.317649 12123 net.cpp:157] Top shape: 100 16 32 32 (1638400)
I1102 06:12:05.317656 12123 net.cpp:165] Memory required for data: 151962800
I1102 06:12:05.317667 12123 layer_factory.hpp:77] Creating layer group0_block1_sum
I1102 06:12:05.317682 12123 net.cpp:100] Creating Layer group0_block1_sum
I1102 06:12:05.317688 12123 net.cpp:434] group0_block1_sum <- group0_block1_conv1
I1102 06:12:05.317697 12123 net.cpp:434] group0_block1_sum <- group0_block0_sum_group0_block0_sum_0_split_1
I1102 06:12:05.317713 12123 net.cpp:408] group0_block1_sum -> group0_block1_sum
I1102 06:12:05.317734 12123 net.cpp:150] Setting up group0_block1_sum
I1102 06:12:05.317749 12123 net.cpp:157] Top shape: 100 16 32 32 (1638400)
I1102 06:12:05.317755 12123 net.cpp:165] Memory required for data: 158516400
I1102 06:12:05.317761 12123 layer_factory.hpp:77] Creating layer group0_block1_sum_group0_block1_sum_0_split
I1102 06:12:05.317770 12123 net.cpp:100] Creating Layer group0_block1_sum_group0_block1_sum_0_split
I1102 06:12:05.317777 12123 net.cpp:434] group0_block1_sum_group0_block1_sum_0_split <- group0_block1_sum
I1102 06:12:05.317787 12123 net.cpp:408] group0_block1_sum_group0_block1_sum_0_split -> group0_block1_sum_group0_block1_sum_0_split_0
I1102 06:12:05.317802 12123 net.cpp:408] group0_block1_sum_group0_block1_sum_0_split -> group0_block1_sum_group0_block1_sum_0_split_1
I1102 06:12:05.317828 12123 net.cpp:150] Setting up group0_block1_sum_group0_block1_sum_0_split
I1102 06:12:05.317842 12123 net.cpp:157] Top shape: 100 16 32 32 (1638400)
I1102 06:12:05.317850 12123 net.cpp:157] Top shape: 100 16 32 32 (1638400)
I1102 06:12:05.317857 12123 net.cpp:165] Memory required for data: 171623600
I1102 06:12:05.317863 12123 layer_factory.hpp:77] Creating layer group0_block2_conv0
I1102 06:12:05.317878 12123 net.cpp:100] Creating Layer group0_block2_conv0
I1102 06:12:05.317888 12123 net.cpp:434] group0_block2_conv0 <- group0_block1_sum_group0_block1_sum_0_split_0
I1102 06:12:05.317899 12123 net.cpp:408] group0_block2_conv0 -> group0_block2_conv0
I1102 06:12:05.317975 12123 net.cpp:150] Setting up group0_block2_conv0
I1102 06:12:05.317988 12123 net.cpp:157] Top shape: 100 16 32 32 (1638400)
I1102 06:12:05.317996 12123 net.cpp:165] Memory required for data: 178177200
I1102 06:12:05.318006 12123 layer_factory.hpp:77] Creating layer group0_block2_conv0_bn
I1102 06:12:05.318018 12123 net.cpp:100] Creating Layer group0_block2_conv0_bn
I1102 06:12:05.318028 12123 net.cpp:434] group0_block2_conv0_bn <- group0_block2_conv0
I1102 06:12:05.318038 12123 net.cpp:395] group0_block2_conv0_bn -> group0_block2_conv0 (in-place)
I1102 06:12:05.318060 12123 net.cpp:150] Setting up group0_block2_conv0_bn
I1102 06:12:05.318073 12123 net.cpp:157] Top shape: 100 16 32 32 (1638400)
I1102 06:12:05.318080 12123 net.cpp:165] Memory required for data: 184730800
I1102 06:12:05.318091 12123 layer_factory.hpp:77] Creating layer group0_block2_conv0_scale
I1102 06:12:05.318101 12123 net.cpp:100] Creating Layer group0_block2_conv0_scale
I1102 06:12:05.318107 12123 net.cpp:434] group0_block2_conv0_scale <- group0_block2_conv0
I1102 06:12:05.318120 12123 net.cpp:395] group0_block2_conv0_scale -> group0_block2_conv0 (in-place)
I1102 06:12:05.318135 12123 layer_factory.hpp:77] Creating layer group0_block2_conv0_scale
I1102 06:12:05.318171 12123 net.cpp:150] Setting up group0_block2_conv0_scale
I1102 06:12:05.318184 12123 net.cpp:157] Top shape: 100 16 32 32 (1638400)
I1102 06:12:05.318207 12123 net.cpp:165] Memory required for data: 191284400
I1102 06:12:05.318218 12123 layer_factory.hpp:77] Creating layer group0_block2_conv0_relu
I1102 06:12:05.318230 12123 net.cpp:100] Creating Layer group0_block2_conv0_relu
I1102 06:12:05.318238 12123 net.cpp:434] group0_block2_conv0_relu <- group0_block2_conv0
I1102 06:12:05.318246 12123 net.cpp:395] group0_block2_conv0_relu -> group0_block2_conv0 (in-place)
I1102 06:12:05.318258 12123 net.cpp:150] Setting up group0_block2_conv0_relu
I1102 06:12:05.318266 12123 net.cpp:157] Top shape: 100 16 32 32 (1638400)
I1102 06:12:05.318272 12123 net.cpp:165] Memory required for data: 197838000
I1102 06:12:05.318279 12123 layer_factory.hpp:77] Creating layer group0_block2_conv1
I1102 06:12:05.318289 12123 net.cpp:100] Creating Layer group0_block2_conv1
I1102 06:12:05.318296 12123 net.cpp:434] group0_block2_conv1 <- group0_block2_conv0
I1102 06:12:05.318310 12123 net.cpp:408] group0_block2_conv1 -> group0_block2_conv1
I1102 06:12:05.318375 12123 net.cpp:150] Setting up group0_block2_conv1
I1102 06:12:05.318388 12123 net.cpp:157] Top shape: 100 16 32 32 (1638400)
I1102 06:12:05.318395 12123 net.cpp:165] Memory required for data: 204391600
I1102 06:12:05.318405 12123 layer_factory.hpp:77] Creating layer group0_block2_conv1_bn
I1102 06:12:05.318418 12123 net.cpp:100] Creating Layer group0_block2_conv1_bn
I1102 06:12:05.318424 12123 net.cpp:434] group0_block2_conv1_bn <- group0_block2_conv1
I1102 06:12:05.318434 12123 net.cpp:395] group0_block2_conv1_bn -> group0_block2_conv1 (in-place)
I1102 06:12:05.318454 12123 net.cpp:150] Setting up group0_block2_conv1_bn
I1102 06:12:05.318467 12123 net.cpp:157] Top shape: 100 16 32 32 (1638400)
I1102 06:12:05.318473 12123 net.cpp:165] Memory required for data: 210945200
I1102 06:12:05.318485 12123 layer_factory.hpp:77] Creating layer group0_block2_conv1_scale
I1102 06:12:05.318496 12123 net.cpp:100] Creating Layer group0_block2_conv1_scale
I1102 06:12:05.318503 12123 net.cpp:434] group0_block2_conv1_scale <- group0_block2_conv1
I1102 06:12:05.318512 12123 net.cpp:395] group0_block2_conv1_scale -> group0_block2_conv1 (in-place)
I1102 06:12:05.318526 12123 layer_factory.hpp:77] Creating layer group0_block2_conv1_scale
I1102 06:12:05.318552 12123 net.cpp:150] Setting up group0_block2_conv1_scale
I1102 06:12:05.318565 12123 net.cpp:157] Top shape: 100 16 32 32 (1638400)
I1102 06:12:05.318572 12123 net.cpp:165] Memory required for data: 217498800
I1102 06:12:05.318581 12123 layer_factory.hpp:77] Creating layer group0_block2_sum
I1102 06:12:05.318603 12123 net.cpp:100] Creating Layer group0_block2_sum
I1102 06:12:05.318612 12123 net.cpp:434] group0_block2_sum <- group0_block2_conv1
I1102 06:12:05.318620 12123 net.cpp:434] group0_block2_sum <- group0_block1_sum_group0_block1_sum_0_split_1
I1102 06:12:05.318630 12123 net.cpp:408] group0_block2_sum -> group0_block2_sum
I1102 06:12:05.318642 12123 net.cpp:150] Setting up group0_block2_sum
I1102 06:12:05.318651 12123 net.cpp:157] Top shape: 100 16 32 32 (1638400)
I1102 06:12:05.318657 12123 net.cpp:165] Memory required for data: 224052400
I1102 06:12:05.318665 12123 layer_factory.hpp:77] Creating layer group0_block2_sum_group0_block2_sum_0_split
I1102 06:12:05.318672 12123 net.cpp:100] Creating Layer group0_block2_sum_group0_block2_sum_0_split
I1102 06:12:05.318680 12123 net.cpp:434] group0_block2_sum_group0_block2_sum_0_split <- group0_block2_sum
I1102 06:12:05.318688 12123 net.cpp:408] group0_block2_sum_group0_block2_sum_0_split -> group0_block2_sum_group0_block2_sum_0_split_0
I1102 06:12:05.318701 12123 net.cpp:408] group0_block2_sum_group0_block2_sum_0_split -> group0_block2_sum_group0_block2_sum_0_split_1
I1102 06:12:05.318712 12123 net.cpp:150] Setting up group0_block2_sum_group0_block2_sum_0_split
I1102 06:12:05.318722 12123 net.cpp:157] Top shape: 100 16 32 32 (1638400)
I1102 06:12:05.318729 12123 net.cpp:157] Top shape: 100 16 32 32 (1638400)
I1102 06:12:05.318735 12123 net.cpp:165] Memory required for data: 237159600
I1102 06:12:05.318742 12123 layer_factory.hpp:77] Creating layer group1_block0_conv0
I1102 06:12:05.318773 12123 net.cpp:100] Creating Layer group1_block0_conv0
I1102 06:12:05.318789 12123 net.cpp:434] group1_block0_conv0 <- group0_block2_sum_group0_block2_sum_0_split_0
I1102 06:12:05.318800 12123 net.cpp:408] group1_block0_conv0 -> group1_block0_conv0
I1102 06:12:05.318899 12123 net.cpp:150] Setting up group1_block0_conv0
I1102 06:12:05.318913 12123 net.cpp:157] Top shape: 100 32 16 16 (819200)
I1102 06:12:05.318920 12123 net.cpp:165] Memory required for data: 240436400
I1102 06:12:05.318930 12123 layer_factory.hpp:77] Creating layer group1_block0_conv0_bn
I1102 06:12:05.318940 12123 net.cpp:100] Creating Layer group1_block0_conv0_bn
I1102 06:12:05.318948 12123 net.cpp:434] group1_block0_conv0_bn <- group1_block0_conv0
I1102 06:12:05.318956 12123 net.cpp:395] group1_block0_conv0_bn -> group1_block0_conv0 (in-place)
I1102 06:12:05.318989 12123 net.cpp:150] Setting up group1_block0_conv0_bn
I1102 06:12:05.319000 12123 net.cpp:157] Top shape: 100 32 16 16 (819200)
I1102 06:12:05.319007 12123 net.cpp:165] Memory required for data: 243713200
I1102 06:12:05.319018 12123 layer_factory.hpp:77] Creating layer group1_block0_conv0_scale
I1102 06:12:05.319031 12123 net.cpp:100] Creating Layer group1_block0_conv0_scale
I1102 06:12:05.319037 12123 net.cpp:434] group1_block0_conv0_scale <- group1_block0_conv0
I1102 06:12:05.319046 12123 net.cpp:395] group1_block0_conv0_scale -> group1_block0_conv0 (in-place)
I1102 06:12:05.319061 12123 layer_factory.hpp:77] Creating layer group1_block0_conv0_scale
I1102 06:12:05.319087 12123 net.cpp:150] Setting up group1_block0_conv0_scale
I1102 06:12:05.319098 12123 net.cpp:157] Top shape: 100 32 16 16 (819200)
I1102 06:12:05.319105 12123 net.cpp:165] Memory required for data: 246990000
I1102 06:12:05.319115 12123 layer_factory.hpp:77] Creating layer group1_block0_conv0_relu
I1102 06:12:05.319124 12123 net.cpp:100] Creating Layer group1_block0_conv0_relu
I1102 06:12:05.319130 12123 net.cpp:434] group1_block0_conv0_relu <- group1_block0_conv0
I1102 06:12:05.319142 12123 net.cpp:395] group1_block0_conv0_relu -> group1_block0_conv0 (in-place)
I1102 06:12:05.319152 12123 net.cpp:150] Setting up group1_block0_conv0_relu
I1102 06:12:05.319160 12123 net.cpp:157] Top shape: 100 32 16 16 (819200)
I1102 06:12:05.319166 12123 net.cpp:165] Memory required for data: 250266800
I1102 06:12:05.319172 12123 layer_factory.hpp:77] Creating layer group1_block0_conv1
I1102 06:12:05.319186 12123 net.cpp:100] Creating Layer group1_block0_conv1
I1102 06:12:05.319195 12123 net.cpp:434] group1_block0_conv1 <- group1_block0_conv0
I1102 06:12:05.319205 12123 net.cpp:408] group1_block0_conv1 -> group1_block0_conv1
I1102 06:12:05.319371 12123 net.cpp:150] Setting up group1_block0_conv1
I1102 06:12:05.319386 12123 net.cpp:157] Top shape: 100 32 16 16 (819200)
I1102 06:12:05.319393 12123 net.cpp:165] Memory required for data: 253543600
I1102 06:12:05.319403 12123 layer_factory.hpp:77] Creating layer group1_block0_conv1_bn
I1102 06:12:05.319413 12123 net.cpp:100] Creating Layer group1_block0_conv1_bn
I1102 06:12:05.319419 12123 net.cpp:434] group1_block0_conv1_bn <- group1_block0_conv1
I1102 06:12:05.319432 12123 net.cpp:395] group1_block0_conv1_bn -> group1_block0_conv1 (in-place)
I1102 06:12:05.319453 12123 net.cpp:150] Setting up group1_block0_conv1_bn
I1102 06:12:05.319466 12123 net.cpp:157] Top shape: 100 32 16 16 (819200)
I1102 06:12:05.319473 12123 net.cpp:165] Memory required for data: 256820400
I1102 06:12:05.319484 12123 layer_factory.hpp:77] Creating layer group1_block0_conv1_scale
I1102 06:12:05.319499 12123 net.cpp:100] Creating Layer group1_block0_conv1_scale
I1102 06:12:05.319505 12123 net.cpp:434] group1_block0_conv1_scale <- group1_block0_conv1
I1102 06:12:05.319514 12123 net.cpp:395] group1_block0_conv1_scale -> group1_block0_conv1 (in-place)
I1102 06:12:05.319528 12123 layer_factory.hpp:77] Creating layer group1_block0_conv1_scale
I1102 06:12:05.319552 12123 net.cpp:150] Setting up group1_block0_conv1_scale
I1102 06:12:05.319564 12123 net.cpp:157] Top shape: 100 32 16 16 (819200)
I1102 06:12:05.319602 12123 net.cpp:165] Memory required for data: 260097200
I1102 06:12:05.319628 12123 layer_factory.hpp:77] Creating layer group1_block0_proj
I1102 06:12:05.319658 12123 net.cpp:100] Creating Layer group1_block0_proj
I1102 06:12:05.319681 12123 net.cpp:434] group1_block0_proj <- group0_block2_sum_group0_block2_sum_0_split_1
I1102 06:12:05.319718 12123 net.cpp:408] group1_block0_proj -> group1_block0_proj
I1102 06:12:05.319802 12123 net.cpp:150] Setting up group1_block0_proj
I1102 06:12:05.319828 12123 net.cpp:157] Top shape: 100 32 16 16 (819200)
I1102 06:12:05.319849 12123 net.cpp:165] Memory required for data: 263374000
I1102 06:12:05.319885 12123 layer_factory.hpp:77] Creating layer group1_block0_proj_bn
I1102 06:12:05.319911 12123 net.cpp:100] Creating Layer group1_block0_proj_bn
I1102 06:12:05.319933 12123 net.cpp:434] group1_block0_proj_bn <- group1_block0_proj
I1102 06:12:05.319965 12123 net.cpp:395] group1_block0_proj_bn -> group1_block0_proj (in-place)
I1102 06:12:05.320006 12123 net.cpp:150] Setting up group1_block0_proj_bn
I1102 06:12:05.320031 12123 net.cpp:157] Top shape: 100 32 16 16 (819200)
I1102 06:12:05.320052 12123 net.cpp:165] Memory required for data: 266650800
I1102 06:12:05.320078 12123 layer_factory.hpp:77] Creating layer group1_block0_proj_scale
I1102 06:12:05.320107 12123 net.cpp:100] Creating Layer group1_block0_proj_scale
I1102 06:12:05.320130 12123 net.cpp:434] group1_block0_proj_scale <- group1_block0_proj
I1102 06:12:05.320155 12123 net.cpp:395] group1_block0_proj_scale -> group1_block0_proj (in-place)
I1102 06:12:05.320188 12123 layer_factory.hpp:77] Creating layer group1_block0_proj_scale
I1102 06:12:05.320214 12123 net.cpp:150] Setting up group1_block0_proj_scale
I1102 06:12:05.320225 12123 net.cpp:157] Top shape: 100 32 16 16 (819200)
I1102 06:12:05.320232 12123 net.cpp:165] Memory required for data: 269927600
I1102 06:12:05.320242 12123 layer_factory.hpp:77] Creating layer group1_block0_sum
I1102 06:12:05.320260 12123 net.cpp:100] Creating Layer group1_block0_sum
I1102 06:12:05.320266 12123 net.cpp:434] group1_block0_sum <- group1_block0_proj
I1102 06:12:05.320274 12123 net.cpp:434] group1_block0_sum <- group1_block0_conv1
I1102 06:12:05.320283 12123 net.cpp:408] group1_block0_sum -> group1_block0_sum
I1102 06:12:05.320297 12123 net.cpp:150] Setting up group1_block0_sum
I1102 06:12:05.320305 12123 net.cpp:157] Top shape: 100 32 16 16 (819200)
I1102 06:12:05.320310 12123 net.cpp:165] Memory required for data: 273204400
I1102 06:12:05.320317 12123 layer_factory.hpp:77] Creating layer group1_block0_sum_group1_block0_sum_0_split
I1102 06:12:05.320328 12123 net.cpp:100] Creating Layer group1_block0_sum_group1_block0_sum_0_split
I1102 06:12:05.320336 12123 net.cpp:434] group1_block0_sum_group1_block0_sum_0_split <- group1_block0_sum
I1102 06:12:05.320345 12123 net.cpp:408] group1_block0_sum_group1_block0_sum_0_split -> group1_block0_sum_group1_block0_sum_0_split_0
I1102 06:12:05.320360 12123 net.cpp:408] group1_block0_sum_group1_block0_sum_0_split -> group1_block0_sum_group1_block0_sum_0_split_1
I1102 06:12:05.320372 12123 net.cpp:150] Setting up group1_block0_sum_group1_block0_sum_0_split
I1102 06:12:05.320381 12123 net.cpp:157] Top shape: 100 32 16 16 (819200)
I1102 06:12:05.320389 12123 net.cpp:157] Top shape: 100 32 16 16 (819200)
I1102 06:12:05.320395 12123 net.cpp:165] Memory required for data: 279758000
I1102 06:12:05.320401 12123 layer_factory.hpp:77] Creating layer group1_block1_conv0
I1102 06:12:05.320416 12123 net.cpp:100] Creating Layer group1_block1_conv0
I1102 06:12:05.320423 12123 net.cpp:434] group1_block1_conv0 <- group1_block0_sum_group1_block0_sum_0_split_0
I1102 06:12:05.320435 12123 net.cpp:408] group1_block1_conv0 -> group1_block1_conv0
I1102 06:12:05.320600 12123 net.cpp:150] Setting up group1_block1_conv0
I1102 06:12:05.320613 12123 net.cpp:157] Top shape: 100 32 16 16 (819200)
I1102 06:12:05.320621 12123 net.cpp:165] Memory required for data: 283034800
I1102 06:12:05.320631 12123 layer_factory.hpp:77] Creating layer group1_block1_conv0_bn
I1102 06:12:05.320657 12123 net.cpp:100] Creating Layer group1_block1_conv0_bn
I1102 06:12:05.320664 12123 net.cpp:434] group1_block1_conv0_bn <- group1_block1_conv0
I1102 06:12:05.320677 12123 net.cpp:395] group1_block1_conv0_bn -> group1_block1_conv0 (in-place)
I1102 06:12:05.320703 12123 net.cpp:150] Setting up group1_block1_conv0_bn
I1102 06:12:05.320715 12123 net.cpp:157] Top shape: 100 32 16 16 (819200)
I1102 06:12:05.320721 12123 net.cpp:165] Memory required for data: 286311600
I1102 06:12:05.320734 12123 layer_factory.hpp:77] Creating layer group1_block1_conv0_scale
I1102 06:12:05.320745 12123 net.cpp:100] Creating Layer group1_block1_conv0_scale
I1102 06:12:05.320752 12123 net.cpp:434] group1_block1_conv0_scale <- group1_block1_conv0
I1102 06:12:05.320761 12123 net.cpp:395] group1_block1_conv0_scale -> group1_block1_conv0 (in-place)
I1102 06:12:05.320781 12123 layer_factory.hpp:77] Creating layer group1_block1_conv0_scale
I1102 06:12:05.320807 12123 net.cpp:150] Setting up group1_block1_conv0_scale
I1102 06:12:05.320819 12123 net.cpp:157] Top shape: 100 32 16 16 (819200)
I1102 06:12:05.320827 12123 net.cpp:165] Memory required for data: 289588400
I1102 06:12:05.320835 12123 layer_factory.hpp:77] Creating layer group1_block1_conv0_relu
I1102 06:12:05.320847 12123 net.cpp:100] Creating Layer group1_block1_conv0_relu
I1102 06:12:05.320854 12123 net.cpp:434] group1_block1_conv0_relu <- group1_block1_conv0
I1102 06:12:05.320863 12123 net.cpp:395] group1_block1_conv0_relu -> group1_block1_conv0 (in-place)
I1102 06:12:05.320873 12123 net.cpp:150] Setting up group1_block1_conv0_relu
I1102 06:12:05.320881 12123 net.cpp:157] Top shape: 100 32 16 16 (819200)
I1102 06:12:05.320888 12123 net.cpp:165] Memory required for data: 292865200
I1102 06:12:05.320894 12123 layer_factory.hpp:77] Creating layer group1_block1_conv1
I1102 06:12:05.320910 12123 net.cpp:100] Creating Layer group1_block1_conv1
I1102 06:12:05.320922 12123 net.cpp:434] group1_block1_conv1 <- group1_block1_conv0
I1102 06:12:05.320936 12123 net.cpp:408] group1_block1_conv1 -> group1_block1_conv1
I1102 06:12:05.321107 12123 net.cpp:150] Setting up group1_block1_conv1
I1102 06:12:05.321120 12123 net.cpp:157] Top shape: 100 32 16 16 (819200)
I1102 06:12:05.321126 12123 net.cpp:165] Memory required for data: 296142000
I1102 06:12:05.321135 12123 layer_factory.hpp:77] Creating layer group1_block1_conv1_bn
I1102 06:12:05.321146 12123 net.cpp:100] Creating Layer group1_block1_conv1_bn
I1102 06:12:05.321151 12123 net.cpp:434] group1_block1_conv1_bn <- group1_block1_conv1
I1102 06:12:05.321163 12123 net.cpp:395] group1_block1_conv1_bn -> group1_block1_conv1 (in-place)
I1102 06:12:05.321187 12123 net.cpp:150] Setting up group1_block1_conv1_bn
I1102 06:12:05.321202 12123 net.cpp:157] Top shape: 100 32 16 16 (819200)
I1102 06:12:05.321208 12123 net.cpp:165] Memory required for data: 299418800
I1102 06:12:05.321219 12123 layer_factory.hpp:77] Creating layer group1_block1_conv1_scale
I1102 06:12:05.321228 12123 net.cpp:100] Creating Layer group1_block1_conv1_scale
I1102 06:12:05.321235 12123 net.cpp:434] group1_block1_conv1_scale <- group1_block1_conv1
I1102 06:12:05.321246 12123 net.cpp:395] group1_block1_conv1_scale -> group1_block1_conv1 (in-place)
I1102 06:12:05.321261 12123 layer_factory.hpp:77] Creating layer group1_block1_conv1_scale
I1102 06:12:05.321295 12123 net.cpp:150] Setting up group1_block1_conv1_scale
I1102 06:12:05.321311 12123 net.cpp:157] Top shape: 100 32 16 16 (819200)
I1102 06:12:05.321318 12123 net.cpp:165] Memory required for data: 302695600
I1102 06:12:05.321328 12123 layer_factory.hpp:77] Creating layer group1_block1_sum
I1102 06:12:05.321337 12123 net.cpp:100] Creating Layer group1_block1_sum
I1102 06:12:05.321344 12123 net.cpp:434] group1_block1_sum <- group1_block1_conv1
I1102 06:12:05.321352 12123 net.cpp:434] group1_block1_sum <- group1_block0_sum_group1_block0_sum_0_split_1
I1102 06:12:05.321365 12123 net.cpp:408] group1_block1_sum -> group1_block1_sum
I1102 06:12:05.321378 12123 net.cpp:150] Setting up group1_block1_sum
I1102 06:12:05.321401 12123 net.cpp:157] Top shape: 100 32 16 16 (819200)
I1102 06:12:05.321408 12123 net.cpp:165] Memory required for data: 305972400
I1102 06:12:05.321414 12123 layer_factory.hpp:77] Creating layer group1_block1_sum_group1_block1_sum_0_split
I1102 06:12:05.321424 12123 net.cpp:100] Creating Layer group1_block1_sum_group1_block1_sum_0_split
I1102 06:12:05.321430 12123 net.cpp:434] group1_block1_sum_group1_block1_sum_0_split <- group1_block1_sum
I1102 06:12:05.321444 12123 net.cpp:408] group1_block1_sum_group1_block1_sum_0_split -> group1_block1_sum_group1_block1_sum_0_split_0
I1102 06:12:05.321455 12123 net.cpp:408] group1_block1_sum_group1_block1_sum_0_split -> group1_block1_sum_group1_block1_sum_0_split_1
I1102 06:12:05.321478 12123 net.cpp:150] Setting up group1_block1_sum_group1_block1_sum_0_split
I1102 06:12:05.321491 12123 net.cpp:157] Top shape: 100 32 16 16 (819200)
I1102 06:12:05.321501 12123 net.cpp:157] Top shape: 100 32 16 16 (819200)
I1102 06:12:05.321506 12123 net.cpp:165] Memory required for data: 312526000
I1102 06:12:05.321512 12123 layer_factory.hpp:77] Creating layer group1_block2_conv0
I1102 06:12:05.321527 12123 net.cpp:100] Creating Layer group1_block2_conv0
I1102 06:12:05.321534 12123 net.cpp:434] group1_block2_conv0 <- group1_block1_sum_group1_block1_sum_0_split_0
I1102 06:12:05.321545 12123 net.cpp:408] group1_block2_conv0 -> group1_block2_conv0
I1102 06:12:05.321712 12123 net.cpp:150] Setting up group1_block2_conv0
I1102 06:12:05.321728 12123 net.cpp:157] Top shape: 100 32 16 16 (819200)
I1102 06:12:05.321735 12123 net.cpp:165] Memory required for data: 315802800
I1102 06:12:05.321745 12123 layer_factory.hpp:77] Creating layer group1_block2_conv0_bn
I1102 06:12:05.321758 12123 net.cpp:100] Creating Layer group1_block2_conv0_bn
I1102 06:12:05.321765 12123 net.cpp:434] group1_block2_conv0_bn <- group1_block2_conv0
I1102 06:12:05.321775 12123 net.cpp:395] group1_block2_conv0_bn -> group1_block2_conv0 (in-place)
I1102 06:12:05.321799 12123 net.cpp:150] Setting up group1_block2_conv0_bn
I1102 06:12:05.321813 12123 net.cpp:157] Top shape: 100 32 16 16 (819200)
I1102 06:12:05.321820 12123 net.cpp:165] Memory required for data: 319079600
I1102 06:12:05.321831 12123 layer_factory.hpp:77] Creating layer group1_block2_conv0_scale
I1102 06:12:05.321841 12123 net.cpp:100] Creating Layer group1_block2_conv0_scale
I1102 06:12:05.321848 12123 net.cpp:434] group1_block2_conv0_scale <- group1_block2_conv0
I1102 06:12:05.321859 12123 net.cpp:395] group1_block2_conv0_scale -> group1_block2_conv0 (in-place)
I1102 06:12:05.321874 12123 layer_factory.hpp:77] Creating layer group1_block2_conv0_scale
I1102 06:12:05.321905 12123 net.cpp:150] Setting up group1_block2_conv0_scale
I1102 06:12:05.321918 12123 net.cpp:157] Top shape: 100 32 16 16 (819200)
I1102 06:12:05.321924 12123 net.cpp:165] Memory required for data: 322356400
I1102 06:12:05.321933 12123 layer_factory.hpp:77] Creating layer group1_block2_conv0_relu
I1102 06:12:05.321945 12123 net.cpp:100] Creating Layer group1_block2_conv0_relu
I1102 06:12:05.321952 12123 net.cpp:434] group1_block2_conv0_relu <- group1_block2_conv0
I1102 06:12:05.321964 12123 net.cpp:395] group1_block2_conv0_relu -> group1_block2_conv0 (in-place)
I1102 06:12:05.321974 12123 net.cpp:150] Setting up group1_block2_conv0_relu
I1102 06:12:05.321983 12123 net.cpp:157] Top shape: 100 32 16 16 (819200)
I1102 06:12:05.321990 12123 net.cpp:165] Memory required for data: 325633200
I1102 06:12:05.321995 12123 layer_factory.hpp:77] Creating layer group1_block2_conv1
I1102 06:12:05.322006 12123 net.cpp:100] Creating Layer group1_block2_conv1
I1102 06:12:05.322013 12123 net.cpp:434] group1_block2_conv1 <- group1_block2_conv0
I1102 06:12:05.322026 12123 net.cpp:408] group1_block2_conv1 -> group1_block2_conv1
I1102 06:12:05.322190 12123 net.cpp:150] Setting up group1_block2_conv1
I1102 06:12:05.322202 12123 net.cpp:157] Top shape: 100 32 16 16 (819200)
I1102 06:12:05.322209 12123 net.cpp:165] Memory required for data: 328910000
I1102 06:12:05.322219 12123 layer_factory.hpp:77] Creating layer group1_block2_conv1_bn
I1102 06:12:05.322249 12123 net.cpp:100] Creating Layer group1_block2_conv1_bn
I1102 06:12:05.322257 12123 net.cpp:434] group1_block2_conv1_bn <- group1_block2_conv1
I1102 06:12:05.322266 12123 net.cpp:395] group1_block2_conv1_bn -> group1_block2_conv1 (in-place)
I1102 06:12:05.322289 12123 net.cpp:150] Setting up group1_block2_conv1_bn
I1102 06:12:05.322306 12123 net.cpp:157] Top shape: 100 32 16 16 (819200)
I1102 06:12:05.322314 12123 net.cpp:165] Memory required for data: 332186800
I1102 06:12:05.322329 12123 layer_factory.hpp:77] Creating layer group1_block2_conv1_scale
I1102 06:12:05.322338 12123 net.cpp:100] Creating Layer group1_block2_conv1_scale
I1102 06:12:05.322345 12123 net.cpp:434] group1_block2_conv1_scale <- group1_block2_conv1
I1102 06:12:05.322360 12123 net.cpp:395] group1_block2_conv1_scale -> group1_block2_conv1 (in-place)
I1102 06:12:05.322376 12123 layer_factory.hpp:77] Creating layer group1_block2_conv1_scale
I1102 06:12:05.322403 12123 net.cpp:150] Setting up group1_block2_conv1_scale
I1102 06:12:05.322415 12123 net.cpp:157] Top shape: 100 32 16 16 (819200)
I1102 06:12:05.322422 12123 net.cpp:165] Memory required for data: 335463600
I1102 06:12:05.322432 12123 layer_factory.hpp:77] Creating layer group1_block2_sum
I1102 06:12:05.322441 12123 net.cpp:100] Creating Layer group1_block2_sum
I1102 06:12:05.322448 12123 net.cpp:434] group1_block2_sum <- group1_block2_conv1
I1102 06:12:05.322455 12123 net.cpp:434] group1_block2_sum <- group1_block1_sum_group1_block1_sum_0_split_1
I1102 06:12:05.322468 12123 net.cpp:408] group1_block2_sum -> group1_block2_sum
I1102 06:12:05.322481 12123 net.cpp:150] Setting up group1_block2_sum
I1102 06:12:05.322490 12123 net.cpp:157] Top shape: 100 32 16 16 (819200)
I1102 06:12:05.322496 12123 net.cpp:165] Memory required for data: 338740400
I1102 06:12:05.322502 12123 layer_factory.hpp:77] Creating layer group1_block2_sum_group1_block2_sum_0_split
I1102 06:12:05.322511 12123 net.cpp:100] Creating Layer group1_block2_sum_group1_block2_sum_0_split
I1102 06:12:05.322517 12123 net.cpp:434] group1_block2_sum_group1_block2_sum_0_split <- group1_block2_sum
I1102 06:12:05.322533 12123 net.cpp:408] group1_block2_sum_group1_block2_sum_0_split -> group1_block2_sum_group1_block2_sum_0_split_0
I1102 06:12:05.322546 12123 net.cpp:408] group1_block2_sum_group1_block2_sum_0_split -> group1_block2_sum_group1_block2_sum_0_split_1
I1102 06:12:05.322561 12123 net.cpp:150] Setting up group1_block2_sum_group1_block2_sum_0_split
I1102 06:12:05.322569 12123 net.cpp:157] Top shape: 100 32 16 16 (819200)
I1102 06:12:05.322577 12123 net.cpp:157] Top shape: 100 32 16 16 (819200)
I1102 06:12:05.322583 12123 net.cpp:165] Memory required for data: 345294000
I1102 06:12:05.322589 12123 layer_factory.hpp:77] Creating layer group2_block0_conv0
I1102 06:12:05.322618 12123 net.cpp:100] Creating Layer group2_block0_conv0
I1102 06:12:05.322628 12123 net.cpp:434] group2_block0_conv0 <- group1_block2_sum_group1_block2_sum_0_split_0
I1102 06:12:05.322639 12123 net.cpp:408] group2_block0_conv0 -> group2_block0_conv0
I1102 06:12:05.322953 12123 net.cpp:150] Setting up group2_block0_conv0
I1102 06:12:05.322968 12123 net.cpp:157] Top shape: 100 64 8 8 (409600)
I1102 06:12:05.322973 12123 net.cpp:165] Memory required for data: 346932400
I1102 06:12:05.322984 12123 layer_factory.hpp:77] Creating layer group2_block0_conv0_bn
I1102 06:12:05.322996 12123 net.cpp:100] Creating Layer group2_block0_conv0_bn
I1102 06:12:05.323004 12123 net.cpp:434] group2_block0_conv0_bn <- group2_block0_conv0
I1102 06:12:05.323017 12123 net.cpp:395] group2_block0_conv0_bn -> group2_block0_conv0 (in-place)
I1102 06:12:05.323042 12123 net.cpp:150] Setting up group2_block0_conv0_bn
I1102 06:12:05.323055 12123 net.cpp:157] Top shape: 100 64 8 8 (409600)
I1102 06:12:05.323060 12123 net.cpp:165] Memory required for data: 348570800
I1102 06:12:05.323072 12123 layer_factory.hpp:77] Creating layer group2_block0_conv0_scale
I1102 06:12:05.323081 12123 net.cpp:100] Creating Layer group2_block0_conv0_scale
I1102 06:12:05.323088 12123 net.cpp:434] group2_block0_conv0_scale <- group2_block0_conv0
I1102 06:12:05.323114 12123 net.cpp:395] group2_block0_conv0_scale -> group2_block0_conv0 (in-place)
I1102 06:12:05.323129 12123 layer_factory.hpp:77] Creating layer group2_block0_conv0_scale
I1102 06:12:05.323155 12123 net.cpp:150] Setting up group2_block0_conv0_scale
I1102 06:12:05.323168 12123 net.cpp:157] Top shape: 100 64 8 8 (409600)
I1102 06:12:05.323175 12123 net.cpp:165] Memory required for data: 350209200
I1102 06:12:05.323184 12123 layer_factory.hpp:77] Creating layer group2_block0_conv0_relu
I1102 06:12:05.323196 12123 net.cpp:100] Creating Layer group2_block0_conv0_relu
I1102 06:12:05.323204 12123 net.cpp:434] group2_block0_conv0_relu <- group2_block0_conv0
I1102 06:12:05.323212 12123 net.cpp:395] group2_block0_conv0_relu -> group2_block0_conv0 (in-place)
I1102 06:12:05.323222 12123 net.cpp:150] Setting up group2_block0_conv0_relu
I1102 06:12:05.323231 12123 net.cpp:157] Top shape: 100 64 8 8 (409600)
I1102 06:12:05.323237 12123 net.cpp:165] Memory required for data: 351847600
I1102 06:12:05.323243 12123 layer_factory.hpp:77] Creating layer group2_block0_conv1
I1102 06:12:05.323266 12123 net.cpp:100] Creating Layer group2_block0_conv1
I1102 06:12:05.323273 12123 net.cpp:434] group2_block0_conv1 <- group2_block0_conv0
I1102 06:12:05.323287 12123 net.cpp:408] group2_block0_conv1 -> group2_block0_conv1
I1102 06:12:05.323915 12123 net.cpp:150] Setting up group2_block0_conv1
I1102 06:12:05.323930 12123 net.cpp:157] Top shape: 100 64 8 8 (409600)
I1102 06:12:05.323936 12123 net.cpp:165] Memory required for data: 353486000
I1102 06:12:05.323946 12123 layer_factory.hpp:77] Creating layer group2_block0_conv1_bn
I1102 06:12:05.323956 12123 net.cpp:100] Creating Layer group2_block0_conv1_bn
I1102 06:12:05.323962 12123 net.cpp:434] group2_block0_conv1_bn <- group2_block0_conv1
I1102 06:12:05.323973 12123 net.cpp:395] group2_block0_conv1_bn -> group2_block0_conv1 (in-place)
I1102 06:12:05.323994 12123 net.cpp:150] Setting up group2_block0_conv1_bn
I1102 06:12:05.324008 12123 net.cpp:157] Top shape: 100 64 8 8 (409600)
I1102 06:12:05.324014 12123 net.cpp:165] Memory required for data: 355124400
I1102 06:12:05.324025 12123 layer_factory.hpp:77] Creating layer group2_block0_conv1_scale
I1102 06:12:05.324035 12123 net.cpp:100] Creating Layer group2_block0_conv1_scale
I1102 06:12:05.324043 12123 net.cpp:434] group2_block0_conv1_scale <- group2_block0_conv1
I1102 06:12:05.324051 12123 net.cpp:395] group2_block0_conv1_scale -> group2_block0_conv1 (in-place)
I1102 06:12:05.324065 12123 layer_factory.hpp:77] Creating layer group2_block0_conv1_scale
I1102 06:12:05.324085 12123 net.cpp:150] Setting up group2_block0_conv1_scale
I1102 06:12:05.324097 12123 net.cpp:157] Top shape: 100 64 8 8 (409600)
I1102 06:12:05.324105 12123 net.cpp:165] Memory required for data: 356762800
I1102 06:12:05.324113 12123 layer_factory.hpp:77] Creating layer group2_block0_proj
I1102 06:12:05.324128 12123 net.cpp:100] Creating Layer group2_block0_proj
I1102 06:12:05.324136 12123 net.cpp:434] group2_block0_proj <- group1_block2_sum_group1_block2_sum_0_split_1
I1102 06:12:05.324146 12123 net.cpp:408] group2_block0_proj -> group2_block0_proj
I1102 06:12:05.324293 12123 net.cpp:150] Setting up group2_block0_proj
I1102 06:12:05.324306 12123 net.cpp:157] Top shape: 100 64 8 8 (409600)
I1102 06:12:05.324312 12123 net.cpp:165] Memory required for data: 358401200
I1102 06:12:05.324323 12123 layer_factory.hpp:77] Creating layer group2_block0_proj_bn
I1102 06:12:05.324340 12123 net.cpp:100] Creating Layer group2_block0_proj_bn
I1102 06:12:05.324352 12123 net.cpp:434] group2_block0_proj_bn <- group2_block0_proj
I1102 06:12:05.324360 12123 net.cpp:395] group2_block0_proj_bn -> group2_block0_proj (in-place)
I1102 06:12:05.324383 12123 net.cpp:150] Setting up group2_block0_proj_bn
I1102 06:12:05.324395 12123 net.cpp:157] Top shape: 100 64 8 8 (409600)
I1102 06:12:05.324403 12123 net.cpp:165] Memory required for data: 360039600
I1102 06:12:05.324414 12123 layer_factory.hpp:77] Creating layer group2_block0_proj_scale
I1102 06:12:05.324441 12123 net.cpp:100] Creating Layer group2_block0_proj_scale
I1102 06:12:05.324448 12123 net.cpp:434] group2_block0_proj_scale <- group2_block0_proj
I1102 06:12:05.324457 12123 net.cpp:395] group2_block0_proj_scale -> group2_block0_proj (in-place)
I1102 06:12:05.324476 12123 layer_factory.hpp:77] Creating layer group2_block0_proj_scale
I1102 06:12:05.324497 12123 net.cpp:150] Setting up group2_block0_proj_scale
I1102 06:12:05.324509 12123 net.cpp:157] Top shape: 100 64 8 8 (409600)
I1102 06:12:05.324517 12123 net.cpp:165] Memory required for data: 361678000
I1102 06:12:05.324527 12123 layer_factory.hpp:77] Creating layer group2_block0_sum
I1102 06:12:05.324535 12123 net.cpp:100] Creating Layer group2_block0_sum
I1102 06:12:05.324542 12123 net.cpp:434] group2_block0_sum <- group2_block0_proj
I1102 06:12:05.324549 12123 net.cpp:434] group2_block0_sum <- group2_block0_conv1
I1102 06:12:05.324563 12123 net.cpp:408] group2_block0_sum -> group2_block0_sum
I1102 06:12:05.324574 12123 net.cpp:150] Setting up group2_block0_sum
I1102 06:12:05.324584 12123 net.cpp:157] Top shape: 100 64 8 8 (409600)
I1102 06:12:05.324589 12123 net.cpp:165] Memory required for data: 363316400
I1102 06:12:05.324595 12123 layer_factory.hpp:77] Creating layer group2_block0_sum_group2_block0_sum_0_split
I1102 06:12:05.324604 12123 net.cpp:100] Creating Layer group2_block0_sum_group2_block0_sum_0_split
I1102 06:12:05.324610 12123 net.cpp:434] group2_block0_sum_group2_block0_sum_0_split <- group2_block0_sum
I1102 06:12:05.324622 12123 net.cpp:408] group2_block0_sum_group2_block0_sum_0_split -> group2_block0_sum_group2_block0_sum_0_split_0
I1102 06:12:05.324635 12123 net.cpp:408] group2_block0_sum_group2_block0_sum_0_split -> group2_block0_sum_group2_block0_sum_0_split_1
I1102 06:12:05.324650 12123 net.cpp:150] Setting up group2_block0_sum_group2_block0_sum_0_split
I1102 06:12:05.324659 12123 net.cpp:157] Top shape: 100 64 8 8 (409600)
I1102 06:12:05.324666 12123 net.cpp:157] Top shape: 100 64 8 8 (409600)
I1102 06:12:05.324672 12123 net.cpp:165] Memory required for data: 366593200
I1102 06:12:05.324679 12123 layer_factory.hpp:77] Creating layer group2_block1_conv0
I1102 06:12:05.324690 12123 net.cpp:100] Creating Layer group2_block1_conv0
I1102 06:12:05.324697 12123 net.cpp:434] group2_block1_conv0 <- group2_block0_sum_group2_block0_sum_0_split_0
I1102 06:12:05.324710 12123 net.cpp:408] group2_block1_conv0 -> group2_block1_conv0
I1102 06:12:05.325343 12123 net.cpp:150] Setting up group2_block1_conv0
I1102 06:12:05.325361 12123 net.cpp:157] Top shape: 100 64 8 8 (409600)
I1102 06:12:05.325367 12123 net.cpp:165] Memory required for data: 368231600
I1102 06:12:05.325377 12123 layer_factory.hpp:77] Creating layer group2_block1_conv0_bn
I1102 06:12:05.325387 12123 net.cpp:100] Creating Layer group2_block1_conv0_bn
I1102 06:12:05.325394 12123 net.cpp:434] group2_block1_conv0_bn <- group2_block1_conv0
I1102 06:12:05.325403 12123 net.cpp:395] group2_block1_conv0_bn -> group2_block1_conv0 (in-place)
I1102 06:12:05.325424 12123 net.cpp:150] Setting up group2_block1_conv0_bn
I1102 06:12:05.325438 12123 net.cpp:157] Top shape: 100 64 8 8 (409600)
I1102 06:12:05.325444 12123 net.cpp:165] Memory required for data: 369870000
I1102 06:12:05.325455 12123 layer_factory.hpp:77] Creating layer group2_block1_conv0_scale
I1102 06:12:05.325467 12123 net.cpp:100] Creating Layer group2_block1_conv0_scale
I1102 06:12:05.325474 12123 net.cpp:434] group2_block1_conv0_scale <- group2_block1_conv0
I1102 06:12:05.325484 12123 net.cpp:395] group2_block1_conv0_scale -> group2_block1_conv0 (in-place)
I1102 06:12:05.325498 12123 layer_factory.hpp:77] Creating layer group2_block1_conv0_scale
I1102 06:12:05.325518 12123 net.cpp:150] Setting up group2_block1_conv0_scale
I1102 06:12:05.325531 12123 net.cpp:157] Top shape: 100 64 8 8 (409600)
I1102 06:12:05.325537 12123 net.cpp:165] Memory required for data: 371508400
I1102 06:12:05.325547 12123 layer_factory.hpp:77] Creating layer group2_block1_conv0_relu
I1102 06:12:05.325556 12123 net.cpp:100] Creating Layer group2_block1_conv0_relu
I1102 06:12:05.325580 12123 net.cpp:434] group2_block1_conv0_relu <- group2_block1_conv0
I1102 06:12:05.325593 12123 net.cpp:395] group2_block1_conv0_relu -> group2_block1_conv0 (in-place)
I1102 06:12:05.325603 12123 net.cpp:150] Setting up group2_block1_conv0_relu
I1102 06:12:05.325613 12123 net.cpp:157] Top shape: 100 64 8 8 (409600)
I1102 06:12:05.325618 12123 net.cpp:165] Memory required for data: 373146800
I1102 06:12:05.325625 12123 layer_factory.hpp:77] Creating layer group2_block1_conv1
I1102 06:12:05.325636 12123 net.cpp:100] Creating Layer group2_block1_conv1
I1102 06:12:05.325644 12123 net.cpp:434] group2_block1_conv1 <- group2_block1_conv0
I1102 06:12:05.325654 12123 net.cpp:408] group2_block1_conv1 -> group2_block1_conv1
I1102 06:12:05.326279 12123 net.cpp:150] Setting up group2_block1_conv1
I1102 06:12:05.326292 12123 net.cpp:157] Top shape: 100 64 8 8 (409600)
I1102 06:12:05.326298 12123 net.cpp:165] Memory required for data: 374785200
I1102 06:12:05.326308 12123 layer_factory.hpp:77] Creating layer group2_block1_conv1_bn
I1102 06:12:05.326320 12123 net.cpp:100] Creating Layer group2_block1_conv1_bn
I1102 06:12:05.326328 12123 net.cpp:434] group2_block1_conv1_bn <- group2_block1_conv1
I1102 06:12:05.326336 12123 net.cpp:395] group2_block1_conv1_bn -> group2_block1_conv1 (in-place)
I1102 06:12:05.326356 12123 net.cpp:150] Setting up group2_block1_conv1_bn
I1102 06:12:05.326369 12123 net.cpp:157] Top shape: 100 64 8 8 (409600)
I1102 06:12:05.326375 12123 net.cpp:165] Memory required for data: 376423600
I1102 06:12:05.326400 12123 layer_factory.hpp:77] Creating layer group2_block1_conv1_scale
I1102 06:12:05.326412 12123 net.cpp:100] Creating Layer group2_block1_conv1_scale
I1102 06:12:05.326419 12123 net.cpp:434] group2_block1_conv1_scale <- group2_block1_conv1
I1102 06:12:05.326429 12123 net.cpp:395] group2_block1_conv1_scale -> group2_block1_conv1 (in-place)
I1102 06:12:05.326444 12123 layer_factory.hpp:77] Creating layer group2_block1_conv1_scale
I1102 06:12:05.326464 12123 net.cpp:150] Setting up group2_block1_conv1_scale
I1102 06:12:05.326477 12123 net.cpp:157] Top shape: 100 64 8 8 (409600)
I1102 06:12:05.326483 12123 net.cpp:165] Memory required for data: 378062000
I1102 06:12:05.326493 12123 layer_factory.hpp:77] Creating layer group2_block1_sum
I1102 06:12:05.326503 12123 net.cpp:100] Creating Layer group2_block1_sum
I1102 06:12:05.326509 12123 net.cpp:434] group2_block1_sum <- group2_block1_conv1
I1102 06:12:05.326517 12123 net.cpp:434] group2_block1_sum <- group2_block0_sum_group2_block0_sum_0_split_1
I1102 06:12:05.326529 12123 net.cpp:408] group2_block1_sum -> group2_block1_sum
I1102 06:12:05.326542 12123 net.cpp:150] Setting up group2_block1_sum
I1102 06:12:05.326551 12123 net.cpp:157] Top shape: 100 64 8 8 (409600)
I1102 06:12:05.326557 12123 net.cpp:165] Memory required for data: 379700400
I1102 06:12:05.326565 12123 layer_factory.hpp:77] Creating layer group2_block1_sum_group2_block1_sum_0_split
I1102 06:12:05.326572 12123 net.cpp:100] Creating Layer group2_block1_sum_group2_block1_sum_0_split
I1102 06:12:05.326580 12123 net.cpp:434] group2_block1_sum_group2_block1_sum_0_split <- group2_block1_sum
I1102 06:12:05.326588 12123 net.cpp:408] group2_block1_sum_group2_block1_sum_0_split -> group2_block1_sum_group2_block1_sum_0_split_0
I1102 06:12:05.326601 12123 net.cpp:408] group2_block1_sum_group2_block1_sum_0_split -> group2_block1_sum_group2_block1_sum_0_split_1
I1102 06:12:05.326614 12123 net.cpp:150] Setting up group2_block1_sum_group2_block1_sum_0_split
I1102 06:12:05.326624 12123 net.cpp:157] Top shape: 100 64 8 8 (409600)
I1102 06:12:05.326632 12123 net.cpp:157] Top shape: 100 64 8 8 (409600)
I1102 06:12:05.326638 12123 net.cpp:165] Memory required for data: 382977200
I1102 06:12:05.326644 12123 layer_factory.hpp:77] Creating layer group2_block2_conv0
I1102 06:12:05.326656 12123 net.cpp:100] Creating Layer group2_block2_conv0
I1102 06:12:05.326663 12123 net.cpp:434] group2_block2_conv0 <- group2_block1_sum_group2_block1_sum_0_split_0
I1102 06:12:05.326673 12123 net.cpp:408] group2_block2_conv0 -> group2_block2_conv0
I1102 06:12:05.327309 12123 net.cpp:150] Setting up group2_block2_conv0
I1102 06:12:05.327322 12123 net.cpp:157] Top shape: 100 64 8 8 (409600)
I1102 06:12:05.327329 12123 net.cpp:165] Memory required for data: 384615600
I1102 06:12:05.327338 12123 layer_factory.hpp:77] Creating layer group2_block2_conv0_bn
I1102 06:12:05.327352 12123 net.cpp:100] Creating Layer group2_block2_conv0_bn
I1102 06:12:05.327358 12123 net.cpp:434] group2_block2_conv0_bn <- group2_block2_conv0
I1102 06:12:05.327368 12123 net.cpp:395] group2_block2_conv0_bn -> group2_block2_conv0 (in-place)
I1102 06:12:05.327390 12123 net.cpp:150] Setting up group2_block2_conv0_bn
I1102 06:12:05.327405 12123 net.cpp:157] Top shape: 100 64 8 8 (409600)
I1102 06:12:05.327412 12123 net.cpp:165] Memory required for data: 386254000
I1102 06:12:05.327424 12123 layer_factory.hpp:77] Creating layer group2_block2_conv0_scale
I1102 06:12:05.327433 12123 net.cpp:100] Creating Layer group2_block2_conv0_scale
I1102 06:12:05.327440 12123 net.cpp:434] group2_block2_conv0_scale <- group2_block2_conv0
I1102 06:12:05.327451 12123 net.cpp:395] group2_block2_conv0_scale -> group2_block2_conv0 (in-place)
I1102 06:12:05.327466 12123 layer_factory.hpp:77] Creating layer group2_block2_conv0_scale
I1102 06:12:05.327487 12123 net.cpp:150] Setting up group2_block2_conv0_scale
I1102 06:12:05.327499 12123 net.cpp:157] Top shape: 100 64 8 8 (409600)
I1102 06:12:05.327505 12123 net.cpp:165] Memory required for data: 387892400
I1102 06:12:05.327515 12123 layer_factory.hpp:77] Creating layer group2_block2_conv0_relu
I1102 06:12:05.327524 12123 net.cpp:100] Creating Layer group2_block2_conv0_relu
I1102 06:12:05.327531 12123 net.cpp:434] group2_block2_conv0_relu <- group2_block2_conv0
I1102 06:12:05.327539 12123 net.cpp:395] group2_block2_conv0_relu -> group2_block2_conv0 (in-place)
I1102 06:12:05.327549 12123 net.cpp:150] Setting up group2_block2_conv0_relu
I1102 06:12:05.327558 12123 net.cpp:157] Top shape: 100 64 8 8 (409600)
I1102 06:12:05.327564 12123 net.cpp:165] Memory required for data: 389530800
I1102 06:12:05.327570 12123 layer_factory.hpp:77] Creating layer group2_block2_conv1
I1102 06:12:05.327584 12123 net.cpp:100] Creating Layer group2_block2_conv1
I1102 06:12:05.327591 12123 net.cpp:434] group2_block2_conv1 <- group2_block2_conv0
I1102 06:12:05.327602 12123 net.cpp:408] group2_block2_conv1 -> group2_block2_conv1
I1102 06:12:05.328223 12123 net.cpp:150] Setting up group2_block2_conv1
I1102 06:12:05.328236 12123 net.cpp:157] Top shape: 100 64 8 8 (409600)
I1102 06:12:05.328243 12123 net.cpp:165] Memory required for data: 391169200
I1102 06:12:05.328253 12123 layer_factory.hpp:77] Creating layer group2_block2_conv1_bn
I1102 06:12:05.328263 12123 net.cpp:100] Creating Layer group2_block2_conv1_bn
I1102 06:12:05.328269 12123 net.cpp:434] group2_block2_conv1_bn <- group2_block2_conv1
I1102 06:12:05.328279 12123 net.cpp:395] group2_block2_conv1_bn -> group2_block2_conv1 (in-place)
I1102 06:12:05.328299 12123 net.cpp:150] Setting up group2_block2_conv1_bn
I1102 06:12:05.328313 12123 net.cpp:157] Top shape: 100 64 8 8 (409600)
I1102 06:12:05.328320 12123 net.cpp:165] Memory required for data: 392807600
I1102 06:12:05.328331 12123 layer_factory.hpp:77] Creating layer group2_block2_conv1_scale
I1102 06:12:05.328341 12123 net.cpp:100] Creating Layer group2_block2_conv1_scale
I1102 06:12:05.328347 12123 net.cpp:434] group2_block2_conv1_scale <- group2_block2_conv1
I1102 06:12:05.328356 12123 net.cpp:395] group2_block2_conv1_scale -> group2_block2_conv1 (in-place)
I1102 06:12:05.328371 12123 layer_factory.hpp:77] Creating layer group2_block2_conv1_scale
I1102 06:12:05.328390 12123 net.cpp:150] Setting up group2_block2_conv1_scale
I1102 06:12:05.328402 12123 net.cpp:157] Top shape: 100 64 8 8 (409600)
I1102 06:12:05.328408 12123 net.cpp:165] Memory required for data: 394446000
I1102 06:12:05.328418 12123 layer_factory.hpp:77] Creating layer group2_block2_sum
I1102 06:12:05.328430 12123 net.cpp:100] Creating Layer group2_block2_sum
I1102 06:12:05.328438 12123 net.cpp:434] group2_block2_sum <- group2_block2_conv1
I1102 06:12:05.328459 12123 net.cpp:434] group2_block2_sum <- group2_block1_sum_group2_block1_sum_0_split_1
I1102 06:12:05.328469 12123 net.cpp:408] group2_block2_sum -> group2_block2_sum
I1102 06:12:05.328481 12123 net.cpp:150] Setting up group2_block2_sum
I1102 06:12:05.328490 12123 net.cpp:157] Top shape: 100 64 8 8 (409600)
I1102 06:12:05.328496 12123 net.cpp:165] Memory required for data: 396084400
I1102 06:12:05.328502 12123 layer_factory.hpp:77] Creating layer global_avg_pool
I1102 06:12:05.328512 12123 net.cpp:100] Creating Layer global_avg_pool
I1102 06:12:05.328519 12123 net.cpp:434] global_avg_pool <- group2_block2_sum
I1102 06:12:05.328528 12123 net.cpp:408] global_avg_pool -> global_avg_pool
I1102 06:12:05.328553 12123 net.cpp:150] Setting up global_avg_pool
I1102 06:12:05.328565 12123 net.cpp:157] Top shape: 100 64 1 1 (6400)
I1102 06:12:05.328572 12123 net.cpp:165] Memory required for data: 396110000
I1102 06:12:05.328578 12123 layer_factory.hpp:77] Creating layer fc
I1102 06:12:05.328594 12123 net.cpp:100] Creating Layer fc
I1102 06:12:05.328606 12123 net.cpp:434] fc <- global_avg_pool
I1102 06:12:05.328616 12123 net.cpp:408] fc -> fc
I1102 06:12:05.328650 12123 net.cpp:150] Setting up fc
I1102 06:12:05.328662 12123 net.cpp:157] Top shape: 100 10 (1000)
I1102 06:12:05.328668 12123 net.cpp:165] Memory required for data: 396114000
I1102 06:12:05.328678 12123 layer_factory.hpp:77] Creating layer fc_fc_0_split
I1102 06:12:05.328687 12123 net.cpp:100] Creating Layer fc_fc_0_split
I1102 06:12:05.328693 12123 net.cpp:434] fc_fc_0_split <- fc
I1102 06:12:05.328702 12123 net.cpp:408] fc_fc_0_split -> fc_fc_0_split_0
I1102 06:12:05.328712 12123 net.cpp:408] fc_fc_0_split -> fc_fc_0_split_1
I1102 06:12:05.328727 12123 net.cpp:150] Setting up fc_fc_0_split
I1102 06:12:05.328735 12123 net.cpp:157] Top shape: 100 10 (1000)
I1102 06:12:05.328743 12123 net.cpp:157] Top shape: 100 10 (1000)
I1102 06:12:05.328749 12123 net.cpp:165] Memory required for data: 396122000
I1102 06:12:05.328755 12123 layer_factory.hpp:77] Creating layer loss
I1102 06:12:05.328764 12123 net.cpp:100] Creating Layer loss
I1102 06:12:05.328770 12123 net.cpp:434] loss <- fc_fc_0_split_0
I1102 06:12:05.328778 12123 net.cpp:434] loss <- label_data_1_split_0
I1102 06:12:05.328788 12123 net.cpp:408] loss -> loss
I1102 06:12:05.328801 12123 layer_factory.hpp:77] Creating layer loss
I1102 06:12:05.328829 12123 net.cpp:150] Setting up loss
I1102 06:12:05.328840 12123 net.cpp:157] Top shape: (1)
I1102 06:12:05.328846 12123 net.cpp:160]     with loss weight 1
I1102 06:12:05.328876 12123 net.cpp:165] Memory required for data: 396122004
I1102 06:12:05.328883 12123 layer_factory.hpp:77] Creating layer softmax
I1102 06:12:05.328891 12123 net.cpp:100] Creating Layer softmax
I1102 06:12:05.328898 12123 net.cpp:434] softmax <- fc_fc_0_split_1
I1102 06:12:05.328907 12123 net.cpp:408] softmax -> softmax
I1102 06:12:05.328919 12123 net.cpp:150] Setting up softmax
I1102 06:12:05.328927 12123 net.cpp:157] Top shape: 100 10 (1000)
I1102 06:12:05.328933 12123 net.cpp:165] Memory required for data: 396126004
I1102 06:12:05.328939 12123 layer_factory.hpp:77] Creating layer Accuracy
I1102 06:12:05.328948 12123 net.cpp:100] Creating Layer Accuracy
I1102 06:12:05.328954 12123 net.cpp:434] Accuracy <- softmax
I1102 06:12:05.328963 12123 net.cpp:434] Accuracy <- label_data_1_split_1
I1102 06:12:05.328975 12123 net.cpp:408] Accuracy -> Accuracy
…
