…
I1102 06:23:20.817958 12232 net.cpp:322] The NetState phase (0) differed from the phase (1) specified by a rule in layer data
I1102 06:23:20.818765 12232 net.cpp:58] Initializing net from parameters: 
name: "resnet20-cifar10"
state {
  phase: TRAIN
  level: 0
  stage: ""
}
layer {
  name: "data"
  type: "Data"
  top: "data"
  top: "label"
  include {
    phase: TRAIN
  }
  transform_param {
    mirror: true
    crop_size: 32
    mean_file: "data/mean.binaryproto"
  }
  data_param {
    source: "data/train_lmdb"
    batch_size: 100
    backend: LMDB
  }
}
layer {
  name: "first_conv"
  type: "Convolution"
  bottom: "data"
  top: "first_conv"
  param {
    lr_mult: 1
    decay_mult: 1
  }
  convolution_param {
    num_output: 16
    pad: 1
    kernel_size: 3
    stride: 1
    weight_filler {
      type: "msra"
    }
  }
}
layer {
  name: "first_conv_bn"
  type: "BatchNorm"
  bottom: "first_conv"
  top: "first_conv"
  batch_norm_param {
    use_global_stats: false
    moving_average_fraction: 0.95
  }
}
layer {
  name: "first_conv_scale"
  type: "Scale"
  bottom: "first_conv"
  top: "first_conv"
  scale_param {
    bias_term: true
  }
}
layer {
  name: "first_conv_relu"
  type: "ReLU"
  bottom: "first_conv"
  top: "first_conv"
}
layer {
  name: "group0_block0_conv0"
  type: "Convolution"
  bottom: "first_conv"
  top: "group0_block0_conv0"
  param {
    lr_mult: 1
    decay_mult: 1
  }
  convolution_param {
    num_output: 16
    pad: 1
    kernel_size: 3
    stride: 1
    weight_filler {
      type: "msra"
    }
  }
}
layer {
  name: "group0_block0_conv0_bn"
  type: "BatchNorm"
  bottom: "group0_block0_conv0"
  top: "group0_block0_conv0"
  batch_norm_param {
    use_global_stats: false
    moving_average_fraction: 0.95
  }
}
layer {
  name: "group0_block0_conv0_scale"
  type: "Scale"
  bottom: "group0_block0_conv0"
  top: "group0_block0_conv0"
  scale_param {
    bias_term: true
  }
}
layer {
  name: "group0_block0_conv0_relu"
  type: "ReLU"
  bottom: "group0_block0_conv0"
  top: "group0_block0_conv0"
}
layer {
  name: "group0_block0_conv1"
  type: "Convolution"
  bottom: "group0_block0_conv0"
  top: "group0_block0_conv1"
  param {
    lr_mult: 1
    decay_mult: 1
  }
  convolution_param {
    num_output: 16
    pad: 1
    kernel_size: 3
    stride: 1
    weight_filler {
      type: "msra"
    }
  }
}
layer {
  name: "group0_block0_conv1_bn"
  type: "BatchNorm"
  bottom: "group0_block0_conv1"
  top: "group0_block0_conv1"
  batch_norm_param {
    use_global_stats: false
    moving_average_fraction: 0.95
  }
}
layer {
  name: "group0_block0_conv1_scale"
  type: "Scale"
  bottom: "group0_block0_conv1"
  top: "group0_block0_conv1"
  scale_param {
    bias_term: true
  }
}
layer {
  name: "group0_block0_sum"
  type: "Eltwise"
  bottom: "group0_block0_conv1"
  bottom: "first_conv"
  top: "group0_block0_sum"
  eltwise_param {
    operation: SUM
  }
}
layer {
  name: "group0_block1_conv0"
  type: "Convolution"
  bottom: "group0_block0_sum"
  top: "group0_block1_conv0"
  param {
    lr_mult: 1
    decay_mult: 1
  }
  convolution_param {
    num_output: 16
    pad: 1
    kernel_size: 3
    stride: 1
    weight_filler {
      type: "msra"
    }
  }
}
layer {
  name: "group0_block1_conv0_bn"
  type: "BatchNorm"
  bottom: "group0_block1_conv0"
  top: "group0_block1_conv0"
  batch_norm_param {
    use_global_stats: false
    moving_average_fraction: 0.95
  }
}
layer {
  name: "group0_block1_conv0_scale"
  type: "Scale"
  bottom: "group0_block1_conv0"
  top: "group0_block1_conv0"
  scale_param {
    bias_term: true
  }
}
layer {
  name: "group0_block1_conv0_relu"
  type: "ReLU"
  bottom: "group0_block1_conv0"
  top: "group0_block1_conv0"
}
layer {
  name: "group0_block1_conv1"
  type: "Convolution"
  bottom: "group0_block1_conv0"
  top: "group0_block1_conv1"
  param {
    lr_mult: 1
    decay_mult: 1
  }
  convolution_param {
    num_output: 16
    pad: 1
    kernel_size: 3
    stride: 1
    weight_filler {
      type: "msra"
    }
  }
}
layer {
  name: "group0_block1_conv1_bn"
  type: "BatchNorm"
  bottom: "group0_block1_conv1"
  top: "group0_block1_conv1"
  batch_norm_param {
    use_global_stats: false
    moving_average_fraction: 0.95
  }
}
layer {
  name: "group0_block1_conv1_scale"
  type: "Scale"
  bottom: "group0_block1_conv1"
  top: "group0_block1_conv1"
  scale_param {
    bias_term: true
  }
}
layer {
  name: "group0_block1_sum"
  type: "Eltwise"
  bottom: "group0_block1_conv1"
  bottom: "group0_block0_sum"
  top: "group0_block1_sum"
  eltwise_param {
    operation: SUM
  }
}
layer {
  name: "group0_block2_conv0"
  type: "Convolution"
  bottom: "group0_block1_sum"
  top: "group0_block2_conv0"
  param {
    lr_mult: 1
    decay_mult: 1
  }
  convolution_param {
    num_output: 16
    pad: 1
    kernel_size: 3
    stride: 1
    weight_filler {
      type: "msra"
    }
  }
}
layer {
  name: "group0_block2_conv0_bn"
  type: "BatchNorm"
  bottom: "group0_block2_conv0"
  top: "group0_block2_conv0"
  batch_norm_param {
    use_global_stats: false
    moving_average_fraction: 0.95
  }
}
layer {
  name: "group0_block2_conv0_scale"
  type: "Scale"
  bottom: "group0_block2_conv0"
  top: "group0_block2_conv0"
  scale_param {
    bias_term: true
  }
}
layer {
  name: "group0_block2_conv0_relu"
  type: "ReLU"
  bottom: "group0_block2_conv0"
  top: "group0_block2_conv0"
}
layer {
  name: "group0_block2_conv1"
  type: "Convolution"
  bottom: "group0_block2_conv0"
  top: "group0_block2_conv1"
  param {
    lr_mult: 1
    decay_mult: 1
  }
  convolution_param {
    num_output: 16
    pad: 1
    kernel_size: 3
    stride: 1
    weight_filler {
      type: "msra"
    }
  }
}
layer {
  name: "group0_block2_conv1_bn"
  type: "BatchNorm"
  bottom: "group0_block2_conv1"
  top: "group0_block2_conv1"
  batch_norm_param {
    use_global_stats: false
    moving_average_fraction: 0.95
  }
}
layer {
  name: "group0_block2_conv1_scale"
  type: "Scale"
  bottom: "group0_block2_conv1"
  top: "group0_block2_conv1"
  scale_param {
    bias_term: true
  }
}
layer {
  name: "group0_block2_sum"
  type: "Eltwise"
  bottom: "group0_block2_conv1"
  bottom: "group0_block1_sum"
  top: "group0_block2_sum"
  eltwise_param {
    operation: SUM
  }
}
layer {
  name: "group1_block0_conv0"
  type: "Convolution"
  bottom: "group0_block2_sum"
  top: "group1_block0_conv0"
  param {
    lr_mult: 1
    decay_mult: 1
  }
  convolution_param {
    num_output: 32
    pad: 1
    kernel_size: 3
    stride: 2
    weight_filler {
      type: "msra"
    }
  }
}
layer {
  name: "group1_block0_conv0_bn"
  type: "BatchNorm"
  bottom: "group1_block0_conv0"
  top: "group1_block0_conv0"
  batch_norm_param {
    use_global_stats: false
    moving_average_fraction: 0.95
  }
}
layer {
  name: "group1_block0_conv0_scale"
  type: "Scale"
  bottom: "group1_block0_conv0"
  top: "group1_block0_conv0"
  scale_param {
    bias_term: true
  }
}
layer {
  name: "group1_block0_conv0_relu"
  type: "ReLU"
  bottom: "group1_block0_conv0"
  top: "group1_block0_conv0"
}
layer {
  name: "group1_block0_conv1"
  type: "Convolution"
  bottom: "group1_block0_conv0"
  top: "group1_block0_conv1"
  param {
    lr_mult: 1
    decay_mult: 1
  }
  convolution_param {
    num_output: 32
    pad: 1
    kernel_size: 3
    stride: 1
    weight_filler {
      type: "msra"
    }
  }
}
layer {
  name: "group1_block0_conv1_bn"
  type: "BatchNorm"
  bottom: "group1_block0_conv1"
  top: "group1_block0_conv1"
  batch_norm_param {
    use_global_stats: false
    moving_average_fraction: 0.95
  }
}
layer {
  name: "group1_block0_conv1_scale"
  type: "Scale"
  bottom: "group1_block0_conv1"
  top: "group1_block0_conv1"
  scale_param {
    bias_term: true
  }
}
layer {
  name: "group1_block0_proj"
  type: "Convolution"
  bottom: "group0_block2_sum"
  top: "group1_block0_proj"
  param {
    lr_mult: 1
    decay_mult: 1
  }
  convolution_param {
    num_output: 32
    pad: 0
    kernel_size: 2
    stride: 2
    weight_filler {
      type: "msra"
    }
  }
}
layer {
  name: "group1_block0_proj_bn"
  type: "BatchNorm"
  bottom: "group1_block0_proj"
  top: "group1_block0_proj"
  batch_norm_param {
    use_global_stats: false
    moving_average_fraction: 0.95
  }
}
layer {
  name: "group1_block0_proj_scale"
  type: "Scale"
  bottom: "group1_block0_proj"
  top: "group1_block0_proj"
  scale_param {
    bias_term: true
  }
}
layer {
  name: "group1_block0_sum"
  type: "Eltwise"
  bottom: "group1_block0_proj"
  bottom: "group1_block0_conv1"
  top: "group1_block0_sum"
  eltwise_param {
    operation: SUM
  }
}
layer {
  name: "group1_block1_conv0"
  type: "Convolution"
  bottom: "group1_block0_sum"
  top: "group1_block1_conv0"
  param {
    lr_mult: 1
    decay_mult: 1
  }
  convolution_param {
    num_output: 32
    pad: 1
    kernel_size: 3
    stride: 1
    weight_filler {
      type: "msra"
    }
  }
}
layer {
  name: "group1_block1_conv0_bn"
  type: "BatchNorm"
  bottom: "group1_block1_conv0"
  top: "group1_block1_conv0"
  batch_norm_param {
    use_global_stats: false
    moving_average_fraction: 0.95
  }
}
layer {
  name: "group1_block1_conv0_scale"
  type: "Scale"
  bottom: "group1_block1_conv0"
  top: "group1_block1_conv0"
  scale_param {
    bias_term: true
  }
}
layer {
  name: "group1_block1_conv0_relu"
  type: "ReLU"
  bottom: "group1_block1_conv0"
  top: "group1_block1_conv0"
}
layer {
  name: "group1_block1_conv1"
  type: "Convolution"
  bottom: "group1_block1_conv0"
  top: "group1_block1_conv1"
  param {
    lr_mult: 1
    decay_mult: 1
  }
  convolution_param {
    num_output: 32
    pad: 1
    kernel_size: 3
    stride: 1
    weight_filler {
      type: "msra"
    }
  }
}
layer {
  name: "group1_block1_conv1_bn"
  type: "BatchNorm"
  bottom: "group1_block1_conv1"
  top: "group1_block1_conv1"
  batch_norm_param {
    use_global_stats: false
    moving_average_fraction: 0.95
  }
}
layer {
  name: "group1_block1_conv1_scale"
  type: "Scale"
  bottom: "group1_block1_conv1"
  top: "group1_block1_conv1"
  scale_param {
    bias_term: true
  }
}
layer {
  name: "group1_block1_sum"
  type: "Eltwise"
  bottom: "group1_block1_conv1"
  bottom: "group1_block0_sum"
  top: "group1_block1_sum"
  eltwise_param {
    operation: SUM
  }
}
layer {
  name: "group1_block2_conv0"
  type: "Convolution"
  bottom: "group1_block1_sum"
  top: "group1_block2_conv0"
  param {
    lr_mult: 1
    decay_mult: 1
  }
  convolution_param {
    num_output: 32
    pad: 1
    kernel_size: 3
    stride: 1
    weight_filler {
      type: "msra"
    }
  }
}
layer {
  name: "group1_block2_conv0_bn"
  type: "BatchNorm"
  bottom: "group1_block2_conv0"
  top: "group1_block2_conv0"
  batch_norm_param {
    use_global_stats: false
    moving_average_fraction: 0.95
  }
}
layer {
  name: "group1_block2_conv0_scale"
  type: "Scale"
  bottom: "group1_block2_conv0"
  top: "group1_block2_conv0"
  scale_param {
    bias_term: true
  }
}
layer {
  name: "group1_block2_conv0_relu"
  type: "ReLU"
  bottom: "group1_block2_conv0"
  top: "group1_block2_conv0"
}
layer {
  name: "group1_block2_conv1"
  type: "Convolution"
  bottom: "group1_block2_conv0"
  top: "group1_block2_conv1"
  param {
    lr_mult: 1
    decay_mult: 1
  }
  convolution_param {
    num_output: 32
    pad: 1
    kernel_size: 3
    stride: 1
    weight_filler {
      type: "msra"
    }
  }
}
layer {
  name: "group1_block2_conv1_bn"
  type: "BatchNorm"
  bottom: "group1_block2_conv1"
  top: "group1_block2_conv1"
  batch_norm_param {
    use_global_stats: false
    moving_average_fraction: 0.95
  }
}
layer {
  name: "group1_block2_conv1_scale"
  type: "Scale"
  bottom: "group1_block2_conv1"
  top: "group1_block2_conv1"
  scale_param {
    bias_term: true
  }
}
layer {
  name: "group1_block2_sum"
  type: "Eltwise"
  bottom: "group1_block2_conv1"
  bottom: "group1_block1_sum"
  top: "group1_block2_sum"
  eltwise_param {
    operation: SUM
  }
}
layer {
  name: "group2_block0_conv0"
  type: "Convolution"
  bottom: "group1_block2_sum"
  top: "group2_block0_conv0"
  param {
    lr_mult: 1
    decay_mult: 1
  }
  convolution_param {
    num_output: 64
    pad: 1
    kernel_size: 3
    stride: 2
    weight_filler {
      type: "msra"
    }
  }
}
layer {
  name: "group2_block0_conv0_bn"
  type: "BatchNorm"
  bottom: "group2_block0_conv0"
  top: "group2_block0_conv0"
  batch_norm_param {
    use_global_stats: false
    moving_average_fraction: 0.95
  }
}
layer {
  name: "group2_block0_conv0_scale"
  type: "Scale"
  bottom: "group2_block0_conv0"
  top: "group2_block0_conv0"
  scale_param {
    bias_term: true
  }
}
layer {
  name: "group2_block0_conv0_relu"
  type: "ReLU"
  bottom: "group2_block0_conv0"
  top: "group2_block0_conv0"
}
layer {
  name: "group2_block0_conv1"
  type: "Convolution"
  bottom: "group2_block0_conv0"
  top: "group2_block0_conv1"
  param {
    lr_mult: 1
    decay_mult: 1
  }
  convolution_param {
    num_output: 64
    pad: 1
    kernel_size: 3
    stride: 1
    weight_filler {
      type: "msra"
    }
  }
}
layer {
  name: "group2_block0_conv1_bn"
  type: "BatchNorm"
  bottom: "group2_block0_conv1"
  top: "group2_block0_conv1"
  batch_norm_param {
    use_global_stats: false
    moving_average_fraction: 0.95
  }
}
layer {
  name: "group2_block0_conv1_scale"
  type: "Scale"
  bottom: "group2_block0_conv1"
  top: "group2_block0_conv1"
  scale_param {
    bias_term: true
  }
}
layer {
  name: "group2_block0_proj"
  type: "Convolution"
  bottom: "group1_block2_sum"
  top: "group2_block0_proj"
  param {
    lr_mult: 1
    decay_mult: 1
  }
  convolution_param {
    num_output: 64
    pad: 0
    kernel_size: 2
    stride: 2
    weight_filler {
      type: "msra"
    }
  }
}
layer {
  name: "group2_block0_proj_bn"
  type: "BatchNorm"
  bottom: "group2_block0_proj"
  top: "group2_block0_proj"
  batch_norm_param {
    use_global_stats: false
    moving_average_fraction: 0.95
  }
}
layer {
  name: "group2_block0_proj_scale"
  type: "Scale"
  bottom: "group2_block0_proj"
  top: "group2_block0_proj"
  scale_param {
    bias_term: true
  }
}
layer {
  name: "group2_block0_sum"
  type: "Eltwise"
  bottom: "group2_block0_proj"
  bottom: "group2_block0_conv1"
  top: "group2_block0_sum"
  eltwise_param {
    operation: SUM
  }
}
layer {
  name: "group2_block1_conv0"
  type: "Convolution"
  bottom: "group2_block0_sum"
  top: "group2_block1_conv0"
  param {
    lr_mult: 1
    decay_mult: 1
  }
  convolution_param {
    num_output: 64
    pad: 1
    kernel_size: 3
    stride: 1
    weight_filler {
      type: "msra"
    }
  }
}
layer {
  name: "group2_block1_conv0_bn"
  type: "BatchNorm"
  bottom: "group2_block1_conv0"
  top: "group2_block1_conv0"
  batch_norm_param {
    use_global_stats: false
    moving_average_fraction: 0.95
  }
}
layer {
  name: "group2_block1_conv0_scale"
  type: "Scale"
  bottom: "group2_block1_conv0"
  top: "group2_block1_conv0"
  scale_param {
    bias_term: true
  }
}
layer {
  name: "group2_block1_conv0_relu"
  type: "ReLU"
  bottom: "group2_block1_conv0"
  top: "group2_block1_conv0"
}
layer {
  name: "group2_block1_conv1"
  type: "Convolution"
  bottom: "group2_block1_conv0"
  top: "group2_block1_conv1"
  param {
    lr_mult: 1
    decay_mult: 1
  }
  convolution_param {
    num_output: 64
    pad: 1
    kernel_size: 3
    stride: 1
    weight_filler {
      type: "msra"
    }
  }
}
layer {
  name: "group2_block1_conv1_bn"
  type: "BatchNorm"
  bottom: "group2_block1_conv1"
  top: "group2_block1_conv1"
  batch_norm_param {
    use_global_stats: false
    moving_average_fraction: 0.95
  }
}
layer {
  name: "group2_block1_conv1_scale"
  type: "Scale"
  bottom: "group2_block1_conv1"
  top: "group2_block1_conv1"
  scale_param {
    bias_term: true
  }
}
layer {
  name: "group2_block1_sum"
  type: "Eltwise"
  bottom: "group2_block1_conv1"
  bottom: "group2_block0_sum"
  top: "group2_block1_sum"
  eltwise_param {
    operation: SUM
  }
}
layer {
  name: "group2_block2_conv0"
  type: "Convolution"
  bottom: "group2_block1_sum"
  top: "group2_block2_conv0"
  param {
    lr_mult: 1
    decay_mult: 1
  }
  convolution_param {
    num_output: 64
    pad: 1
    kernel_size: 3
    stride: 1
    weight_filler {
      type: "msra"
    }
  }
}
layer {
  name: "group2_block2_conv0_bn"
  type: "BatchNorm"
  bottom: "group2_block2_conv0"
  top: "group2_block2_conv0"
  batch_norm_param {
    use_global_stats: false
    moving_average_fraction: 0.95
  }
}
layer {
  name: "group2_block2_conv0_scale"
  type: "Scale"
  bottom: "group2_block2_conv0"
  top: "group2_block2_conv0"
  scale_param {
    bias_term: true
  }
}
layer {
  name: "group2_block2_conv0_relu"
  type: "ReLU"
  bottom: "group2_block2_conv0"
  top: "group2_block2_conv0"
}
layer {
  name: "group2_block2_conv1"
  type: "Convolution"
  bottom: "group2_block2_conv0"
  top: "group2_block2_conv1"
  param {
    lr_mult: 1
    decay_mult: 1
  }
  convolution_param {
    num_output: 64
    pad: 1
    kernel_size: 3
    stride: 1
    weight_filler {
      type: "msra"
    }
  }
}
layer {
  name: "group2_block2_conv1_bn"
  type: "BatchNorm"
  bottom: "group2_block2_conv1"
  top: "group2_block2_conv1"
  batch_norm_param {
    use_global_stats: false
    moving_average_fraction: 0.95
  }
}
layer {
  name: "group2_block2_conv1_scale"
  type: "Scale"
  bottom: "group2_block2_conv1"
  top: "group2_block2_conv1"
  scale_param {
    bias_term: true
  }
}
layer {
  name: "group2_block2_sum"
  type: "Eltwise"
  bottom: "group2_block2_conv1"
  bottom: "group2_block1_sum"
  top: "group2_block2_sum"
  eltwise_param {
    operation: SUM
  }
}
layer {
  name: "global_avg_pool"
  type: "Pooling"
  bottom: "group2_block2_sum"
  top: "global_avg_pool"
  pooling_param {
    pool: AVE
    global_pooling: true
  }
}
layer {
  name: "fc"
  type: "InnerProduct"
  bottom: "global_avg_pool"
  top: "fc"
  param {
    lr_mult: 1
    decay_mult: 1
  }
  param {
    lr_mult: 2
    decay_mult: 0
  }
  inner_product_param {
    num_output: 10
    weight_filler {
      type: "msra"
    }
    bias_filler {
      type: "constant"
      value: 0
    }
  }
}
layer {
  name: "loss"
  type: "SoftmaxWithLoss"
  bottom: "fc"
  bottom: "label"
  top: "loss"
}
layer {
  name: "softmax"
  type: "Softmax"
  bottom: "fc"
  top: "softmax"
}
layer {
  name: "Accuracy"
  type: "Accuracy"
  bottom: "softmax"
  bottom: "label"
  top: "Accuracy"
}
I1102 06:23:20.819317 12232 layer_factory.hpp:77] Creating layer data
I1102 06:23:20.819766 12232 net.cpp:100] Creating Layer data
I1102 06:23:20.819800 12232 net.cpp:408] data -> data
I1102 06:23:20.819833 12232 net.cpp:408] data -> label
I1102 06:23:20.819854 12232 data_transformer.cpp:25] Loading mean file from: data/mean.binaryproto
I1102 06:23:20.820066 12235 db_lmdb.cpp:35] Opened lmdb data/train_lmdb
I1102 06:23:20.820196 12232 data_layer.cpp:41] output data size: 100,3,32,32
I1102 06:23:20.820390 12232 net.cpp:150] Setting up data
I1102 06:23:20.820421 12232 net.cpp:157] Top shape: 100 3 32 32 (307200)
I1102 06:23:20.820443 12232 net.cpp:157] Top shape: 100 (100)
I1102 06:23:20.820452 12232 net.cpp:165] Memory required for data: 1229200
I1102 06:23:20.820472 12232 layer_factory.hpp:77] Creating layer label_data_1_split
I1102 06:23:20.820513 12232 net.cpp:100] Creating Layer label_data_1_split
I1102 06:23:20.820534 12232 net.cpp:434] label_data_1_split <- label
I1102 06:23:20.820567 12232 net.cpp:408] label_data_1_split -> label_data_1_split_0
I1102 06:23:20.820597 12232 net.cpp:408] label_data_1_split -> label_data_1_split_1
I1102 06:23:20.820722 12232 net.cpp:150] Setting up label_data_1_split
I1102 06:23:20.820754 12232 net.cpp:157] Top shape: 100 (100)
I1102 06:23:20.820773 12232 net.cpp:157] Top shape: 100 (100)
I1102 06:23:20.820783 12232 net.cpp:165] Memory required for data: 1230000
I1102 06:23:20.820829 12232 layer_factory.hpp:77] Creating layer first_conv
I1102 06:23:20.820871 12232 net.cpp:100] Creating Layer first_conv
I1102 06:23:20.820888 12232 net.cpp:434] first_conv <- data
I1102 06:23:20.820907 12232 net.cpp:408] first_conv -> first_conv
I1102 06:23:20.821084 12232 net.cpp:150] Setting up first_conv
I1102 06:23:20.821152 12232 net.cpp:157] Top shape: 100 16 32 32 (1638400)
I1102 06:23:20.821168 12232 net.cpp:165] Memory required for data: 7783600
I1102 06:23:20.821202 12232 layer_factory.hpp:77] Creating layer first_conv_bn
I1102 06:23:20.821223 12232 net.cpp:100] Creating Layer first_conv_bn
I1102 06:23:20.821238 12232 net.cpp:434] first_conv_bn <- first_conv
I1102 06:23:20.821251 12232 net.cpp:395] first_conv_bn -> first_conv (in-place)
I1102 06:23:20.821333 12232 net.cpp:150] Setting up first_conv_bn
I1102 06:23:20.821357 12232 net.cpp:157] Top shape: 100 16 32 32 (1638400)
I1102 06:23:20.821368 12232 net.cpp:165] Memory required for data: 14337200
I1102 06:23:20.821394 12232 layer_factory.hpp:77] Creating layer first_conv_scale
I1102 06:23:20.821429 12232 net.cpp:100] Creating Layer first_conv_scale
I1102 06:23:20.821440 12232 net.cpp:434] first_conv_scale <- first_conv
I1102 06:23:20.821455 12232 net.cpp:395] first_conv_scale -> first_conv (in-place)
I1102 06:23:20.821485 12232 layer_factory.hpp:77] Creating layer first_conv_scale
I1102 06:23:20.821538 12232 net.cpp:150] Setting up first_conv_scale
I1102 06:23:20.821553 12232 net.cpp:157] Top shape: 100 16 32 32 (1638400)
I1102 06:23:20.821563 12232 net.cpp:165] Memory required for data: 20890800
I1102 06:23:20.821578 12232 layer_factory.hpp:77] Creating layer first_conv_relu
I1102 06:23:20.821749 12232 net.cpp:100] Creating Layer first_conv_relu
I1102 06:23:20.821764 12232 net.cpp:434] first_conv_relu <- first_conv
I1102 06:23:20.821779 12232 net.cpp:395] first_conv_relu -> first_conv (in-place)
I1102 06:23:20.821794 12232 net.cpp:150] Setting up first_conv_relu
I1102 06:23:20.821808 12232 net.cpp:157] Top shape: 100 16 32 32 (1638400)
I1102 06:23:20.821817 12232 net.cpp:165] Memory required for data: 27444400
I1102 06:23:20.821827 12232 layer_factory.hpp:77] Creating layer first_conv_first_conv_relu_0_split
I1102 06:23:20.821841 12232 net.cpp:100] Creating Layer first_conv_first_conv_relu_0_split
I1102 06:23:20.821933 12232 net.cpp:434] first_conv_first_conv_relu_0_split <- first_conv
I1102 06:23:20.821952 12232 net.cpp:408] first_conv_first_conv_relu_0_split -> first_conv_first_conv_relu_0_split_0
I1102 06:23:20.821971 12232 net.cpp:408] first_conv_first_conv_relu_0_split -> first_conv_first_conv_relu_0_split_1
I1102 06:23:20.822036 12232 net.cpp:150] Setting up first_conv_first_conv_relu_0_split
I1102 06:23:20.822058 12232 net.cpp:157] Top shape: 100 16 32 32 (1638400)
I1102 06:23:20.822072 12232 net.cpp:157] Top shape: 100 16 32 32 (1638400)
I1102 06:23:20.822079 12232 net.cpp:165] Memory required for data: 40551600
I1102 06:23:20.822089 12232 layer_factory.hpp:77] Creating layer group0_block0_conv0
I1102 06:23:20.822106 12232 net.cpp:100] Creating Layer group0_block0_conv0
I1102 06:23:20.822124 12232 net.cpp:434] group0_block0_conv0 <- first_conv_first_conv_relu_0_split_0
I1102 06:23:20.822140 12232 net.cpp:408] group0_block0_conv0 -> group0_block0_conv0
I1102 06:23:20.822463 12232 net.cpp:150] Setting up group0_block0_conv0
I1102 06:23:20.822507 12232 net.cpp:157] Top shape: 100 16 32 32 (1638400)
I1102 06:23:20.822521 12232 net.cpp:165] Memory required for data: 47105200
I1102 06:23:20.822553 12232 layer_factory.hpp:77] Creating layer group0_block0_conv0_bn
I1102 06:23:20.822587 12232 net.cpp:100] Creating Layer group0_block0_conv0_bn
I1102 06:23:20.822602 12232 net.cpp:434] group0_block0_conv0_bn <- group0_block0_conv0
I1102 06:23:20.822621 12232 net.cpp:395] group0_block0_conv0_bn -> group0_block0_conv0 (in-place)
I1102 06:23:20.822672 12232 net.cpp:150] Setting up group0_block0_conv0_bn
I1102 06:23:20.822690 12232 net.cpp:157] Top shape: 100 16 32 32 (1638400)
I1102 06:23:20.822700 12232 net.cpp:165] Memory required for data: 53658800
I1102 06:23:20.822764 12232 layer_factory.hpp:77] Creating layer group0_block0_conv0_scale
I1102 06:23:20.822791 12232 net.cpp:100] Creating Layer group0_block0_conv0_scale
I1102 06:23:20.822805 12232 net.cpp:434] group0_block0_conv0_scale <- group0_block0_conv0
I1102 06:23:20.822820 12232 net.cpp:395] group0_block0_conv0_scale -> group0_block0_conv0 (in-place)
I1102 06:23:20.822847 12232 layer_factory.hpp:77] Creating layer group0_block0_conv0_scale
I1102 06:23:20.822901 12232 net.cpp:150] Setting up group0_block0_conv0_scale
I1102 06:23:20.822918 12232 net.cpp:157] Top shape: 100 16 32 32 (1638400)
I1102 06:23:20.822928 12232 net.cpp:165] Memory required for data: 60212400
I1102 06:23:20.822942 12232 layer_factory.hpp:77] Creating layer group0_block0_conv0_relu
I1102 06:23:20.822958 12232 net.cpp:100] Creating Layer group0_block0_conv0_relu
I1102 06:23:20.822973 12232 net.cpp:434] group0_block0_conv0_relu <- group0_block0_conv0
I1102 06:23:20.822985 12232 net.cpp:395] group0_block0_conv0_relu -> group0_block0_conv0 (in-place)
I1102 06:23:20.823000 12232 net.cpp:150] Setting up group0_block0_conv0_relu
I1102 06:23:20.823016 12232 net.cpp:157] Top shape: 100 16 32 32 (1638400)
I1102 06:23:20.823025 12232 net.cpp:165] Memory required for data: 66766000
I1102 06:23:20.823035 12232 layer_factory.hpp:77] Creating layer group0_block0_conv1
I1102 06:23:20.823058 12232 net.cpp:100] Creating Layer group0_block0_conv1
I1102 06:23:20.823072 12232 net.cpp:434] group0_block0_conv1 <- group0_block0_conv0
I1102 06:23:20.823088 12232 net.cpp:408] group0_block0_conv1 -> group0_block0_conv1
I1102 06:23:20.823206 12232 net.cpp:150] Setting up group0_block0_conv1
I1102 06:23:20.823225 12232 net.cpp:157] Top shape: 100 16 32 32 (1638400)
I1102 06:23:20.823235 12232 net.cpp:165] Memory required for data: 73319600
I1102 06:23:20.823249 12232 layer_factory.hpp:77] Creating layer group0_block0_conv1_bn
I1102 06:23:20.823268 12232 net.cpp:100] Creating Layer group0_block0_conv1_bn
I1102 06:23:20.823279 12232 net.cpp:434] group0_block0_conv1_bn <- group0_block0_conv1
I1102 06:23:20.823297 12232 net.cpp:395] group0_block0_conv1_bn -> group0_block0_conv1 (in-place)
I1102 06:23:20.823381 12232 net.cpp:150] Setting up group0_block0_conv1_bn
I1102 06:23:20.823459 12232 net.cpp:157] Top shape: 100 16 32 32 (1638400)
I1102 06:23:20.823473 12232 net.cpp:165] Memory required for data: 79873200
I1102 06:23:20.823496 12232 layer_factory.hpp:77] Creating layer group0_block0_conv1_scale
I1102 06:23:20.823511 12232 net.cpp:100] Creating Layer group0_block0_conv1_scale
I1102 06:23:20.823521 12232 net.cpp:434] group0_block0_conv1_scale <- group0_block0_conv1
I1102 06:23:20.823539 12232 net.cpp:395] group0_block0_conv1_scale -> group0_block0_conv1 (in-place)
I1102 06:23:20.823560 12232 layer_factory.hpp:77] Creating layer group0_block0_conv1_scale
I1102 06:23:20.823601 12232 net.cpp:150] Setting up group0_block0_conv1_scale
I1102 06:23:20.823614 12232 net.cpp:157] Top shape: 100 16 32 32 (1638400)
I1102 06:23:20.823623 12232 net.cpp:165] Memory required for data: 86426800
I1102 06:23:20.823637 12232 layer_factory.hpp:77] Creating layer group0_block0_sum
I1102 06:23:20.823657 12232 net.cpp:100] Creating Layer group0_block0_sum
I1102 06:23:20.823668 12232 net.cpp:434] group0_block0_sum <- group0_block0_conv1
I1102 06:23:20.823679 12232 net.cpp:434] group0_block0_sum <- first_conv_first_conv_relu_0_split_1
I1102 06:23:20.823694 12232 net.cpp:408] group0_block0_sum -> group0_block0_sum
I1102 06:23:20.823716 12232 net.cpp:150] Setting up group0_block0_sum
I1102 06:23:20.823729 12232 net.cpp:157] Top shape: 100 16 32 32 (1638400)
I1102 06:23:20.823739 12232 net.cpp:165] Memory required for data: 92980400
I1102 06:23:20.823747 12232 layer_factory.hpp:77] Creating layer group0_block0_sum_group0_block0_sum_0_split
I1102 06:23:20.823760 12232 net.cpp:100] Creating Layer group0_block0_sum_group0_block0_sum_0_split
I1102 06:23:20.823770 12232 net.cpp:434] group0_block0_sum_group0_block0_sum_0_split <- group0_block0_sum
I1102 06:23:20.823914 12232 net.cpp:408] group0_block0_sum_group0_block0_sum_0_split -> group0_block0_sum_group0_block0_sum_0_split_0
I1102 06:23:20.823952 12232 net.cpp:408] group0_block0_sum_group0_block0_sum_0_split -> group0_block0_sum_group0_block0_sum_0_split_1
I1102 06:23:20.823971 12232 net.cpp:150] Setting up group0_block0_sum_group0_block0_sum_0_split
I1102 06:23:20.823984 12232 net.cpp:157] Top shape: 100 16 32 32 (1638400)
I1102 06:23:20.823997 12232 net.cpp:157] Top shape: 100 16 32 32 (1638400)
I1102 06:23:20.824004 12232 net.cpp:165] Memory required for data: 106087600
I1102 06:23:20.824013 12232 layer_factory.hpp:77] Creating layer group0_block1_conv0
I1102 06:23:20.824290 12232 net.cpp:100] Creating Layer group0_block1_conv0
I1102 06:23:20.824307 12232 net.cpp:434] group0_block1_conv0 <- group0_block0_sum_group0_block0_sum_0_split_0
I1102 06:23:20.824326 12232 net.cpp:408] group0_block1_conv0 -> group0_block1_conv0
I1102 06:23:20.824717 12232 net.cpp:150] Setting up group0_block1_conv0
I1102 06:23:20.824736 12232 net.cpp:157] Top shape: 100 16 32 32 (1638400)
I1102 06:23:20.824745 12232 net.cpp:165] Memory required for data: 112641200
I1102 06:23:20.825053 12232 layer_factory.hpp:77] Creating layer group0_block1_conv0_bn
I1102 06:23:20.825072 12232 net.cpp:100] Creating Layer group0_block1_conv0_bn
I1102 06:23:20.825081 12232 net.cpp:434] group0_block1_conv0_bn <- group0_block1_conv0
I1102 06:23:20.825287 12232 net.cpp:395] group0_block1_conv0_bn -> group0_block1_conv0 (in-place)
I1102 06:23:20.825449 12232 net.cpp:150] Setting up group0_block1_conv0_bn
I1102 06:23:20.825469 12232 net.cpp:157] Top shape: 100 16 32 32 (1638400)
I1102 06:23:20.825477 12232 net.cpp:165] Memory required for data: 119194800
I1102 06:23:20.825495 12232 layer_factory.hpp:77] Creating layer group0_block1_conv0_scale
I1102 06:23:20.825515 12232 net.cpp:100] Creating Layer group0_block1_conv0_scale
I1102 06:23:20.825525 12232 net.cpp:434] group0_block1_conv0_scale <- group0_block1_conv0
I1102 06:23:20.825541 12232 net.cpp:395] group0_block1_conv0_scale -> group0_block1_conv0 (in-place)
I1102 06:23:20.825564 12232 layer_factory.hpp:77] Creating layer group0_block1_conv0_scale
I1102 06:23:20.826539 12232 net.cpp:150] Setting up group0_block1_conv0_scale
I1102 06:23:20.826558 12232 net.cpp:157] Top shape: 100 16 32 32 (1638400)
I1102 06:23:20.826568 12232 net.cpp:165] Memory required for data: 125748400
I1102 06:23:20.826583 12232 layer_factory.hpp:77] Creating layer group0_block1_conv0_relu
I1102 06:23:20.826597 12232 net.cpp:100] Creating Layer group0_block1_conv0_relu
I1102 06:23:20.826612 12232 net.cpp:434] group0_block1_conv0_relu <- group0_block1_conv0
I1102 06:23:20.826627 12232 net.cpp:395] group0_block1_conv0_relu -> group0_block1_conv0 (in-place)
I1102 06:23:20.826642 12232 net.cpp:150] Setting up group0_block1_conv0_relu
I1102 06:23:20.826655 12232 net.cpp:157] Top shape: 100 16 32 32 (1638400)
I1102 06:23:20.826666 12232 net.cpp:165] Memory required for data: 132302000
I1102 06:23:20.826675 12232 layer_factory.hpp:77] Creating layer group0_block1_conv1
I1102 06:23:20.826696 12232 net.cpp:100] Creating Layer group0_block1_conv1
I1102 06:23:20.826707 12232 net.cpp:434] group0_block1_conv1 <- group0_block1_conv0
I1102 06:23:20.826722 12232 net.cpp:408] group0_block1_conv1 -> group0_block1_conv1
I1102 06:23:20.826814 12232 net.cpp:150] Setting up group0_block1_conv1
I1102 06:23:20.826840 12232 net.cpp:157] Top shape: 100 16 32 32 (1638400)
I1102 06:23:20.826849 12232 net.cpp:165] Memory required for data: 138855600
I1102 06:23:20.826864 12232 layer_factory.hpp:77] Creating layer group0_block1_conv1_bn
I1102 06:23:20.826876 12232 net.cpp:100] Creating Layer group0_block1_conv1_bn
I1102 06:23:20.826886 12232 net.cpp:434] group0_block1_conv1_bn <- group0_block1_conv1
I1102 06:23:20.826907 12232 net.cpp:395] group0_block1_conv1_bn -> group0_block1_conv1 (in-place)
I1102 06:23:20.826941 12232 net.cpp:150] Setting up group0_block1_conv1_bn
I1102 06:23:20.826957 12232 net.cpp:157] Top shape: 100 16 32 32 (1638400)
I1102 06:23:20.826967 12232 net.cpp:165] Memory required for data: 145409200
I1102 06:23:20.827015 12232 layer_factory.hpp:77] Creating layer group0_block1_conv1_scale
I1102 06:23:20.827031 12232 net.cpp:100] Creating Layer group0_block1_conv1_scale
I1102 06:23:20.827040 12232 net.cpp:434] group0_block1_conv1_scale <- group0_block1_conv1
I1102 06:23:20.827061 12232 net.cpp:395] group0_block1_conv1_scale -> group0_block1_conv1 (in-place)
I1102 06:23:20.827090 12232 layer_factory.hpp:77] Creating layer group0_block1_conv1_scale
I1102 06:23:20.827134 12232 net.cpp:150] Setting up group0_block1_conv1_scale
I1102 06:23:20.827148 12232 net.cpp:157] Top shape: 100 16 32 32 (1638400)
I1102 06:23:20.827157 12232 net.cpp:165] Memory required for data: 151962800
I1102 06:23:20.827172 12232 layer_factory.hpp:77] Creating layer group0_block1_sum
I1102 06:23:20.827184 12232 net.cpp:100] Creating Layer group0_block1_sum
I1102 06:23:20.827194 12232 net.cpp:434] group0_block1_sum <- group0_block1_conv1
I1102 06:23:20.827204 12232 net.cpp:434] group0_block1_sum <- group0_block0_sum_group0_block0_sum_0_split_1
I1102 06:23:20.827219 12232 net.cpp:408] group0_block1_sum -> group0_block1_sum
I1102 06:23:20.827236 12232 net.cpp:150] Setting up group0_block1_sum
I1102 06:23:20.827250 12232 net.cpp:157] Top shape: 100 16 32 32 (1638400)
I1102 06:23:20.827258 12232 net.cpp:165] Memory required for data: 158516400
I1102 06:23:20.827267 12232 layer_factory.hpp:77] Creating layer group0_block1_sum_group0_block1_sum_0_split
I1102 06:23:20.827280 12232 net.cpp:100] Creating Layer group0_block1_sum_group0_block1_sum_0_split
I1102 06:23:20.827288 12232 net.cpp:434] group0_block1_sum_group0_block1_sum_0_split <- group0_block1_sum
I1102 06:23:20.827306 12232 net.cpp:408] group0_block1_sum_group0_block1_sum_0_split -> group0_block1_sum_group0_block1_sum_0_split_0
I1102 06:23:20.827323 12232 net.cpp:408] group0_block1_sum_group0_block1_sum_0_split -> group0_block1_sum_group0_block1_sum_0_split_1
I1102 06:23:20.827345 12232 net.cpp:150] Setting up group0_block1_sum_group0_block1_sum_0_split
I1102 06:23:20.827358 12232 net.cpp:157] Top shape: 100 16 32 32 (1638400)
I1102 06:23:20.827370 12232 net.cpp:157] Top shape: 100 16 32 32 (1638400)
I1102 06:23:20.827379 12232 net.cpp:165] Memory required for data: 171623600
I1102 06:23:20.827389 12232 layer_factory.hpp:77] Creating layer group0_block2_conv0
I1102 06:23:20.827409 12232 net.cpp:100] Creating Layer group0_block2_conv0
I1102 06:23:20.827419 12232 net.cpp:434] group0_block2_conv0 <- group0_block1_sum_group0_block1_sum_0_split_0
I1102 06:23:20.827433 12232 net.cpp:408] group0_block2_conv0 -> group0_block2_conv0
I1102 06:23:20.827520 12232 net.cpp:150] Setting up group0_block2_conv0
I1102 06:23:20.827535 12232 net.cpp:157] Top shape: 100 16 32 32 (1638400)
I1102 06:23:20.827544 12232 net.cpp:165] Memory required for data: 178177200
I1102 06:23:20.827558 12232 layer_factory.hpp:77] Creating layer group0_block2_conv0_bn
I1102 06:23:20.827571 12232 net.cpp:100] Creating Layer group0_block2_conv0_bn
I1102 06:23:20.827581 12232 net.cpp:434] group0_block2_conv0_bn <- group0_block2_conv0
I1102 06:23:20.827599 12232 net.cpp:395] group0_block2_conv0_bn -> group0_block2_conv0 (in-place)
I1102 06:23:20.827631 12232 net.cpp:150] Setting up group0_block2_conv0_bn
I1102 06:23:20.827644 12232 net.cpp:157] Top shape: 100 16 32 32 (1638400)
I1102 06:23:20.827654 12232 net.cpp:165] Memory required for data: 184730800
I1102 06:23:20.827672 12232 layer_factory.hpp:77] Creating layer group0_block2_conv0_scale
I1102 06:23:20.827684 12232 net.cpp:100] Creating Layer group0_block2_conv0_scale
I1102 06:23:20.827694 12232 net.cpp:434] group0_block2_conv0_scale <- group0_block2_conv0
I1102 06:23:20.827707 12232 net.cpp:395] group0_block2_conv0_scale -> group0_block2_conv0 (in-place)
I1102 06:23:20.827726 12232 layer_factory.hpp:77] Creating layer group0_block2_conv0_scale
I1102 06:23:20.827769 12232 net.cpp:150] Setting up group0_block2_conv0_scale
I1102 06:23:20.827782 12232 net.cpp:157] Top shape: 100 16 32 32 (1638400)
I1102 06:23:20.827790 12232 net.cpp:165] Memory required for data: 191284400
I1102 06:23:20.827824 12232 layer_factory.hpp:77] Creating layer group0_block2_conv0_relu
I1102 06:23:20.827838 12232 net.cpp:100] Creating Layer group0_block2_conv0_relu
I1102 06:23:20.827847 12232 net.cpp:434] group0_block2_conv0_relu <- group0_block2_conv0
I1102 06:23:20.827864 12232 net.cpp:395] group0_block2_conv0_relu -> group0_block2_conv0 (in-place)
I1102 06:23:20.827879 12232 net.cpp:150] Setting up group0_block2_conv0_relu
I1102 06:23:20.827893 12232 net.cpp:157] Top shape: 100 16 32 32 (1638400)
I1102 06:23:20.827901 12232 net.cpp:165] Memory required for data: 197838000
I1102 06:23:20.827910 12232 layer_factory.hpp:77] Creating layer group0_block2_conv1
I1102 06:23:20.827926 12232 net.cpp:100] Creating Layer group0_block2_conv1
I1102 06:23:20.827937 12232 net.cpp:434] group0_block2_conv1 <- group0_block2_conv0
I1102 06:23:20.827955 12232 net.cpp:408] group0_block2_conv1 -> group0_block2_conv1
I1102 06:23:20.828050 12232 net.cpp:150] Setting up group0_block2_conv1
I1102 06:23:20.828065 12232 net.cpp:157] Top shape: 100 16 32 32 (1638400)
I1102 06:23:20.828073 12232 net.cpp:165] Memory required for data: 204391600
I1102 06:23:20.828088 12232 layer_factory.hpp:77] Creating layer group0_block2_conv1_bn
I1102 06:23:20.828112 12232 net.cpp:100] Creating Layer group0_block2_conv1_bn
I1102 06:23:20.828124 12232 net.cpp:434] group0_block2_conv1_bn <- group0_block2_conv1
I1102 06:23:20.828137 12232 net.cpp:395] group0_block2_conv1_bn -> group0_block2_conv1 (in-place)
I1102 06:23:20.828171 12232 net.cpp:150] Setting up group0_block2_conv1_bn
I1102 06:23:20.828186 12232 net.cpp:157] Top shape: 100 16 32 32 (1638400)
I1102 06:23:20.828194 12232 net.cpp:165] Memory required for data: 210945200
I1102 06:23:20.828212 12232 layer_factory.hpp:77] Creating layer group0_block2_conv1_scale
I1102 06:23:20.828225 12232 net.cpp:100] Creating Layer group0_block2_conv1_scale
I1102 06:23:20.828234 12232 net.cpp:434] group0_block2_conv1_scale <- group0_block2_conv1
I1102 06:23:20.828258 12232 net.cpp:395] group0_block2_conv1_scale -> group0_block2_conv1 (in-place)
I1102 06:23:20.828279 12232 layer_factory.hpp:77] Creating layer group0_block2_conv1_scale
I1102 06:23:20.828411 12232 net.cpp:150] Setting up group0_block2_conv1_scale
I1102 06:23:20.828438 12232 net.cpp:157] Top shape: 100 16 32 32 (1638400)
I1102 06:23:20.828445 12232 net.cpp:165] Memory required for data: 217498800
I1102 06:23:20.828460 12232 layer_factory.hpp:77] Creating layer group0_block2_sum
I1102 06:23:20.828516 12232 net.cpp:100] Creating Layer group0_block2_sum
I1102 06:23:20.828526 12232 net.cpp:434] group0_block2_sum <- group0_block2_conv1
I1102 06:23:20.828537 12232 net.cpp:434] group0_block2_sum <- group0_block1_sum_group0_block1_sum_0_split_1
I1102 06:23:20.828550 12232 net.cpp:408] group0_block2_sum -> group0_block2_sum
I1102 06:23:20.828567 12232 net.cpp:150] Setting up group0_block2_sum
I1102 06:23:20.828577 12232 net.cpp:157] Top shape: 100 16 32 32 (1638400)
I1102 06:23:20.828584 12232 net.cpp:165] Memory required for data: 224052400
I1102 06:23:20.828591 12232 layer_factory.hpp:77] Creating layer group0_block2_sum_group0_block2_sum_0_split
I1102 06:23:20.828601 12232 net.cpp:100] Creating Layer group0_block2_sum_group0_block2_sum_0_split
I1102 06:23:20.828611 12232 net.cpp:434] group0_block2_sum_group0_block2_sum_0_split <- group0_block2_sum
I1102 06:23:20.828655 12232 net.cpp:408] group0_block2_sum_group0_block2_sum_0_split -> group0_block2_sum_group0_block2_sum_0_split_0
I1102 06:23:20.828671 12232 net.cpp:408] group0_block2_sum_group0_block2_sum_0_split -> group0_block2_sum_group0_block2_sum_0_split_1
I1102 06:23:20.828685 12232 net.cpp:150] Setting up group0_block2_sum_group0_block2_sum_0_split
I1102 06:23:20.828694 12232 net.cpp:157] Top shape: 100 16 32 32 (1638400)
I1102 06:23:20.828703 12232 net.cpp:157] Top shape: 100 16 32 32 (1638400)
I1102 06:23:20.828709 12232 net.cpp:165] Memory required for data: 237159600
I1102 06:23:20.828716 12232 layer_factory.hpp:77] Creating layer group1_block0_conv0
I1102 06:23:20.828730 12232 net.cpp:100] Creating Layer group1_block0_conv0
I1102 06:23:20.828766 12232 net.cpp:434] group1_block0_conv0 <- group0_block2_sum_group0_block2_sum_0_split_0
I1102 06:23:20.828783 12232 net.cpp:408] group1_block0_conv0 -> group1_block0_conv0
I1102 06:23:20.828904 12232 net.cpp:150] Setting up group1_block0_conv0
I1102 06:23:20.828915 12232 net.cpp:157] Top shape: 100 32 16 16 (819200)
I1102 06:23:20.828922 12232 net.cpp:165] Memory required for data: 240436400
I1102 06:23:20.828933 12232 layer_factory.hpp:77] Creating layer group1_block0_conv0_bn
I1102 06:23:20.828954 12232 net.cpp:100] Creating Layer group1_block0_conv0_bn
I1102 06:23:20.828963 12232 net.cpp:434] group1_block0_conv0_bn <- group1_block0_conv0
I1102 06:23:20.828972 12232 net.cpp:395] group1_block0_conv0_bn -> group1_block0_conv0 (in-place)
I1102 06:23:20.828996 12232 net.cpp:150] Setting up group1_block0_conv0_bn
I1102 06:23:20.829005 12232 net.cpp:157] Top shape: 100 32 16 16 (819200)
I1102 06:23:20.829012 12232 net.cpp:165] Memory required for data: 243713200
I1102 06:23:20.829025 12232 layer_factory.hpp:77] Creating layer group1_block0_conv0_scale
I1102 06:23:20.829038 12232 net.cpp:100] Creating Layer group1_block0_conv0_scale
I1102 06:23:20.829046 12232 net.cpp:434] group1_block0_conv0_scale <- group1_block0_conv0
I1102 06:23:20.829056 12232 net.cpp:395] group1_block0_conv0_scale -> group1_block0_conv0 (in-place)
I1102 06:23:20.829072 12232 layer_factory.hpp:77] Creating layer group1_block0_conv0_scale
I1102 06:23:20.829104 12232 net.cpp:150] Setting up group1_block0_conv0_scale
I1102 06:23:20.829114 12232 net.cpp:157] Top shape: 100 32 16 16 (819200)
I1102 06:23:20.829120 12232 net.cpp:165] Memory required for data: 246990000
I1102 06:23:20.829130 12232 layer_factory.hpp:77] Creating layer group1_block0_conv0_relu
I1102 06:23:20.829139 12232 net.cpp:100] Creating Layer group1_block0_conv0_relu
I1102 06:23:20.829145 12232 net.cpp:434] group1_block0_conv0_relu <- group1_block0_conv0
I1102 06:23:20.829157 12232 net.cpp:395] group1_block0_conv0_relu -> group1_block0_conv0 (in-place)
I1102 06:23:20.829169 12232 net.cpp:150] Setting up group1_block0_conv0_relu
I1102 06:23:20.829176 12232 net.cpp:157] Top shape: 100 32 16 16 (819200)
I1102 06:23:20.829183 12232 net.cpp:165] Memory required for data: 250266800
I1102 06:23:20.829190 12232 layer_factory.hpp:77] Creating layer group1_block0_conv1
I1102 06:23:20.829203 12232 net.cpp:100] Creating Layer group1_block0_conv1
I1102 06:23:20.829211 12232 net.cpp:434] group1_block0_conv1 <- group1_block0_conv0
I1102 06:23:20.829221 12232 net.cpp:408] group1_block0_conv1 -> group1_block0_conv1
I1102 06:23:20.829507 12232 net.cpp:150] Setting up group1_block0_conv1
I1102 06:23:20.829526 12232 net.cpp:157] Top shape: 100 32 16 16 (819200)
I1102 06:23:20.829533 12232 net.cpp:165] Memory required for data: 253543600
I1102 06:23:20.829543 12232 layer_factory.hpp:77] Creating layer group1_block0_conv1_bn
I1102 06:23:20.829607 12232 net.cpp:100] Creating Layer group1_block0_conv1_bn
I1102 06:23:20.829617 12232 net.cpp:434] group1_block0_conv1_bn <- group1_block0_conv1
I1102 06:23:20.829651 12232 net.cpp:395] group1_block0_conv1_bn -> group1_block0_conv1 (in-place)
I1102 06:23:20.829743 12232 net.cpp:150] Setting up group1_block0_conv1_bn
I1102 06:23:20.829756 12232 net.cpp:157] Top shape: 100 32 16 16 (819200)
I1102 06:23:20.829763 12232 net.cpp:165] Memory required for data: 256820400
I1102 06:23:20.829774 12232 layer_factory.hpp:77] Creating layer group1_block0_conv1_scale
I1102 06:23:20.829784 12232 net.cpp:100] Creating Layer group1_block0_conv1_scale
I1102 06:23:20.829794 12232 net.cpp:434] group1_block0_conv1_scale <- group1_block0_conv1
I1102 06:23:20.829829 12232 net.cpp:395] group1_block0_conv1_scale -> group1_block0_conv1 (in-place)
I1102 06:23:20.829865 12232 layer_factory.hpp:77] Creating layer group1_block0_conv1_scale
I1102 06:23:20.829970 12232 net.cpp:150] Setting up group1_block0_conv1_scale
I1102 06:23:20.829984 12232 net.cpp:157] Top shape: 100 32 16 16 (819200)
I1102 06:23:20.829990 12232 net.cpp:165] Memory required for data: 260097200
I1102 06:23:20.830021 12232 layer_factory.hpp:77] Creating layer group1_block0_proj
I1102 06:23:20.830065 12232 net.cpp:100] Creating Layer group1_block0_proj
I1102 06:23:20.830076 12232 net.cpp:434] group1_block0_proj <- group0_block2_sum_group0_block2_sum_0_split_1
I1102 06:23:20.830111 12232 net.cpp:408] group1_block0_proj -> group1_block0_proj
I1102 06:23:20.830214 12232 net.cpp:150] Setting up group1_block0_proj
I1102 06:23:20.830226 12232 net.cpp:157] Top shape: 100 32 16 16 (819200)
I1102 06:23:20.830234 12232 net.cpp:165] Memory required for data: 263374000
I1102 06:23:20.830318 12232 layer_factory.hpp:77] Creating layer group1_block0_proj_bn
I1102 06:23:20.830332 12232 net.cpp:100] Creating Layer group1_block0_proj_bn
I1102 06:23:20.830339 12232 net.cpp:434] group1_block0_proj_bn <- group1_block0_proj
I1102 06:23:20.830350 12232 net.cpp:395] group1_block0_proj_bn -> group1_block0_proj (in-place)
I1102 06:23:20.830402 12232 net.cpp:150] Setting up group1_block0_proj_bn
I1102 06:23:20.830415 12232 net.cpp:157] Top shape: 100 32 16 16 (819200)
I1102 06:23:20.830421 12232 net.cpp:165] Memory required for data: 266650800
I1102 06:23:20.830433 12232 layer_factory.hpp:77] Creating layer group1_block0_proj_scale
I1102 06:23:20.830446 12232 net.cpp:100] Creating Layer group1_block0_proj_scale
I1102 06:23:20.830452 12232 net.cpp:434] group1_block0_proj_scale <- group1_block0_proj
I1102 06:23:20.830500 12232 net.cpp:395] group1_block0_proj_scale -> group1_block0_proj (in-place)
I1102 06:23:20.830518 12232 layer_factory.hpp:77] Creating layer group1_block0_proj_scale
I1102 06:23:20.830584 12232 net.cpp:150] Setting up group1_block0_proj_scale
I1102 06:23:20.830595 12232 net.cpp:157] Top shape: 100 32 16 16 (819200)
I1102 06:23:20.830601 12232 net.cpp:165] Memory required for data: 269927600
I1102 06:23:20.830611 12232 layer_factory.hpp:77] Creating layer group1_block0_sum
I1102 06:23:20.830621 12232 net.cpp:100] Creating Layer group1_block0_sum
I1102 06:23:20.830627 12232 net.cpp:434] group1_block0_sum <- group1_block0_proj
I1102 06:23:20.830636 12232 net.cpp:434] group1_block0_sum <- group1_block0_conv1
I1102 06:23:20.830687 12232 net.cpp:408] group1_block0_sum -> group1_block0_sum
I1102 06:23:20.830703 12232 net.cpp:150] Setting up group1_block0_sum
I1102 06:23:20.830750 12232 net.cpp:157] Top shape: 100 32 16 16 (819200)
I1102 06:23:20.830760 12232 net.cpp:165] Memory required for data: 273204400
I1102 06:23:20.830767 12232 layer_factory.hpp:77] Creating layer group1_block0_sum_group1_block0_sum_0_split
I1102 06:23:20.830776 12232 net.cpp:100] Creating Layer group1_block0_sum_group1_block0_sum_0_split
I1102 06:23:20.830783 12232 net.cpp:434] group1_block0_sum_group1_block0_sum_0_split <- group1_block0_sum
I1102 06:23:20.830793 12232 net.cpp:408] group1_block0_sum_group1_block0_sum_0_split -> group1_block0_sum_group1_block0_sum_0_split_0
I1102 06:23:20.830806 12232 net.cpp:408] group1_block0_sum_group1_block0_sum_0_split -> group1_block0_sum_group1_block0_sum_0_split_1
I1102 06:23:20.830857 12232 net.cpp:150] Setting up group1_block0_sum_group1_block0_sum_0_split
I1102 06:23:20.830869 12232 net.cpp:157] Top shape: 100 32 16 16 (819200)
I1102 06:23:20.830878 12232 net.cpp:157] Top shape: 100 32 16 16 (819200)
I1102 06:23:20.830884 12232 net.cpp:165] Memory required for data: 279758000
I1102 06:23:20.830890 12232 layer_factory.hpp:77] Creating layer group1_block1_conv0
I1102 06:23:20.830902 12232 net.cpp:100] Creating Layer group1_block1_conv0
I1102 06:23:20.830912 12232 net.cpp:434] group1_block1_conv0 <- group1_block0_sum_group1_block0_sum_0_split_0
I1102 06:23:20.830924 12232 net.cpp:408] group1_block1_conv0 -> group1_block1_conv0
I1102 06:23:20.831151 12232 net.cpp:150] Setting up group1_block1_conv0
I1102 06:23:20.831164 12232 net.cpp:157] Top shape: 100 32 16 16 (819200)
I1102 06:23:20.831171 12232 net.cpp:165] Memory required for data: 283034800
I1102 06:23:20.831182 12232 layer_factory.hpp:77] Creating layer group1_block1_conv0_bn
I1102 06:23:20.831228 12232 net.cpp:100] Creating Layer group1_block1_conv0_bn
I1102 06:23:20.831254 12232 net.cpp:434] group1_block1_conv0_bn <- group1_block1_conv0
I1102 06:23:20.831310 12232 net.cpp:395] group1_block1_conv0_bn -> group1_block1_conv0 (in-place)
I1102 06:23:20.831365 12232 net.cpp:150] Setting up group1_block1_conv0_bn
I1102 06:23:20.831378 12232 net.cpp:157] Top shape: 100 32 16 16 (819200)
I1102 06:23:20.831385 12232 net.cpp:165] Memory required for data: 286311600
I1102 06:23:20.831398 12232 layer_factory.hpp:77] Creating layer group1_block1_conv0_scale
I1102 06:23:20.831408 12232 net.cpp:100] Creating Layer group1_block1_conv0_scale
I1102 06:23:20.831416 12232 net.cpp:434] group1_block1_conv0_scale <- group1_block1_conv0
I1102 06:23:20.831454 12232 net.cpp:395] group1_block1_conv0_scale -> group1_block1_conv0 (in-place)
I1102 06:23:20.831475 12232 layer_factory.hpp:77] Creating layer group1_block1_conv0_scale
I1102 06:23:20.831573 12232 net.cpp:150] Setting up group1_block1_conv0_scale
I1102 06:23:20.831585 12232 net.cpp:157] Top shape: 100 32 16 16 (819200)
I1102 06:23:20.831591 12232 net.cpp:165] Memory required for data: 289588400
I1102 06:23:20.831601 12232 layer_factory.hpp:77] Creating layer group1_block1_conv0_relu
I1102 06:23:20.831610 12232 net.cpp:100] Creating Layer group1_block1_conv0_relu
I1102 06:23:20.831617 12232 net.cpp:434] group1_block1_conv0_relu <- group1_block1_conv0
I1102 06:23:20.831661 12232 net.cpp:395] group1_block1_conv0_relu -> group1_block1_conv0 (in-place)
I1102 06:23:20.831676 12232 net.cpp:150] Setting up group1_block1_conv0_relu
I1102 06:23:20.831686 12232 net.cpp:157] Top shape: 100 32 16 16 (819200)
I1102 06:23:20.831691 12232 net.cpp:165] Memory required for data: 292865200
I1102 06:23:20.831698 12232 layer_factory.hpp:77] Creating layer group1_block1_conv1
I1102 06:23:20.831755 12232 net.cpp:100] Creating Layer group1_block1_conv1
I1102 06:23:20.831766 12232 net.cpp:434] group1_block1_conv1 <- group1_block1_conv0
I1102 06:23:20.831778 12232 net.cpp:408] group1_block1_conv1 -> group1_block1_conv1
I1102 06:23:20.832051 12232 net.cpp:150] Setting up group1_block1_conv1
I1102 06:23:20.832064 12232 net.cpp:157] Top shape: 100 32 16 16 (819200)
I1102 06:23:20.832072 12232 net.cpp:165] Memory required for data: 296142000
I1102 06:23:20.832082 12232 layer_factory.hpp:77] Creating layer group1_block1_conv1_bn
I1102 06:23:20.832124 12232 net.cpp:100] Creating Layer group1_block1_conv1_bn
I1102 06:23:20.832135 12232 net.cpp:434] group1_block1_conv1_bn <- group1_block1_conv1
I1102 06:23:20.832190 12232 net.cpp:395] group1_block1_conv1_bn -> group1_block1_conv1 (in-place)
I1102 06:23:20.832262 12232 net.cpp:150] Setting up group1_block1_conv1_bn
I1102 06:23:20.832275 12232 net.cpp:157] Top shape: 100 32 16 16 (819200)
I1102 06:23:20.832283 12232 net.cpp:165] Memory required for data: 299418800
I1102 06:23:20.832293 12232 layer_factory.hpp:77] Creating layer group1_block1_conv1_scale
I1102 06:23:20.832331 12232 net.cpp:100] Creating Layer group1_block1_conv1_scale
I1102 06:23:20.832342 12232 net.cpp:434] group1_block1_conv1_scale <- group1_block1_conv1
I1102 06:23:20.832351 12232 net.cpp:395] group1_block1_conv1_scale -> group1_block1_conv1 (in-place)
I1102 06:23:20.832366 12232 layer_factory.hpp:77] Creating layer group1_block1_conv1_scale
I1102 06:23:20.832470 12232 net.cpp:150] Setting up group1_block1_conv1_scale
I1102 06:23:20.832484 12232 net.cpp:157] Top shape: 100 32 16 16 (819200)
I1102 06:23:20.832489 12232 net.cpp:165] Memory required for data: 302695600
I1102 06:23:20.832500 12232 layer_factory.hpp:77] Creating layer group1_block1_sum
I1102 06:23:20.832509 12232 net.cpp:100] Creating Layer group1_block1_sum
I1102 06:23:20.832516 12232 net.cpp:434] group1_block1_sum <- group1_block1_conv1
I1102 06:23:20.832561 12232 net.cpp:434] group1_block1_sum <- group1_block0_sum_group1_block0_sum_0_split_1
I1102 06:23:20.832576 12232 net.cpp:408] group1_block1_sum -> group1_block1_sum
I1102 06:23:20.832588 12232 net.cpp:150] Setting up group1_block1_sum
I1102 06:23:20.832640 12232 net.cpp:157] Top shape: 100 32 16 16 (819200)
I1102 06:23:20.832664 12232 net.cpp:165] Memory required for data: 305972400
I1102 06:23:20.832672 12232 layer_factory.hpp:77] Creating layer group1_block1_sum_group1_block1_sum_0_split
I1102 06:23:20.832681 12232 net.cpp:100] Creating Layer group1_block1_sum_group1_block1_sum_0_split
I1102 06:23:20.832689 12232 net.cpp:434] group1_block1_sum_group1_block1_sum_0_split <- group1_block1_sum
I1102 06:23:20.832698 12232 net.cpp:408] group1_block1_sum_group1_block1_sum_0_split -> group1_block1_sum_group1_block1_sum_0_split_0
I1102 06:23:20.832710 12232 net.cpp:408] group1_block1_sum_group1_block1_sum_0_split -> group1_block1_sum_group1_block1_sum_0_split_1
I1102 06:23:20.832806 12232 net.cpp:150] Setting up group1_block1_sum_group1_block1_sum_0_split
I1102 06:23:20.832819 12232 net.cpp:157] Top shape: 100 32 16 16 (819200)
I1102 06:23:20.832828 12232 net.cpp:157] Top shape: 100 32 16 16 (819200)
I1102 06:23:20.832834 12232 net.cpp:165] Memory required for data: 312526000
I1102 06:23:20.832841 12232 layer_factory.hpp:77] Creating layer group1_block2_conv0
I1102 06:23:20.832893 12232 net.cpp:100] Creating Layer group1_block2_conv0
I1102 06:23:20.832904 12232 net.cpp:434] group1_block2_conv0 <- group1_block1_sum_group1_block1_sum_0_split_0
I1102 06:23:20.832916 12232 net.cpp:408] group1_block2_conv0 -> group1_block2_conv0
I1102 06:23:20.833133 12232 net.cpp:150] Setting up group1_block2_conv0
I1102 06:23:20.833158 12232 net.cpp:157] Top shape: 100 32 16 16 (819200)
I1102 06:23:20.833166 12232 net.cpp:165] Memory required for data: 315802800
I1102 06:23:20.833176 12232 layer_factory.hpp:77] Creating layer group1_block2_conv0_bn
I1102 06:23:20.833190 12232 net.cpp:100] Creating Layer group1_block2_conv0_bn
I1102 06:23:20.833199 12232 net.cpp:434] group1_block2_conv0_bn <- group1_block2_conv0
I1102 06:23:20.833209 12232 net.cpp:395] group1_block2_conv0_bn -> group1_block2_conv0 (in-place)
I1102 06:23:20.833238 12232 net.cpp:150] Setting up group1_block2_conv0_bn
I1102 06:23:20.833252 12232 net.cpp:157] Top shape: 100 32 16 16 (819200)
I1102 06:23:20.833259 12232 net.cpp:165] Memory required for data: 319079600
I1102 06:23:20.833272 12232 layer_factory.hpp:77] Creating layer group1_block2_conv0_scale
I1102 06:23:20.833283 12232 net.cpp:100] Creating Layer group1_block2_conv0_scale
I1102 06:23:20.833330 12232 net.cpp:434] group1_block2_conv0_scale <- group1_block2_conv0
I1102 06:23:20.833346 12232 net.cpp:395] group1_block2_conv0_scale -> group1_block2_conv0 (in-place)
I1102 06:23:20.833374 12232 layer_factory.hpp:77] Creating layer group1_block2_conv0_scale
I1102 06:23:20.833408 12232 net.cpp:150] Setting up group1_block2_conv0_scale
I1102 06:23:20.833421 12232 net.cpp:157] Top shape: 100 32 16 16 (819200)
I1102 06:23:20.833430 12232 net.cpp:165] Memory required for data: 322356400
I1102 06:23:20.833442 12232 layer_factory.hpp:77] Creating layer group1_block2_conv0_relu
I1102 06:23:20.833453 12232 net.cpp:100] Creating Layer group1_block2_conv0_relu
I1102 06:23:20.833463 12232 net.cpp:434] group1_block2_conv0_relu <- group1_block2_conv0
I1102 06:23:20.833483 12232 net.cpp:395] group1_block2_conv0_relu -> group1_block2_conv0 (in-place)
I1102 06:23:20.833495 12232 net.cpp:150] Setting up group1_block2_conv0_relu
I1102 06:23:20.833505 12232 net.cpp:157] Top shape: 100 32 16 16 (819200)
I1102 06:23:20.833513 12232 net.cpp:165] Memory required for data: 325633200
I1102 06:23:20.833519 12232 layer_factory.hpp:77] Creating layer group1_block2_conv1
I1102 06:23:20.833533 12232 net.cpp:100] Creating Layer group1_block2_conv1
I1102 06:23:20.833540 12232 net.cpp:434] group1_block2_conv1 <- group1_block2_conv0
I1102 06:23:20.833555 12232 net.cpp:408] group1_block2_conv1 -> group1_block2_conv1
I1102 06:23:20.833727 12232 net.cpp:150] Setting up group1_block2_conv1
I1102 06:23:20.833739 12232 net.cpp:157] Top shape: 100 32 16 16 (819200)
I1102 06:23:20.833745 12232 net.cpp:165] Memory required for data: 328910000
I1102 06:23:20.833756 12232 layer_factory.hpp:77] Creating layer group1_block2_conv1_bn
I1102 06:23:20.833770 12232 net.cpp:100] Creating Layer group1_block2_conv1_bn
I1102 06:23:20.833798 12232 net.cpp:434] group1_block2_conv1_bn <- group1_block2_conv1
I1102 06:23:20.833809 12232 net.cpp:395] group1_block2_conv1_bn -> group1_block2_conv1 (in-place)
I1102 06:23:20.833837 12232 net.cpp:150] Setting up group1_block2_conv1_bn
I1102 06:23:20.833850 12232 net.cpp:157] Top shape: 100 32 16 16 (819200)
I1102 06:23:20.833858 12232 net.cpp:165] Memory required for data: 332186800
I1102 06:23:20.833870 12232 layer_factory.hpp:77] Creating layer group1_block2_conv1_scale
I1102 06:23:20.833880 12232 net.cpp:100] Creating Layer group1_block2_conv1_scale
I1102 06:23:20.833889 12232 net.cpp:434] group1_block2_conv1_scale <- group1_block2_conv1
I1102 06:23:20.833901 12232 net.cpp:395] group1_block2_conv1_scale -> group1_block2_conv1 (in-place)
I1102 06:23:20.833916 12232 layer_factory.hpp:77] Creating layer group1_block2_conv1_scale
I1102 06:23:20.833945 12232 net.cpp:150] Setting up group1_block2_conv1_scale
I1102 06:23:20.833956 12232 net.cpp:157] Top shape: 100 32 16 16 (819200)
I1102 06:23:20.833963 12232 net.cpp:165] Memory required for data: 335463600
I1102 06:23:20.833973 12232 layer_factory.hpp:77] Creating layer group1_block2_sum
I1102 06:23:20.833983 12232 net.cpp:100] Creating Layer group1_block2_sum
I1102 06:23:20.833992 12232 net.cpp:434] group1_block2_sum <- group1_block2_conv1
I1102 06:23:20.834000 12232 net.cpp:434] group1_block2_sum <- group1_block1_sum_group1_block1_sum_0_split_1
I1102 06:23:20.834015 12232 net.cpp:408] group1_block2_sum -> group1_block2_sum
I1102 06:23:20.834028 12232 net.cpp:150] Setting up group1_block2_sum
I1102 06:23:20.834038 12232 net.cpp:157] Top shape: 100 32 16 16 (819200)
I1102 06:23:20.834044 12232 net.cpp:165] Memory required for data: 338740400
I1102 06:23:20.834051 12232 layer_factory.hpp:77] Creating layer group1_block2_sum_group1_block2_sum_0_split
I1102 06:23:20.834060 12232 net.cpp:100] Creating Layer group1_block2_sum_group1_block2_sum_0_split
I1102 06:23:20.834069 12232 net.cpp:434] group1_block2_sum_group1_block2_sum_0_split <- group1_block2_sum
I1102 06:23:20.834081 12232 net.cpp:408] group1_block2_sum_group1_block2_sum_0_split -> group1_block2_sum_group1_block2_sum_0_split_0
I1102 06:23:20.834095 12232 net.cpp:408] group1_block2_sum_group1_block2_sum_0_split -> group1_block2_sum_group1_block2_sum_0_split_1
I1102 06:23:20.834107 12232 net.cpp:150] Setting up group1_block2_sum_group1_block2_sum_0_split
I1102 06:23:20.834121 12232 net.cpp:157] Top shape: 100 32 16 16 (819200)
I1102 06:23:20.834131 12232 net.cpp:157] Top shape: 100 32 16 16 (819200)
I1102 06:23:20.834136 12232 net.cpp:165] Memory required for data: 345294000
I1102 06:23:20.834143 12232 layer_factory.hpp:77] Creating layer group2_block0_conv0
I1102 06:23:20.834177 12232 net.cpp:100] Creating Layer group2_block0_conv0
I1102 06:23:20.834184 12232 net.cpp:434] group2_block0_conv0 <- group1_block2_sum_group1_block2_sum_0_split_0
I1102 06:23:20.834195 12232 net.cpp:408] group2_block0_conv0 -> group2_block0_conv0
I1102 06:23:20.834518 12232 net.cpp:150] Setting up group2_block0_conv0
I1102 06:23:20.834528 12232 net.cpp:157] Top shape: 100 64 8 8 (409600)
I1102 06:23:20.834537 12232 net.cpp:165] Memory required for data: 346932400
I1102 06:23:20.834547 12232 layer_factory.hpp:77] Creating layer group2_block0_conv0_bn
I1102 06:23:20.834561 12232 net.cpp:100] Creating Layer group2_block0_conv0_bn
I1102 06:23:20.834574 12232 net.cpp:434] group2_block0_conv0_bn <- group2_block0_conv0
I1102 06:23:20.834589 12232 net.cpp:395] group2_block0_conv0_bn -> group2_block0_conv0 (in-place)
I1102 06:23:20.834612 12232 net.cpp:150] Setting up group2_block0_conv0_bn
I1102 06:23:20.834622 12232 net.cpp:157] Top shape: 100 64 8 8 (409600)
I1102 06:23:20.834628 12232 net.cpp:165] Memory required for data: 348570800
I1102 06:23:20.834640 12232 layer_factory.hpp:77] Creating layer group2_block0_conv0_scale
I1102 06:23:20.834650 12232 net.cpp:100] Creating Layer group2_block0_conv0_scale
I1102 06:23:20.834657 12232 net.cpp:434] group2_block0_conv0_scale <- group2_block0_conv0
I1102 06:23:20.834691 12232 net.cpp:395] group2_block0_conv0_scale -> group2_block0_conv0 (in-place)
I1102 06:23:20.834707 12232 layer_factory.hpp:77] Creating layer group2_block0_conv0_scale
I1102 06:23:20.834730 12232 net.cpp:150] Setting up group2_block0_conv0_scale
I1102 06:23:20.834740 12232 net.cpp:157] Top shape: 100 64 8 8 (409600)
I1102 06:23:20.834748 12232 net.cpp:165] Memory required for data: 350209200
I1102 06:23:20.834756 12232 layer_factory.hpp:77] Creating layer group2_block0_conv0_relu
I1102 06:23:20.834769 12232 net.cpp:100] Creating Layer group2_block0_conv0_relu
I1102 06:23:20.834776 12232 net.cpp:434] group2_block0_conv0_relu <- group2_block0_conv0
I1102 06:23:20.834785 12232 net.cpp:395] group2_block0_conv0_relu -> group2_block0_conv0 (in-place)
I1102 06:23:20.834795 12232 net.cpp:150] Setting up group2_block0_conv0_relu
I1102 06:23:20.834805 12232 net.cpp:157] Top shape: 100 64 8 8 (409600)
I1102 06:23:20.834810 12232 net.cpp:165] Memory required for data: 351847600
I1102 06:23:20.834816 12232 layer_factory.hpp:77] Creating layer group2_block0_conv1
I1102 06:23:20.834830 12232 net.cpp:100] Creating Layer group2_block0_conv1
I1102 06:23:20.834838 12232 net.cpp:434] group2_block0_conv1 <- group2_block0_conv0
I1102 06:23:20.834851 12232 net.cpp:408] group2_block0_conv1 -> group2_block0_conv1
I1102 06:23:20.835500 12232 net.cpp:150] Setting up group2_block0_conv1
I1102 06:23:20.835517 12232 net.cpp:157] Top shape: 100 64 8 8 (409600)
I1102 06:23:20.835525 12232 net.cpp:165] Memory required for data: 353486000
I1102 06:23:20.835535 12232 layer_factory.hpp:77] Creating layer group2_block0_conv1_bn
I1102 06:23:20.835544 12232 net.cpp:100] Creating Layer group2_block0_conv1_bn
I1102 06:23:20.835551 12232 net.cpp:434] group2_block0_conv1_bn <- group2_block0_conv1
I1102 06:23:20.835564 12232 net.cpp:395] group2_block0_conv1_bn -> group2_block0_conv1 (in-place)
I1102 06:23:20.835585 12232 net.cpp:150] Setting up group2_block0_conv1_bn
I1102 06:23:20.835595 12232 net.cpp:157] Top shape: 100 64 8 8 (409600)
I1102 06:23:20.835602 12232 net.cpp:165] Memory required for data: 355124400
I1102 06:23:20.835619 12232 layer_factory.hpp:77] Creating layer group2_block0_conv1_scale
I1102 06:23:20.835629 12232 net.cpp:100] Creating Layer group2_block0_conv1_scale
I1102 06:23:20.835636 12232 net.cpp:434] group2_block0_conv1_scale <- group2_block0_conv1
I1102 06:23:20.835645 12232 net.cpp:395] group2_block0_conv1_scale -> group2_block0_conv1 (in-place)
I1102 06:23:20.835659 12232 layer_factory.hpp:77] Creating layer group2_block0_conv1_scale
I1102 06:23:20.835685 12232 net.cpp:150] Setting up group2_block0_conv1_scale
I1102 06:23:20.835698 12232 net.cpp:157] Top shape: 100 64 8 8 (409600)
I1102 06:23:20.835705 12232 net.cpp:165] Memory required for data: 356762800
I1102 06:23:20.835714 12232 layer_factory.hpp:77] Creating layer group2_block0_proj
I1102 06:23:20.835731 12232 net.cpp:100] Creating Layer group2_block0_proj
I1102 06:23:20.835752 12232 net.cpp:434] group2_block0_proj <- group1_block2_sum_group1_block2_sum_0_split_1
I1102 06:23:20.835763 12232 net.cpp:408] group2_block0_proj -> group2_block0_proj
I1102 06:23:20.835913 12232 net.cpp:150] Setting up group2_block0_proj
I1102 06:23:20.835924 12232 net.cpp:157] Top shape: 100 64 8 8 (409600)
I1102 06:23:20.835935 12232 net.cpp:165] Memory required for data: 358401200
I1102 06:23:20.835947 12232 layer_factory.hpp:77] Creating layer group2_block0_proj_bn
I1102 06:23:20.835959 12232 net.cpp:100] Creating Layer group2_block0_proj_bn
I1102 06:23:20.835968 12232 net.cpp:434] group2_block0_proj_bn <- group2_block0_proj
I1102 06:23:20.835980 12232 net.cpp:395] group2_block0_proj_bn -> group2_block0_proj (in-place)
I1102 06:23:20.836005 12232 net.cpp:150] Setting up group2_block0_proj_bn
I1102 06:23:20.836015 12232 net.cpp:157] Top shape: 100 64 8 8 (409600)
I1102 06:23:20.836025 12232 net.cpp:165] Memory required for data: 360039600
I1102 06:23:20.836037 12232 layer_factory.hpp:77] Creating layer group2_block0_proj_scale
I1102 06:23:20.836050 12232 net.cpp:100] Creating Layer group2_block0_proj_scale
I1102 06:23:20.836074 12232 net.cpp:434] group2_block0_proj_scale <- group2_block0_proj
I1102 06:23:20.836086 12232 net.cpp:395] group2_block0_proj_scale -> group2_block0_proj (in-place)
I1102 06:23:20.836108 12232 layer_factory.hpp:77] Creating layer group2_block0_proj_scale
I1102 06:23:20.836138 12232 net.cpp:150] Setting up group2_block0_proj_scale
I1102 06:23:20.836148 12232 net.cpp:157] Top shape: 100 64 8 8 (409600)
I1102 06:23:20.836154 12232 net.cpp:165] Memory required for data: 361678000
I1102 06:23:20.836165 12232 layer_factory.hpp:77] Creating layer group2_block0_sum
I1102 06:23:20.836175 12232 net.cpp:100] Creating Layer group2_block0_sum
I1102 06:23:20.836182 12232 net.cpp:434] group2_block0_sum <- group2_block0_proj
I1102 06:23:20.836190 12232 net.cpp:434] group2_block0_sum <- group2_block0_conv1
I1102 06:23:20.836205 12232 net.cpp:408] group2_block0_sum -> group2_block0_sum
I1102 06:23:20.836218 12232 net.cpp:150] Setting up group2_block0_sum
I1102 06:23:20.836227 12232 net.cpp:157] Top shape: 100 64 8 8 (409600)
I1102 06:23:20.836233 12232 net.cpp:165] Memory required for data: 363316400
I1102 06:23:20.836241 12232 layer_factory.hpp:77] Creating layer group2_block0_sum_group2_block0_sum_0_split
I1102 06:23:20.836249 12232 net.cpp:100] Creating Layer group2_block0_sum_group2_block0_sum_0_split
I1102 06:23:20.836256 12232 net.cpp:434] group2_block0_sum_group2_block0_sum_0_split <- group2_block0_sum
I1102 06:23:20.836271 12232 net.cpp:408] group2_block0_sum_group2_block0_sum_0_split -> group2_block0_sum_group2_block0_sum_0_split_0
I1102 06:23:20.836283 12232 net.cpp:408] group2_block0_sum_group2_block0_sum_0_split -> group2_block0_sum_group2_block0_sum_0_split_1
I1102 06:23:20.836300 12232 net.cpp:150] Setting up group2_block0_sum_group2_block0_sum_0_split
I1102 06:23:20.836310 12232 net.cpp:157] Top shape: 100 64 8 8 (409600)
I1102 06:23:20.836319 12232 net.cpp:157] Top shape: 100 64 8 8 (409600)
I1102 06:23:20.836325 12232 net.cpp:165] Memory required for data: 366593200
I1102 06:23:20.836333 12232 layer_factory.hpp:77] Creating layer group2_block1_conv0
I1102 06:23:20.836344 12232 net.cpp:100] Creating Layer group2_block1_conv0
I1102 06:23:20.836352 12232 net.cpp:434] group2_block1_conv0 <- group2_block0_sum_group2_block0_sum_0_split_0
I1102 06:23:20.836366 12232 net.cpp:408] group2_block1_conv0 -> group2_block1_conv0
I1102 06:23:20.837019 12232 net.cpp:150] Setting up group2_block1_conv0
I1102 06:23:20.837067 12232 net.cpp:157] Top shape: 100 64 8 8 (409600)
I1102 06:23:20.837079 12232 net.cpp:165] Memory required for data: 368231600
I1102 06:23:20.837090 12232 layer_factory.hpp:77] Creating layer group2_block1_conv0_bn
I1102 06:23:20.837101 12232 net.cpp:100] Creating Layer group2_block1_conv0_bn
I1102 06:23:20.837110 12232 net.cpp:434] group2_block1_conv0_bn <- group2_block1_conv0
I1102 06:23:20.837119 12232 net.cpp:395] group2_block1_conv0_bn -> group2_block1_conv0 (in-place)
I1102 06:23:20.837141 12232 net.cpp:150] Setting up group2_block1_conv0_bn
I1102 06:23:20.837154 12232 net.cpp:157] Top shape: 100 64 8 8 (409600)
I1102 06:23:20.837162 12232 net.cpp:165] Memory required for data: 369870000
I1102 06:23:20.837172 12232 layer_factory.hpp:77] Creating layer group2_block1_conv0_scale
I1102 06:23:20.837185 12232 net.cpp:100] Creating Layer group2_block1_conv0_scale
I1102 06:23:20.837193 12232 net.cpp:434] group2_block1_conv0_scale <- group2_block1_conv0
I1102 06:23:20.837203 12232 net.cpp:395] group2_block1_conv0_scale -> group2_block1_conv0 (in-place)
I1102 06:23:20.837218 12232 layer_factory.hpp:77] Creating layer group2_block1_conv0_scale
I1102 06:23:20.837240 12232 net.cpp:150] Setting up group2_block1_conv0_scale
I1102 06:23:20.837250 12232 net.cpp:157] Top shape: 100 64 8 8 (409600)
I1102 06:23:20.837256 12232 net.cpp:165] Memory required for data: 371508400
I1102 06:23:20.837266 12232 layer_factory.hpp:77] Creating layer group2_block1_conv0_relu
I1102 06:23:20.837278 12232 net.cpp:100] Creating Layer group2_block1_conv0_relu
I1102 06:23:20.837285 12232 net.cpp:434] group2_block1_conv0_relu <- group2_block1_conv0
I1102 06:23:20.837345 12232 net.cpp:395] group2_block1_conv0_relu -> group2_block1_conv0 (in-place)
I1102 06:23:20.837358 12232 net.cpp:150] Setting up group2_block1_conv0_relu
I1102 06:23:20.837368 12232 net.cpp:157] Top shape: 100 64 8 8 (409600)
I1102 06:23:20.837375 12232 net.cpp:165] Memory required for data: 373146800
I1102 06:23:20.837383 12232 layer_factory.hpp:77] Creating layer group2_block1_conv1
I1102 06:23:20.837396 12232 net.cpp:100] Creating Layer group2_block1_conv1
I1102 06:23:20.837419 12232 net.cpp:434] group2_block1_conv1 <- group2_block1_conv0
I1102 06:23:20.837430 12232 net.cpp:408] group2_block1_conv1 -> group2_block1_conv1
I1102 06:23:20.838083 12232 net.cpp:150] Setting up group2_block1_conv1
I1102 06:23:20.838094 12232 net.cpp:157] Top shape: 100 64 8 8 (409600)
I1102 06:23:20.838101 12232 net.cpp:165] Memory required for data: 374785200
I1102 06:23:20.838111 12232 layer_factory.hpp:77] Creating layer group2_block1_conv1_bn
I1102 06:23:20.838124 12232 net.cpp:100] Creating Layer group2_block1_conv1_bn
I1102 06:23:20.838137 12232 net.cpp:434] group2_block1_conv1_bn <- group2_block1_conv1
I1102 06:23:20.838147 12232 net.cpp:395] group2_block1_conv1_bn -> group2_block1_conv1 (in-place)
I1102 06:23:20.838171 12232 net.cpp:150] Setting up group2_block1_conv1_bn
I1102 06:23:20.838181 12232 net.cpp:157] Top shape: 100 64 8 8 (409600)
I1102 06:23:20.838188 12232 net.cpp:165] Memory required for data: 376423600
I1102 06:23:20.838225 12232 layer_factory.hpp:77] Creating layer group2_block1_conv1_scale
I1102 06:23:20.838238 12232 net.cpp:100] Creating Layer group2_block1_conv1_scale
I1102 06:23:20.838245 12232 net.cpp:434] group2_block1_conv1_scale <- group2_block1_conv1
I1102 06:23:20.838254 12232 net.cpp:395] group2_block1_conv1_scale -> group2_block1_conv1 (in-place)
I1102 06:23:20.838271 12232 layer_factory.hpp:77] Creating layer group2_block1_conv1_scale
I1102 06:23:20.838292 12232 net.cpp:150] Setting up group2_block1_conv1_scale
I1102 06:23:20.838304 12232 net.cpp:157] Top shape: 100 64 8 8 (409600)
I1102 06:23:20.838310 12232 net.cpp:165] Memory required for data: 378062000
I1102 06:23:20.838320 12232 layer_factory.hpp:77] Creating layer group2_block1_sum
I1102 06:23:20.838330 12232 net.cpp:100] Creating Layer group2_block1_sum
I1102 06:23:20.838337 12232 net.cpp:434] group2_block1_sum <- group2_block1_conv1
I1102 06:23:20.838346 12232 net.cpp:434] group2_block1_sum <- group2_block0_sum_group2_block0_sum_0_split_1
I1102 06:23:20.838364 12232 net.cpp:408] group2_block1_sum -> group2_block1_sum
I1102 06:23:20.838378 12232 net.cpp:150] Setting up group2_block1_sum
I1102 06:23:20.838392 12232 net.cpp:157] Top shape: 100 64 8 8 (409600)
I1102 06:23:20.838398 12232 net.cpp:165] Memory required for data: 379700400
I1102 06:23:20.838405 12232 layer_factory.hpp:77] Creating layer group2_block1_sum_group2_block1_sum_0_split
I1102 06:23:20.838414 12232 net.cpp:100] Creating Layer group2_block1_sum_group2_block1_sum_0_split
I1102 06:23:20.838421 12232 net.cpp:434] group2_block1_sum_group2_block1_sum_0_split <- group2_block1_sum
I1102 06:23:20.838431 12232 net.cpp:408] group2_block1_sum_group2_block1_sum_0_split -> group2_block1_sum_group2_block1_sum_0_split_0
I1102 06:23:20.838443 12232 net.cpp:408] group2_block1_sum_group2_block1_sum_0_split -> group2_block1_sum_group2_block1_sum_0_split_1
I1102 06:23:20.838459 12232 net.cpp:150] Setting up group2_block1_sum_group2_block1_sum_0_split
I1102 06:23:20.838469 12232 net.cpp:157] Top shape: 100 64 8 8 (409600)
I1102 06:23:20.838477 12232 net.cpp:157] Top shape: 100 64 8 8 (409600)
I1102 06:23:20.838485 12232 net.cpp:165] Memory required for data: 382977200
I1102 06:23:20.838491 12232 layer_factory.hpp:77] Creating layer group2_block2_conv0
I1102 06:23:20.838503 12232 net.cpp:100] Creating Layer group2_block2_conv0
I1102 06:23:20.838510 12232 net.cpp:434] group2_block2_conv0 <- group2_block1_sum_group2_block1_sum_0_split_0
I1102 06:23:20.838521 12232 net.cpp:408] group2_block2_conv0 -> group2_block2_conv0
I1102 06:23:20.839148 12232 net.cpp:150] Setting up group2_block2_conv0
I1102 06:23:20.839175 12232 net.cpp:157] Top shape: 100 64 8 8 (409600)
I1102 06:23:20.839182 12232 net.cpp:165] Memory required for data: 384615600
I1102 06:23:20.839192 12232 layer_factory.hpp:77] Creating layer group2_block2_conv0_bn
I1102 06:23:20.839205 12232 net.cpp:100] Creating Layer group2_block2_conv0_bn
I1102 06:23:20.839212 12232 net.cpp:434] group2_block2_conv0_bn <- group2_block2_conv0
I1102 06:23:20.839221 12232 net.cpp:395] group2_block2_conv0_bn -> group2_block2_conv0 (in-place)
I1102 06:23:20.839246 12232 net.cpp:150] Setting up group2_block2_conv0_bn
I1102 06:23:20.839259 12232 net.cpp:157] Top shape: 100 64 8 8 (409600)
I1102 06:23:20.839267 12232 net.cpp:165] Memory required for data: 386254000
I1102 06:23:20.839277 12232 layer_factory.hpp:77] Creating layer group2_block2_conv0_scale
I1102 06:23:20.839287 12232 net.cpp:100] Creating Layer group2_block2_conv0_scale
I1102 06:23:20.839293 12232 net.cpp:434] group2_block2_conv0_scale <- group2_block2_conv0
I1102 06:23:20.839304 12232 net.cpp:395] group2_block2_conv0_scale -> group2_block2_conv0 (in-place)
I1102 06:23:20.839319 12232 layer_factory.hpp:77] Creating layer group2_block2_conv0_scale
I1102 06:23:20.839339 12232 net.cpp:150] Setting up group2_block2_conv0_scale
I1102 06:23:20.839349 12232 net.cpp:157] Top shape: 100 64 8 8 (409600)
I1102 06:23:20.839355 12232 net.cpp:165] Memory required for data: 387892400
I1102 06:23:20.839365 12232 layer_factory.hpp:77] Creating layer group2_block2_conv0_relu
I1102 06:23:20.839375 12232 net.cpp:100] Creating Layer group2_block2_conv0_relu
I1102 06:23:20.839380 12232 net.cpp:434] group2_block2_conv0_relu <- group2_block2_conv0
I1102 06:23:20.839390 12232 net.cpp:395] group2_block2_conv0_relu -> group2_block2_conv0 (in-place)
I1102 06:23:20.839398 12232 net.cpp:150] Setting up group2_block2_conv0_relu
I1102 06:23:20.839407 12232 net.cpp:157] Top shape: 100 64 8 8 (409600)
I1102 06:23:20.839413 12232 net.cpp:165] Memory required for data: 389530800
I1102 06:23:20.839419 12232 layer_factory.hpp:77] Creating layer group2_block2_conv1
I1102 06:23:20.839433 12232 net.cpp:100] Creating Layer group2_block2_conv1
I1102 06:23:20.839440 12232 net.cpp:434] group2_block2_conv1 <- group2_block2_conv0
I1102 06:23:20.839450 12232 net.cpp:408] group2_block2_conv1 -> group2_block2_conv1
I1102 06:23:20.840064 12232 net.cpp:150] Setting up group2_block2_conv1
I1102 06:23:20.840073 12232 net.cpp:157] Top shape: 100 64 8 8 (409600)
I1102 06:23:20.840080 12232 net.cpp:165] Memory required for data: 391169200
I1102 06:23:20.840090 12232 layer_factory.hpp:77] Creating layer group2_block2_conv1_bn
I1102 06:23:20.840100 12232 net.cpp:100] Creating Layer group2_block2_conv1_bn
I1102 06:23:20.840106 12232 net.cpp:434] group2_block2_conv1_bn <- group2_block2_conv1
I1102 06:23:20.840114 12232 net.cpp:395] group2_block2_conv1_bn -> group2_block2_conv1 (in-place)
I1102 06:23:20.840136 12232 net.cpp:150] Setting up group2_block2_conv1_bn
I1102 06:23:20.840147 12232 net.cpp:157] Top shape: 100 64 8 8 (409600)
I1102 06:23:20.840153 12232 net.cpp:165] Memory required for data: 392807600
I1102 06:23:20.840164 12232 layer_factory.hpp:77] Creating layer group2_block2_conv1_scale
I1102 06:23:20.840173 12232 net.cpp:100] Creating Layer group2_block2_conv1_scale
I1102 06:23:20.840180 12232 net.cpp:434] group2_block2_conv1_scale <- group2_block2_conv1
I1102 06:23:20.840189 12232 net.cpp:395] group2_block2_conv1_scale -> group2_block2_conv1 (in-place)
I1102 06:23:20.840204 12232 layer_factory.hpp:77] Creating layer group2_block2_conv1_scale
I1102 06:23:20.840224 12232 net.cpp:150] Setting up group2_block2_conv1_scale
I1102 06:23:20.840232 12232 net.cpp:157] Top shape: 100 64 8 8 (409600)
I1102 06:23:20.840239 12232 net.cpp:165] Memory required for data: 394446000
I1102 06:23:20.840248 12232 layer_factory.hpp:77] Creating layer group2_block2_sum
I1102 06:23:20.840257 12232 net.cpp:100] Creating Layer group2_block2_sum
I1102 06:23:20.840265 12232 net.cpp:434] group2_block2_sum <- group2_block2_conv1
I1102 06:23:20.840289 12232 net.cpp:434] group2_block2_sum <- group2_block1_sum_group2_block1_sum_0_split_1
I1102 06:23:20.840301 12232 net.cpp:408] group2_block2_sum -> group2_block2_sum
I1102 06:23:20.840312 12232 net.cpp:150] Setting up group2_block2_sum
I1102 06:23:20.840322 12232 net.cpp:157] Top shape: 100 64 8 8 (409600)
I1102 06:23:20.840327 12232 net.cpp:165] Memory required for data: 396084400
I1102 06:23:20.840335 12232 layer_factory.hpp:77] Creating layer global_avg_pool
I1102 06:23:20.840345 12232 net.cpp:100] Creating Layer global_avg_pool
I1102 06:23:20.840353 12232 net.cpp:434] global_avg_pool <- group2_block2_sum
I1102 06:23:20.840361 12232 net.cpp:408] global_avg_pool -> global_avg_pool
I1102 06:23:20.840394 12232 net.cpp:150] Setting up global_avg_pool
I1102 06:23:20.840402 12232 net.cpp:157] Top shape: 100 64 1 1 (6400)
I1102 06:23:20.840409 12232 net.cpp:165] Memory required for data: 396110000
I1102 06:23:20.840415 12232 layer_factory.hpp:77] Creating layer fc
I1102 06:23:20.840430 12232 net.cpp:100] Creating Layer fc
I1102 06:23:20.840443 12232 net.cpp:434] fc <- global_avg_pool
I1102 06:23:20.840454 12232 net.cpp:408] fc -> fc
I1102 06:23:20.840488 12232 net.cpp:150] Setting up fc
I1102 06:23:20.840497 12232 net.cpp:157] Top shape: 100 10 (1000)
I1102 06:23:20.840503 12232 net.cpp:165] Memory required for data: 396114000
I1102 06:23:20.840512 12232 layer_factory.hpp:77] Creating layer fc_fc_0_split
I1102 06:23:20.840522 12232 net.cpp:100] Creating Layer fc_fc_0_split
I1102 06:23:20.840528 12232 net.cpp:434] fc_fc_0_split <- fc
I1102 06:23:20.840536 12232 net.cpp:408] fc_fc_0_split -> fc_fc_0_split_0
I1102 06:23:20.840546 12232 net.cpp:408] fc_fc_0_split -> fc_fc_0_split_1
I1102 06:23:20.840558 12232 net.cpp:150] Setting up fc_fc_0_split
I1102 06:23:20.840565 12232 net.cpp:157] Top shape: 100 10 (1000)
I1102 06:23:20.840574 12232 net.cpp:157] Top shape: 100 10 (1000)
I1102 06:23:20.840579 12232 net.cpp:165] Memory required for data: 396122000
I1102 06:23:20.840584 12232 layer_factory.hpp:77] Creating layer loss
I1102 06:23:20.840596 12232 net.cpp:100] Creating Layer loss
I1102 06:23:20.840603 12232 net.cpp:434] loss <- fc_fc_0_split_0
I1102 06:23:20.840611 12232 net.cpp:434] loss <- label_data_1_split_0
I1102 06:23:20.840620 12232 net.cpp:408] loss -> loss
I1102 06:23:20.840634 12232 layer_factory.hpp:77] Creating layer loss
I1102 06:23:20.840662 12232 net.cpp:150] Setting up loss
I1102 06:23:20.840669 12232 net.cpp:157] Top shape: (1)
I1102 06:23:20.840675 12232 net.cpp:160]     with loss weight 1
I1102 06:23:20.840703 12232 net.cpp:165] Memory required for data: 396122004
I1102 06:23:20.840709 12232 layer_factory.hpp:77] Creating layer softmax
I1102 06:23:20.840718 12232 net.cpp:100] Creating Layer softmax
I1102 06:23:20.840723 12232 net.cpp:434] softmax <- fc_fc_0_split_1
I1102 06:23:20.840733 12232 net.cpp:408] softmax -> softmax
I1102 06:23:20.840744 12232 net.cpp:150] Setting up softmax
I1102 06:23:20.840752 12232 net.cpp:157] Top shape: 100 10 (1000)
I1102 06:23:20.840759 12232 net.cpp:165] Memory required for data: 396126004
I1102 06:23:20.840764 12232 layer_factory.hpp:77] Creating layer Accuracy
I1102 06:23:20.840772 12232 net.cpp:100] Creating Layer Accuracy
I1102 06:23:20.840780 12232 net.cpp:434] Accuracy <- softmax
I1102 06:23:20.840786 12232 net.cpp:434] Accuracy <- label_data_1_split_1
I1102 06:23:20.840798 12232 net.cpp:408] Accuracy -> Accuracy
…
