…
I1105 06:22:50.817376 13103 net.cpp:322] The NetState phase (0) differed from the phase (1) specified by a rule in layer data
I1105 06:22:50.818187 13103 net.cpp:58] Initializing net from parameters: 
name: "resnet20-cifar10"
state {
  phase: TRAIN
  level: 0
  stage: ""
}
layer {
  name: "data"
  type: "Data"
  top: "data"
  top: "label"
  include {
    phase: TRAIN
  }
  transform_param {
    mirror: true
    crop_size: 32
    mean_file: "data/mean.binaryproto"
  }
  data_param {
    source: "data2/test_lmdb"
    batch_size: 100
    backend: LMDB
  }
}
layer {
  name: "first_conv"
  type: "Convolution"
  bottom: "data"
  top: "first_conv"
  param {
    lr_mult: 1
    decay_mult: 1
  }
  convolution_param {
    num_output: 16
    pad: 1
    kernel_size: 3
    stride: 1
    weight_filler {
      type: "msra"
    }
  }
}
layer {
  name: "first_conv_bn"
  type: "BatchNorm"
  bottom: "first_conv"
  top: "first_conv"
  batch_norm_param {
    use_global_stats: false
    moving_average_fraction: 0.95
  }
}
layer {
  name: "first_conv_scale"
  type: "Scale"
  bottom: "first_conv"
  top: "first_conv"
  scale_param {
    bias_term: true
  }
}
layer {
  name: "first_conv_relu"
  type: "ReLU"
  bottom: "first_conv"
  top: "first_conv"
}
layer {
  name: "group0_block0_conv0"
  type: "Convolution"
  bottom: "first_conv"
  top: "group0_block0_conv0"
  param {
    lr_mult: 1
    decay_mult: 1
  }
  convolution_param {
    num_output: 16
    pad: 1
    kernel_size: 3
    stride: 1
    weight_filler {
      type: "msra"
    }
  }
}
layer {
  name: "group0_block0_conv0_bn"
  type: "BatchNorm"
  bottom: "group0_block0_conv0"
  top: "group0_block0_conv0"
  batch_norm_param {
    use_global_stats: false
    moving_average_fraction: 0.95
  }
}
layer {
  name: "group0_block0_conv0_scale"
  type: "Scale"
  bottom: "group0_block0_conv0"
  top: "group0_block0_conv0"
  scale_param {
    bias_term: true
  }
}
layer {
  name: "group0_block0_conv0_relu"
  type: "ReLU"
  bottom: "group0_block0_conv0"
  top: "group0_block0_conv0"
}
layer {
  name: "group0_block0_conv1"
  type: "Convolution"
  bottom: "group0_block0_conv0"
  top: "group0_block0_conv1"
  param {
    lr_mult: 1
    decay_mult: 1
  }
  convolution_param {
    num_output: 16
    pad: 1
    kernel_size: 3
    stride: 1
    weight_filler {
      type: "msra"
    }
  }
}
layer {
  name: "group0_block0_conv1_bn"
  type: "BatchNorm"
  bottom: "group0_block0_conv1"
  top: "group0_block0_conv1"
  batch_norm_param {
    use_global_stats: false
    moving_average_fraction: 0.95
  }
}
layer {
  name: "group0_block0_conv1_scale"
  type: "Scale"
  bottom: "group0_block0_conv1"
  top: "group0_block0_conv1"
  scale_param {
    bias_term: true
  }
}
layer {
  name: "group0_block0_sum"
  type: "Eltwise"
  bottom: "group0_block0_conv1"
  bottom: "first_conv"
  top: "group0_block0_sum"
  eltwise_param {
    operation: SUM
  }
}
layer {
  name: "group0_block1_conv0"
  type: "Convolution"
  bottom: "group0_block0_sum"
  top: "group0_block1_conv0"
  param {
    lr_mult: 1
    decay_mult: 1
  }
  convolution_param {
    num_output: 16
    pad: 1
    kernel_size: 3
    stride: 1
    weight_filler {
      type: "msra"
    }
  }
}
layer {
  name: "group0_block1_conv0_bn"
  type: "BatchNorm"
  bottom: "group0_block1_conv0"
  top: "group0_block1_conv0"
  batch_norm_param {
    use_global_stats: false
    moving_average_fraction: 0.95
  }
}
layer {
  name: "group0_block1_conv0_scale"
  type: "Scale"
  bottom: "group0_block1_conv0"
  top: "group0_block1_conv0"
  scale_param {
    bias_term: true
  }
}
layer {
  name: "group0_block1_conv0_relu"
  type: "ReLU"
  bottom: "group0_block1_conv0"
  top: "group0_block1_conv0"
}
layer {
  name: "group0_block1_conv1"
  type: "Convolution"
  bottom: "group0_block1_conv0"
  top: "group0_block1_conv1"
  param {
    lr_mult: 1
    decay_mult: 1
  }
  convolution_param {
    num_output: 16
    pad: 1
    kernel_size: 3
    stride: 1
    weight_filler {
      type: "msra"
    }
  }
}
layer {
  name: "group0_block1_conv1_bn"
  type: "BatchNorm"
  bottom: "group0_block1_conv1"
  top: "group0_block1_conv1"
  batch_norm_param {
    use_global_stats: false
    moving_average_fraction: 0.95
  }
}
layer {
  name: "group0_block1_conv1_scale"
  type: "Scale"
  bottom: "group0_block1_conv1"
  top: "group0_block1_conv1"
  scale_param {
    bias_term: true
  }
}
layer {
  name: "group0_block1_sum"
  type: "Eltwise"
  bottom: "group0_block1_conv1"
  bottom: "group0_block0_sum"
  top: "group0_block1_sum"
  eltwise_param {
    operation: SUM
  }
}
layer {
  name: "group0_block2_conv0"
  type: "Convolution"
  bottom: "group0_block1_sum"
  top: "group0_block2_conv0"
  param {
    lr_mult: 1
    decay_mult: 1
  }
  convolution_param {
    num_output: 16
    pad: 1
    kernel_size: 3
    stride: 1
    weight_filler {
      type: "msra"
    }
  }
}
layer {
  name: "group0_block2_conv0_bn"
  type: "BatchNorm"
  bottom: "group0_block2_conv0"
  top: "group0_block2_conv0"
  batch_norm_param {
    use_global_stats: false
    moving_average_fraction: 0.95
  }
}
layer {
  name: "group0_block2_conv0_scale"
  type: "Scale"
  bottom: "group0_block2_conv0"
  top: "group0_block2_conv0"
  scale_param {
    bias_term: true
  }
}
layer {
  name: "group0_block2_conv0_relu"
  type: "ReLU"
  bottom: "group0_block2_conv0"
  top: "group0_block2_conv0"
}
layer {
  name: "group0_block2_conv1"
  type: "Convolution"
  bottom: "group0_block2_conv0"
  top: "group0_block2_conv1"
  param {
    lr_mult: 1
    decay_mult: 1
  }
  convolution_param {
    num_output: 16
    pad: 1
    kernel_size: 3
    stride: 1
    weight_filler {
      type: "msra"
    }
  }
}
layer {
  name: "group0_block2_conv1_bn"
  type: "BatchNorm"
  bottom: "group0_block2_conv1"
  top: "group0_block2_conv1"
  batch_norm_param {
    use_global_stats: false
    moving_average_fraction: 0.95
  }
}
layer {
  name: "group0_block2_conv1_scale"
  type: "Scale"
  bottom: "group0_block2_conv1"
  top: "group0_block2_conv1"
  scale_param {
    bias_term: true
  }
}
layer {
  name: "group0_block2_sum"
  type: "Eltwise"
  bottom: "group0_block2_conv1"
  bottom: "group0_block1_sum"
  top: "group0_block2_sum"
  eltwise_param {
    operation: SUM
  }
}
layer {
  name: "group1_block0_conv0"
  type: "Convolution"
  bottom: "group0_block2_sum"
  top: "group1_block0_conv0"
  param {
    lr_mult: 1
    decay_mult: 1
  }
  convolution_param {
    num_output: 32
    pad: 1
    kernel_size: 3
    stride: 2
    weight_filler {
      type: "msra"
    }
  }
}
layer {
  name: "group1_block0_conv0_bn"
  type: "BatchNorm"
  bottom: "group1_block0_conv0"
  top: "group1_block0_conv0"
  batch_norm_param {
    use_global_stats: false
    moving_average_fraction: 0.95
  }
}
layer {
  name: "group1_block0_conv0_scale"
  type: "Scale"
  bottom: "group1_block0_conv0"
  top: "group1_block0_conv0"
  scale_param {
    bias_term: true
  }
}
layer {
  name: "group1_block0_conv0_relu"
  type: "ReLU"
  bottom: "group1_block0_conv0"
  top: "group1_block0_conv0"
}
layer {
  name: "group1_block0_conv1"
  type: "Convolution"
  bottom: "group1_block0_conv0"
  top: "group1_block0_conv1"
  param {
    lr_mult: 1
    decay_mult: 1
  }
  convolution_param {
    num_output: 32
    pad: 1
    kernel_size: 3
    stride: 1
    weight_filler {
      type: "msra"
    }
  }
}
layer {
  name: "group1_block0_conv1_bn"
  type: "BatchNorm"
  bottom: "group1_block0_conv1"
  top: "group1_block0_conv1"
  batch_norm_param {
    use_global_stats: false
    moving_average_fraction: 0.95
  }
}
layer {
  name: "group1_block0_conv1_scale"
  type: "Scale"
  bottom: "group1_block0_conv1"
  top: "group1_block0_conv1"
  scale_param {
    bias_term: true
  }
}
layer {
  name: "group1_block0_proj"
  type: "Convolution"
  bottom: "group0_block2_sum"
  top: "group1_block0_proj"
  param {
    lr_mult: 1
    decay_mult: 1
  }
  convolution_param {
    num_output: 32
    pad: 0
    kernel_size: 2
    stride: 2
    weight_filler {
      type: "msra"
    }
  }
}
layer {
  name: "group1_block0_proj_bn"
  type: "BatchNorm"
  bottom: "group1_block0_proj"
  top: "group1_block0_proj"
  batch_norm_param {
    use_global_stats: false
    moving_average_fraction: 0.95
  }
}
layer {
  name: "group1_block0_proj_scale"
  type: "Scale"
  bottom: "group1_block0_proj"
  top: "group1_block0_proj"
  scale_param {
    bias_term: true
  }
}
layer {
  name: "group1_block0_sum"
  type: "Eltwise"
  bottom: "group1_block0_proj"
  bottom: "group1_block0_conv1"
  top: "group1_block0_sum"
  eltwise_param {
    operation: SUM
  }
}
layer {
  name: "group1_block1_conv0"
  type: "Convolution"
  bottom: "group1_block0_sum"
  top: "group1_block1_conv0"
  param {
    lr_mult: 1
    decay_mult: 1
  }
  convolution_param {
    num_output: 32
    pad: 1
    kernel_size: 3
    stride: 1
    weight_filler {
      type: "msra"
    }
  }
}
layer {
  name: "group1_block1_conv0_bn"
  type: "BatchNorm"
  bottom: "group1_block1_conv0"
  top: "group1_block1_conv0"
  batch_norm_param {
    use_global_stats: false
    moving_average_fraction: 0.95
  }
}
layer {
  name: "group1_block1_conv0_scale"
  type: "Scale"
  bottom: "group1_block1_conv0"
  top: "group1_block1_conv0"
  scale_param {
    bias_term: true
  }
}
layer {
  name: "group1_block1_conv0_relu"
  type: "ReLU"
  bottom: "group1_block1_conv0"
  top: "group1_block1_conv0"
}
layer {
  name: "group1_block1_conv1"
  type: "Convolution"
  bottom: "group1_block1_conv0"
  top: "group1_block1_conv1"
  param {
    lr_mult: 1
    decay_mult: 1
  }
  convolution_param {
    num_output: 32
    pad: 1
    kernel_size: 3
    stride: 1
    weight_filler {
      type: "msra"
    }
  }
}
layer {
  name: "group1_block1_conv1_bn"
  type: "BatchNorm"
  bottom: "group1_block1_conv1"
  top: "group1_block1_conv1"
  batch_norm_param {
    use_global_stats: false
    moving_average_fraction: 0.95
  }
}
layer {
  name: "group1_block1_conv1_scale"
  type: "Scale"
  bottom: "group1_block1_conv1"
  top: "group1_block1_conv1"
  scale_param {
    bias_term: true
  }
}
layer {
  name: "group1_block1_sum"
  type: "Eltwise"
  bottom: "group1_block1_conv1"
  bottom: "group1_block0_sum"
  top: "group1_block1_sum"
  eltwise_param {
    operation: SUM
  }
}
layer {
  name: "group1_block2_conv0"
  type: "Convolution"
  bottom: "group1_block1_sum"
  top: "group1_block2_conv0"
  param {
    lr_mult: 1
    decay_mult: 1
  }
  convolution_param {
    num_output: 32
    pad: 1
    kernel_size: 3
    stride: 1
    weight_filler {
      type: "msra"
    }
  }
}
layer {
  name: "group1_block2_conv0_bn"
  type: "BatchNorm"
  bottom: "group1_block2_conv0"
  top: "group1_block2_conv0"
  batch_norm_param {
    use_global_stats: false
    moving_average_fraction: 0.95
  }
}
layer {
  name: "group1_block2_conv0_scale"
  type: "Scale"
  bottom: "group1_block2_conv0"
  top: "group1_block2_conv0"
  scale_param {
    bias_term: true
  }
}
layer {
  name: "group1_block2_conv0_relu"
  type: "ReLU"
  bottom: "group1_block2_conv0"
  top: "group1_block2_conv0"
}
layer {
  name: "group1_block2_conv1"
  type: "Convolution"
  bottom: "group1_block2_conv0"
  top: "group1_block2_conv1"
  param {
    lr_mult: 1
    decay_mult: 1
  }
  convolution_param {
    num_output: 32
    pad: 1
    kernel_size: 3
    stride: 1
    weight_filler {
      type: "msra"
    }
  }
}
layer {
  name: "group1_block2_conv1_bn"
  type: "BatchNorm"
  bottom: "group1_block2_conv1"
  top: "group1_block2_conv1"
  batch_norm_param {
    use_global_stats: false
    moving_average_fraction: 0.95
  }
}
layer {
  name: "group1_block2_conv1_scale"
  type: "Scale"
  bottom: "group1_block2_conv1"
  top: "group1_block2_conv1"
  scale_param {
    bias_term: true
  }
}
layer {
  name: "group1_block2_sum"
  type: "Eltwise"
  bottom: "group1_block2_conv1"
  bottom: "group1_block1_sum"
  top: "group1_block2_sum"
  eltwise_param {
    operation: SUM
  }
}
layer {
  name: "group2_block0_conv0"
  type: "Convolution"
  bottom: "group1_block2_sum"
  top: "group2_block0_conv0"
  param {
    lr_mult: 1
    decay_mult: 1
  }
  convolution_param {
    num_output: 64
    pad: 1
    kernel_size: 3
    stride: 2
    weight_filler {
      type: "msra"
    }
  }
}
layer {
  name: "group2_block0_conv0_bn"
  type: "BatchNorm"
  bottom: "group2_block0_conv0"
  top: "group2_block0_conv0"
  batch_norm_param {
    use_global_stats: false
    moving_average_fraction: 0.95
  }
}
layer {
  name: "group2_block0_conv0_scale"
  type: "Scale"
  bottom: "group2_block0_conv0"
  top: "group2_block0_conv0"
  scale_param {
    bias_term: true
  }
}
layer {
  name: "group2_block0_conv0_relu"
  type: "ReLU"
  bottom: "group2_block0_conv0"
  top: "group2_block0_conv0"
}
layer {
  name: "group2_block0_conv1"
  type: "Convolution"
  bottom: "group2_block0_conv0"
  top: "group2_block0_conv1"
  param {
    lr_mult: 1
    decay_mult: 1
  }
  convolution_param {
    num_output: 64
    pad: 1
    kernel_size: 3
    stride: 1
    weight_filler {
      type: "msra"
    }
  }
}
layer {
  name: "group2_block0_conv1_bn"
  type: "BatchNorm"
  bottom: "group2_block0_conv1"
  top: "group2_block0_conv1"
  batch_norm_param {
    use_global_stats: false
    moving_average_fraction: 0.95
  }
}
layer {
  name: "group2_block0_conv1_scale"
  type: "Scale"
  bottom: "group2_block0_conv1"
  top: "group2_block0_conv1"
  scale_param {
    bias_term: true
  }
}
layer {
  name: "group2_block0_proj"
  type: "Convolution"
  bottom: "group1_block2_sum"
  top: "group2_block0_proj"
  param {
    lr_mult: 1
    decay_mult: 1
  }
  convolution_param {
    num_output: 64
    pad: 0
    kernel_size: 2
    stride: 2
    weight_filler {
      type: "msra"
    }
  }
}
layer {
  name: "group2_block0_proj_bn"
  type: "BatchNorm"
  bottom: "group2_block0_proj"
  top: "group2_block0_proj"
  batch_norm_param {
    use_global_stats: false
    moving_average_fraction: 0.95
  }
}
layer {
  name: "group2_block0_proj_scale"
  type: "Scale"
  bottom: "group2_block0_proj"
  top: "group2_block0_proj"
  scale_param {
    bias_term: true
  }
}
layer {
  name: "group2_block0_sum"
  type: "Eltwise"
  bottom: "group2_block0_proj"
  bottom: "group2_block0_conv1"
  top: "group2_block0_sum"
  eltwise_param {
    operation: SUM
  }
}
layer {
  name: "group2_block1_conv0"
  type: "Convolution"
  bottom: "group2_block0_sum"
  top: "group2_block1_conv0"
  param {
    lr_mult: 1
    decay_mult: 1
  }
  convolution_param {
    num_output: 64
    pad: 1
    kernel_size: 3
    stride: 1
    weight_filler {
      type: "msra"
    }
  }
}
layer {
  name: "group2_block1_conv0_bn"
  type: "BatchNorm"
  bottom: "group2_block1_conv0"
  top: "group2_block1_conv0"
  batch_norm_param {
    use_global_stats: false
    moving_average_fraction: 0.95
  }
}
layer {
  name: "group2_block1_conv0_scale"
  type: "Scale"
  bottom: "group2_block1_conv0"
  top: "group2_block1_conv0"
  scale_param {
    bias_term: true
  }
}
layer {
  name: "group2_block1_conv0_relu"
  type: "ReLU"
  bottom: "group2_block1_conv0"
  top: "group2_block1_conv0"
}
layer {
  name: "group2_block1_conv1"
  type: "Convolution"
  bottom: "group2_block1_conv0"
  top: "group2_block1_conv1"
  param {
    lr_mult: 1
    decay_mult: 1
  }
  convolution_param {
    num_output: 64
    pad: 1
    kernel_size: 3
    stride: 1
    weight_filler {
      type: "msra"
    }
  }
}
layer {
  name: "group2_block1_conv1_bn"
  type: "BatchNorm"
  bottom: "group2_block1_conv1"
  top: "group2_block1_conv1"
  batch_norm_param {
    use_global_stats: false
    moving_average_fraction: 0.95
  }
}
layer {
  name: "group2_block1_conv1_scale"
  type: "Scale"
  bottom: "group2_block1_conv1"
  top: "group2_block1_conv1"
  scale_param {
    bias_term: true
  }
}
layer {
  name: "group2_block1_sum"
  type: "Eltwise"
  bottom: "group2_block1_conv1"
  bottom: "group2_block0_sum"
  top: "group2_block1_sum"
  eltwise_param {
    operation: SUM
  }
}
layer {
  name: "group2_block2_conv0"
  type: "Convolution"
  bottom: "group2_block1_sum"
  top: "group2_block2_conv0"
  param {
    lr_mult: 1
    decay_mult: 1
  }
  convolution_param {
    num_output: 64
    pad: 1
    kernel_size: 3
    stride: 1
    weight_filler {
      type: "msra"
    }
  }
}
layer {
  name: "group2_block2_conv0_bn"
  type: "BatchNorm"
  bottom: "group2_block2_conv0"
  top: "group2_block2_conv0"
  batch_norm_param {
    use_global_stats: false
    moving_average_fraction: 0.95
  }
}
layer {
  name: "group2_block2_conv0_scale"
  type: "Scale"
  bottom: "group2_block2_conv0"
  top: "group2_block2_conv0"
  scale_param {
    bias_term: true
  }
}
layer {
  name: "group2_block2_conv0_relu"
  type: "ReLU"
  bottom: "group2_block2_conv0"
  top: "group2_block2_conv0"
}
layer {
  name: "group2_block2_conv1"
  type: "Convolution"
  bottom: "group2_block2_conv0"
  top: "group2_block2_conv1"
  param {
    lr_mult: 1
    decay_mult: 1
  }
  convolution_param {
    num_output: 64
    pad: 1
    kernel_size: 3
    stride: 1
    weight_filler {
      type: "msra"
    }
  }
}
layer {
  name: "group2_block2_conv1_bn"
  type: "BatchNorm"
  bottom: "group2_block2_conv1"
  top: "group2_block2_conv1"
  batch_norm_param {
    use_global_stats: false
    moving_average_fraction: 0.95
  }
}
layer {
  name: "group2_block2_conv1_scale"
  type: "Scale"
  bottom: "group2_block2_conv1"
  top: "group2_block2_conv1"
  scale_param {
    bias_term: true
  }
}
layer {
  name: "group2_block2_sum"
  type: "Eltwise"
  bottom: "group2_block2_conv1"
  bottom: "group2_block1_sum"
  top: "group2_block2_sum"
  eltwise_param {
    operation: SUM
  }
}
layer {
  name: "global_avg_pool"
  type: "Pooling"
  bottom: "group2_block2_sum"
  top: "global_avg_pool"
  pooling_param {
    pool: AVE
    global_pooling: true
  }
}
layer {
  name: "fc"
  type: "InnerProduct"
  bottom: "global_avg_pool"
  top: "fc"
  param {
    lr_mult: 1
    decay_mult: 1
  }
  param {
    lr_mult: 2
    decay_mult: 0
  }
  inner_product_param {
    num_output: 12
    weight_filler {
      type: "msra"
    }
    bias_filler {
      type: "constant"
      value: 0
    }
  }
}
layer {
  name: "loss"
  type: "SoftmaxWithLoss"
  bottom: "fc"
  bottom: "label"
  top: "loss"
}
layer {
  name: "softmax"
  type: "Softmax"
  bottom: "fc"
  top: "softmax"
}
layer {
  name: "Accuracy"
  type: "Accuracy"
  bottom: "softmax"
  bottom: "label"
  top: "Accuracy"
}
I1105 06:22:50.818733 13103 layer_factory.hpp:77] Creating layer data
I1105 06:22:50.819193 13103 net.cpp:100] Creating Layer data
I1105 06:22:50.819264 13103 net.cpp:408] data -> data
I1105 06:22:50.819375 13103 net.cpp:408] data -> label
I1105 06:22:50.819413 13103 data_transformer.cpp:25] Loading mean file from: data/mean.binaryproto
I1105 06:22:50.819460 13106 db_lmdb.cpp:35] Opened lmdb data2/test_lmdb
I1105 06:22:50.819602 13103 data_layer.cpp:41] output data size: 100,3,32,32
I1105 06:22:50.819747 13103 net.cpp:150] Setting up data
I1105 06:22:50.819772 13103 net.cpp:157] Top shape: 100 3 32 32 (307200)
I1105 06:22:50.819784 13103 net.cpp:157] Top shape: 100 (100)
I1105 06:22:50.819794 13103 net.cpp:165] Memory required for data: 1229200
I1105 06:22:50.819811 13103 layer_factory.hpp:77] Creating layer label_data_1_split
I1105 06:22:50.819830 13103 net.cpp:100] Creating Layer label_data_1_split
I1105 06:22:50.819844 13103 net.cpp:434] label_data_1_split <- label
I1105 06:22:50.819870 13103 net.cpp:408] label_data_1_split -> label_data_1_split_0
I1105 06:22:50.819890 13103 net.cpp:408] label_data_1_split -> label_data_1_split_1
I1105 06:22:50.819916 13103 net.cpp:150] Setting up label_data_1_split
I1105 06:22:50.819929 13103 net.cpp:157] Top shape: 100 (100)
I1105 06:22:50.819941 13103 net.cpp:157] Top shape: 100 (100)
I1105 06:22:50.819950 13103 net.cpp:165] Memory required for data: 1230000
I1105 06:22:50.820000 13103 layer_factory.hpp:77] Creating layer first_conv
I1105 06:22:50.820034 13103 net.cpp:100] Creating Layer first_conv
I1105 06:22:50.820046 13103 net.cpp:434] first_conv <- data
I1105 06:22:50.820062 13103 net.cpp:408] first_conv -> first_conv
I1105 06:22:50.820149 13103 net.cpp:150] Setting up first_conv
I1105 06:22:50.820165 13103 net.cpp:157] Top shape: 100 16 32 32 (1638400)
I1105 06:22:50.820176 13103 net.cpp:165] Memory required for data: 7783600
I1105 06:22:50.820219 13103 layer_factory.hpp:77] Creating layer first_conv_bn
I1105 06:22:50.820261 13103 net.cpp:100] Creating Layer first_conv_bn
I1105 06:22:50.820273 13103 net.cpp:434] first_conv_bn <- first_conv
I1105 06:22:50.820288 13103 net.cpp:395] first_conv_bn -> first_conv (in-place)
I1105 06:22:50.820330 13103 net.cpp:150] Setting up first_conv_bn
I1105 06:22:50.820346 13103 net.cpp:157] Top shape: 100 16 32 32 (1638400)
I1105 06:22:50.820356 13103 net.cpp:165] Memory required for data: 14337200
I1105 06:22:50.820380 13103 layer_factory.hpp:77] Creating layer first_conv_scale
I1105 06:22:50.820405 13103 net.cpp:100] Creating Layer first_conv_scale
I1105 06:22:50.820416 13103 net.cpp:434] first_conv_scale <- first_conv
I1105 06:22:50.820431 13103 net.cpp:395] first_conv_scale -> first_conv (in-place)
I1105 06:22:50.820461 13103 layer_factory.hpp:77] Creating layer first_conv_scale
I1105 06:22:50.820513 13103 net.cpp:150] Setting up first_conv_scale
I1105 06:22:50.820531 13103 net.cpp:157] Top shape: 100 16 32 32 (1638400)
I1105 06:22:50.820543 13103 net.cpp:165] Memory required for data: 20890800
I1105 06:22:50.820559 13103 layer_factory.hpp:77] Creating layer first_conv_relu
I1105 06:22:50.820580 13103 net.cpp:100] Creating Layer first_conv_relu
I1105 06:22:50.820593 13103 net.cpp:434] first_conv_relu <- first_conv
I1105 06:22:50.820608 13103 net.cpp:395] first_conv_relu -> first_conv (in-place)
I1105 06:22:50.820626 13103 net.cpp:150] Setting up first_conv_relu
I1105 06:22:50.820641 13103 net.cpp:157] Top shape: 100 16 32 32 (1638400)
I1105 06:22:50.820654 13103 net.cpp:165] Memory required for data: 27444400
I1105 06:22:50.820664 13103 layer_factory.hpp:77] Creating layer first_conv_first_conv_relu_0_split
I1105 06:22:50.820678 13103 net.cpp:100] Creating Layer first_conv_first_conv_relu_0_split
I1105 06:22:50.820691 13103 net.cpp:434] first_conv_first_conv_relu_0_split <- first_conv
I1105 06:22:50.820706 13103 net.cpp:408] first_conv_first_conv_relu_0_split -> first_conv_first_conv_relu_0_split_0
I1105 06:22:50.820727 13103 net.cpp:408] first_conv_first_conv_relu_0_split -> first_conv_first_conv_relu_0_split_1
I1105 06:22:50.820752 13103 net.cpp:150] Setting up first_conv_first_conv_relu_0_split
I1105 06:22:50.820770 13103 net.cpp:157] Top shape: 100 16 32 32 (1638400)
I1105 06:22:50.820785 13103 net.cpp:157] Top shape: 100 16 32 32 (1638400)
I1105 06:22:50.820799 13103 net.cpp:165] Memory required for data: 40551600
I1105 06:22:50.820809 13103 layer_factory.hpp:77] Creating layer group0_block0_conv0
I1105 06:22:50.820830 13103 net.cpp:100] Creating Layer group0_block0_conv0
I1105 06:22:50.820844 13103 net.cpp:434] group0_block0_conv0 <- first_conv_first_conv_relu_0_split_0
I1105 06:22:50.820865 13103 net.cpp:408] group0_block0_conv0 -> group0_block0_conv0
I1105 06:22:50.820977 13103 net.cpp:150] Setting up group0_block0_conv0
I1105 06:22:50.820996 13103 net.cpp:157] Top shape: 100 16 32 32 (1638400)
I1105 06:22:50.821007 13103 net.cpp:165] Memory required for data: 47105200
I1105 06:22:50.821030 13103 layer_factory.hpp:77] Creating layer group0_block0_conv0_bn
I1105 06:22:50.821051 13103 net.cpp:100] Creating Layer group0_block0_conv0_bn
I1105 06:22:50.821065 13103 net.cpp:434] group0_block0_conv0_bn <- group0_block0_conv0
I1105 06:22:50.821080 13103 net.cpp:395] group0_block0_conv0_bn -> group0_block0_conv0 (in-place)
I1105 06:22:50.821115 13103 net.cpp:150] Setting up group0_block0_conv0_bn
I1105 06:22:50.821131 13103 net.cpp:157] Top shape: 100 16 32 32 (1638400)
I1105 06:22:50.821144 13103 net.cpp:165] Memory required for data: 53658800
I1105 06:22:50.821187 13103 layer_factory.hpp:77] Creating layer group0_block0_conv0_scale
I1105 06:22:50.821205 13103 net.cpp:100] Creating Layer group0_block0_conv0_scale
I1105 06:22:50.821218 13103 net.cpp:434] group0_block0_conv0_scale <- group0_block0_conv0
I1105 06:22:50.821238 13103 net.cpp:395] group0_block0_conv0_scale -> group0_block0_conv0 (in-place)
I1105 06:22:50.821264 13103 layer_factory.hpp:77] Creating layer group0_block0_conv0_scale
I1105 06:22:50.821375 13103 net.cpp:150] Setting up group0_block0_conv0_scale
I1105 06:22:50.821395 13103 net.cpp:157] Top shape: 100 16 32 32 (1638400)
I1105 06:22:50.821406 13103 net.cpp:165] Memory required for data: 60212400
I1105 06:22:50.821422 13103 layer_factory.hpp:77] Creating layer group0_block0_conv0_relu
I1105 06:22:50.821436 13103 net.cpp:100] Creating Layer group0_block0_conv0_relu
I1105 06:22:50.821452 13103 net.cpp:434] group0_block0_conv0_relu <- group0_block0_conv0
I1105 06:22:50.821475 13103 net.cpp:395] group0_block0_conv0_relu -> group0_block0_conv0 (in-place)
I1105 06:22:50.821498 13103 net.cpp:150] Setting up group0_block0_conv0_relu
I1105 06:22:50.821524 13103 net.cpp:157] Top shape: 100 16 32 32 (1638400)
I1105 06:22:50.821535 13103 net.cpp:165] Memory required for data: 66766000
I1105 06:22:50.821548 13103 layer_factory.hpp:77] Creating layer group0_block0_conv1
I1105 06:22:50.821566 13103 net.cpp:100] Creating Layer group0_block0_conv1
I1105 06:22:50.821580 13103 net.cpp:434] group0_block0_conv1 <- group0_block0_conv0
I1105 06:22:50.821606 13103 net.cpp:408] group0_block0_conv1 -> group0_block0_conv1
I1105 06:22:50.821707 13103 net.cpp:150] Setting up group0_block0_conv1
I1105 06:22:50.821725 13103 net.cpp:157] Top shape: 100 16 32 32 (1638400)
I1105 06:22:50.821738 13103 net.cpp:165] Memory required for data: 73319600
I1105 06:22:50.821759 13103 layer_factory.hpp:77] Creating layer group0_block0_conv1_bn
I1105 06:22:50.821781 13103 net.cpp:100] Creating Layer group0_block0_conv1_bn
I1105 06:22:50.821794 13103 net.cpp:434] group0_block0_conv1_bn <- group0_block0_conv1
I1105 06:22:50.821807 13103 net.cpp:395] group0_block0_conv1_bn -> group0_block0_conv1 (in-place)
I1105 06:22:50.821858 13103 net.cpp:150] Setting up group0_block0_conv1_bn
I1105 06:22:50.821890 13103 net.cpp:157] Top shape: 100 16 32 32 (1638400)
I1105 06:22:50.821904 13103 net.cpp:165] Memory required for data: 79873200
I1105 06:22:50.821934 13103 layer_factory.hpp:77] Creating layer group0_block0_conv1_scale
I1105 06:22:50.821952 13103 net.cpp:100] Creating Layer group0_block0_conv1_scale
I1105 06:22:50.821964 13103 net.cpp:434] group0_block0_conv1_scale <- group0_block0_conv1
I1105 06:22:50.821980 13103 net.cpp:395] group0_block0_conv1_scale -> group0_block0_conv1 (in-place)
I1105 06:22:50.822002 13103 layer_factory.hpp:77] Creating layer group0_block0_conv1_scale
I1105 06:22:50.822065 13103 net.cpp:150] Setting up group0_block0_conv1_scale
I1105 06:22:50.822082 13103 net.cpp:157] Top shape: 100 16 32 32 (1638400)
I1105 06:22:50.822093 13103 net.cpp:165] Memory required for data: 86426800
I1105 06:22:50.822108 13103 layer_factory.hpp:77] Creating layer group0_block0_sum
I1105 06:22:50.822127 13103 net.cpp:100] Creating Layer group0_block0_sum
I1105 06:22:50.822146 13103 net.cpp:434] group0_block0_sum <- group0_block0_conv1
I1105 06:22:50.822167 13103 net.cpp:434] group0_block0_sum <- first_conv_first_conv_relu_0_split_1
I1105 06:22:50.822198 13103 net.cpp:408] group0_block0_sum -> group0_block0_sum
I1105 06:22:50.822226 13103 net.cpp:150] Setting up group0_block0_sum
I1105 06:22:50.822243 13103 net.cpp:157] Top shape: 100 16 32 32 (1638400)
I1105 06:22:50.822253 13103 net.cpp:165] Memory required for data: 92980400
I1105 06:22:50.822263 13103 layer_factory.hpp:77] Creating layer group0_block0_sum_group0_block0_sum_0_split
I1105 06:22:50.822278 13103 net.cpp:100] Creating Layer group0_block0_sum_group0_block0_sum_0_split
I1105 06:22:50.822288 13103 net.cpp:434] group0_block0_sum_group0_block0_sum_0_split <- group0_block0_sum
I1105 06:22:50.822304 13103 net.cpp:408] group0_block0_sum_group0_block0_sum_0_split -> group0_block0_sum_group0_block0_sum_0_split_0
I1105 06:22:50.822350 13103 net.cpp:408] group0_block0_sum_group0_block0_sum_0_split -> group0_block0_sum_group0_block0_sum_0_split_1
I1105 06:22:50.822371 13103 net.cpp:150] Setting up group0_block0_sum_group0_block0_sum_0_split
I1105 06:22:50.822388 13103 net.cpp:157] Top shape: 100 16 32 32 (1638400)
I1105 06:22:50.822402 13103 net.cpp:157] Top shape: 100 16 32 32 (1638400)
I1105 06:22:50.822412 13103 net.cpp:165] Memory required for data: 106087600
I1105 06:22:50.822422 13103 layer_factory.hpp:77] Creating layer group0_block1_conv0
I1105 06:22:50.822453 13103 net.cpp:100] Creating Layer group0_block1_conv0
I1105 06:22:50.822466 13103 net.cpp:434] group0_block1_conv0 <- group0_block0_sum_group0_block0_sum_0_split_0
I1105 06:22:50.822484 13103 net.cpp:408] group0_block1_conv0 -> group0_block1_conv0
I1105 06:22:50.822582 13103 net.cpp:150] Setting up group0_block1_conv0
I1105 06:22:50.822599 13103 net.cpp:157] Top shape: 100 16 32 32 (1638400)
I1105 06:22:50.822609 13103 net.cpp:165] Memory required for data: 112641200
I1105 06:22:50.822624 13103 layer_factory.hpp:77] Creating layer group0_block1_conv0_bn
I1105 06:22:50.822649 13103 net.cpp:100] Creating Layer group0_block1_conv0_bn
I1105 06:22:50.822671 13103 net.cpp:434] group0_block1_conv0_bn <- group0_block1_conv0
I1105 06:22:50.822692 13103 net.cpp:395] group0_block1_conv0_bn -> group0_block1_conv0 (in-place)
I1105 06:22:50.822726 13103 net.cpp:150] Setting up group0_block1_conv0_bn
I1105 06:22:50.822743 13103 net.cpp:157] Top shape: 100 16 32 32 (1638400)
I1105 06:22:50.822762 13103 net.cpp:165] Memory required for data: 119194800
I1105 06:22:50.822778 13103 layer_factory.hpp:77] Creating layer group0_block1_conv0_scale
I1105 06:22:50.822794 13103 net.cpp:100] Creating Layer group0_block1_conv0_scale
I1105 06:22:50.822808 13103 net.cpp:434] group0_block1_conv0_scale <- group0_block1_conv0
I1105 06:22:50.822823 13103 net.cpp:395] group0_block1_conv0_scale -> group0_block1_conv0 (in-place)
I1105 06:22:50.822854 13103 layer_factory.hpp:77] Creating layer group0_block1_conv0_scale
I1105 06:22:50.822901 13103 net.cpp:150] Setting up group0_block1_conv0_scale
I1105 06:22:50.822916 13103 net.cpp:157] Top shape: 100 16 32 32 (1638400)
I1105 06:22:50.822926 13103 net.cpp:165] Memory required for data: 125748400
I1105 06:22:50.822942 13103 layer_factory.hpp:77] Creating layer group0_block1_conv0_relu
I1105 06:22:50.822957 13103 net.cpp:100] Creating Layer group0_block1_conv0_relu
I1105 06:22:50.822970 13103 net.cpp:434] group0_block1_conv0_relu <- group0_block1_conv0
I1105 06:22:50.822989 13103 net.cpp:395] group0_block1_conv0_relu -> group0_block1_conv0 (in-place)
I1105 06:22:50.823007 13103 net.cpp:150] Setting up group0_block1_conv0_relu
I1105 06:22:50.823025 13103 net.cpp:157] Top shape: 100 16 32 32 (1638400)
I1105 06:22:50.823035 13103 net.cpp:165] Memory required for data: 132302000
I1105 06:22:50.823047 13103 layer_factory.hpp:77] Creating layer group0_block1_conv1
I1105 06:22:50.823065 13103 net.cpp:100] Creating Layer group0_block1_conv1
I1105 06:22:50.823077 13103 net.cpp:434] group0_block1_conv1 <- group0_block1_conv0
I1105 06:22:50.823099 13103 net.cpp:408] group0_block1_conv1 -> group0_block1_conv1
I1105 06:22:50.823197 13103 net.cpp:150] Setting up group0_block1_conv1
I1105 06:22:50.823215 13103 net.cpp:157] Top shape: 100 16 32 32 (1638400)
I1105 06:22:50.823242 13103 net.cpp:165] Memory required for data: 138855600
I1105 06:22:50.823262 13103 layer_factory.hpp:77] Creating layer group0_block1_conv1_bn
I1105 06:22:50.823282 13103 net.cpp:100] Creating Layer group0_block1_conv1_bn
I1105 06:22:50.823305 13103 net.cpp:434] group0_block1_conv1_bn <- group0_block1_conv1
I1105 06:22:50.823320 13103 net.cpp:395] group0_block1_conv1_bn -> group0_block1_conv1 (in-place)
I1105 06:22:50.823355 13103 net.cpp:150] Setting up group0_block1_conv1_bn
I1105 06:22:50.823372 13103 net.cpp:157] Top shape: 100 16 32 32 (1638400)
I1105 06:22:50.823388 13103 net.cpp:165] Memory required for data: 145409200
I1105 06:22:50.823437 13103 layer_factory.hpp:77] Creating layer group0_block1_conv1_scale
I1105 06:22:50.823456 13103 net.cpp:100] Creating Layer group0_block1_conv1_scale
I1105 06:22:50.823467 13103 net.cpp:434] group0_block1_conv1_scale <- group0_block1_conv1
I1105 06:22:50.823482 13103 net.cpp:395] group0_block1_conv1_scale -> group0_block1_conv1 (in-place)
I1105 06:22:50.823504 13103 layer_factory.hpp:77] Creating layer group0_block1_conv1_scale
I1105 06:22:50.823563 13103 net.cpp:150] Setting up group0_block1_conv1_scale
I1105 06:22:50.823590 13103 net.cpp:157] Top shape: 100 16 32 32 (1638400)
I1105 06:22:50.823616 13103 net.cpp:165] Memory required for data: 151962800
I1105 06:22:50.823632 13103 layer_factory.hpp:77] Creating layer group0_block1_sum
I1105 06:22:50.823654 13103 net.cpp:100] Creating Layer group0_block1_sum
I1105 06:22:50.823669 13103 net.cpp:434] group0_block1_sum <- group0_block1_conv1
I1105 06:22:50.823683 13103 net.cpp:434] group0_block1_sum <- group0_block0_sum_group0_block0_sum_0_split_1
I1105 06:22:50.823701 13103 net.cpp:408] group0_block1_sum -> group0_block1_sum
I1105 06:22:50.823726 13103 net.cpp:150] Setting up group0_block1_sum
I1105 06:22:50.823743 13103 net.cpp:157] Top shape: 100 16 32 32 (1638400)
I1105 06:22:50.823755 13103 net.cpp:165] Memory required for data: 158516400
I1105 06:22:50.823770 13103 layer_factory.hpp:77] Creating layer group0_block1_sum_group0_block1_sum_0_split
I1105 06:22:50.823783 13103 net.cpp:100] Creating Layer group0_block1_sum_group0_block1_sum_0_split
I1105 06:22:50.823794 13103 net.cpp:434] group0_block1_sum_group0_block1_sum_0_split <- group0_block1_sum
I1105 06:22:50.823808 13103 net.cpp:408] group0_block1_sum_group0_block1_sum_0_split -> group0_block1_sum_group0_block1_sum_0_split_0
I1105 06:22:50.823827 13103 net.cpp:408] group0_block1_sum_group0_block1_sum_0_split -> group0_block1_sum_group0_block1_sum_0_split_1
I1105 06:22:50.823863 13103 net.cpp:150] Setting up group0_block1_sum_group0_block1_sum_0_split
I1105 06:22:50.823880 13103 net.cpp:157] Top shape: 100 16 32 32 (1638400)
I1105 06:22:50.823894 13103 net.cpp:157] Top shape: 100 16 32 32 (1638400)
I1105 06:22:50.823904 13103 net.cpp:165] Memory required for data: 171623600
I1105 06:22:50.823915 13103 layer_factory.hpp:77] Creating layer group0_block2_conv0
I1105 06:22:50.823931 13103 net.cpp:100] Creating Layer group0_block2_conv0
I1105 06:22:50.823945 13103 net.cpp:434] group0_block2_conv0 <- group0_block1_sum_group0_block1_sum_0_split_0
I1105 06:22:50.823971 13103 net.cpp:408] group0_block2_conv0 -> group0_block2_conv0
I1105 06:22:50.824071 13103 net.cpp:150] Setting up group0_block2_conv0
I1105 06:22:50.824089 13103 net.cpp:157] Top shape: 100 16 32 32 (1638400)
I1105 06:22:50.824098 13103 net.cpp:165] Memory required for data: 178177200
I1105 06:22:50.824113 13103 layer_factory.hpp:77] Creating layer group0_block2_conv0_bn
I1105 06:22:50.824131 13103 net.cpp:100] Creating Layer group0_block2_conv0_bn
I1105 06:22:50.824146 13103 net.cpp:434] group0_block2_conv0_bn <- group0_block2_conv0
I1105 06:22:50.824159 13103 net.cpp:395] group0_block2_conv0_bn -> group0_block2_conv0 (in-place)
I1105 06:22:50.824203 13103 net.cpp:150] Setting up group0_block2_conv0_bn
I1105 06:22:50.824216 13103 net.cpp:157] Top shape: 100 16 32 32 (1638400)
I1105 06:22:50.824226 13103 net.cpp:165] Memory required for data: 184730800
I1105 06:22:50.824244 13103 layer_factory.hpp:77] Creating layer group0_block2_conv0_scale
I1105 06:22:50.824262 13103 net.cpp:100] Creating Layer group0_block2_conv0_scale
I1105 06:22:50.824275 13103 net.cpp:434] group0_block2_conv0_scale <- group0_block2_conv0
I1105 06:22:50.824288 13103 net.cpp:395] group0_block2_conv0_scale -> group0_block2_conv0 (in-place)
I1105 06:22:50.824311 13103 layer_factory.hpp:77] Creating layer group0_block2_conv0_scale
I1105 06:22:50.824355 13103 net.cpp:150] Setting up group0_block2_conv0_scale
I1105 06:22:50.824370 13103 net.cpp:157] Top shape: 100 16 32 32 (1638400)
I1105 06:22:50.824384 13103 net.cpp:165] Memory required for data: 191284400
I1105 06:22:50.824434 13103 layer_factory.hpp:77] Creating layer group0_block2_conv0_relu
I1105 06:22:50.824453 13103 net.cpp:100] Creating Layer group0_block2_conv0_relu
I1105 06:22:50.824470 13103 net.cpp:434] group0_block2_conv0_relu <- group0_block2_conv0
I1105 06:22:50.824483 13103 net.cpp:395] group0_block2_conv0_relu -> group0_block2_conv0 (in-place)
I1105 06:22:50.824498 13103 net.cpp:150] Setting up group0_block2_conv0_relu
I1105 06:22:50.824511 13103 net.cpp:157] Top shape: 100 16 32 32 (1638400)
I1105 06:22:50.824520 13103 net.cpp:165] Memory required for data: 197838000
I1105 06:22:50.824530 13103 layer_factory.hpp:77] Creating layer group0_block2_conv1
I1105 06:22:50.824554 13103 net.cpp:100] Creating Layer group0_block2_conv1
I1105 06:22:50.824565 13103 net.cpp:434] group0_block2_conv1 <- group0_block2_conv0
I1105 06:22:50.824581 13103 net.cpp:408] group0_block2_conv1 -> group0_block2_conv1
I1105 06:22:50.824676 13103 net.cpp:150] Setting up group0_block2_conv1
I1105 06:22:50.824704 13103 net.cpp:157] Top shape: 100 16 32 32 (1638400)
I1105 06:22:50.824714 13103 net.cpp:165] Memory required for data: 204391600
I1105 06:22:50.824735 13103 layer_factory.hpp:77] Creating layer group0_block2_conv1_bn
I1105 06:22:50.824751 13103 net.cpp:100] Creating Layer group0_block2_conv1_bn
I1105 06:22:50.824765 13103 net.cpp:434] group0_block2_conv1_bn <- group0_block2_conv1
I1105 06:22:50.824782 13103 net.cpp:395] group0_block2_conv1_bn -> group0_block2_conv1 (in-place)
I1105 06:22:50.824820 13103 net.cpp:150] Setting up group0_block2_conv1_bn
I1105 06:22:50.824842 13103 net.cpp:157] Top shape: 100 16 32 32 (1638400)
I1105 06:22:50.824852 13103 net.cpp:165] Memory required for data: 210945200
I1105 06:22:50.824870 13103 layer_factory.hpp:77] Creating layer group0_block2_conv1_scale
I1105 06:22:50.824888 13103 net.cpp:100] Creating Layer group0_block2_conv1_scale
I1105 06:22:50.824900 13103 net.cpp:434] group0_block2_conv1_scale <- group0_block2_conv1
I1105 06:22:50.824913 13103 net.cpp:395] group0_block2_conv1_scale -> group0_block2_conv1 (in-place)
I1105 06:22:50.824936 13103 layer_factory.hpp:77] Creating layer group0_block2_conv1_scale
I1105 06:22:50.824982 13103 net.cpp:150] Setting up group0_block2_conv1_scale
I1105 06:22:50.825003 13103 net.cpp:157] Top shape: 100 16 32 32 (1638400)
I1105 06:22:50.825013 13103 net.cpp:165] Memory required for data: 217498800
I1105 06:22:50.825027 13103 layer_factory.hpp:77] Creating layer group0_block2_sum
I1105 06:22:50.825054 13103 net.cpp:100] Creating Layer group0_block2_sum
I1105 06:22:50.825065 13103 net.cpp:434] group0_block2_sum <- group0_block2_conv1
I1105 06:22:50.825086 13103 net.cpp:434] group0_block2_sum <- group0_block1_sum_group0_block1_sum_0_split_1
I1105 06:22:50.825103 13103 net.cpp:408] group0_block2_sum -> group0_block2_sum
I1105 06:22:50.825120 13103 net.cpp:150] Setting up group0_block2_sum
I1105 06:22:50.825135 13103 net.cpp:157] Top shape: 100 16 32 32 (1638400)
I1105 06:22:50.825336 13103 net.cpp:165] Memory required for data: 224052400
I1105 06:22:50.825347 13103 layer_factory.hpp:77] Creating layer group0_block2_sum_group0_block2_sum_0_split
I1105 06:22:50.825361 13103 net.cpp:100] Creating Layer group0_block2_sum_group0_block2_sum_0_split
I1105 06:22:50.825371 13103 net.cpp:434] group0_block2_sum_group0_block2_sum_0_split <- group0_block2_sum
I1105 06:22:50.825387 13103 net.cpp:408] group0_block2_sum_group0_block2_sum_0_split -> group0_block2_sum_group0_block2_sum_0_split_0
I1105 06:22:50.825429 13103 net.cpp:408] group0_block2_sum_group0_block2_sum_0_split -> group0_block2_sum_group0_block2_sum_0_split_1
I1105 06:22:50.825464 13103 net.cpp:150] Setting up group0_block2_sum_group0_block2_sum_0_split
I1105 06:22:50.825479 13103 net.cpp:157] Top shape: 100 16 32 32 (1638400)
I1105 06:22:50.825491 13103 net.cpp:157] Top shape: 100 16 32 32 (1638400)
I1105 06:22:50.825500 13103 net.cpp:165] Memory required for data: 237159600
I1105 06:22:50.825510 13103 layer_factory.hpp:77] Creating layer group1_block0_conv0
I1105 06:22:50.825527 13103 net.cpp:100] Creating Layer group1_block0_conv0
I1105 06:22:50.825561 13103 net.cpp:434] group1_block0_conv0 <- group0_block2_sum_group0_block2_sum_0_split_0
I1105 06:22:50.825577 13103 net.cpp:408] group1_block0_conv0 -> group1_block0_conv0
I1105 06:22:50.825729 13103 net.cpp:150] Setting up group1_block0_conv0
I1105 06:22:50.825747 13103 net.cpp:157] Top shape: 100 32 16 16 (819200)
I1105 06:22:50.825757 13103 net.cpp:165] Memory required for data: 240436400
I1105 06:22:50.825780 13103 layer_factory.hpp:77] Creating layer group1_block0_conv0_bn
I1105 06:22:50.825801 13103 net.cpp:100] Creating Layer group1_block0_conv0_bn
I1105 06:22:50.825814 13103 net.cpp:434] group1_block0_conv0_bn <- group1_block0_conv0
I1105 06:22:50.825837 13103 net.cpp:395] group1_block0_conv0_bn -> group1_block0_conv0 (in-place)
I1105 06:22:50.825872 13103 net.cpp:150] Setting up group1_block0_conv0_bn
I1105 06:22:50.825888 13103 net.cpp:157] Top shape: 100 32 16 16 (819200)
I1105 06:22:50.825898 13103 net.cpp:165] Memory required for data: 243713200
I1105 06:22:50.825916 13103 layer_factory.hpp:77] Creating layer group1_block0_conv0_scale
I1105 06:22:50.825937 13103 net.cpp:100] Creating Layer group1_block0_conv0_scale
I1105 06:22:50.825954 13103 net.cpp:434] group1_block0_conv0_scale <- group1_block0_conv0
I1105 06:22:50.825968 13103 net.cpp:395] group1_block0_conv0_scale -> group1_block0_conv0 (in-place)
I1105 06:22:50.825992 13103 layer_factory.hpp:77] Creating layer group1_block0_conv0_scale
I1105 06:22:50.826033 13103 net.cpp:150] Setting up group1_block0_conv0_scale
I1105 06:22:50.826050 13103 net.cpp:157] Top shape: 100 32 16 16 (819200)
I1105 06:22:50.826058 13103 net.cpp:165] Memory required for data: 246990000
I1105 06:22:50.826086 13103 layer_factory.hpp:77] Creating layer group1_block0_conv0_relu
I1105 06:22:50.826103 13103 net.cpp:100] Creating Layer group1_block0_conv0_relu
I1105 06:22:50.826114 13103 net.cpp:434] group1_block0_conv0_relu <- group1_block0_conv0
I1105 06:22:50.826128 13103 net.cpp:395] group1_block0_conv0_relu -> group1_block0_conv0 (in-place)
I1105 06:22:50.826149 13103 net.cpp:150] Setting up group1_block0_conv0_relu
I1105 06:22:50.826164 13103 net.cpp:157] Top shape: 100 32 16 16 (819200)
I1105 06:22:50.826174 13103 net.cpp:165] Memory required for data: 250266800
I1105 06:22:50.826185 13103 layer_factory.hpp:77] Creating layer group1_block0_conv1
I1105 06:22:50.826208 13103 net.cpp:100] Creating Layer group1_block0_conv1
I1105 06:22:50.826220 13103 net.cpp:434] group1_block0_conv1 <- group1_block0_conv0
I1105 06:22:50.826239 13103 net.cpp:408] group1_block0_conv1 -> group1_block0_conv1
I1105 06:22:50.826479 13103 net.cpp:150] Setting up group1_block0_conv1
I1105 06:22:50.826499 13103 net.cpp:157] Top shape: 100 32 16 16 (819200)
I1105 06:22:50.826511 13103 net.cpp:165] Memory required for data: 253543600
I1105 06:22:50.826534 13103 layer_factory.hpp:77] Creating layer group1_block0_conv1_bn
I1105 06:22:50.826547 13103 net.cpp:100] Creating Layer group1_block0_conv1_bn
I1105 06:22:50.826566 13103 net.cpp:434] group1_block0_conv1_bn <- group1_block0_conv1
I1105 06:22:50.826584 13103 net.cpp:395] group1_block0_conv1_bn -> group1_block0_conv1 (in-place)
I1105 06:22:50.826628 13103 net.cpp:150] Setting up group1_block0_conv1_bn
I1105 06:22:50.826642 13103 net.cpp:157] Top shape: 100 32 16 16 (819200)
I1105 06:22:50.826656 13103 net.cpp:165] Memory required for data: 256820400
I1105 06:22:50.826674 13103 layer_factory.hpp:77] Creating layer group1_block0_conv1_scale
I1105 06:22:50.826692 13103 net.cpp:100] Creating Layer group1_block0_conv1_scale
I1105 06:22:50.826704 13103 net.cpp:434] group1_block0_conv1_scale <- group1_block0_conv1
I1105 06:22:50.826716 13103 net.cpp:395] group1_block0_conv1_scale -> group1_block0_conv1 (in-place)
I1105 06:22:50.826740 13103 layer_factory.hpp:77] Creating layer group1_block0_conv1_scale
I1105 06:22:50.826777 13103 net.cpp:150] Setting up group1_block0_conv1_scale
I1105 06:22:50.826807 13103 net.cpp:157] Top shape: 100 32 16 16 (819200)
I1105 06:22:50.826817 13103 net.cpp:165] Memory required for data: 260097200
I1105 06:22:50.826854 13103 layer_factory.hpp:77] Creating layer group1_block0_proj
I1105 06:22:50.826876 13103 net.cpp:100] Creating Layer group1_block0_proj
I1105 06:22:50.826889 13103 net.cpp:434] group1_block0_proj <- group0_block2_sum_group0_block2_sum_0_split_1
I1105 06:22:50.826915 13103 net.cpp:408] group1_block0_proj -> group1_block0_proj
I1105 06:22:50.827014 13103 net.cpp:150] Setting up group1_block0_proj
I1105 06:22:50.827033 13103 net.cpp:157] Top shape: 100 32 16 16 (819200)
I1105 06:22:50.827044 13103 net.cpp:165] Memory required for data: 263374000
I1105 06:22:50.827077 13103 layer_factory.hpp:77] Creating layer group1_block0_proj_bn
I1105 06:22:50.827100 13103 net.cpp:100] Creating Layer group1_block0_proj_bn
I1105 06:22:50.827111 13103 net.cpp:434] group1_block0_proj_bn <- group1_block0_proj
I1105 06:22:50.827137 13103 net.cpp:395] group1_block0_proj_bn -> group1_block0_proj (in-place)
I1105 06:22:50.827178 13103 net.cpp:150] Setting up group1_block0_proj_bn
I1105 06:22:50.827195 13103 net.cpp:157] Top shape: 100 32 16 16 (819200)
I1105 06:22:50.827205 13103 net.cpp:165] Memory required for data: 266650800
I1105 06:22:50.827224 13103 layer_factory.hpp:77] Creating layer group1_block0_proj_scale
I1105 06:22:50.827244 13103 net.cpp:100] Creating Layer group1_block0_proj_scale
I1105 06:22:50.827255 13103 net.cpp:434] group1_block0_proj_scale <- group1_block0_proj
I1105 06:22:50.827268 13103 net.cpp:395] group1_block0_proj_scale -> group1_block0_proj (in-place)
I1105 06:22:50.827289 13103 layer_factory.hpp:77] Creating layer group1_block0_proj_scale
I1105 06:22:50.827322 13103 net.cpp:150] Setting up group1_block0_proj_scale
I1105 06:22:50.827338 13103 net.cpp:157] Top shape: 100 32 16 16 (819200)
I1105 06:22:50.827348 13103 net.cpp:165] Memory required for data: 269927600
I1105 06:22:50.827363 13103 layer_factory.hpp:77] Creating layer group1_block0_sum
I1105 06:22:50.827381 13103 net.cpp:100] Creating Layer group1_block0_sum
I1105 06:22:50.827400 13103 net.cpp:434] group1_block0_sum <- group1_block0_proj
I1105 06:22:50.827417 13103 net.cpp:434] group1_block0_sum <- group1_block0_conv1
I1105 06:22:50.827435 13103 net.cpp:408] group1_block0_sum -> group1_block0_sum
I1105 06:22:50.827453 13103 net.cpp:150] Setting up group1_block0_sum
I1105 06:22:50.827471 13103 net.cpp:157] Top shape: 100 32 16 16 (819200)
I1105 06:22:50.827482 13103 net.cpp:165] Memory required for data: 273204400
I1105 06:22:50.827492 13103 layer_factory.hpp:77] Creating layer group1_block0_sum_group1_block0_sum_0_split
I1105 06:22:50.827509 13103 net.cpp:100] Creating Layer group1_block0_sum_group1_block0_sum_0_split
I1105 06:22:50.827522 13103 net.cpp:434] group1_block0_sum_group1_block0_sum_0_split <- group1_block0_sum
I1105 06:22:50.827538 13103 net.cpp:408] group1_block0_sum_group1_block0_sum_0_split -> group1_block0_sum_group1_block0_sum_0_split_0
I1105 06:22:50.827561 13103 net.cpp:408] group1_block0_sum_group1_block0_sum_0_split -> group1_block0_sum_group1_block0_sum_0_split_1
I1105 06:22:50.827586 13103 net.cpp:150] Setting up group1_block0_sum_group1_block0_sum_0_split
I1105 06:22:50.827603 13103 net.cpp:157] Top shape: 100 32 16 16 (819200)
I1105 06:22:50.827616 13103 net.cpp:157] Top shape: 100 32 16 16 (819200)
I1105 06:22:50.827626 13103 net.cpp:165] Memory required for data: 279758000
I1105 06:22:50.827637 13103 layer_factory.hpp:77] Creating layer group1_block1_conv0
I1105 06:22:50.827662 13103 net.cpp:100] Creating Layer group1_block1_conv0
I1105 06:22:50.827673 13103 net.cpp:434] group1_block1_conv0 <- group1_block0_sum_group1_block0_sum_0_split_0
I1105 06:22:50.827689 13103 net.cpp:408] group1_block1_conv0 -> group1_block1_conv0
I1105 06:22:50.827924 13103 net.cpp:150] Setting up group1_block1_conv0
I1105 06:22:50.827944 13103 net.cpp:157] Top shape: 100 32 16 16 (819200)
I1105 06:22:50.827957 13103 net.cpp:165] Memory required for data: 283034800
I1105 06:22:50.827975 13103 layer_factory.hpp:77] Creating layer group1_block1_conv0_bn
I1105 06:22:50.827988 13103 net.cpp:100] Creating Layer group1_block1_conv0_bn
I1105 06:22:50.828022 13103 net.cpp:434] group1_block1_conv0_bn <- group1_block1_conv0
I1105 06:22:50.828040 13103 net.cpp:395] group1_block1_conv0_bn -> group1_block1_conv0 (in-place)
I1105 06:22:50.828076 13103 net.cpp:150] Setting up group1_block1_conv0_bn
I1105 06:22:50.828094 13103 net.cpp:157] Top shape: 100 32 16 16 (819200)
I1105 06:22:50.828104 13103 net.cpp:165] Memory required for data: 286311600
I1105 06:22:50.828120 13103 layer_factory.hpp:77] Creating layer group1_block1_conv0_scale
I1105 06:22:50.828150 13103 net.cpp:100] Creating Layer group1_block1_conv0_scale
I1105 06:22:50.828163 13103 net.cpp:434] group1_block1_conv0_scale <- group1_block1_conv0
I1105 06:22:50.828176 13103 net.cpp:395] group1_block1_conv0_scale -> group1_block1_conv0 (in-place)
I1105 06:22:50.828205 13103 layer_factory.hpp:77] Creating layer group1_block1_conv0_scale
I1105 06:22:50.828248 13103 net.cpp:150] Setting up group1_block1_conv0_scale
I1105 06:22:50.828269 13103 net.cpp:157] Top shape: 100 32 16 16 (819200)
I1105 06:22:50.828279 13103 net.cpp:165] Memory required for data: 289588400
I1105 06:22:50.828296 13103 layer_factory.hpp:77] Creating layer group1_block1_conv0_relu
I1105 06:22:50.828313 13103 net.cpp:100] Creating Layer group1_block1_conv0_relu
I1105 06:22:50.828327 13103 net.cpp:434] group1_block1_conv0_relu <- group1_block1_conv0
I1105 06:22:50.828346 13103 net.cpp:395] group1_block1_conv0_relu -> group1_block1_conv0 (in-place)
I1105 06:22:50.828366 13103 net.cpp:150] Setting up group1_block1_conv0_relu
I1105 06:22:50.828380 13103 net.cpp:157] Top shape: 100 32 16 16 (819200)
I1105 06:22:50.828393 13103 net.cpp:165] Memory required for data: 292865200
I1105 06:22:50.828408 13103 layer_factory.hpp:77] Creating layer group1_block1_conv1
I1105 06:22:50.828438 13103 net.cpp:100] Creating Layer group1_block1_conv1
I1105 06:22:50.828461 13103 net.cpp:434] group1_block1_conv1 <- group1_block1_conv0
I1105 06:22:50.828480 13103 net.cpp:408] group1_block1_conv1 -> group1_block1_conv1
I1105 06:22:50.828719 13103 net.cpp:150] Setting up group1_block1_conv1
I1105 06:22:50.828735 13103 net.cpp:157] Top shape: 100 32 16 16 (819200)
I1105 06:22:50.828749 13103 net.cpp:165] Memory required for data: 296142000
I1105 06:22:50.828768 13103 layer_factory.hpp:77] Creating layer group1_block1_conv1_bn
I1105 06:22:50.828783 13103 net.cpp:100] Creating Layer group1_block1_conv1_bn
I1105 06:22:50.828800 13103 net.cpp:434] group1_block1_conv1_bn <- group1_block1_conv1
I1105 06:22:50.828822 13103 net.cpp:395] group1_block1_conv1_bn -> group1_block1_conv1 (in-place)
I1105 06:22:50.828857 13103 net.cpp:150] Setting up group1_block1_conv1_bn
I1105 06:22:50.828881 13103 net.cpp:157] Top shape: 100 32 16 16 (819200)
I1105 06:22:50.828891 13103 net.cpp:165] Memory required for data: 299418800
I1105 06:22:50.828907 13103 layer_factory.hpp:77] Creating layer group1_block1_conv1_scale
I1105 06:22:50.828923 13103 net.cpp:100] Creating Layer group1_block1_conv1_scale
I1105 06:22:50.828943 13103 net.cpp:434] group1_block1_conv1_scale <- group1_block1_conv1
I1105 06:22:50.828963 13103 net.cpp:395] group1_block1_conv1_scale -> group1_block1_conv1 (in-place)
I1105 06:22:50.828989 13103 layer_factory.hpp:77] Creating layer group1_block1_conv1_scale
I1105 06:22:50.829031 13103 net.cpp:150] Setting up group1_block1_conv1_scale
I1105 06:22:50.829049 13103 net.cpp:157] Top shape: 100 32 16 16 (819200)
I1105 06:22:50.829059 13103 net.cpp:165] Memory required for data: 302695600
I1105 06:22:50.829076 13103 layer_factory.hpp:77] Creating layer group1_block1_sum
I1105 06:22:50.829092 13103 net.cpp:100] Creating Layer group1_block1_sum
I1105 06:22:50.829104 13103 net.cpp:434] group1_block1_sum <- group1_block1_conv1
I1105 06:22:50.829120 13103 net.cpp:434] group1_block1_sum <- group1_block0_sum_group1_block0_sum_0_split_1
I1105 06:22:50.829144 13103 net.cpp:408] group1_block1_sum -> group1_block1_sum
I1105 06:22:50.829166 13103 net.cpp:150] Setting up group1_block1_sum
I1105 06:22:50.829180 13103 net.cpp:157] Top shape: 100 32 16 16 (819200)
I1105 06:22:50.829188 13103 net.cpp:165] Memory required for data: 305972400
I1105 06:22:50.829218 13103 layer_factory.hpp:77] Creating layer group1_block1_sum_group1_block1_sum_0_split
I1105 06:22:50.829232 13103 net.cpp:100] Creating Layer group1_block1_sum_group1_block1_sum_0_split
I1105 06:22:50.829244 13103 net.cpp:434] group1_block1_sum_group1_block1_sum_0_split <- group1_block1_sum
I1105 06:22:50.829263 13103 net.cpp:408] group1_block1_sum_group1_block1_sum_0_split -> group1_block1_sum_group1_block1_sum_0_split_0
I1105 06:22:50.829315 13103 net.cpp:408] group1_block1_sum_group1_block1_sum_0_split -> group1_block1_sum_group1_block1_sum_0_split_1
I1105 06:22:50.829355 13103 net.cpp:150] Setting up group1_block1_sum_group1_block1_sum_0_split
I1105 06:22:50.829371 13103 net.cpp:157] Top shape: 100 32 16 16 (819200)
I1105 06:22:50.829385 13103 net.cpp:157] Top shape: 100 32 16 16 (819200)
I1105 06:22:50.829412 13103 net.cpp:165] Memory required for data: 312526000
I1105 06:22:50.829423 13103 layer_factory.hpp:77] Creating layer group1_block2_conv0
I1105 06:22:50.829450 13103 net.cpp:100] Creating Layer group1_block2_conv0
I1105 06:22:50.829469 13103 net.cpp:434] group1_block2_conv0 <- group1_block1_sum_group1_block1_sum_0_split_0
I1105 06:22:50.829486 13103 net.cpp:408] group1_block2_conv0 -> group1_block2_conv0
I1105 06:22:50.829728 13103 net.cpp:150] Setting up group1_block2_conv0
I1105 06:22:50.829752 13103 net.cpp:157] Top shape: 100 32 16 16 (819200)
I1105 06:22:50.829764 13103 net.cpp:165] Memory required for data: 315802800
I1105 06:22:50.829782 13103 layer_factory.hpp:77] Creating layer group1_block2_conv0_bn
I1105 06:22:50.829799 13103 net.cpp:100] Creating Layer group1_block2_conv0_bn
I1105 06:22:50.829812 13103 net.cpp:434] group1_block2_conv0_bn <- group1_block2_conv0
I1105 06:22:50.829828 13103 net.cpp:395] group1_block2_conv0_bn -> group1_block2_conv0 (in-place)
I1105 06:22:50.829869 13103 net.cpp:150] Setting up group1_block2_conv0_bn
I1105 06:22:50.829892 13103 net.cpp:157] Top shape: 100 32 16 16 (819200)
I1105 06:22:50.829905 13103 net.cpp:165] Memory required for data: 319079600
I1105 06:22:50.829928 13103 layer_factory.hpp:77] Creating layer group1_block2_conv0_scale
I1105 06:22:50.829942 13103 net.cpp:100] Creating Layer group1_block2_conv0_scale
I1105 06:22:50.829953 13103 net.cpp:434] group1_block2_conv0_scale <- group1_block2_conv0
I1105 06:22:50.829972 13103 net.cpp:395] group1_block2_conv0_scale -> group1_block2_conv0 (in-place)
I1105 06:22:50.829994 13103 layer_factory.hpp:77] Creating layer group1_block2_conv0_scale
I1105 06:22:50.830031 13103 net.cpp:150] Setting up group1_block2_conv0_scale
I1105 06:22:50.830047 13103 net.cpp:157] Top shape: 100 32 16 16 (819200)
I1105 06:22:50.830059 13103 net.cpp:165] Memory required for data: 322356400
I1105 06:22:50.830085 13103 layer_factory.hpp:77] Creating layer group1_block2_conv0_relu
I1105 06:22:50.830103 13103 net.cpp:100] Creating Layer group1_block2_conv0_relu
I1105 06:22:50.830116 13103 net.cpp:434] group1_block2_conv0_relu <- group1_block2_conv0
I1105 06:22:50.830132 13103 net.cpp:395] group1_block2_conv0_relu -> group1_block2_conv0 (in-place)
I1105 06:22:50.830148 13103 net.cpp:150] Setting up group1_block2_conv0_relu
I1105 06:22:50.830163 13103 net.cpp:157] Top shape: 100 32 16 16 (819200)
I1105 06:22:50.830180 13103 net.cpp:165] Memory required for data: 325633200
I1105 06:22:50.830190 13103 layer_factory.hpp:77] Creating layer group1_block2_conv1
I1105 06:22:50.830206 13103 net.cpp:100] Creating Layer group1_block2_conv1
I1105 06:22:50.830221 13103 net.cpp:434] group1_block2_conv1 <- group1_block2_conv0
I1105 06:22:50.830241 13103 net.cpp:408] group1_block2_conv1 -> group1_block2_conv1
I1105 06:22:50.830480 13103 net.cpp:150] Setting up group1_block2_conv1
I1105 06:22:50.830497 13103 net.cpp:157] Top shape: 100 32 16 16 (819200)
I1105 06:22:50.830512 13103 net.cpp:165] Memory required for data: 328910000
I1105 06:22:50.830526 13103 layer_factory.hpp:77] Creating layer group1_block2_conv1_bn
I1105 06:22:50.830548 13103 net.cpp:100] Creating Layer group1_block2_conv1_bn
I1105 06:22:50.830587 13103 net.cpp:434] group1_block2_conv1_bn <- group1_block2_conv1
I1105 06:22:50.830602 13103 net.cpp:395] group1_block2_conv1_bn -> group1_block2_conv1 (in-place)
I1105 06:22:50.830644 13103 net.cpp:150] Setting up group1_block2_conv1_bn
I1105 06:22:50.830669 13103 net.cpp:157] Top shape: 100 32 16 16 (819200)
I1105 06:22:50.830687 13103 net.cpp:165] Memory required for data: 332186800
I1105 06:22:50.830703 13103 layer_factory.hpp:77] Creating layer group1_block2_conv1_scale
I1105 06:22:50.830718 13103 net.cpp:100] Creating Layer group1_block2_conv1_scale
I1105 06:22:50.830729 13103 net.cpp:434] group1_block2_conv1_scale <- group1_block2_conv1
I1105 06:22:50.830749 13103 net.cpp:395] group1_block2_conv1_scale -> group1_block2_conv1 (in-place)
I1105 06:22:50.830772 13103 layer_factory.hpp:77] Creating layer group1_block2_conv1_scale
I1105 06:22:50.830811 13103 net.cpp:150] Setting up group1_block2_conv1_scale
I1105 06:22:50.830827 13103 net.cpp:157] Top shape: 100 32 16 16 (819200)
I1105 06:22:50.830837 13103 net.cpp:165] Memory required for data: 335463600
I1105 06:22:50.830852 13103 layer_factory.hpp:77] Creating layer group1_block2_sum
I1105 06:22:50.830868 13103 net.cpp:100] Creating Layer group1_block2_sum
I1105 06:22:50.830886 13103 net.cpp:434] group1_block2_sum <- group1_block2_conv1
I1105 06:22:50.830899 13103 net.cpp:434] group1_block2_sum <- group1_block1_sum_group1_block1_sum_0_split_1
I1105 06:22:50.830917 13103 net.cpp:408] group1_block2_sum -> group1_block2_sum
I1105 06:22:50.830943 13103 net.cpp:150] Setting up group1_block2_sum
I1105 06:22:50.830960 13103 net.cpp:157] Top shape: 100 32 16 16 (819200)
I1105 06:22:50.830970 13103 net.cpp:165] Memory required for data: 338740400
I1105 06:22:50.830979 13103 layer_factory.hpp:77] Creating layer group1_block2_sum_group1_block2_sum_0_split
I1105 06:22:50.830992 13103 net.cpp:100] Creating Layer group1_block2_sum_group1_block2_sum_0_split
I1105 06:22:50.831004 13103 net.cpp:434] group1_block2_sum_group1_block2_sum_0_split <- group1_block2_sum
I1105 06:22:50.831023 13103 net.cpp:408] group1_block2_sum_group1_block2_sum_0_split -> group1_block2_sum_group1_block2_sum_0_split_0
I1105 06:22:50.831043 13103 net.cpp:408] group1_block2_sum_group1_block2_sum_0_split -> group1_block2_sum_group1_block2_sum_0_split_1
I1105 06:22:50.831068 13103 net.cpp:150] Setting up group1_block2_sum_group1_block2_sum_0_split
I1105 06:22:50.831084 13103 net.cpp:157] Top shape: 100 32 16 16 (819200)
I1105 06:22:50.831096 13103 net.cpp:157] Top shape: 100 32 16 16 (819200)
I1105 06:22:50.831105 13103 net.cpp:165] Memory required for data: 345294000
I1105 06:22:50.831115 13103 layer_factory.hpp:77] Creating layer group2_block0_conv0
I1105 06:22:50.831159 13103 net.cpp:100] Creating Layer group2_block0_conv0
I1105 06:22:50.831177 13103 net.cpp:434] group2_block0_conv0 <- group1_block2_sum_group1_block2_sum_0_split_0
I1105 06:22:50.831193 13103 net.cpp:408] group2_block0_conv0 -> group2_block0_conv0
I1105 06:22:50.831642 13103 net.cpp:150] Setting up group2_block0_conv0
I1105 06:22:50.831660 13103 net.cpp:157] Top shape: 100 64 8 8 (409600)
I1105 06:22:50.831672 13103 net.cpp:165] Memory required for data: 346932400
I1105 06:22:50.831687 13103 layer_factory.hpp:77] Creating layer group2_block0_conv0_bn
I1105 06:22:50.831712 13103 net.cpp:100] Creating Layer group2_block0_conv0_bn
I1105 06:22:50.831724 13103 net.cpp:434] group2_block0_conv0_bn <- group2_block0_conv0
I1105 06:22:50.831744 13103 net.cpp:395] group2_block0_conv0_bn -> group2_block0_conv0 (in-place)
I1105 06:22:50.831786 13103 net.cpp:150] Setting up group2_block0_conv0_bn
I1105 06:22:50.831801 13103 net.cpp:157] Top shape: 100 64 8 8 (409600)
I1105 06:22:50.831811 13103 net.cpp:165] Memory required for data: 348570800
I1105 06:22:50.831830 13103 layer_factory.hpp:77] Creating layer group2_block0_conv0_scale
I1105 06:22:50.831845 13103 net.cpp:100] Creating Layer group2_block0_conv0_scale
I1105 06:22:50.831856 13103 net.cpp:434] group2_block0_conv0_scale <- group2_block0_conv0
I1105 06:22:50.831873 13103 net.cpp:395] group2_block0_conv0_scale -> group2_block0_conv0 (in-place)
I1105 06:22:50.831918 13103 layer_factory.hpp:77] Creating layer group2_block0_conv0_scale
I1105 06:22:50.831960 13103 net.cpp:150] Setting up group2_block0_conv0_scale
I1105 06:22:50.831976 13103 net.cpp:157] Top shape: 100 64 8 8 (409600)
I1105 06:22:50.831986 13103 net.cpp:165] Memory required for data: 350209200
I1105 06:22:50.832020 13103 layer_factory.hpp:77] Creating layer group2_block0_conv0_relu
I1105 06:22:50.832046 13103 net.cpp:100] Creating Layer group2_block0_conv0_relu
I1105 06:22:50.832062 13103 net.cpp:434] group2_block0_conv0_relu <- group2_block0_conv0
I1105 06:22:50.832077 13103 net.cpp:395] group2_block0_conv0_relu -> group2_block0_conv0 (in-place)
I1105 06:22:50.832094 13103 net.cpp:150] Setting up group2_block0_conv0_relu
I1105 06:22:50.832108 13103 net.cpp:157] Top shape: 100 64 8 8 (409600)
I1105 06:22:50.832121 13103 net.cpp:165] Memory required for data: 351847600
I1105 06:22:50.832131 13103 layer_factory.hpp:77] Creating layer group2_block0_conv1
I1105 06:22:50.832152 13103 net.cpp:100] Creating Layer group2_block0_conv1
I1105 06:22:50.832167 13103 net.cpp:434] group2_block0_conv1 <- group2_block0_conv0
I1105 06:22:50.832187 13103 net.cpp:408] group2_block0_conv1 -> group2_block0_conv1
I1105 06:22:50.833081 13103 net.cpp:150] Setting up group2_block0_conv1
I1105 06:22:50.833101 13103 net.cpp:157] Top shape: 100 64 8 8 (409600)
I1105 06:22:50.833114 13103 net.cpp:165] Memory required for data: 353486000
I1105 06:22:50.833145 13103 layer_factory.hpp:77] Creating layer group2_block0_conv1_bn
I1105 06:22:50.833160 13103 net.cpp:100] Creating Layer group2_block0_conv1_bn
I1105 06:22:50.833173 13103 net.cpp:434] group2_block0_conv1_bn <- group2_block0_conv1
I1105 06:22:50.833191 13103 net.cpp:395] group2_block0_conv1_bn -> group2_block0_conv1 (in-place)
I1105 06:22:50.833231 13103 net.cpp:150] Setting up group2_block0_conv1_bn
I1105 06:22:50.833246 13103 net.cpp:157] Top shape: 100 64 8 8 (409600)
I1105 06:22:50.833256 13103 net.cpp:165] Memory required for data: 355124400
I1105 06:22:50.833273 13103 layer_factory.hpp:77] Creating layer group2_block0_conv1_scale
I1105 06:22:50.833325 13103 net.cpp:100] Creating Layer group2_block0_conv1_scale
I1105 06:22:50.833341 13103 net.cpp:434] group2_block0_conv1_scale <- group2_block0_conv1
I1105 06:22:50.833355 13103 net.cpp:395] group2_block0_conv1_scale -> group2_block0_conv1 (in-place)
I1105 06:22:50.833379 13103 layer_factory.hpp:77] Creating layer group2_block0_conv1_scale
I1105 06:22:50.833411 13103 net.cpp:150] Setting up group2_block0_conv1_scale
I1105 06:22:50.833428 13103 net.cpp:157] Top shape: 100 64 8 8 (409600)
I1105 06:22:50.833437 13103 net.cpp:165] Memory required for data: 356762800
I1105 06:22:50.833459 13103 layer_factory.hpp:77] Creating layer group2_block0_proj
I1105 06:22:50.833474 13103 net.cpp:100] Creating Layer group2_block0_proj
I1105 06:22:50.833488 13103 net.cpp:434] group2_block0_proj <- group1_block2_sum_group1_block2_sum_0_split_1
I1105 06:22:50.833500 13103 net.cpp:408] group2_block0_proj -> group2_block0_proj
I1105 06:22:50.833662 13103 net.cpp:150] Setting up group2_block0_proj
I1105 06:22:50.833678 13103 net.cpp:157] Top shape: 100 64 8 8 (409600)
I1105 06:22:50.833685 13103 net.cpp:165] Memory required for data: 358401200
I1105 06:22:50.833696 13103 layer_factory.hpp:77] Creating layer group2_block0_proj_bn
I1105 06:22:50.833711 13103 net.cpp:100] Creating Layer group2_block0_proj_bn
I1105 06:22:50.833719 13103 net.cpp:434] group2_block0_proj_bn <- group2_block0_proj
I1105 06:22:50.833729 13103 net.cpp:395] group2_block0_proj_bn -> group2_block0_proj (in-place)
I1105 06:22:50.833765 13103 net.cpp:150] Setting up group2_block0_proj_bn
I1105 06:22:50.833777 13103 net.cpp:157] Top shape: 100 64 8 8 (409600)
I1105 06:22:50.833786 13103 net.cpp:165] Memory required for data: 360039600
I1105 06:22:50.833799 13103 layer_factory.hpp:77] Creating layer group2_block0_proj_scale
I1105 06:22:50.833812 13103 net.cpp:100] Creating Layer group2_block0_proj_scale
I1105 06:22:50.833843 13103 net.cpp:434] group2_block0_proj_scale <- group2_block0_proj
I1105 06:22:50.833856 13103 net.cpp:395] group2_block0_proj_scale -> group2_block0_proj (in-place)
I1105 06:22:50.833876 13103 layer_factory.hpp:77] Creating layer group2_block0_proj_scale
I1105 06:22:50.833904 13103 net.cpp:150] Setting up group2_block0_proj_scale
I1105 06:22:50.833920 13103 net.cpp:157] Top shape: 100 64 8 8 (409600)
I1105 06:22:50.833927 13103 net.cpp:165] Memory required for data: 361678000
I1105 06:22:50.833938 13103 layer_factory.hpp:77] Creating layer group2_block0_sum
I1105 06:22:50.833950 13103 net.cpp:100] Creating Layer group2_block0_sum
I1105 06:22:50.833957 13103 net.cpp:434] group2_block0_sum <- group2_block0_proj
I1105 06:22:50.833966 13103 net.cpp:434] group2_block0_sum <- group2_block0_conv1
I1105 06:22:50.833981 13103 net.cpp:408] group2_block0_sum -> group2_block0_sum
I1105 06:22:50.834000 13103 net.cpp:150] Setting up group2_block0_sum
I1105 06:22:50.834020 13103 net.cpp:157] Top shape: 100 64 8 8 (409600)
I1105 06:22:50.834029 13103 net.cpp:165] Memory required for data: 363316400
I1105 06:22:50.834036 13103 layer_factory.hpp:77] Creating layer group2_block0_sum_group2_block0_sum_0_split
I1105 06:22:50.834046 13103 net.cpp:100] Creating Layer group2_block0_sum_group2_block0_sum_0_split
I1105 06:22:50.834053 13103 net.cpp:434] group2_block0_sum_group2_block0_sum_0_split <- group2_block0_sum
I1105 06:22:50.834069 13103 net.cpp:408] group2_block0_sum_group2_block0_sum_0_split -> group2_block0_sum_group2_block0_sum_0_split_0
I1105 06:22:50.834081 13103 net.cpp:408] group2_block0_sum_group2_block0_sum_0_split -> group2_block0_sum_group2_block0_sum_0_split_1
I1105 06:22:50.834098 13103 net.cpp:150] Setting up group2_block0_sum_group2_block0_sum_0_split
I1105 06:22:50.834115 13103 net.cpp:157] Top shape: 100 64 8 8 (409600)
I1105 06:22:50.834143 13103 net.cpp:157] Top shape: 100 64 8 8 (409600)
I1105 06:22:50.834151 13103 net.cpp:165] Memory required for data: 366593200
I1105 06:22:50.834158 13103 layer_factory.hpp:77] Creating layer group2_block1_conv0
I1105 06:22:50.834172 13103 net.cpp:100] Creating Layer group2_block1_conv0
I1105 06:22:50.834179 13103 net.cpp:434] group2_block1_conv0 <- group2_block0_sum_group2_block0_sum_0_split_0
I1105 06:22:50.834200 13103 net.cpp:408] group2_block1_conv0 -> group2_block1_conv0
I1105 06:22:50.834861 13103 net.cpp:150] Setting up group2_block1_conv0
I1105 06:22:50.834889 13103 net.cpp:157] Top shape: 100 64 8 8 (409600)
I1105 06:22:50.834905 13103 net.cpp:165] Memory required for data: 368231600
I1105 06:22:50.834919 13103 layer_factory.hpp:77] Creating layer group2_block1_conv0_bn
I1105 06:22:50.834929 13103 net.cpp:100] Creating Layer group2_block1_conv0_bn
I1105 06:22:50.834941 13103 net.cpp:434] group2_block1_conv0_bn <- group2_block1_conv0
I1105 06:22:50.834951 13103 net.cpp:395] group2_block1_conv0_bn -> group2_block1_conv0 (in-place)
I1105 06:22:50.834974 13103 net.cpp:150] Setting up group2_block1_conv0_bn
I1105 06:22:50.834988 13103 net.cpp:157] Top shape: 100 64 8 8 (409600)
I1105 06:22:50.834995 13103 net.cpp:165] Memory required for data: 369870000
I1105 06:22:50.835010 13103 layer_factory.hpp:77] Creating layer group2_block1_conv0_scale
I1105 06:22:50.835024 13103 net.cpp:100] Creating Layer group2_block1_conv0_scale
I1105 06:22:50.835041 13103 net.cpp:434] group2_block1_conv0_scale <- group2_block1_conv0
I1105 06:22:50.835057 13103 net.cpp:395] group2_block1_conv0_scale -> group2_block1_conv0 (in-place)
I1105 06:22:50.835072 13103 layer_factory.hpp:77] Creating layer group2_block1_conv0_scale
I1105 06:22:50.835103 13103 net.cpp:150] Setting up group2_block1_conv0_scale
I1105 06:22:50.835119 13103 net.cpp:157] Top shape: 100 64 8 8 (409600)
I1105 06:22:50.835130 13103 net.cpp:165] Memory required for data: 371508400
I1105 06:22:50.835141 13103 layer_factory.hpp:77] Creating layer group2_block1_conv0_relu
I1105 06:22:50.835151 13103 net.cpp:100] Creating Layer group2_block1_conv0_relu
I1105 06:22:50.835158 13103 net.cpp:434] group2_block1_conv0_relu <- group2_block1_conv0
I1105 06:22:50.835199 13103 net.cpp:395] group2_block1_conv0_relu -> group2_block1_conv0 (in-place)
I1105 06:22:50.835223 13103 net.cpp:150] Setting up group2_block1_conv0_relu
I1105 06:22:50.835233 13103 net.cpp:157] Top shape: 100 64 8 8 (409600)
I1105 06:22:50.835239 13103 net.cpp:165] Memory required for data: 373146800
I1105 06:22:50.835247 13103 layer_factory.hpp:77] Creating layer group2_block1_conv1
I1105 06:22:50.835259 13103 net.cpp:100] Creating Layer group2_block1_conv1
I1105 06:22:50.835268 13103 net.cpp:434] group2_block1_conv1 <- group2_block1_conv0
I1105 06:22:50.835278 13103 net.cpp:408] group2_block1_conv1 -> group2_block1_conv1
I1105 06:22:50.835945 13103 net.cpp:150] Setting up group2_block1_conv1
I1105 06:22:50.835961 13103 net.cpp:157] Top shape: 100 64 8 8 (409600)
I1105 06:22:50.835969 13103 net.cpp:165] Memory required for data: 374785200
I1105 06:22:50.835983 13103 layer_factory.hpp:77] Creating layer group2_block1_conv1_bn
I1105 06:22:50.836007 13103 net.cpp:100] Creating Layer group2_block1_conv1_bn
I1105 06:22:50.836016 13103 net.cpp:434] group2_block1_conv1_bn <- group2_block1_conv1
I1105 06:22:50.836026 13103 net.cpp:395] group2_block1_conv1_bn -> group2_block1_conv1 (in-place)
I1105 06:22:50.836048 13103 net.cpp:150] Setting up group2_block1_conv1_bn
I1105 06:22:50.836061 13103 net.cpp:157] Top shape: 100 64 8 8 (409600)
I1105 06:22:50.836068 13103 net.cpp:165] Memory required for data: 376423600
I1105 06:22:50.836113 13103 layer_factory.hpp:77] Creating layer group2_block1_conv1_scale
I1105 06:22:50.836134 13103 net.cpp:100] Creating Layer group2_block1_conv1_scale
I1105 06:22:50.836143 13103 net.cpp:434] group2_block1_conv1_scale <- group2_block1_conv1
I1105 06:22:50.836153 13103 net.cpp:395] group2_block1_conv1_scale -> group2_block1_conv1 (in-place)
I1105 06:22:50.836169 13103 layer_factory.hpp:77] Creating layer group2_block1_conv1_scale
I1105 06:22:50.836192 13103 net.cpp:150] Setting up group2_block1_conv1_scale
I1105 06:22:50.836215 13103 net.cpp:157] Top shape: 100 64 8 8 (409600)
I1105 06:22:50.836221 13103 net.cpp:165] Memory required for data: 378062000
I1105 06:22:50.836232 13103 layer_factory.hpp:77] Creating layer group2_block1_sum
I1105 06:22:50.836243 13103 net.cpp:100] Creating Layer group2_block1_sum
I1105 06:22:50.836251 13103 net.cpp:434] group2_block1_sum <- group2_block1_conv1
I1105 06:22:50.836261 13103 net.cpp:434] group2_block1_sum <- group2_block0_sum_group2_block0_sum_0_split_1
I1105 06:22:50.836274 13103 net.cpp:408] group2_block1_sum -> group2_block1_sum
I1105 06:22:50.836288 13103 net.cpp:150] Setting up group2_block1_sum
I1105 06:22:50.836305 13103 net.cpp:157] Top shape: 100 64 8 8 (409600)
I1105 06:22:50.836315 13103 net.cpp:165] Memory required for data: 379700400
I1105 06:22:50.836323 13103 layer_factory.hpp:77] Creating layer group2_block1_sum_group2_block1_sum_0_split
I1105 06:22:50.836349 13103 net.cpp:100] Creating Layer group2_block1_sum_group2_block1_sum_0_split
I1105 06:22:50.836356 13103 net.cpp:434] group2_block1_sum_group2_block1_sum_0_split <- group2_block1_sum
I1105 06:22:50.836366 13103 net.cpp:408] group2_block1_sum_group2_block1_sum_0_split -> group2_block1_sum_group2_block1_sum_0_split_0
I1105 06:22:50.836380 13103 net.cpp:408] group2_block1_sum_group2_block1_sum_0_split -> group2_block1_sum_group2_block1_sum_0_split_1
I1105 06:22:50.836397 13103 net.cpp:150] Setting up group2_block1_sum_group2_block1_sum_0_split
I1105 06:22:50.836414 13103 net.cpp:157] Top shape: 100 64 8 8 (409600)
I1105 06:22:50.836443 13103 net.cpp:157] Top shape: 100 64 8 8 (409600)
I1105 06:22:50.836452 13103 net.cpp:165] Memory required for data: 382977200
I1105 06:22:50.836459 13103 layer_factory.hpp:77] Creating layer group2_block2_conv0
I1105 06:22:50.836472 13103 net.cpp:100] Creating Layer group2_block2_conv0
I1105 06:22:50.836479 13103 net.cpp:434] group2_block2_conv0 <- group2_block1_sum_group2_block1_sum_0_split_0
I1105 06:22:50.836491 13103 net.cpp:408] group2_block2_conv0 -> group2_block2_conv0
I1105 06:22:50.837141 13103 net.cpp:150] Setting up group2_block2_conv0
I1105 06:22:50.837177 13103 net.cpp:157] Top shape: 100 64 8 8 (409600)
I1105 06:22:50.837193 13103 net.cpp:165] Memory required for data: 384615600
I1105 06:22:50.837203 13103 layer_factory.hpp:77] Creating layer group2_block2_conv0_bn
I1105 06:22:50.837237 13103 net.cpp:100] Creating Layer group2_block2_conv0_bn
I1105 06:22:50.837246 13103 net.cpp:434] group2_block2_conv0_bn <- group2_block2_conv0
I1105 06:22:50.837256 13103 net.cpp:395] group2_block2_conv0_bn -> group2_block2_conv0 (in-place)
I1105 06:22:50.837309 13103 net.cpp:150] Setting up group2_block2_conv0_bn
I1105 06:22:50.837337 13103 net.cpp:157] Top shape: 100 64 8 8 (409600)
I1105 06:22:50.837343 13103 net.cpp:165] Memory required for data: 386254000
I1105 06:22:50.837358 13103 layer_factory.hpp:77] Creating layer group2_block2_conv0_scale
I1105 06:22:50.837368 13103 net.cpp:100] Creating Layer group2_block2_conv0_scale
I1105 06:22:50.837376 13103 net.cpp:434] group2_block2_conv0_scale <- group2_block2_conv0
I1105 06:22:50.837390 13103 net.cpp:395] group2_block2_conv0_scale -> group2_block2_conv0 (in-place)
I1105 06:22:50.837412 13103 layer_factory.hpp:77] Creating layer group2_block2_conv0_scale
I1105 06:22:50.837436 13103 net.cpp:150] Setting up group2_block2_conv0_scale
I1105 06:22:50.837450 13103 net.cpp:157] Top shape: 100 64 8 8 (409600)
I1105 06:22:50.837462 13103 net.cpp:165] Memory required for data: 387892400
I1105 06:22:50.837472 13103 layer_factory.hpp:77] Creating layer group2_block2_conv0_relu
I1105 06:22:50.837482 13103 net.cpp:100] Creating Layer group2_block2_conv0_relu
I1105 06:22:50.837497 13103 net.cpp:434] group2_block2_conv0_relu <- group2_block2_conv0
I1105 06:22:50.837509 13103 net.cpp:395] group2_block2_conv0_relu -> group2_block2_conv0 (in-place)
I1105 06:22:50.837520 13103 net.cpp:150] Setting up group2_block2_conv0_relu
I1105 06:22:50.837529 13103 net.cpp:157] Top shape: 100 64 8 8 (409600)
I1105 06:22:50.837537 13103 net.cpp:165] Memory required for data: 389530800
I1105 06:22:50.837543 13103 layer_factory.hpp:77] Creating layer group2_block2_conv1
I1105 06:22:50.837558 13103 net.cpp:100] Creating Layer group2_block2_conv1
I1105 06:22:50.837571 13103 net.cpp:434] group2_block2_conv1 <- group2_block2_conv0
I1105 06:22:50.837584 13103 net.cpp:408] group2_block2_conv1 -> group2_block2_conv1
I1105 06:22:50.838219 13103 net.cpp:150] Setting up group2_block2_conv1
I1105 06:22:50.838232 13103 net.cpp:157] Top shape: 100 64 8 8 (409600)
I1105 06:22:50.838239 13103 net.cpp:165] Memory required for data: 391169200
I1105 06:22:50.838253 13103 layer_factory.hpp:77] Creating layer group2_block2_conv1_bn
I1105 06:22:50.838263 13103 net.cpp:100] Creating Layer group2_block2_conv1_bn
I1105 06:22:50.838271 13103 net.cpp:434] group2_block2_conv1_bn <- group2_block2_conv1
I1105 06:22:50.838280 13103 net.cpp:395] group2_block2_conv1_bn -> group2_block2_conv1 (in-place)
I1105 06:22:50.838302 13103 net.cpp:150] Setting up group2_block2_conv1_bn
I1105 06:22:50.838322 13103 net.cpp:157] Top shape: 100 64 8 8 (409600)
I1105 06:22:50.838330 13103 net.cpp:165] Memory required for data: 392807600
I1105 06:22:50.838342 13103 layer_factory.hpp:77] Creating layer group2_block2_conv1_scale
I1105 06:22:50.838351 13103 net.cpp:100] Creating Layer group2_block2_conv1_scale
I1105 06:22:50.838359 13103 net.cpp:434] group2_block2_conv1_scale <- group2_block2_conv1
I1105 06:22:50.838368 13103 net.cpp:395] group2_block2_conv1_scale -> group2_block2_conv1 (in-place)
I1105 06:22:50.838383 13103 layer_factory.hpp:77] Creating layer group2_block2_conv1_scale
I1105 06:22:50.838412 13103 net.cpp:150] Setting up group2_block2_conv1_scale
I1105 06:22:50.838421 13103 net.cpp:157] Top shape: 100 64 8 8 (409600)
I1105 06:22:50.838434 13103 net.cpp:165] Memory required for data: 394446000
I1105 06:22:50.838449 13103 layer_factory.hpp:77] Creating layer group2_block2_sum
I1105 06:22:50.838462 13103 net.cpp:100] Creating Layer group2_block2_sum
I1105 06:22:50.838470 13103 net.cpp:434] group2_block2_sum <- group2_block2_conv1
I1105 06:22:50.838479 13103 net.cpp:434] group2_block2_sum <- group2_block1_sum_group2_block1_sum_0_split_1
I1105 06:22:50.838511 13103 net.cpp:408] group2_block2_sum -> group2_block2_sum
I1105 06:22:50.838526 13103 net.cpp:150] Setting up group2_block2_sum
I1105 06:22:50.838534 13103 net.cpp:157] Top shape: 100 64 8 8 (409600)
I1105 06:22:50.838541 13103 net.cpp:165] Memory required for data: 396084400
I1105 06:22:50.838548 13103 layer_factory.hpp:77] Creating layer global_avg_pool
I1105 06:22:50.838559 13103 net.cpp:100] Creating Layer global_avg_pool
I1105 06:22:50.838567 13103 net.cpp:434] global_avg_pool <- group2_block2_sum
I1105 06:22:50.838577 13103 net.cpp:408] global_avg_pool -> global_avg_pool
I1105 06:22:50.838613 13103 net.cpp:150] Setting up global_avg_pool
I1105 06:22:50.838625 13103 net.cpp:157] Top shape: 100 64 1 1 (6400)
I1105 06:22:50.838632 13103 net.cpp:165] Memory required for data: 396110000
I1105 06:22:50.838639 13103 layer_factory.hpp:77] Creating layer fc
I1105 06:22:50.838656 13103 net.cpp:100] Creating Layer fc
I1105 06:22:50.838678 13103 net.cpp:434] fc <- global_avg_pool
I1105 06:22:50.838690 13103 net.cpp:408] fc -> fc
I1105 06:22:50.838726 13103 net.cpp:150] Setting up fc
I1105 06:22:50.838737 13103 net.cpp:157] Top shape: 100 12 (1200)
I1105 06:22:50.838743 13103 net.cpp:165] Memory required for data: 396114800
I1105 06:22:50.838753 13103 layer_factory.hpp:77] Creating layer fc_fc_0_split
I1105 06:22:50.838763 13103 net.cpp:100] Creating Layer fc_fc_0_split
I1105 06:22:50.838770 13103 net.cpp:434] fc_fc_0_split <- fc
I1105 06:22:50.838779 13103 net.cpp:408] fc_fc_0_split -> fc_fc_0_split_0
I1105 06:22:50.838794 13103 net.cpp:408] fc_fc_0_split -> fc_fc_0_split_1
I1105 06:22:50.838815 13103 net.cpp:150] Setting up fc_fc_0_split
I1105 06:22:50.838824 13103 net.cpp:157] Top shape: 100 12 (1200)
I1105 06:22:50.838832 13103 net.cpp:157] Top shape: 100 12 (1200)
I1105 06:22:50.838838 13103 net.cpp:165] Memory required for data: 396124400
I1105 06:22:50.838845 13103 layer_factory.hpp:77] Creating layer loss
I1105 06:22:50.838855 13103 net.cpp:100] Creating Layer loss
I1105 06:22:50.838861 13103 net.cpp:434] loss <- fc_fc_0_split_0
I1105 06:22:50.838871 13103 net.cpp:434] loss <- label_data_1_split_0
I1105 06:22:50.838881 13103 net.cpp:408] loss -> loss
I1105 06:22:50.838896 13103 layer_factory.hpp:77] Creating layer loss
I1105 06:22:50.838928 13103 net.cpp:150] Setting up loss
I1105 06:22:50.838939 13103 net.cpp:157] Top shape: (1)
I1105 06:22:50.838945 13103 net.cpp:160]     with loss weight 1
I1105 06:22:50.838981 13103 net.cpp:165] Memory required for data: 396124404
I1105 06:22:50.838989 13103 layer_factory.hpp:77] Creating layer softmax
I1105 06:22:50.838997 13103 net.cpp:100] Creating Layer softmax
I1105 06:22:50.839005 13103 net.cpp:434] softmax <- fc_fc_0_split_1
I1105 06:22:50.839013 13103 net.cpp:408] softmax -> softmax
I1105 06:22:50.839026 13103 net.cpp:150] Setting up softmax
I1105 06:22:50.839041 13103 net.cpp:157] Top shape: 100 12 (1200)
I1105 06:22:50.839051 13103 net.cpp:165] Memory required for data: 396129204
I1105 06:22:50.839057 13103 layer_factory.hpp:77] Creating layer Accuracy
I1105 06:22:50.839069 13103 net.cpp:100] Creating Layer Accuracy
I1105 06:22:50.839077 13103 net.cpp:434] Accuracy <- softmax
I1105 06:22:50.839085 13103 net.cpp:434] Accuracy <- label_data_1_split_1
I1105 06:22:50.839095 13103 net.cpp:408] Accuracy -> Accuracy
…
