…
I1106 02:22:16.420001 13390 net.cpp:322] The NetState phase (0) differed from the phase (1) specified by a rule in layer data
I1106 02:22:16.420805 13390 net.cpp:58] Initializing net from parameters: 
name: "resnet20-cifar10"
state {
  phase: TRAIN
  level: 0
  stage: ""
}
layer {
  name: "data"
  type: "Data"
  top: "data"
  top: "label"
  include {
    phase: TRAIN
  }
  transform_param {
    mirror: true
    crop_size: 32
    mean_file: "data/mean.binaryproto"
  }
  data_param {
    source: "data/train_lmdb"
    batch_size: 100
    backend: LMDB
  }
}
layer {
  name: "first_conv"
  type: "Convolution"
  bottom: "data"
  top: "first_conv"
  param {
    lr_mult: 1
    decay_mult: 1
  }
  convolution_param {
    num_output: 16
    pad: 1
    kernel_size: 3
    stride: 1
    weight_filler {
      type: "msra"
    }
  }
}
layer {
  name: "first_conv_bn"
  type: "BatchNorm"
  bottom: "first_conv"
  top: "first_conv"
  batch_norm_param {
    use_global_stats: false
    moving_average_fraction: 0.95
  }
}
layer {
  name: "first_conv_scale"
  type: "Scale"
  bottom: "first_conv"
  top: "first_conv"
  scale_param {
    bias_term: true
  }
}
layer {
  name: "first_conv_relu"
  type: "ReLU"
  bottom: "first_conv"
  top: "first_conv"
}
layer {
  name: "group0_block0_conv0"
  type: "Convolution"
  bottom: "first_conv"
  top: "group0_block0_conv0"
  param {
    lr_mult: 1
    decay_mult: 1
  }
  convolution_param {
    num_output: 16
    pad: 1
    kernel_size: 3
    stride: 1
    weight_filler {
      type: "msra"
    }
  }
}
layer {
  name: "group0_block0_conv0_bn"
  type: "BatchNorm"
  bottom: "group0_block0_conv0"
  top: "group0_block0_conv0"
  batch_norm_param {
    use_global_stats: false
    moving_average_fraction: 0.95
  }
}
layer {
  name: "group0_block0_conv0_scale"
  type: "Scale"
  bottom: "group0_block0_conv0"
  top: "group0_block0_conv0"
  scale_param {
    bias_term: true
  }
}
layer {
  name: "group0_block0_conv0_relu"
  type: "ReLU"
  bottom: "group0_block0_conv0"
  top: "group0_block0_conv0"
}
layer {
  name: "group0_block0_conv1"
  type: "Convolution"
  bottom: "group0_block0_conv0"
  top: "group0_block0_conv1"
  param {
    lr_mult: 1
    decay_mult: 1
  }
  convolution_param {
    num_output: 16
    pad: 1
    kernel_size: 3
    stride: 1
    weight_filler {
      type: "msra"
    }
  }
}
layer {
  name: "group0_block0_conv1_bn"
  type: "BatchNorm"
  bottom: "group0_block0_conv1"
  top: "group0_block0_conv1"
  batch_norm_param {
    use_global_stats: false
    moving_average_fraction: 0.95
  }
}
layer {
  name: "group0_block0_conv1_scale"
  type: "Scale"
  bottom: "group0_block0_conv1"
  top: "group0_block0_conv1"
  scale_param {
    bias_term: true
  }
}
layer {
  name: "group0_block0_sum"
  type: "Eltwise"
  bottom: "group0_block0_conv1"
  bottom: "first_conv"
  top: "group0_block0_sum"
  eltwise_param {
    operation: SUM
  }
}
layer {
  name: "group0_block1_conv0"
  type: "Convolution"
  bottom: "group0_block0_sum"
  top: "group0_block1_conv0"
  param {
    lr_mult: 1
    decay_mult: 1
  }
  convolution_param {
    num_output: 16
    pad: 1
    kernel_size: 3
    stride: 1
    weight_filler {
      type: "msra"
    }
  }
}
layer {
  name: "group0_block1_conv0_bn"
  type: "BatchNorm"
  bottom: "group0_block1_conv0"
  top: "group0_block1_conv0"
  batch_norm_param {
    use_global_stats: false
    moving_average_fraction: 0.95
  }
}
layer {
  name: "group0_block1_conv0_scale"
  type: "Scale"
  bottom: "group0_block1_conv0"
  top: "group0_block1_conv0"
  scale_param {
    bias_term: true
  }
}
layer {
  name: "group0_block1_conv0_relu"
  type: "ReLU"
  bottom: "group0_block1_conv0"
  top: "group0_block1_conv0"
}
layer {
  name: "group0_block1_conv1"
  type: "Convolution"
  bottom: "group0_block1_conv0"
  top: "group0_block1_conv1"
  param {
    lr_mult: 1
    decay_mult: 1
  }
  convolution_param {
    num_output: 16
    pad: 1
    kernel_size: 3
    stride: 1
    weight_filler {
      type: "msra"
    }
  }
}
layer {
  name: "group0_block1_conv1_bn"
  type: "BatchNorm"
  bottom: "group0_block1_conv1"
  top: "group0_block1_conv1"
  batch_norm_param {
    use_global_stats: false
    moving_average_fraction: 0.95
  }
}
layer {
  name: "group0_block1_conv1_scale"
  type: "Scale"
  bottom: "group0_block1_conv1"
  top: "group0_block1_conv1"
  scale_param {
    bias_term: true
  }
}
layer {
  name: "group0_block1_sum"
  type: "Eltwise"
  bottom: "group0_block1_conv1"
  bottom: "group0_block0_sum"
  top: "group0_block1_sum"
  eltwise_param {
    operation: SUM
  }
}
layer {
  name: "group0_block2_conv0"
  type: "Convolution"
  bottom: "group0_block1_sum"
  top: "group0_block2_conv0"
  param {
    lr_mult: 1
    decay_mult: 1
  }
  convolution_param {
    num_output: 16
    pad: 1
    kernel_size: 3
    stride: 1
    weight_filler {
      type: "msra"
    }
  }
}
layer {
  name: "group0_block2_conv0_bn"
  type: "BatchNorm"
  bottom: "group0_block2_conv0"
  top: "group0_block2_conv0"
  batch_norm_param {
    use_global_stats: false
    moving_average_fraction: 0.95
  }
}
layer {
  name: "group0_block2_conv0_scale"
  type: "Scale"
  bottom: "group0_block2_conv0"
  top: "group0_block2_conv0"
  scale_param {
    bias_term: true
  }
}
layer {
  name: "group0_block2_conv0_relu"
  type: "ReLU"
  bottom: "group0_block2_conv0"
  top: "group0_block2_conv0"
}
layer {
  name: "group0_block2_conv1"
  type: "Convolution"
  bottom: "group0_block2_conv0"
  top: "group0_block2_conv1"
  param {
    lr_mult: 1
    decay_mult: 1
  }
  convolution_param {
    num_output: 16
    pad: 1
    kernel_size: 3
    stride: 1
    weight_filler {
      type: "msra"
    }
  }
}
layer {
  name: "group0_block2_conv1_bn"
  type: "BatchNorm"
  bottom: "group0_block2_conv1"
  top: "group0_block2_conv1"
  batch_norm_param {
    use_global_stats: false
    moving_average_fraction: 0.95
  }
}
layer {
  name: "group0_block2_conv1_scale"
  type: "Scale"
  bottom: "group0_block2_conv1"
  top: "group0_block2_conv1"
  scale_param {
    bias_term: true
  }
}
layer {
  name: "group0_block2_sum"
  type: "Eltwise"
  bottom: "group0_block2_conv1"
  bottom: "group0_block1_sum"
  top: "group0_block2_sum"
  eltwise_param {
    operation: SUM
  }
}
layer {
  name: "group1_block0_conv0"
  type: "Convolution"
  bottom: "group0_block2_sum"
  top: "group1_block0_conv0"
  param {
    lr_mult: 1
    decay_mult: 1
  }
  convolution_param {
    num_output: 32
    pad: 1
    kernel_size: 3
    stride: 2
    weight_filler {
      type: "msra"
    }
  }
}
layer {
  name: "group1_block0_conv0_bn"
  type: "BatchNorm"
  bottom: "group1_block0_conv0"
  top: "group1_block0_conv0"
  batch_norm_param {
    use_global_stats: false
    moving_average_fraction: 0.95
  }
}
layer {
  name: "group1_block0_conv0_scale"
  type: "Scale"
  bottom: "group1_block0_conv0"
  top: "group1_block0_conv0"
  scale_param {
    bias_term: true
  }
}
layer {
  name: "group1_block0_conv0_relu"
  type: "ReLU"
  bottom: "group1_block0_conv0"
  top: "group1_block0_conv0"
}
layer {
  name: "group1_block0_conv1"
  type: "Convolution"
  bottom: "group1_block0_conv0"
  top: "group1_block0_conv1"
  param {
    lr_mult: 1
    decay_mult: 1
  }
  convolution_param {
    num_output: 32
    pad: 1
    kernel_size: 3
    stride: 1
    weight_filler {
      type: "msra"
    }
  }
}
layer {
  name: "group1_block0_conv1_bn"
  type: "BatchNorm"
  bottom: "group1_block0_conv1"
  top: "group1_block0_conv1"
  batch_norm_param {
    use_global_stats: false
    moving_average_fraction: 0.95
  }
}
layer {
  name: "group1_block0_conv1_scale"
  type: "Scale"
  bottom: "group1_block0_conv1"
  top: "group1_block0_conv1"
  scale_param {
    bias_term: true
  }
}
layer {
  name: "group1_block0_proj"
  type: "Convolution"
  bottom: "group0_block2_sum"
  top: "group1_block0_proj"
  param {
    lr_mult: 1
    decay_mult: 1
  }
  convolution_param {
    num_output: 32
    pad: 0
    kernel_size: 2
    stride: 2
    weight_filler {
      type: "msra"
    }
  }
}
layer {
  name: "group1_block0_proj_bn"
  type: "BatchNorm"
  bottom: "group1_block0_proj"
  top: "group1_block0_proj"
  batch_norm_param {
    use_global_stats: false
    moving_average_fraction: 0.95
  }
}
layer {
  name: "group1_block0_proj_scale"
  type: "Scale"
  bottom: "group1_block0_proj"
  top: "group1_block0_proj"
  scale_param {
    bias_term: true
  }
}
layer {
  name: "group1_block0_sum"
  type: "Eltwise"
  bottom: "group1_block0_proj"
  bottom: "group1_block0_conv1"
  top: "group1_block0_sum"
  eltwise_param {
    operation: SUM
  }
}
layer {
  name: "group1_block1_conv0"
  type: "Convolution"
  bottom: "group1_block0_sum"
  top: "group1_block1_conv0"
  param {
    lr_mult: 1
    decay_mult: 1
  }
  convolution_param {
    num_output: 32
    pad: 1
    kernel_size: 3
    stride: 1
    weight_filler {
      type: "msra"
    }
  }
}
layer {
  name: "group1_block1_conv0_bn"
  type: "BatchNorm"
  bottom: "group1_block1_conv0"
  top: "group1_block1_conv0"
  batch_norm_param {
    use_global_stats: false
    moving_average_fraction: 0.95
  }
}
layer {
  name: "group1_block1_conv0_scale"
  type: "Scale"
  bottom: "group1_block1_conv0"
  top: "group1_block1_conv0"
  scale_param {
    bias_term: true
  }
}
layer {
  name: "group1_block1_conv0_relu"
  type: "ReLU"
  bottom: "group1_block1_conv0"
  top: "group1_block1_conv0"
}
layer {
  name: "group1_block1_conv1"
  type: "Convolution"
  bottom: "group1_block1_conv0"
  top: "group1_block1_conv1"
  param {
    lr_mult: 1
    decay_mult: 1
  }
  convolution_param {
    num_output: 32
    pad: 1
    kernel_size: 3
    stride: 1
    weight_filler {
      type: "msra"
    }
  }
}
layer {
  name: "group1_block1_conv1_bn"
  type: "BatchNorm"
  bottom: "group1_block1_conv1"
  top: "group1_block1_conv1"
  batch_norm_param {
    use_global_stats: false
    moving_average_fraction: 0.95
  }
}
layer {
  name: "group1_block1_conv1_scale"
  type: "Scale"
  bottom: "group1_block1_conv1"
  top: "group1_block1_conv1"
  scale_param {
    bias_term: true
  }
}
layer {
  name: "group1_block1_sum"
  type: "Eltwise"
  bottom: "group1_block1_conv1"
  bottom: "group1_block0_sum"
  top: "group1_block1_sum"
  eltwise_param {
    operation: SUM
  }
}
layer {
  name: "group1_block2_conv0"
  type: "Convolution"
  bottom: "group1_block1_sum"
  top: "group1_block2_conv0"
  param {
    lr_mult: 1
    decay_mult: 1
  }
  convolution_param {
    num_output: 32
    pad: 1
    kernel_size: 3
    stride: 1
    weight_filler {
      type: "msra"
    }
  }
}
layer {
  name: "group1_block2_conv0_bn"
  type: "BatchNorm"
  bottom: "group1_block2_conv0"
  top: "group1_block2_conv0"
  batch_norm_param {
    use_global_stats: false
    moving_average_fraction: 0.95
  }
}
layer {
  name: "group1_block2_conv0_scale"
  type: "Scale"
  bottom: "group1_block2_conv0"
  top: "group1_block2_conv0"
  scale_param {
    bias_term: true
  }
}
layer {
  name: "group1_block2_conv0_relu"
  type: "ReLU"
  bottom: "group1_block2_conv0"
  top: "group1_block2_conv0"
}
layer {
  name: "group1_block2_conv1"
  type: "Convolution"
  bottom: "group1_block2_conv0"
  top: "group1_block2_conv1"
  param {
    lr_mult: 1
    decay_mult: 1
  }
  convolution_param {
    num_output: 32
    pad: 1
    kernel_size: 3
    stride: 1
    weight_filler {
      type: "msra"
    }
  }
}
layer {
  name: "group1_block2_conv1_bn"
  type: "BatchNorm"
  bottom: "group1_block2_conv1"
  top: "group1_block2_conv1"
  batch_norm_param {
    use_global_stats: false
    moving_average_fraction: 0.95
  }
}
layer {
  name: "group1_block2_conv1_scale"
  type: "Scale"
  bottom: "group1_block2_conv1"
  top: "group1_block2_conv1"
  scale_param {
    bias_term: true
  }
}
layer {
  name: "group1_block2_sum"
  type: "Eltwise"
  bottom: "group1_block2_conv1"
  bottom: "group1_block1_sum"
  top: "group1_block2_sum"
  eltwise_param {
    operation: SUM
  }
}
layer {
  name: "group2_block0_conv0"
  type: "Convolution"
  bottom: "group1_block2_sum"
  top: "group2_block0_conv0"
  param {
    lr_mult: 1
    decay_mult: 1
  }
  convolution_param {
    num_output: 64
    pad: 1
    kernel_size: 3
    stride: 2
    weight_filler {
      type: "msra"
    }
  }
}
layer {
  name: "group2_block0_conv0_bn"
  type: "BatchNorm"
  bottom: "group2_block0_conv0"
  top: "group2_block0_conv0"
  batch_norm_param {
    use_global_stats: false
    moving_average_fraction: 0.95
  }
}
layer {
  name: "group2_block0_conv0_scale"
  type: "Scale"
  bottom: "group2_block0_conv0"
  top: "group2_block0_conv0"
  scale_param {
    bias_term: true
  }
}
layer {
  name: "group2_block0_conv0_relu"
  type: "ReLU"
  bottom: "group2_block0_conv0"
  top: "group2_block0_conv0"
}
layer {
  name: "group2_block0_conv1"
  type: "Convolution"
  bottom: "group2_block0_conv0"
  top: "group2_block0_conv1"
  param {
    lr_mult: 1
    decay_mult: 1
  }
  convolution_param {
    num_output: 64
    pad: 1
    kernel_size: 3
    stride: 1
    weight_filler {
      type: "msra"
    }
  }
}
layer {
  name: "group2_block0_conv1_bn"
  type: "BatchNorm"
  bottom: "group2_block0_conv1"
  top: "group2_block0_conv1"
  batch_norm_param {
    use_global_stats: false
    moving_average_fraction: 0.95
  }
}
layer {
  name: "group2_block0_conv1_scale"
  type: "Scale"
  bottom: "group2_block0_conv1"
  top: "group2_block0_conv1"
  scale_param {
    bias_term: true
  }
}
layer {
  name: "group2_block0_proj"
  type: "Convolution"
  bottom: "group1_block2_sum"
  top: "group2_block0_proj"
  param {
    lr_mult: 1
    decay_mult: 1
  }
  convolution_param {
    num_output: 64
    pad: 0
    kernel_size: 2
    stride: 2
    weight_filler {
      type: "msra"
    }
  }
}
layer {
  name: "group2_block0_proj_bn"
  type: "BatchNorm"
  bottom: "group2_block0_proj"
  top: "group2_block0_proj"
  batch_norm_param {
    use_global_stats: false
    moving_average_fraction: 0.95
  }
}
layer {
  name: "group2_block0_proj_scale"
  type: "Scale"
  bottom: "group2_block0_proj"
  top: "group2_block0_proj"
  scale_param {
    bias_term: true
  }
}
layer {
  name: "group2_block0_sum"
  type: "Eltwise"
  bottom: "group2_block0_proj"
  bottom: "group2_block0_conv1"
  top: "group2_block0_sum"
  eltwise_param {
    operation: SUM
  }
}
layer {
  name: "group2_block1_conv0"
  type: "Convolution"
  bottom: "group2_block0_sum"
  top: "group2_block1_conv0"
  param {
    lr_mult: 1
    decay_mult: 1
  }
  convolution_param {
    num_output: 64
    pad: 1
    kernel_size: 3
    stride: 1
    weight_filler {
      type: "msra"
    }
  }
}
layer {
  name: "group2_block1_conv0_bn"
  type: "BatchNorm"
  bottom: "group2_block1_conv0"
  top: "group2_block1_conv0"
  batch_norm_param {
    use_global_stats: false
    moving_average_fraction: 0.95
  }
}
layer {
  name: "group2_block1_conv0_scale"
  type: "Scale"
  bottom: "group2_block1_conv0"
  top: "group2_block1_conv0"
  scale_param {
    bias_term: true
  }
}
layer {
  name: "group2_block1_conv0_relu"
  type: "ReLU"
  bottom: "group2_block1_conv0"
  top: "group2_block1_conv0"
}
layer {
  name: "group2_block1_conv1"
  type: "Convolution"
  bottom: "group2_block1_conv0"
  top: "group2_block1_conv1"
  param {
    lr_mult: 1
    decay_mult: 1
  }
  convolution_param {
    num_output: 64
    pad: 1
    kernel_size: 3
    stride: 1
    weight_filler {
      type: "msra"
    }
  }
}
layer {
  name: "group2_block1_conv1_bn"
  type: "BatchNorm"
  bottom: "group2_block1_conv1"
  top: "group2_block1_conv1"
  batch_norm_param {
    use_global_stats: false
    moving_average_fraction: 0.95
  }
}
layer {
  name: "group2_block1_conv1_scale"
  type: "Scale"
  bottom: "group2_block1_conv1"
  top: "group2_block1_conv1"
  scale_param {
    bias_term: true
  }
}
layer {
  name: "group2_block1_sum"
  type: "Eltwise"
  bottom: "group2_block1_conv1"
  bottom: "group2_block0_sum"
  top: "group2_block1_sum"
  eltwise_param {
    operation: SUM
  }
}
layer {
  name: "group2_block2_conv0"
  type: "Convolution"
  bottom: "group2_block1_sum"
  top: "group2_block2_conv0"
  param {
    lr_mult: 1
    decay_mult: 1
  }
  convolution_param {
    num_output: 64
    pad: 1
    kernel_size: 3
    stride: 1
    weight_filler {
      type: "msra"
    }
  }
}
layer {
  name: "group2_block2_conv0_bn"
  type: "BatchNorm"
  bottom: "group2_block2_conv0"
  top: "group2_block2_conv0"
  batch_norm_param {
    use_global_stats: false
    moving_average_fraction: 0.95
  }
}
layer {
  name: "group2_block2_conv0_scale"
  type: "Scale"
  bottom: "group2_block2_conv0"
  top: "group2_block2_conv0"
  scale_param {
    bias_term: true
  }
}
layer {
  name: "group2_block2_conv0_relu"
  type: "ReLU"
  bottom: "group2_block2_conv0"
  top: "group2_block2_conv0"
}
layer {
  name: "group2_block2_conv1"
  type: "Convolution"
  bottom: "group2_block2_conv0"
  top: "group2_block2_conv1"
  param {
    lr_mult: 1
    decay_mult: 1
  }
  convolution_param {
    num_output: 64
    pad: 1
    kernel_size: 3
    stride: 1
    weight_filler {
      type: "msra"
    }
  }
}
layer {
  name: "group2_block2_conv1_bn"
  type: "BatchNorm"
  bottom: "group2_block2_conv1"
  top: "group2_block2_conv1"
  batch_norm_param {
    use_global_stats: false
    moving_average_fraction: 0.95
  }
}
layer {
  name: "group2_block2_conv1_scale"
  type: "Scale"
  bottom: "group2_block2_conv1"
  top: "group2_block2_conv1"
  scale_param {
    bias_term: true
  }
}
layer {
  name: "group2_block2_sum"
  type: "Eltwise"
  bottom: "group2_block2_conv1"
  bottom: "group2_block1_sum"
  top: "group2_block2_sum"
  eltwise_param {
    operation: SUM
  }
}
layer {
  name: "global_avg_pool"
  type: "Pooling"
  bottom: "group2_block2_sum"
  top: "global_avg_pool"
  pooling_param {
    pool: AVE
    global_pooling: true
  }
}
layer {
  name: "fc"
  type: "InnerProduct"
  bottom: "global_avg_pool"
  top: "fc"
  param {
    lr_mult: 1
    decay_mult: 1
  }
  param {
    lr_mult: 2
    decay_mult: 0
  }
  inner_product_param {
    num_output: 12
    weight_filler {
      type: "msra"
    }
    bias_filler {
      type: "constant"
      value: 0
    }
  }
}
layer {
  name: "loss"
  type: "SoftmaxWithLoss"
  bottom: "fc"
  bottom: "label"
  top: "loss"
}
layer {
  name: "softmax"
  type: "Softmax"
  bottom: "fc"
  top: "softmax"
}
layer {
  name: "Accuracy"
  type: "Accuracy"
  bottom: "softmax"
  bottom: "label"
  top: "Accuracy"
}
I1106 02:22:16.421386 13390 layer_factory.hpp:77] Creating layer data
I1106 02:22:16.421835 13390 net.cpp:100] Creating Layer data
I1106 02:22:16.421911 13390 net.cpp:408] data -> data
I1106 02:22:16.422018 13390 net.cpp:408] data -> label
I1106 02:22:16.422055 13390 data_transformer.cpp:25] Loading mean file from: data/mean.binaryproto
I1106 02:22:16.422107 13393 db_lmdb.cpp:35] Opened lmdb data/train_lmdb
I1106 02:22:16.422230 13390 data_layer.cpp:41] output data size: 100,3,32,32
I1106 02:22:16.422381 13390 net.cpp:150] Setting up data
I1106 02:22:16.422408 13390 net.cpp:157] Top shape: 100 3 32 32 (307200)
I1106 02:22:16.422421 13390 net.cpp:157] Top shape: 100 (100)
I1106 02:22:16.422430 13390 net.cpp:165] Memory required for data: 1229200
I1106 02:22:16.422446 13390 layer_factory.hpp:77] Creating layer label_data_1_split
I1106 02:22:16.422463 13390 net.cpp:100] Creating Layer label_data_1_split
I1106 02:22:16.422477 13390 net.cpp:434] label_data_1_split <- label
I1106 02:22:16.422502 13390 net.cpp:408] label_data_1_split -> label_data_1_split_0
I1106 02:22:16.422582 13390 net.cpp:408] label_data_1_split -> label_data_1_split_1
I1106 02:22:16.422618 13390 net.cpp:150] Setting up label_data_1_split
I1106 02:22:16.422636 13390 net.cpp:157] Top shape: 100 (100)
I1106 02:22:16.422657 13390 net.cpp:157] Top shape: 100 (100)
I1106 02:22:16.422673 13390 net.cpp:165] Memory required for data: 1230000
I1106 02:22:16.422715 13390 layer_factory.hpp:77] Creating layer first_conv
I1106 02:22:16.422746 13390 net.cpp:100] Creating Layer first_conv
I1106 02:22:16.422761 13390 net.cpp:434] first_conv <- data
I1106 02:22:16.422781 13390 net.cpp:408] first_conv -> first_conv
I1106 02:22:16.422881 13390 net.cpp:150] Setting up first_conv
I1106 02:22:16.422902 13390 net.cpp:157] Top shape: 100 16 32 32 (1638400)
I1106 02:22:16.422915 13390 net.cpp:165] Memory required for data: 7783600
I1106 02:22:16.422994 13390 layer_factory.hpp:77] Creating layer first_conv_bn
I1106 02:22:16.423081 13390 net.cpp:100] Creating Layer first_conv_bn
I1106 02:22:16.423101 13390 net.cpp:434] first_conv_bn <- first_conv
I1106 02:22:16.423123 13390 net.cpp:395] first_conv_bn -> first_conv (in-place)
I1106 02:22:16.423220 13390 net.cpp:150] Setting up first_conv_bn
I1106 02:22:16.423244 13390 net.cpp:157] Top shape: 100 16 32 32 (1638400)
I1106 02:22:16.423257 13390 net.cpp:165] Memory required for data: 14337200
I1106 02:22:16.423292 13390 layer_factory.hpp:77] Creating layer first_conv_scale
I1106 02:22:16.423336 13390 net.cpp:100] Creating Layer first_conv_scale
I1106 02:22:16.423352 13390 net.cpp:434] first_conv_scale <- first_conv
I1106 02:22:16.423367 13390 net.cpp:395] first_conv_scale -> first_conv (in-place)
I1106 02:22:16.423404 13390 layer_factory.hpp:77] Creating layer first_conv_scale
I1106 02:22:16.423476 13390 net.cpp:150] Setting up first_conv_scale
I1106 02:22:16.423496 13390 net.cpp:157] Top shape: 100 16 32 32 (1638400)
I1106 02:22:16.423506 13390 net.cpp:165] Memory required for data: 20890800
I1106 02:22:16.423521 13390 layer_factory.hpp:77] Creating layer first_conv_relu
I1106 02:22:16.423539 13390 net.cpp:100] Creating Layer first_conv_relu
I1106 02:22:16.423550 13390 net.cpp:434] first_conv_relu <- first_conv
I1106 02:22:16.423568 13390 net.cpp:395] first_conv_relu -> first_conv (in-place)
I1106 02:22:16.423586 13390 net.cpp:150] Setting up first_conv_relu
I1106 02:22:16.423604 13390 net.cpp:157] Top shape: 100 16 32 32 (1638400)
I1106 02:22:16.423614 13390 net.cpp:165] Memory required for data: 27444400
I1106 02:22:16.423624 13390 layer_factory.hpp:77] Creating layer first_conv_first_conv_relu_0_split
I1106 02:22:16.423638 13390 net.cpp:100] Creating Layer first_conv_first_conv_relu_0_split
I1106 02:22:16.423652 13390 net.cpp:434] first_conv_first_conv_relu_0_split <- first_conv
I1106 02:22:16.423669 13390 net.cpp:408] first_conv_first_conv_relu_0_split -> first_conv_first_conv_relu_0_split_0
I1106 02:22:16.423701 13390 net.cpp:408] first_conv_first_conv_relu_0_split -> first_conv_first_conv_relu_0_split_1
I1106 02:22:16.423724 13390 net.cpp:150] Setting up first_conv_first_conv_relu_0_split
I1106 02:22:16.423743 13390 net.cpp:157] Top shape: 100 16 32 32 (1638400)
I1106 02:22:16.423756 13390 net.cpp:157] Top shape: 100 16 32 32 (1638400)
I1106 02:22:16.423771 13390 net.cpp:165] Memory required for data: 40551600
I1106 02:22:16.423782 13390 layer_factory.hpp:77] Creating layer group0_block0_conv0
I1106 02:22:16.423804 13390 net.cpp:100] Creating Layer group0_block0_conv0
I1106 02:22:16.423820 13390 net.cpp:434] group0_block0_conv0 <- first_conv_first_conv_relu_0_split_0
I1106 02:22:16.423840 13390 net.cpp:408] group0_block0_conv0 -> group0_block0_conv0
I1106 02:22:16.424074 13390 net.cpp:150] Setting up group0_block0_conv0
I1106 02:22:16.424094 13390 net.cpp:157] Top shape: 100 16 32 32 (1638400)
I1106 02:22:16.424104 13390 net.cpp:165] Memory required for data: 47105200
I1106 02:22:16.424124 13390 layer_factory.hpp:77] Creating layer group0_block0_conv0_bn
I1106 02:22:16.424144 13390 net.cpp:100] Creating Layer group0_block0_conv0_bn
I1106 02:22:16.424155 13390 net.cpp:434] group0_block0_conv0_bn <- group0_block0_conv0
I1106 02:22:16.424170 13390 net.cpp:395] group0_block0_conv0_bn -> group0_block0_conv0 (in-place)
I1106 02:22:16.424226 13390 net.cpp:150] Setting up group0_block0_conv0_bn
I1106 02:22:16.424243 13390 net.cpp:157] Top shape: 100 16 32 32 (1638400)
I1106 02:22:16.424253 13390 net.cpp:165] Memory required for data: 53658800
I1106 02:22:16.424321 13390 layer_factory.hpp:77] Creating layer group0_block0_conv0_scale
I1106 02:22:16.424371 13390 net.cpp:100] Creating Layer group0_block0_conv0_scale
I1106 02:22:16.424386 13390 net.cpp:434] group0_block0_conv0_scale <- group0_block0_conv0
I1106 02:22:16.424401 13390 net.cpp:395] group0_block0_conv0_scale -> group0_block0_conv0 (in-place)
I1106 02:22:16.424424 13390 layer_factory.hpp:77] Creating layer group0_block0_conv0_scale
I1106 02:22:16.424509 13390 net.cpp:150] Setting up group0_block0_conv0_scale
I1106 02:22:16.424527 13390 net.cpp:157] Top shape: 100 16 32 32 (1638400)
I1106 02:22:16.424537 13390 net.cpp:165] Memory required for data: 60212400
I1106 02:22:16.424558 13390 layer_factory.hpp:77] Creating layer group0_block0_conv0_relu
I1106 02:22:16.424572 13390 net.cpp:100] Creating Layer group0_block0_conv0_relu
I1106 02:22:16.424583 13390 net.cpp:434] group0_block0_conv0_relu <- group0_block0_conv0
I1106 02:22:16.424597 13390 net.cpp:395] group0_block0_conv0_relu -> group0_block0_conv0 (in-place)
I1106 02:22:16.424615 13390 net.cpp:150] Setting up group0_block0_conv0_relu
I1106 02:22:16.424629 13390 net.cpp:157] Top shape: 100 16 32 32 (1638400)
I1106 02:22:16.424645 13390 net.cpp:165] Memory required for data: 66766000
I1106 02:22:16.424655 13390 layer_factory.hpp:77] Creating layer group0_block0_conv1
I1106 02:22:16.424677 13390 net.cpp:100] Creating Layer group0_block0_conv1
I1106 02:22:16.424692 13390 net.cpp:434] group0_block0_conv1 <- group0_block0_conv0
I1106 02:22:16.424708 13390 net.cpp:408] group0_block0_conv1 -> group0_block0_conv1
I1106 02:22:16.424880 13390 net.cpp:150] Setting up group0_block0_conv1
I1106 02:22:16.424901 13390 net.cpp:157] Top shape: 100 16 32 32 (1638400)
I1106 02:22:16.424911 13390 net.cpp:165] Memory required for data: 73319600
I1106 02:22:16.424926 13390 layer_factory.hpp:77] Creating layer group0_block0_conv1_bn
I1106 02:22:16.424943 13390 net.cpp:100] Creating Layer group0_block0_conv1_bn
I1106 02:22:16.424954 13390 net.cpp:434] group0_block0_conv1_bn <- group0_block0_conv1
I1106 02:22:16.425003 13390 net.cpp:395] group0_block0_conv1_bn -> group0_block0_conv1 (in-place)
I1106 02:22:16.425117 13390 net.cpp:150] Setting up group0_block0_conv1_bn
I1106 02:22:16.425143 13390 net.cpp:157] Top shape: 100 16 32 32 (1638400)
I1106 02:22:16.425156 13390 net.cpp:165] Memory required for data: 79873200
I1106 02:22:16.425179 13390 layer_factory.hpp:77] Creating layer group0_block0_conv1_scale
I1106 02:22:16.425197 13390 net.cpp:100] Creating Layer group0_block0_conv1_scale
I1106 02:22:16.425209 13390 net.cpp:434] group0_block0_conv1_scale <- group0_block0_conv1
I1106 02:22:16.425251 13390 net.cpp:395] group0_block0_conv1_scale -> group0_block0_conv1 (in-place)
I1106 02:22:16.425277 13390 layer_factory.hpp:77] Creating layer group0_block0_conv1_scale
I1106 02:22:16.425431 13390 net.cpp:150] Setting up group0_block0_conv1_scale
I1106 02:22:16.425451 13390 net.cpp:157] Top shape: 100 16 32 32 (1638400)
I1106 02:22:16.425462 13390 net.cpp:165] Memory required for data: 86426800
I1106 02:22:16.425477 13390 layer_factory.hpp:77] Creating layer group0_block0_sum
I1106 02:22:16.425537 13390 net.cpp:100] Creating Layer group0_block0_sum
I1106 02:22:16.425554 13390 net.cpp:434] group0_block0_sum <- group0_block0_conv1
I1106 02:22:16.425566 13390 net.cpp:434] group0_block0_sum <- first_conv_first_conv_relu_0_split_1
I1106 02:22:16.425581 13390 net.cpp:408] group0_block0_sum -> group0_block0_sum
I1106 02:22:16.425607 13390 net.cpp:150] Setting up group0_block0_sum
I1106 02:22:16.425626 13390 net.cpp:157] Top shape: 100 16 32 32 (1638400)
I1106 02:22:16.425634 13390 net.cpp:165] Memory required for data: 92980400
I1106 02:22:16.425643 13390 layer_factory.hpp:77] Creating layer group0_block0_sum_group0_block0_sum_0_split
I1106 02:22:16.425657 13390 net.cpp:100] Creating Layer group0_block0_sum_group0_block0_sum_0_split
I1106 02:22:16.425667 13390 net.cpp:434] group0_block0_sum_group0_block0_sum_0_split <- group0_block0_sum
I1106 02:22:16.425717 13390 net.cpp:408] group0_block0_sum_group0_block0_sum_0_split -> group0_block0_sum_group0_block0_sum_0_split_0
I1106 02:22:16.425761 13390 net.cpp:408] group0_block0_sum_group0_block0_sum_0_split -> group0_block0_sum_group0_block0_sum_0_split_1
I1106 02:22:16.425784 13390 net.cpp:150] Setting up group0_block0_sum_group0_block0_sum_0_split
I1106 02:22:16.425801 13390 net.cpp:157] Top shape: 100 16 32 32 (1638400)
I1106 02:22:16.425817 13390 net.cpp:157] Top shape: 100 16 32 32 (1638400)
I1106 02:22:16.425829 13390 net.cpp:165] Memory required for data: 106087600
I1106 02:22:16.425838 13390 layer_factory.hpp:77] Creating layer group0_block1_conv0
I1106 02:22:16.425899 13390 net.cpp:100] Creating Layer group0_block1_conv0
I1106 02:22:16.425915 13390 net.cpp:434] group0_block1_conv0 <- group0_block0_sum_group0_block0_sum_0_split_0
I1106 02:22:16.425932 13390 net.cpp:408] group0_block1_conv0 -> group0_block1_conv0
I1106 02:22:16.426105 13390 net.cpp:150] Setting up group0_block1_conv0
I1106 02:22:16.426123 13390 net.cpp:157] Top shape: 100 16 32 32 (1638400)
I1106 02:22:16.426133 13390 net.cpp:165] Memory required for data: 112641200
I1106 02:22:16.426147 13390 layer_factory.hpp:77] Creating layer group0_block1_conv0_bn
I1106 02:22:16.426165 13390 net.cpp:100] Creating Layer group0_block1_conv0_bn
I1106 02:22:16.426179 13390 net.cpp:434] group0_block1_conv0_bn <- group0_block1_conv0
I1106 02:22:16.426193 13390 net.cpp:395] group0_block1_conv0_bn -> group0_block1_conv0 (in-place)
I1106 02:22:16.426259 13390 net.cpp:150] Setting up group0_block1_conv0_bn
I1106 02:22:16.426275 13390 net.cpp:157] Top shape: 100 16 32 32 (1638400)
I1106 02:22:16.426285 13390 net.cpp:165] Memory required for data: 119194800
I1106 02:22:16.426301 13390 layer_factory.hpp:77] Creating layer group0_block1_conv0_scale
I1106 02:22:16.426344 13390 net.cpp:100] Creating Layer group0_block1_conv0_scale
I1106 02:22:16.426359 13390 net.cpp:434] group0_block1_conv0_scale <- group0_block1_conv0
I1106 02:22:16.426374 13390 net.cpp:395] group0_block1_conv0_scale -> group0_block1_conv0 (in-place)
I1106 02:22:16.426403 13390 layer_factory.hpp:77] Creating layer group0_block1_conv0_scale
I1106 02:22:16.426463 13390 net.cpp:150] Setting up group0_block1_conv0_scale
I1106 02:22:16.426478 13390 net.cpp:157] Top shape: 100 16 32 32 (1638400)
I1106 02:22:16.426487 13390 net.cpp:165] Memory required for data: 125748400
I1106 02:22:16.426502 13390 layer_factory.hpp:77] Creating layer group0_block1_conv0_relu
I1106 02:22:16.426519 13390 net.cpp:100] Creating Layer group0_block1_conv0_relu
I1106 02:22:16.426529 13390 net.cpp:434] group0_block1_conv0_relu <- group0_block1_conv0
I1106 02:22:16.426542 13390 net.cpp:395] group0_block1_conv0_relu -> group0_block1_conv0 (in-place)
I1106 02:22:16.426558 13390 net.cpp:150] Setting up group0_block1_conv0_relu
I1106 02:22:16.426569 13390 net.cpp:157] Top shape: 100 16 32 32 (1638400)
I1106 02:22:16.426579 13390 net.cpp:165] Memory required for data: 132302000
I1106 02:22:16.426589 13390 layer_factory.hpp:77] Creating layer group0_block1_conv1
I1106 02:22:16.426630 13390 net.cpp:100] Creating Layer group0_block1_conv1
I1106 02:22:16.426642 13390 net.cpp:434] group0_block1_conv1 <- group0_block1_conv0
I1106 02:22:16.426658 13390 net.cpp:408] group0_block1_conv1 -> group0_block1_conv1
I1106 02:22:16.426879 13390 net.cpp:150] Setting up group0_block1_conv1
I1106 02:22:16.426898 13390 net.cpp:157] Top shape: 100 16 32 32 (1638400)
I1106 02:22:16.426908 13390 net.cpp:165] Memory required for data: 138855600
I1106 02:22:16.426921 13390 layer_factory.hpp:77] Creating layer group0_block1_conv1_bn
I1106 02:22:16.426939 13390 net.cpp:100] Creating Layer group0_block1_conv1_bn
I1106 02:22:16.426954 13390 net.cpp:434] group0_block1_conv1_bn <- group0_block1_conv1
I1106 02:22:16.426996 13390 net.cpp:395] group0_block1_conv1_bn -> group0_block1_conv1 (in-place)
I1106 02:22:16.427057 13390 net.cpp:150] Setting up group0_block1_conv1_bn
I1106 02:22:16.427098 13390 net.cpp:157] Top shape: 100 16 32 32 (1638400)
I1106 02:22:16.427109 13390 net.cpp:165] Memory required for data: 145409200
I1106 02:22:16.427152 13390 layer_factory.hpp:77] Creating layer group0_block1_conv1_scale
I1106 02:22:16.427228 13390 net.cpp:100] Creating Layer group0_block1_conv1_scale
I1106 02:22:16.427276 13390 net.cpp:434] group0_block1_conv1_scale <- group0_block1_conv1
I1106 02:22:16.427297 13390 net.cpp:395] group0_block1_conv1_scale -> group0_block1_conv1 (in-place)
I1106 02:22:16.427321 13390 layer_factory.hpp:77] Creating layer group0_block1_conv1_scale
I1106 02:22:16.427476 13390 net.cpp:150] Setting up group0_block1_conv1_scale
I1106 02:22:16.427496 13390 net.cpp:157] Top shape: 100 16 32 32 (1638400)
I1106 02:22:16.427505 13390 net.cpp:165] Memory required for data: 151962800
I1106 02:22:16.427520 13390 layer_factory.hpp:77] Creating layer group0_block1_sum
I1106 02:22:16.427533 13390 net.cpp:100] Creating Layer group0_block1_sum
I1106 02:22:16.427543 13390 net.cpp:434] group0_block1_sum <- group0_block1_conv1
I1106 02:22:16.427554 13390 net.cpp:434] group0_block1_sum <- group0_block0_sum_group0_block0_sum_0_split_1
I1106 02:22:16.427567 13390 net.cpp:408] group0_block1_sum -> group0_block1_sum
I1106 02:22:16.427585 13390 net.cpp:150] Setting up group0_block1_sum
I1106 02:22:16.427598 13390 net.cpp:157] Top shape: 100 16 32 32 (1638400)
I1106 02:22:16.427606 13390 net.cpp:165] Memory required for data: 158516400
I1106 02:22:16.427615 13390 layer_factory.hpp:77] Creating layer group0_block1_sum_group0_block1_sum_0_split
I1106 02:22:16.427708 13390 net.cpp:100] Creating Layer group0_block1_sum_group0_block1_sum_0_split
I1106 02:22:16.427723 13390 net.cpp:434] group0_block1_sum_group0_block1_sum_0_split <- group0_block1_sum
I1106 02:22:16.427739 13390 net.cpp:408] group0_block1_sum_group0_block1_sum_0_split -> group0_block1_sum_group0_block1_sum_0_split_0
I1106 02:22:16.427757 13390 net.cpp:408] group0_block1_sum_group0_block1_sum_0_split -> group0_block1_sum_group0_block1_sum_0_split_1
I1106 02:22:16.427779 13390 net.cpp:150] Setting up group0_block1_sum_group0_block1_sum_0_split
I1106 02:22:16.427793 13390 net.cpp:157] Top shape: 100 16 32 32 (1638400)
I1106 02:22:16.427804 13390 net.cpp:157] Top shape: 100 16 32 32 (1638400)
I1106 02:22:16.427814 13390 net.cpp:165] Memory required for data: 171623600
I1106 02:22:16.427822 13390 layer_factory.hpp:77] Creating layer group0_block2_conv0
I1106 02:22:16.427917 13390 net.cpp:100] Creating Layer group0_block2_conv0
I1106 02:22:16.427932 13390 net.cpp:434] group0_block2_conv0 <- group0_block1_sum_group0_block1_sum_0_split_0
I1106 02:22:16.427948 13390 net.cpp:408] group0_block2_conv0 -> group0_block2_conv0
I1106 02:22:16.428139 13390 net.cpp:150] Setting up group0_block2_conv0
I1106 02:22:16.428158 13390 net.cpp:157] Top shape: 100 16 32 32 (1638400)
I1106 02:22:16.428169 13390 net.cpp:165] Memory required for data: 178177200
I1106 02:22:16.428182 13390 layer_factory.hpp:77] Creating layer group0_block2_conv0_bn
I1106 02:22:16.428197 13390 net.cpp:100] Creating Layer group0_block2_conv0_bn
I1106 02:22:16.428210 13390 net.cpp:434] group0_block2_conv0_bn <- group0_block2_conv0
I1106 02:22:16.428268 13390 net.cpp:395] group0_block2_conv0_bn -> group0_block2_conv0 (in-place)
I1106 02:22:16.428390 13390 net.cpp:150] Setting up group0_block2_conv0_bn
I1106 02:22:16.428408 13390 net.cpp:157] Top shape: 100 16 32 32 (1638400)
I1106 02:22:16.428418 13390 net.cpp:165] Memory required for data: 184730800
I1106 02:22:16.428436 13390 layer_factory.hpp:77] Creating layer group0_block2_conv0_scale
I1106 02:22:16.428452 13390 net.cpp:100] Creating Layer group0_block2_conv0_scale
I1106 02:22:16.428467 13390 net.cpp:434] group0_block2_conv0_scale <- group0_block2_conv0
I1106 02:22:16.428480 13390 net.cpp:395] group0_block2_conv0_scale -> group0_block2_conv0 (in-place)
I1106 02:22:16.428505 13390 layer_factory.hpp:77] Creating layer group0_block2_conv0_scale
I1106 02:22:16.428665 13390 net.cpp:150] Setting up group0_block2_conv0_scale
I1106 02:22:16.428685 13390 net.cpp:157] Top shape: 100 16 32 32 (1638400)
I1106 02:22:16.428694 13390 net.cpp:165] Memory required for data: 191284400
I1106 02:22:16.428728 13390 layer_factory.hpp:77] Creating layer group0_block2_conv0_relu
I1106 02:22:16.428742 13390 net.cpp:100] Creating Layer group0_block2_conv0_relu
I1106 02:22:16.428761 13390 net.cpp:434] group0_block2_conv0_relu <- group0_block2_conv0
I1106 02:22:16.428817 13390 net.cpp:395] group0_block2_conv0_relu -> group0_block2_conv0 (in-place)
I1106 02:22:16.428838 13390 net.cpp:150] Setting up group0_block2_conv0_relu
I1106 02:22:16.428850 13390 net.cpp:157] Top shape: 100 16 32 32 (1638400)
I1106 02:22:16.428859 13390 net.cpp:165] Memory required for data: 197838000
I1106 02:22:16.428869 13390 layer_factory.hpp:77] Creating layer group0_block2_conv1
I1106 02:22:16.428885 13390 net.cpp:100] Creating Layer group0_block2_conv1
I1106 02:22:16.428895 13390 net.cpp:434] group0_block2_conv1 <- group0_block2_conv0
I1106 02:22:16.428910 13390 net.cpp:408] group0_block2_conv1 -> group0_block2_conv1
I1106 02:22:16.429100 13390 net.cpp:150] Setting up group0_block2_conv1
I1106 02:22:16.429118 13390 net.cpp:157] Top shape: 100 16 32 32 (1638400)
I1106 02:22:16.429128 13390 net.cpp:165] Memory required for data: 204391600
I1106 02:22:16.429142 13390 layer_factory.hpp:77] Creating layer group0_block2_conv1_bn
I1106 02:22:16.429196 13390 net.cpp:100] Creating Layer group0_block2_conv1_bn
I1106 02:22:16.429214 13390 net.cpp:434] group0_block2_conv1_bn <- group0_block2_conv1
I1106 02:22:16.429229 13390 net.cpp:395] group0_block2_conv1_bn -> group0_block2_conv1 (in-place)
I1106 02:22:16.429445 13390 net.cpp:150] Setting up group0_block2_conv1_bn
I1106 02:22:16.429466 13390 net.cpp:157] Top shape: 100 16 32 32 (1638400)
I1106 02:22:16.429476 13390 net.cpp:165] Memory required for data: 210945200
I1106 02:22:16.429500 13390 layer_factory.hpp:77] Creating layer group0_block2_conv1_scale
I1106 02:22:16.429517 13390 net.cpp:100] Creating Layer group0_block2_conv1_scale
I1106 02:22:16.429525 13390 net.cpp:434] group0_block2_conv1_scale <- group0_block2_conv1
I1106 02:22:16.429535 13390 net.cpp:395] group0_block2_conv1_scale -> group0_block2_conv1 (in-place)
I1106 02:22:16.429554 13390 layer_factory.hpp:77] Creating layer group0_block2_conv1_scale
I1106 02:22:16.429589 13390 net.cpp:150] Setting up group0_block2_conv1_scale
I1106 02:22:16.429605 13390 net.cpp:157] Top shape: 100 16 32 32 (1638400)
I1106 02:22:16.429613 13390 net.cpp:165] Memory required for data: 217498800
I1106 02:22:16.429625 13390 layer_factory.hpp:77] Creating layer group0_block2_sum
I1106 02:22:16.429644 13390 net.cpp:100] Creating Layer group0_block2_sum
I1106 02:22:16.429652 13390 net.cpp:434] group0_block2_sum <- group0_block2_conv1
I1106 02:22:16.429662 13390 net.cpp:434] group0_block2_sum <- group0_block1_sum_group0_block1_sum_0_split_1
I1106 02:22:16.429672 13390 net.cpp:408] group0_block2_sum -> group0_block2_sum
I1106 02:22:16.429688 13390 net.cpp:150] Setting up group0_block2_sum
I1106 02:22:16.429698 13390 net.cpp:157] Top shape: 100 16 32 32 (1638400)
I1106 02:22:16.429704 13390 net.cpp:165] Memory required for data: 224052400
I1106 02:22:16.429711 13390 layer_factory.hpp:77] Creating layer group0_block2_sum_group0_block2_sum_0_split
I1106 02:22:16.429720 13390 net.cpp:100] Creating Layer group0_block2_sum_group0_block2_sum_0_split
I1106 02:22:16.429733 13390 net.cpp:434] group0_block2_sum_group0_block2_sum_0_split <- group0_block2_sum
I1106 02:22:16.429745 13390 net.cpp:408] group0_block2_sum_group0_block2_sum_0_split -> group0_block2_sum_group0_block2_sum_0_split_0
I1106 02:22:16.429759 13390 net.cpp:408] group0_block2_sum_group0_block2_sum_0_split -> group0_block2_sum_group0_block2_sum_0_split_1
I1106 02:22:16.429771 13390 net.cpp:150] Setting up group0_block2_sum_group0_block2_sum_0_split
I1106 02:22:16.429781 13390 net.cpp:157] Top shape: 100 16 32 32 (1638400)
I1106 02:22:16.429790 13390 net.cpp:157] Top shape: 100 16 32 32 (1638400)
I1106 02:22:16.429795 13390 net.cpp:165] Memory required for data: 237159600
I1106 02:22:16.429802 13390 layer_factory.hpp:77] Creating layer group1_block0_conv0
I1106 02:22:16.429816 13390 net.cpp:100] Creating Layer group1_block0_conv0
I1106 02:22:16.429838 13390 net.cpp:434] group1_block0_conv0 <- group0_block2_sum_group0_block2_sum_0_split_0
I1106 02:22:16.429853 13390 net.cpp:408] group1_block0_conv0 -> group1_block0_conv0
I1106 02:22:16.430013 13390 net.cpp:150] Setting up group1_block0_conv0
I1106 02:22:16.430023 13390 net.cpp:157] Top shape: 100 32 16 16 (819200)
I1106 02:22:16.430030 13390 net.cpp:165] Memory required for data: 240436400
I1106 02:22:16.430040 13390 layer_factory.hpp:77] Creating layer group1_block0_conv0_bn
I1106 02:22:16.430054 13390 net.cpp:100] Creating Layer group1_block0_conv0_bn
I1106 02:22:16.430063 13390 net.cpp:434] group1_block0_conv0_bn <- group1_block0_conv0
I1106 02:22:16.430073 13390 net.cpp:395] group1_block0_conv0_bn -> group1_block0_conv0 (in-place)
I1106 02:22:16.430094 13390 net.cpp:150] Setting up group1_block0_conv0_bn
I1106 02:22:16.430107 13390 net.cpp:157] Top shape: 100 32 16 16 (819200)
I1106 02:22:16.430114 13390 net.cpp:165] Memory required for data: 243713200
I1106 02:22:16.430125 13390 layer_factory.hpp:77] Creating layer group1_block0_conv0_scale
I1106 02:22:16.430136 13390 net.cpp:100] Creating Layer group1_block0_conv0_scale
I1106 02:22:16.430143 13390 net.cpp:434] group1_block0_conv0_scale <- group1_block0_conv0
I1106 02:22:16.430155 13390 net.cpp:395] group1_block0_conv0_scale -> group1_block0_conv0 (in-place)
I1106 02:22:16.430171 13390 layer_factory.hpp:77] Creating layer group1_block0_conv0_scale
I1106 02:22:16.430198 13390 net.cpp:150] Setting up group1_block0_conv0_scale
I1106 02:22:16.430212 13390 net.cpp:157] Top shape: 100 32 16 16 (819200)
I1106 02:22:16.430219 13390 net.cpp:165] Memory required for data: 246990000
I1106 02:22:16.430229 13390 layer_factory.hpp:77] Creating layer group1_block0_conv0_relu
I1106 02:22:16.430239 13390 net.cpp:100] Creating Layer group1_block0_conv0_relu
I1106 02:22:16.430246 13390 net.cpp:434] group1_block0_conv0_relu <- group1_block0_conv0
I1106 02:22:16.430263 13390 net.cpp:395] group1_block0_conv0_relu -> group1_block0_conv0 (in-place)
I1106 02:22:16.430274 13390 net.cpp:150] Setting up group1_block0_conv0_relu
I1106 02:22:16.430282 13390 net.cpp:157] Top shape: 100 32 16 16 (819200)
I1106 02:22:16.430289 13390 net.cpp:165] Memory required for data: 250266800
I1106 02:22:16.430297 13390 layer_factory.hpp:77] Creating layer group1_block0_conv1
I1106 02:22:16.430311 13390 net.cpp:100] Creating Layer group1_block0_conv1
I1106 02:22:16.430320 13390 net.cpp:434] group1_block0_conv1 <- group1_block0_conv0
I1106 02:22:16.430330 13390 net.cpp:408] group1_block0_conv1 -> group1_block0_conv1
I1106 02:22:16.430615 13390 net.cpp:150] Setting up group1_block0_conv1
I1106 02:22:16.430626 13390 net.cpp:157] Top shape: 100 32 16 16 (819200)
I1106 02:22:16.430634 13390 net.cpp:165] Memory required for data: 253543600
I1106 02:22:16.430644 13390 layer_factory.hpp:77] Creating layer group1_block0_conv1_bn
I1106 02:22:16.430655 13390 net.cpp:100] Creating Layer group1_block0_conv1_bn
I1106 02:22:16.430663 13390 net.cpp:434] group1_block0_conv1_bn <- group1_block0_conv1
I1106 02:22:16.430675 13390 net.cpp:395] group1_block0_conv1_bn -> group1_block0_conv1 (in-place)
I1106 02:22:16.430699 13390 net.cpp:150] Setting up group1_block0_conv1_bn
I1106 02:22:16.430709 13390 net.cpp:157] Top shape: 100 32 16 16 (819200)
I1106 02:22:16.430721 13390 net.cpp:165] Memory required for data: 256820400
I1106 02:22:16.430732 13390 layer_factory.hpp:77] Creating layer group1_block0_conv1_scale
I1106 02:22:16.430747 13390 net.cpp:100] Creating Layer group1_block0_conv1_scale
I1106 02:22:16.430761 13390 net.cpp:434] group1_block0_conv1_scale <- group1_block0_conv1
I1106 02:22:16.430773 13390 net.cpp:395] group1_block0_conv1_scale -> group1_block0_conv1 (in-place)
I1106 02:22:16.430788 13390 layer_factory.hpp:77] Creating layer group1_block0_conv1_scale
I1106 02:22:16.430814 13390 net.cpp:150] Setting up group1_block0_conv1_scale
I1106 02:22:16.430824 13390 net.cpp:157] Top shape: 100 32 16 16 (819200)
I1106 02:22:16.430835 13390 net.cpp:165] Memory required for data: 260097200
I1106 02:22:16.430860 13390 layer_factory.hpp:77] Creating layer group1_block0_proj
I1106 02:22:16.430876 13390 net.cpp:100] Creating Layer group1_block0_proj
I1106 02:22:16.430883 13390 net.cpp:434] group1_block0_proj <- group0_block2_sum_group0_block2_sum_0_split_1
I1106 02:22:16.430897 13390 net.cpp:408] group1_block0_proj -> group1_block0_proj
I1106 02:22:16.430985 13390 net.cpp:150] Setting up group1_block0_proj
I1106 02:22:16.431000 13390 net.cpp:157] Top shape: 100 32 16 16 (819200)
I1106 02:22:16.431006 13390 net.cpp:165] Memory required for data: 263374000
I1106 02:22:16.431030 13390 layer_factory.hpp:77] Creating layer group1_block0_proj_bn
I1106 02:22:16.431041 13390 net.cpp:100] Creating Layer group1_block0_proj_bn
I1106 02:22:16.431048 13390 net.cpp:434] group1_block0_proj_bn <- group1_block0_proj
I1106 02:22:16.431057 13390 net.cpp:395] group1_block0_proj_bn -> group1_block0_proj (in-place)
I1106 02:22:16.431080 13390 net.cpp:150] Setting up group1_block0_proj_bn
I1106 02:22:16.431090 13390 net.cpp:157] Top shape: 100 32 16 16 (819200)
I1106 02:22:16.431097 13390 net.cpp:165] Memory required for data: 266650800
I1106 02:22:16.431108 13390 layer_factory.hpp:77] Creating layer group1_block0_proj_scale
I1106 02:22:16.431121 13390 net.cpp:100] Creating Layer group1_block0_proj_scale
I1106 02:22:16.431129 13390 net.cpp:434] group1_block0_proj_scale <- group1_block0_proj
I1106 02:22:16.431138 13390 net.cpp:395] group1_block0_proj_scale -> group1_block0_proj (in-place)
I1106 02:22:16.431154 13390 layer_factory.hpp:77] Creating layer group1_block0_proj_scale
I1106 02:22:16.431179 13390 net.cpp:150] Setting up group1_block0_proj_scale
I1106 02:22:16.431188 13390 net.cpp:157] Top shape: 100 32 16 16 (819200)
I1106 02:22:16.431200 13390 net.cpp:165] Memory required for data: 269927600
I1106 02:22:16.431210 13390 layer_factory.hpp:77] Creating layer group1_block0_sum
I1106 02:22:16.431218 13390 net.cpp:100] Creating Layer group1_block0_sum
I1106 02:22:16.431226 13390 net.cpp:434] group1_block0_sum <- group1_block0_proj
I1106 02:22:16.431233 13390 net.cpp:434] group1_block0_sum <- group1_block0_conv1
I1106 02:22:16.431248 13390 net.cpp:408] group1_block0_sum -> group1_block0_sum
I1106 02:22:16.431262 13390 net.cpp:150] Setting up group1_block0_sum
I1106 02:22:16.431274 13390 net.cpp:157] Top shape: 100 32 16 16 (819200)
I1106 02:22:16.431280 13390 net.cpp:165] Memory required for data: 273204400
I1106 02:22:16.431288 13390 layer_factory.hpp:77] Creating layer group1_block0_sum_group1_block0_sum_0_split
I1106 02:22:16.431296 13390 net.cpp:100] Creating Layer group1_block0_sum_group1_block0_sum_0_split
I1106 02:22:16.431303 13390 net.cpp:434] group1_block0_sum_group1_block0_sum_0_split <- group1_block0_sum
I1106 02:22:16.431313 13390 net.cpp:408] group1_block0_sum_group1_block0_sum_0_split -> group1_block0_sum_group1_block0_sum_0_split_0
I1106 02:22:16.431329 13390 net.cpp:408] group1_block0_sum_group1_block0_sum_0_split -> group1_block0_sum_group1_block0_sum_0_split_1
I1106 02:22:16.431344 13390 net.cpp:150] Setting up group1_block0_sum_group1_block0_sum_0_split
I1106 02:22:16.431354 13390 net.cpp:157] Top shape: 100 32 16 16 (819200)
I1106 02:22:16.431363 13390 net.cpp:157] Top shape: 100 32 16 16 (819200)
I1106 02:22:16.431370 13390 net.cpp:165] Memory required for data: 279758000
I1106 02:22:16.431376 13390 layer_factory.hpp:77] Creating layer group1_block1_conv0
I1106 02:22:16.431393 13390 net.cpp:100] Creating Layer group1_block1_conv0
I1106 02:22:16.431401 13390 net.cpp:434] group1_block1_conv0 <- group1_block0_sum_group1_block0_sum_0_split_0
I1106 02:22:16.431411 13390 net.cpp:408] group1_block1_conv0 -> group1_block1_conv0
I1106 02:22:16.431694 13390 net.cpp:150] Setting up group1_block1_conv0
I1106 02:22:16.431704 13390 net.cpp:157] Top shape: 100 32 16 16 (819200)
I1106 02:22:16.431710 13390 net.cpp:165] Memory required for data: 283034800
I1106 02:22:16.431720 13390 layer_factory.hpp:77] Creating layer group1_block1_conv0_bn
I1106 02:22:16.431733 13390 net.cpp:100] Creating Layer group1_block1_conv0_bn
I1106 02:22:16.431756 13390 net.cpp:434] group1_block1_conv0_bn <- group1_block1_conv0
I1106 02:22:16.431772 13390 net.cpp:395] group1_block1_conv0_bn -> group1_block1_conv0 (in-place)
I1106 02:22:16.431798 13390 net.cpp:150] Setting up group1_block1_conv0_bn
I1106 02:22:16.431807 13390 net.cpp:157] Top shape: 100 32 16 16 (819200)
I1106 02:22:16.431814 13390 net.cpp:165] Memory required for data: 286311600
I1106 02:22:16.431825 13390 layer_factory.hpp:77] Creating layer group1_block1_conv0_scale
I1106 02:22:16.431845 13390 net.cpp:100] Creating Layer group1_block1_conv0_scale
I1106 02:22:16.431860 13390 net.cpp:434] group1_block1_conv0_scale <- group1_block1_conv0
I1106 02:22:16.431870 13390 net.cpp:395] group1_block1_conv0_scale -> group1_block1_conv0 (in-place)
I1106 02:22:16.431890 13390 layer_factory.hpp:77] Creating layer group1_block1_conv0_scale
I1106 02:22:16.431913 13390 net.cpp:150] Setting up group1_block1_conv0_scale
I1106 02:22:16.431923 13390 net.cpp:157] Top shape: 100 32 16 16 (819200)
I1106 02:22:16.431931 13390 net.cpp:165] Memory required for data: 289588400
I1106 02:22:16.431939 13390 layer_factory.hpp:77] Creating layer group1_block1_conv0_relu
I1106 02:22:16.431949 13390 net.cpp:100] Creating Layer group1_block1_conv0_relu
I1106 02:22:16.431957 13390 net.cpp:434] group1_block1_conv0_relu <- group1_block1_conv0
I1106 02:22:16.431969 13390 net.cpp:395] group1_block1_conv0_relu -> group1_block1_conv0 (in-place)
I1106 02:22:16.431980 13390 net.cpp:150] Setting up group1_block1_conv0_relu
I1106 02:22:16.431989 13390 net.cpp:157] Top shape: 100 32 16 16 (819200)
I1106 02:22:16.431995 13390 net.cpp:165] Memory required for data: 292865200
I1106 02:22:16.432003 13390 layer_factory.hpp:77] Creating layer group1_block1_conv1
I1106 02:22:16.432018 13390 net.cpp:100] Creating Layer group1_block1_conv1
I1106 02:22:16.432024 13390 net.cpp:434] group1_block1_conv1 <- group1_block1_conv0
I1106 02:22:16.432039 13390 net.cpp:408] group1_block1_conv1 -> group1_block1_conv1
I1106 02:22:16.432327 13390 net.cpp:150] Setting up group1_block1_conv1
I1106 02:22:16.432348 13390 net.cpp:157] Top shape: 100 32 16 16 (819200)
I1106 02:22:16.432354 13390 net.cpp:165] Memory required for data: 296142000
I1106 02:22:16.432368 13390 layer_factory.hpp:77] Creating layer group1_block1_conv1_bn
I1106 02:22:16.432379 13390 net.cpp:100] Creating Layer group1_block1_conv1_bn
I1106 02:22:16.432384 13390 net.cpp:434] group1_block1_conv1_bn <- group1_block1_conv1
I1106 02:22:16.432402 13390 net.cpp:395] group1_block1_conv1_bn -> group1_block1_conv1 (in-place)
I1106 02:22:16.432430 13390 net.cpp:150] Setting up group1_block1_conv1_bn
I1106 02:22:16.432438 13390 net.cpp:157] Top shape: 100 32 16 16 (819200)
I1106 02:22:16.432446 13390 net.cpp:165] Memory required for data: 299418800
I1106 02:22:16.432456 13390 layer_factory.hpp:77] Creating layer group1_block1_conv1_scale
I1106 02:22:16.432471 13390 net.cpp:100] Creating Layer group1_block1_conv1_scale
I1106 02:22:16.432479 13390 net.cpp:434] group1_block1_conv1_scale <- group1_block1_conv1
I1106 02:22:16.432493 13390 net.cpp:395] group1_block1_conv1_scale -> group1_block1_conv1 (in-place)
I1106 02:22:16.432509 13390 layer_factory.hpp:77] Creating layer group1_block1_conv1_scale
I1106 02:22:16.432582 13390 net.cpp:150] Setting up group1_block1_conv1_scale
I1106 02:22:16.432605 13390 net.cpp:157] Top shape: 100 32 16 16 (819200)
I1106 02:22:16.432613 13390 net.cpp:165] Memory required for data: 302695600
I1106 02:22:16.432631 13390 layer_factory.hpp:77] Creating layer group1_block1_sum
I1106 02:22:16.432687 13390 net.cpp:100] Creating Layer group1_block1_sum
I1106 02:22:16.432703 13390 net.cpp:434] group1_block1_sum <- group1_block1_conv1
I1106 02:22:16.432718 13390 net.cpp:434] group1_block1_sum <- group1_block0_sum_group1_block0_sum_0_split_1
I1106 02:22:16.432760 13390 net.cpp:408] group1_block1_sum -> group1_block1_sum
I1106 02:22:16.432790 13390 net.cpp:150] Setting up group1_block1_sum
I1106 02:22:16.432806 13390 net.cpp:157] Top shape: 100 32 16 16 (819200)
I1106 02:22:16.432857 13390 net.cpp:165] Memory required for data: 305972400
I1106 02:22:16.432867 13390 layer_factory.hpp:77] Creating layer group1_block1_sum_group1_block1_sum_0_split
I1106 02:22:16.432878 13390 net.cpp:100] Creating Layer group1_block1_sum_group1_block1_sum_0_split
I1106 02:22:16.432891 13390 net.cpp:434] group1_block1_sum_group1_block1_sum_0_split <- group1_block1_sum
I1106 02:22:16.432937 13390 net.cpp:408] group1_block1_sum_group1_block1_sum_0_split -> group1_block1_sum_group1_block1_sum_0_split_0
I1106 02:22:16.432958 13390 net.cpp:408] group1_block1_sum_group1_block1_sum_0_split -> group1_block1_sum_group1_block1_sum_0_split_1
I1106 02:22:16.433010 13390 net.cpp:150] Setting up group1_block1_sum_group1_block1_sum_0_split
I1106 02:22:16.433024 13390 net.cpp:157] Top shape: 100 32 16 16 (819200)
I1106 02:22:16.433039 13390 net.cpp:157] Top shape: 100 32 16 16 (819200)
I1106 02:22:16.433048 13390 net.cpp:165] Memory required for data: 312526000
I1106 02:22:16.433058 13390 layer_factory.hpp:77] Creating layer group1_block2_conv0
I1106 02:22:16.433078 13390 net.cpp:100] Creating Layer group1_block2_conv0
I1106 02:22:16.433089 13390 net.cpp:434] group1_block2_conv0 <- group1_block1_sum_group1_block1_sum_0_split_0
I1106 02:22:16.433106 13390 net.cpp:408] group1_block2_conv0 -> group1_block2_conv0
I1106 02:22:16.433568 13390 net.cpp:150] Setting up group1_block2_conv0
I1106 02:22:16.433650 13390 net.cpp:157] Top shape: 100 32 16 16 (819200)
I1106 02:22:16.433663 13390 net.cpp:165] Memory required for data: 315802800
I1106 02:22:16.433678 13390 layer_factory.hpp:77] Creating layer group1_block2_conv0_bn
I1106 02:22:16.433693 13390 net.cpp:100] Creating Layer group1_block2_conv0_bn
I1106 02:22:16.433702 13390 net.cpp:434] group1_block2_conv0_bn <- group1_block2_conv0
I1106 02:22:16.433745 13390 net.cpp:395] group1_block2_conv0_bn -> group1_block2_conv0 (in-place)
I1106 02:22:16.433820 13390 net.cpp:150] Setting up group1_block2_conv0_bn
I1106 02:22:16.433837 13390 net.cpp:157] Top shape: 100 32 16 16 (819200)
I1106 02:22:16.433846 13390 net.cpp:165] Memory required for data: 319079600
I1106 02:22:16.433866 13390 layer_factory.hpp:77] Creating layer group1_block2_conv0_scale
I1106 02:22:16.433883 13390 net.cpp:100] Creating Layer group1_block2_conv0_scale
I1106 02:22:16.433892 13390 net.cpp:434] group1_block2_conv0_scale <- group1_block2_conv0
I1106 02:22:16.433904 13390 net.cpp:395] group1_block2_conv0_scale -> group1_block2_conv0 (in-place)
I1106 02:22:16.433928 13390 layer_factory.hpp:77] Creating layer group1_block2_conv0_scale
I1106 02:22:16.434005 13390 net.cpp:150] Setting up group1_block2_conv0_scale
I1106 02:22:16.434022 13390 net.cpp:157] Top shape: 100 32 16 16 (819200)
I1106 02:22:16.434031 13390 net.cpp:165] Memory required for data: 322356400
I1106 02:22:16.434046 13390 layer_factory.hpp:77] Creating layer group1_block2_conv0_relu
I1106 02:22:16.434062 13390 net.cpp:100] Creating Layer group1_block2_conv0_relu
I1106 02:22:16.434072 13390 net.cpp:434] group1_block2_conv0_relu <- group1_block2_conv0
I1106 02:22:16.434088 13390 net.cpp:395] group1_block2_conv0_relu -> group1_block2_conv0 (in-place)
I1106 02:22:16.434103 13390 net.cpp:150] Setting up group1_block2_conv0_relu
I1106 02:22:16.434113 13390 net.cpp:157] Top shape: 100 32 16 16 (819200)
I1106 02:22:16.434121 13390 net.cpp:165] Memory required for data: 325633200
I1106 02:22:16.434129 13390 layer_factory.hpp:77] Creating layer group1_block2_conv1
I1106 02:22:16.434147 13390 net.cpp:100] Creating Layer group1_block2_conv1
I1106 02:22:16.434157 13390 net.cpp:434] group1_block2_conv1 <- group1_block2_conv0
I1106 02:22:16.434175 13390 net.cpp:408] group1_block2_conv1 -> group1_block2_conv1
I1106 02:22:16.434535 13390 net.cpp:150] Setting up group1_block2_conv1
I1106 02:22:16.434552 13390 net.cpp:157] Top shape: 100 32 16 16 (819200)
I1106 02:22:16.434561 13390 net.cpp:165] Memory required for data: 328910000
I1106 02:22:16.434576 13390 layer_factory.hpp:77] Creating layer group1_block2_conv1_bn
I1106 02:22:16.434588 13390 net.cpp:100] Creating Layer group1_block2_conv1_bn
I1106 02:22:16.434620 13390 net.cpp:434] group1_block2_conv1_bn <- group1_block2_conv1
I1106 02:22:16.434635 13390 net.cpp:395] group1_block2_conv1_bn -> group1_block2_conv1 (in-place)
I1106 02:22:16.434670 13390 net.cpp:150] Setting up group1_block2_conv1_bn
I1106 02:22:16.434684 13390 net.cpp:157] Top shape: 100 32 16 16 (819200)
I1106 02:22:16.434695 13390 net.cpp:165] Memory required for data: 332186800
I1106 02:22:16.434710 13390 layer_factory.hpp:77] Creating layer group1_block2_conv1_scale
I1106 02:22:16.434722 13390 net.cpp:100] Creating Layer group1_block2_conv1_scale
I1106 02:22:16.434736 13390 net.cpp:434] group1_block2_conv1_scale <- group1_block2_conv1
I1106 02:22:16.434749 13390 net.cpp:395] group1_block2_conv1_scale -> group1_block2_conv1 (in-place)
I1106 02:22:16.434770 13390 layer_factory.hpp:77] Creating layer group1_block2_conv1_scale
I1106 02:22:16.434814 13390 net.cpp:150] Setting up group1_block2_conv1_scale
I1106 02:22:16.434829 13390 net.cpp:157] Top shape: 100 32 16 16 (819200)
I1106 02:22:16.434837 13390 net.cpp:165] Memory required for data: 335463600
I1106 02:22:16.434851 13390 layer_factory.hpp:77] Creating layer group1_block2_sum
I1106 02:22:16.434864 13390 net.cpp:100] Creating Layer group1_block2_sum
I1106 02:22:16.434875 13390 net.cpp:434] group1_block2_sum <- group1_block2_conv1
I1106 02:22:16.434886 13390 net.cpp:434] group1_block2_sum <- group1_block1_sum_group1_block1_sum_0_split_1
I1106 02:22:16.434903 13390 net.cpp:408] group1_block2_sum -> group1_block2_sum
I1106 02:22:16.434921 13390 net.cpp:150] Setting up group1_block2_sum
I1106 02:22:16.434933 13390 net.cpp:157] Top shape: 100 32 16 16 (819200)
I1106 02:22:16.434942 13390 net.cpp:165] Memory required for data: 338740400
I1106 02:22:16.434950 13390 layer_factory.hpp:77] Creating layer group1_block2_sum_group1_block2_sum_0_split
I1106 02:22:16.434962 13390 net.cpp:100] Creating Layer group1_block2_sum_group1_block2_sum_0_split
I1106 02:22:16.434973 13390 net.cpp:434] group1_block2_sum_group1_block2_sum_0_split <- group1_block2_sum
I1106 02:22:16.434993 13390 net.cpp:408] group1_block2_sum_group1_block2_sum_0_split -> group1_block2_sum_group1_block2_sum_0_split_0
I1106 02:22:16.435014 13390 net.cpp:408] group1_block2_sum_group1_block2_sum_0_split -> group1_block2_sum_group1_block2_sum_0_split_1
I1106 02:22:16.435035 13390 net.cpp:150] Setting up group1_block2_sum_group1_block2_sum_0_split
I1106 02:22:16.435048 13390 net.cpp:157] Top shape: 100 32 16 16 (819200)
I1106 02:22:16.435068 13390 net.cpp:157] Top shape: 100 32 16 16 (819200)
I1106 02:22:16.435083 13390 net.cpp:165] Memory required for data: 345294000
I1106 02:22:16.435091 13390 layer_factory.hpp:77] Creating layer group2_block0_conv0
I1106 02:22:16.435145 13390 net.cpp:100] Creating Layer group2_block0_conv0
I1106 02:22:16.435156 13390 net.cpp:434] group2_block0_conv0 <- group1_block2_sum_group1_block2_sum_0_split_0
I1106 02:22:16.435171 13390 net.cpp:408] group2_block0_conv0 -> group2_block0_conv0
I1106 02:22:16.435856 13390 net.cpp:150] Setting up group2_block0_conv0
I1106 02:22:16.435871 13390 net.cpp:157] Top shape: 100 64 8 8 (409600)
I1106 02:22:16.435880 13390 net.cpp:165] Memory required for data: 346932400
I1106 02:22:16.435894 13390 layer_factory.hpp:77] Creating layer group2_block0_conv0_bn
I1106 02:22:16.435910 13390 net.cpp:100] Creating Layer group2_block0_conv0_bn
I1106 02:22:16.435920 13390 net.cpp:434] group2_block0_conv0_bn <- group2_block0_conv0
I1106 02:22:16.435936 13390 net.cpp:395] group2_block0_conv0_bn -> group2_block0_conv0 (in-place)
I1106 02:22:16.435968 13390 net.cpp:150] Setting up group2_block0_conv0_bn
I1106 02:22:16.435981 13390 net.cpp:157] Top shape: 100 64 8 8 (409600)
I1106 02:22:16.435988 13390 net.cpp:165] Memory required for data: 348570800
I1106 02:22:16.436003 13390 layer_factory.hpp:77] Creating layer group2_block0_conv0_scale
I1106 02:22:16.436015 13390 net.cpp:100] Creating Layer group2_block0_conv0_scale
I1106 02:22:16.436024 13390 net.cpp:434] group2_block0_conv0_scale <- group2_block0_conv0
I1106 02:22:16.436061 13390 net.cpp:395] group2_block0_conv0_scale -> group2_block0_conv0 (in-place)
I1106 02:22:16.436080 13390 layer_factory.hpp:77] Creating layer group2_block0_conv0_scale
I1106 02:22:16.436108 13390 net.cpp:150] Setting up group2_block0_conv0_scale
I1106 02:22:16.436120 13390 net.cpp:157] Top shape: 100 64 8 8 (409600)
I1106 02:22:16.436127 13390 net.cpp:165] Memory required for data: 350209200
I1106 02:22:16.436139 13390 layer_factory.hpp:77] Creating layer group2_block0_conv0_relu
I1106 02:22:16.436152 13390 net.cpp:100] Creating Layer group2_block0_conv0_relu
I1106 02:22:16.436161 13390 net.cpp:434] group2_block0_conv0_relu <- group2_block0_conv0
I1106 02:22:16.436172 13390 net.cpp:395] group2_block0_conv0_relu -> group2_block0_conv0 (in-place)
I1106 02:22:16.436183 13390 net.cpp:150] Setting up group2_block0_conv0_relu
I1106 02:22:16.436193 13390 net.cpp:157] Top shape: 100 64 8 8 (409600)
I1106 02:22:16.436200 13390 net.cpp:165] Memory required for data: 351847600
I1106 02:22:16.436208 13390 layer_factory.hpp:77] Creating layer group2_block0_conv1
I1106 02:22:16.436224 13390 net.cpp:100] Creating Layer group2_block0_conv1
I1106 02:22:16.436233 13390 net.cpp:434] group2_block0_conv1 <- group2_block0_conv0
I1106 02:22:16.436249 13390 net.cpp:408] group2_block0_conv1 -> group2_block0_conv1
I1106 02:22:16.437572 13390 net.cpp:150] Setting up group2_block0_conv1
I1106 02:22:16.437588 13390 net.cpp:157] Top shape: 100 64 8 8 (409600)
I1106 02:22:16.437597 13390 net.cpp:165] Memory required for data: 353486000
I1106 02:22:16.437608 13390 layer_factory.hpp:77] Creating layer group2_block0_conv1_bn
I1106 02:22:16.437619 13390 net.cpp:100] Creating Layer group2_block0_conv1_bn
I1106 02:22:16.437628 13390 net.cpp:434] group2_block0_conv1_bn <- group2_block0_conv1
I1106 02:22:16.437641 13390 net.cpp:395] group2_block0_conv1_bn -> group2_block0_conv1 (in-place)
I1106 02:22:16.437669 13390 net.cpp:150] Setting up group2_block0_conv1_bn
I1106 02:22:16.437681 13390 net.cpp:157] Top shape: 100 64 8 8 (409600)
I1106 02:22:16.437688 13390 net.cpp:165] Memory required for data: 355124400
I1106 02:22:16.437702 13390 layer_factory.hpp:77] Creating layer group2_block0_conv1_scale
I1106 02:22:16.437713 13390 net.cpp:100] Creating Layer group2_block0_conv1_scale
I1106 02:22:16.437721 13390 net.cpp:434] group2_block0_conv1_scale <- group2_block0_conv1
I1106 02:22:16.437731 13390 net.cpp:395] group2_block0_conv1_scale -> group2_block0_conv1 (in-place)
I1106 02:22:16.437748 13390 layer_factory.hpp:77] Creating layer group2_block0_conv1_scale
I1106 02:22:16.437773 13390 net.cpp:150] Setting up group2_block0_conv1_scale
I1106 02:22:16.437785 13390 net.cpp:157] Top shape: 100 64 8 8 (409600)
I1106 02:22:16.437793 13390 net.cpp:165] Memory required for data: 356762800
I1106 02:22:16.437804 13390 layer_factory.hpp:77] Creating layer group2_block0_proj
I1106 02:22:16.437820 13390 net.cpp:100] Creating Layer group2_block0_proj
I1106 02:22:16.437829 13390 net.cpp:434] group2_block0_proj <- group1_block2_sum_group1_block2_sum_0_split_1
I1106 02:22:16.437842 13390 net.cpp:408] group2_block0_proj -> group2_block0_proj
I1106 02:22:16.438143 13390 net.cpp:150] Setting up group2_block0_proj
I1106 02:22:16.438154 13390 net.cpp:157] Top shape: 100 64 8 8 (409600)
I1106 02:22:16.438161 13390 net.cpp:165] Memory required for data: 358401200
I1106 02:22:16.438174 13390 layer_factory.hpp:77] Creating layer group2_block0_proj_bn
I1106 02:22:16.438187 13390 net.cpp:100] Creating Layer group2_block0_proj_bn
I1106 02:22:16.438196 13390 net.cpp:434] group2_block0_proj_bn <- group2_block0_proj
I1106 02:22:16.438207 13390 net.cpp:395] group2_block0_proj_bn -> group2_block0_proj (in-place)
I1106 02:22:16.438235 13390 net.cpp:150] Setting up group2_block0_proj_bn
I1106 02:22:16.438246 13390 net.cpp:157] Top shape: 100 64 8 8 (409600)
I1106 02:22:16.438253 13390 net.cpp:165] Memory required for data: 360039600
I1106 02:22:16.438266 13390 layer_factory.hpp:77] Creating layer group2_block0_proj_scale
I1106 02:22:16.438280 13390 net.cpp:100] Creating Layer group2_block0_proj_scale
I1106 02:22:16.438305 13390 net.cpp:434] group2_block0_proj_scale <- group2_block0_proj
I1106 02:22:16.438318 13390 net.cpp:395] group2_block0_proj_scale -> group2_block0_proj (in-place)
I1106 02:22:16.438338 13390 layer_factory.hpp:77] Creating layer group2_block0_proj_scale
I1106 02:22:16.438365 13390 net.cpp:150] Setting up group2_block0_proj_scale
I1106 02:22:16.438377 13390 net.cpp:157] Top shape: 100 64 8 8 (409600)
I1106 02:22:16.438385 13390 net.cpp:165] Memory required for data: 361678000
I1106 02:22:16.438395 13390 layer_factory.hpp:77] Creating layer group2_block0_sum
I1106 02:22:16.438407 13390 net.cpp:100] Creating Layer group2_block0_sum
I1106 02:22:16.438416 13390 net.cpp:434] group2_block0_sum <- group2_block0_proj
I1106 02:22:16.438424 13390 net.cpp:434] group2_block0_sum <- group2_block0_conv1
I1106 02:22:16.438439 13390 net.cpp:408] group2_block0_sum -> group2_block0_sum
I1106 02:22:16.438453 13390 net.cpp:150] Setting up group2_block0_sum
I1106 02:22:16.438464 13390 net.cpp:157] Top shape: 100 64 8 8 (409600)
I1106 02:22:16.438472 13390 net.cpp:165] Memory required for data: 363316400
I1106 02:22:16.438479 13390 layer_factory.hpp:77] Creating layer group2_block0_sum_group2_block0_sum_0_split
I1106 02:22:16.438489 13390 net.cpp:100] Creating Layer group2_block0_sum_group2_block0_sum_0_split
I1106 02:22:16.438506 13390 net.cpp:434] group2_block0_sum_group2_block0_sum_0_split <- group2_block0_sum
I1106 02:22:16.438524 13390 net.cpp:408] group2_block0_sum_group2_block0_sum_0_split -> group2_block0_sum_group2_block0_sum_0_split_0
I1106 02:22:16.438539 13390 net.cpp:408] group2_block0_sum_group2_block0_sum_0_split -> group2_block0_sum_group2_block0_sum_0_split_1
I1106 02:22:16.438557 13390 net.cpp:150] Setting up group2_block0_sum_group2_block0_sum_0_split
I1106 02:22:16.438568 13390 net.cpp:157] Top shape: 100 64 8 8 (409600)
I1106 02:22:16.438578 13390 net.cpp:157] Top shape: 100 64 8 8 (409600)
I1106 02:22:16.438585 13390 net.cpp:165] Memory required for data: 366593200
I1106 02:22:16.438593 13390 layer_factory.hpp:77] Creating layer group2_block1_conv0
I1106 02:22:16.438607 13390 net.cpp:100] Creating Layer group2_block1_conv0
I1106 02:22:16.438616 13390 net.cpp:434] group2_block1_conv0 <- group2_block0_sum_group2_block0_sum_0_split_0
I1106 02:22:16.438632 13390 net.cpp:408] group2_block1_conv0 -> group2_block1_conv0
I1106 02:22:16.439932 13390 net.cpp:150] Setting up group2_block1_conv0
I1106 02:22:16.439957 13390 net.cpp:157] Top shape: 100 64 8 8 (409600)
I1106 02:22:16.439966 13390 net.cpp:165] Memory required for data: 368231600
I1106 02:22:16.439978 13390 layer_factory.hpp:77] Creating layer group2_block1_conv0_bn
I1106 02:22:16.439990 13390 net.cpp:100] Creating Layer group2_block1_conv0_bn
I1106 02:22:16.439999 13390 net.cpp:434] group2_block1_conv0_bn <- group2_block1_conv0
I1106 02:22:16.440011 13390 net.cpp:395] group2_block1_conv0_bn -> group2_block1_conv0 (in-place)
I1106 02:22:16.440037 13390 net.cpp:150] Setting up group2_block1_conv0_bn
I1106 02:22:16.440053 13390 net.cpp:157] Top shape: 100 64 8 8 (409600)
I1106 02:22:16.440062 13390 net.cpp:165] Memory required for data: 369870000
I1106 02:22:16.440075 13390 layer_factory.hpp:77] Creating layer group2_block1_conv0_scale
I1106 02:22:16.440094 13390 net.cpp:100] Creating Layer group2_block1_conv0_scale
I1106 02:22:16.440104 13390 net.cpp:434] group2_block1_conv0_scale <- group2_block1_conv0
I1106 02:22:16.440115 13390 net.cpp:395] group2_block1_conv0_scale -> group2_block1_conv0 (in-place)
I1106 02:22:16.440134 13390 layer_factory.hpp:77] Creating layer group2_block1_conv0_scale
I1106 02:22:16.440161 13390 net.cpp:150] Setting up group2_block1_conv0_scale
I1106 02:22:16.440173 13390 net.cpp:157] Top shape: 100 64 8 8 (409600)
I1106 02:22:16.440181 13390 net.cpp:165] Memory required for data: 371508400
I1106 02:22:16.440192 13390 layer_factory.hpp:77] Creating layer group2_block1_conv0_relu
I1106 02:22:16.440204 13390 net.cpp:100] Creating Layer group2_block1_conv0_relu
I1106 02:22:16.440212 13390 net.cpp:434] group2_block1_conv0_relu <- group2_block1_conv0
I1106 02:22:16.440248 13390 net.cpp:395] group2_block1_conv0_relu -> group2_block1_conv0 (in-place)
I1106 02:22:16.440263 13390 net.cpp:150] Setting up group2_block1_conv0_relu
I1106 02:22:16.440274 13390 net.cpp:157] Top shape: 100 64 8 8 (409600)
I1106 02:22:16.440281 13390 net.cpp:165] Memory required for data: 373146800
I1106 02:22:16.440290 13390 layer_factory.hpp:77] Creating layer group2_block1_conv1
I1106 02:22:16.440304 13390 net.cpp:100] Creating Layer group2_block1_conv1
I1106 02:22:16.440313 13390 net.cpp:434] group2_block1_conv1 <- group2_block1_conv0
I1106 02:22:16.440325 13390 net.cpp:408] group2_block1_conv1 -> group2_block1_conv1
I1106 02:22:16.441615 13390 net.cpp:150] Setting up group2_block1_conv1
I1106 02:22:16.441633 13390 net.cpp:157] Top shape: 100 64 8 8 (409600)
I1106 02:22:16.441640 13390 net.cpp:165] Memory required for data: 374785200
I1106 02:22:16.441650 13390 layer_factory.hpp:77] Creating layer group2_block1_conv1_bn
I1106 02:22:16.441663 13390 net.cpp:100] Creating Layer group2_block1_conv1_bn
I1106 02:22:16.441671 13390 net.cpp:434] group2_block1_conv1_bn <- group2_block1_conv1
I1106 02:22:16.441680 13390 net.cpp:395] group2_block1_conv1_bn -> group2_block1_conv1 (in-place)
I1106 02:22:16.441701 13390 net.cpp:150] Setting up group2_block1_conv1_bn
I1106 02:22:16.441710 13390 net.cpp:157] Top shape: 100 64 8 8 (409600)
I1106 02:22:16.441716 13390 net.cpp:165] Memory required for data: 376423600
I1106 02:22:16.441762 13390 layer_factory.hpp:77] Creating layer group2_block1_conv1_scale
I1106 02:22:16.441776 13390 net.cpp:100] Creating Layer group2_block1_conv1_scale
I1106 02:22:16.441783 13390 net.cpp:434] group2_block1_conv1_scale <- group2_block1_conv1
I1106 02:22:16.441793 13390 net.cpp:395] group2_block1_conv1_scale -> group2_block1_conv1 (in-place)
I1106 02:22:16.441809 13390 layer_factory.hpp:77] Creating layer group2_block1_conv1_scale
I1106 02:22:16.441830 13390 net.cpp:150] Setting up group2_block1_conv1_scale
I1106 02:22:16.441845 13390 net.cpp:157] Top shape: 100 64 8 8 (409600)
I1106 02:22:16.441853 13390 net.cpp:165] Memory required for data: 378062000
I1106 02:22:16.441861 13390 layer_factory.hpp:77] Creating layer group2_block1_sum
I1106 02:22:16.441871 13390 net.cpp:100] Creating Layer group2_block1_sum
I1106 02:22:16.441879 13390 net.cpp:434] group2_block1_sum <- group2_block1_conv1
I1106 02:22:16.441887 13390 net.cpp:434] group2_block1_sum <- group2_block0_sum_group2_block0_sum_0_split_1
I1106 02:22:16.441901 13390 net.cpp:408] group2_block1_sum -> group2_block1_sum
I1106 02:22:16.441915 13390 net.cpp:150] Setting up group2_block1_sum
I1106 02:22:16.441939 13390 net.cpp:157] Top shape: 100 64 8 8 (409600)
I1106 02:22:16.441946 13390 net.cpp:165] Memory required for data: 379700400
I1106 02:22:16.441952 13390 layer_factory.hpp:77] Creating layer group2_block1_sum_group2_block1_sum_0_split
I1106 02:22:16.441962 13390 net.cpp:100] Creating Layer group2_block1_sum_group2_block1_sum_0_split
I1106 02:22:16.441969 13390 net.cpp:434] group2_block1_sum_group2_block1_sum_0_split <- group2_block1_sum
I1106 02:22:16.441979 13390 net.cpp:408] group2_block1_sum_group2_block1_sum_0_split -> group2_block1_sum_group2_block1_sum_0_split_0
I1106 02:22:16.441992 13390 net.cpp:408] group2_block1_sum_group2_block1_sum_0_split -> group2_block1_sum_group2_block1_sum_0_split_1
I1106 02:22:16.442008 13390 net.cpp:150] Setting up group2_block1_sum_group2_block1_sum_0_split
I1106 02:22:16.442021 13390 net.cpp:157] Top shape: 100 64 8 8 (409600)
I1106 02:22:16.442030 13390 net.cpp:157] Top shape: 100 64 8 8 (409600)
I1106 02:22:16.442037 13390 net.cpp:165] Memory required for data: 382977200
I1106 02:22:16.442044 13390 layer_factory.hpp:77] Creating layer group2_block2_conv0
I1106 02:22:16.442056 13390 net.cpp:100] Creating Layer group2_block2_conv0
I1106 02:22:16.442065 13390 net.cpp:434] group2_block2_conv0 <- group2_block1_sum_group2_block1_sum_0_split_0
I1106 02:22:16.442075 13390 net.cpp:408] group2_block2_conv0 -> group2_block2_conv0
I1106 02:22:16.443148 13390 net.cpp:150] Setting up group2_block2_conv0
I1106 02:22:16.443176 13390 net.cpp:157] Top shape: 100 64 8 8 (409600)
I1106 02:22:16.443183 13390 net.cpp:165] Memory required for data: 384615600
I1106 02:22:16.443193 13390 layer_factory.hpp:77] Creating layer group2_block2_conv0_bn
I1106 02:22:16.443207 13390 net.cpp:100] Creating Layer group2_block2_conv0_bn
I1106 02:22:16.443215 13390 net.cpp:434] group2_block2_conv0_bn <- group2_block2_conv0
I1106 02:22:16.443225 13390 net.cpp:395] group2_block2_conv0_bn -> group2_block2_conv0 (in-place)
I1106 02:22:16.443248 13390 net.cpp:150] Setting up group2_block2_conv0_bn
I1106 02:22:16.443264 13390 net.cpp:157] Top shape: 100 64 8 8 (409600)
I1106 02:22:16.443271 13390 net.cpp:165] Memory required for data: 386254000
I1106 02:22:16.443284 13390 layer_factory.hpp:77] Creating layer group2_block2_conv0_scale
I1106 02:22:16.443294 13390 net.cpp:100] Creating Layer group2_block2_conv0_scale
I1106 02:22:16.443300 13390 net.cpp:434] group2_block2_conv0_scale <- group2_block2_conv0
I1106 02:22:16.443313 13390 net.cpp:395] group2_block2_conv0_scale -> group2_block2_conv0 (in-place)
I1106 02:22:16.443330 13390 layer_factory.hpp:77] Creating layer group2_block2_conv0_scale
I1106 02:22:16.443351 13390 net.cpp:150] Setting up group2_block2_conv0_scale
I1106 02:22:16.443362 13390 net.cpp:157] Top shape: 100 64 8 8 (409600)
I1106 02:22:16.443369 13390 net.cpp:165] Memory required for data: 387892400
I1106 02:22:16.443379 13390 layer_factory.hpp:77] Creating layer group2_block2_conv0_relu
I1106 02:22:16.443388 13390 net.cpp:100] Creating Layer group2_block2_conv0_relu
I1106 02:22:16.443397 13390 net.cpp:434] group2_block2_conv0_relu <- group2_block2_conv0
I1106 02:22:16.443405 13390 net.cpp:395] group2_block2_conv0_relu -> group2_block2_conv0 (in-place)
I1106 02:22:16.443415 13390 net.cpp:150] Setting up group2_block2_conv0_relu
I1106 02:22:16.443424 13390 net.cpp:157] Top shape: 100 64 8 8 (409600)
I1106 02:22:16.443431 13390 net.cpp:165] Memory required for data: 389530800
I1106 02:22:16.443439 13390 layer_factory.hpp:77] Creating layer group2_block2_conv1
I1106 02:22:16.443452 13390 net.cpp:100] Creating Layer group2_block2_conv1
I1106 02:22:16.443462 13390 net.cpp:434] group2_block2_conv1 <- group2_block2_conv0
I1106 02:22:16.443475 13390 net.cpp:408] group2_block2_conv1 -> group2_block2_conv1
I1106 02:22:16.444547 13390 net.cpp:150] Setting up group2_block2_conv1
I1106 02:22:16.444561 13390 net.cpp:157] Top shape: 100 64 8 8 (409600)
I1106 02:22:16.444567 13390 net.cpp:165] Memory required for data: 391169200
I1106 02:22:16.444577 13390 layer_factory.hpp:77] Creating layer group2_block2_conv1_bn
I1106 02:22:16.444587 13390 net.cpp:100] Creating Layer group2_block2_conv1_bn
I1106 02:22:16.444594 13390 net.cpp:434] group2_block2_conv1_bn <- group2_block2_conv1
I1106 02:22:16.444603 13390 net.cpp:395] group2_block2_conv1_bn -> group2_block2_conv1 (in-place)
I1106 02:22:16.444625 13390 net.cpp:150] Setting up group2_block2_conv1_bn
I1106 02:22:16.444639 13390 net.cpp:157] Top shape: 100 64 8 8 (409600)
I1106 02:22:16.444648 13390 net.cpp:165] Memory required for data: 392807600
I1106 02:22:16.444658 13390 layer_factory.hpp:77] Creating layer group2_block2_conv1_scale
I1106 02:22:16.444669 13390 net.cpp:100] Creating Layer group2_block2_conv1_scale
I1106 02:22:16.444675 13390 net.cpp:434] group2_block2_conv1_scale <- group2_block2_conv1
I1106 02:22:16.444684 13390 net.cpp:395] group2_block2_conv1_scale -> group2_block2_conv1 (in-place)
I1106 02:22:16.444699 13390 layer_factory.hpp:77] Creating layer group2_block2_conv1_scale
I1106 02:22:16.444720 13390 net.cpp:150] Setting up group2_block2_conv1_scale
I1106 02:22:16.444731 13390 net.cpp:157] Top shape: 100 64 8 8 (409600)
I1106 02:22:16.444737 13390 net.cpp:165] Memory required for data: 394446000
I1106 02:22:16.444747 13390 layer_factory.hpp:77] Creating layer group2_block2_sum
I1106 02:22:16.444761 13390 net.cpp:100] Creating Layer group2_block2_sum
I1106 02:22:16.444768 13390 net.cpp:434] group2_block2_sum <- group2_block2_conv1
I1106 02:22:16.444794 13390 net.cpp:434] group2_block2_sum <- group2_block1_sum_group2_block1_sum_0_split_1
I1106 02:22:16.444805 13390 net.cpp:408] group2_block2_sum -> group2_block2_sum
I1106 02:22:16.444818 13390 net.cpp:150] Setting up group2_block2_sum
I1106 02:22:16.444830 13390 net.cpp:157] Top shape: 100 64 8 8 (409600)
I1106 02:22:16.444840 13390 net.cpp:165] Memory required for data: 396084400
I1106 02:22:16.444847 13390 layer_factory.hpp:77] Creating layer global_avg_pool
I1106 02:22:16.444857 13390 net.cpp:100] Creating Layer global_avg_pool
I1106 02:22:16.444864 13390 net.cpp:434] global_avg_pool <- group2_block2_sum
I1106 02:22:16.444875 13390 net.cpp:408] global_avg_pool -> global_avg_pool
I1106 02:22:16.444903 13390 net.cpp:150] Setting up global_avg_pool
I1106 02:22:16.444916 13390 net.cpp:157] Top shape: 100 64 1 1 (6400)
I1106 02:22:16.444922 13390 net.cpp:165] Memory required for data: 396110000
I1106 02:22:16.444929 13390 layer_factory.hpp:77] Creating layer fc
I1106 02:22:16.444947 13390 net.cpp:100] Creating Layer fc
I1106 02:22:16.444959 13390 net.cpp:434] fc <- global_avg_pool
I1106 02:22:16.444973 13390 net.cpp:408] fc -> fc
I1106 02:22:16.445014 13390 net.cpp:150] Setting up fc
I1106 02:22:16.445026 13390 net.cpp:157] Top shape: 100 12 (1200)
I1106 02:22:16.445034 13390 net.cpp:165] Memory required for data: 396114800
I1106 02:22:16.445044 13390 layer_factory.hpp:77] Creating layer fc_fc_0_split
I1106 02:22:16.445052 13390 net.cpp:100] Creating Layer fc_fc_0_split
I1106 02:22:16.445060 13390 net.cpp:434] fc_fc_0_split <- fc
I1106 02:22:16.445067 13390 net.cpp:408] fc_fc_0_split -> fc_fc_0_split_0
I1106 02:22:16.445081 13390 net.cpp:408] fc_fc_0_split -> fc_fc_0_split_1
I1106 02:22:16.445094 13390 net.cpp:150] Setting up fc_fc_0_split
I1106 02:22:16.445103 13390 net.cpp:157] Top shape: 100 12 (1200)
I1106 02:22:16.445111 13390 net.cpp:157] Top shape: 100 12 (1200)
I1106 02:22:16.445117 13390 net.cpp:165] Memory required for data: 396124400
I1106 02:22:16.445123 13390 layer_factory.hpp:77] Creating layer loss
I1106 02:22:16.445132 13390 net.cpp:100] Creating Layer loss
I1106 02:22:16.445139 13390 net.cpp:434] loss <- fc_fc_0_split_0
I1106 02:22:16.445147 13390 net.cpp:434] loss <- label_data_1_split_0
I1106 02:22:16.445158 13390 net.cpp:408] loss -> loss
I1106 02:22:16.445173 13390 layer_factory.hpp:77] Creating layer loss
I1106 02:22:16.445197 13390 net.cpp:150] Setting up loss
I1106 02:22:16.445209 13390 net.cpp:157] Top shape: (1)
I1106 02:22:16.445215 13390 net.cpp:160]     with loss weight 1
I1106 02:22:16.445243 13390 net.cpp:165] Memory required for data: 396124404
I1106 02:22:16.445250 13390 layer_factory.hpp:77] Creating layer softmax
I1106 02:22:16.445260 13390 net.cpp:100] Creating Layer softmax
I1106 02:22:16.445266 13390 net.cpp:434] softmax <- fc_fc_0_split_1
I1106 02:22:16.445276 13390 net.cpp:408] softmax -> softmax
I1106 02:22:16.445297 13390 net.cpp:150] Setting up softmax
I1106 02:22:16.445307 13390 net.cpp:157] Top shape: 100 12 (1200)
I1106 02:22:16.445313 13390 net.cpp:165] Memory required for data: 396129204
I1106 02:22:16.445320 13390 layer_factory.hpp:77] Creating layer Accuracy
I1106 02:22:16.445333 13390 net.cpp:100] Creating Layer Accuracy
I1106 02:22:16.445339 13390 net.cpp:434] Accuracy <- softmax
I1106 02:22:16.445348 13390 net.cpp:434] Accuracy <- label_data_1_split_1
I1106 02:22:16.445358 13390 net.cpp:408] Accuracy -> Accuracy
…
