…
I1105 05:45:15.354116 13010 net.cpp:322] The NetState phase (0) differed from the phase (1) specified by a rule in layer data
I1105 05:45:15.354915 13010 net.cpp:58] Initializing net from parameters: 
name: "resnet20-cifar10"
state {
  phase: TRAIN
  level: 0
  stage: ""
}
layer {
  name: "data"
  type: "Data"
  top: "data"
  top: "label"
  include {
    phase: TRAIN
  }
  transform_param {
    mirror: true
    crop_size: 32
    mean_file: "data/mean.binaryproto"
  }
  data_param {
    source: "data/test_lmdb"
    batch_size: 100
    backend: LMDB
  }
}
layer {
  name: "first_conv"
  type: "Convolution"
  bottom: "data"
  top: "first_conv"
  param {
    lr_mult: 1
    decay_mult: 1
  }
  convolution_param {
    num_output: 16
    pad: 1
    kernel_size: 3
    stride: 1
    weight_filler {
      type: "msra"
    }
  }
}
layer {
  name: "first_conv_bn"
  type: "BatchNorm"
  bottom: "first_conv"
  top: "first_conv"
  batch_norm_param {
    use_global_stats: false
    moving_average_fraction: 0.95
  }
}
layer {
  name: "first_conv_scale"
  type: "Scale"
  bottom: "first_conv"
  top: "first_conv"
  scale_param {
    bias_term: true
  }
}
layer {
  name: "first_conv_relu"
  type: "ReLU"
  bottom: "first_conv"
  top: "first_conv"
}
layer {
  name: "group0_block0_conv0"
  type: "Convolution"
  bottom: "first_conv"
  top: "group0_block0_conv0"
  param {
    lr_mult: 1
    decay_mult: 1
  }
  convolution_param {
    num_output: 16
    pad: 1
    kernel_size: 3
    stride: 1
    weight_filler {
      type: "msra"
    }
  }
}
layer {
  name: "group0_block0_conv0_bn"
  type: "BatchNorm"
  bottom: "group0_block0_conv0"
  top: "group0_block0_conv0"
  batch_norm_param {
    use_global_stats: false
    moving_average_fraction: 0.95
  }
}
layer {
  name: "group0_block0_conv0_scale"
  type: "Scale"
  bottom: "group0_block0_conv0"
  top: "group0_block0_conv0"
  scale_param {
    bias_term: true
  }
}
layer {
  name: "group0_block0_conv0_relu"
  type: "ReLU"
  bottom: "group0_block0_conv0"
  top: "group0_block0_conv0"
}
layer {
  name: "group0_block0_conv1"
  type: "Convolution"
  bottom: "group0_block0_conv0"
  top: "group0_block0_conv1"
  param {
    lr_mult: 1
    decay_mult: 1
  }
  convolution_param {
    num_output: 16
    pad: 1
    kernel_size: 3
    stride: 1
    weight_filler {
      type: "msra"
    }
  }
}
layer {
  name: "group0_block0_conv1_bn"
  type: "BatchNorm"
  bottom: "group0_block0_conv1"
  top: "group0_block0_conv1"
  batch_norm_param {
    use_global_stats: false
    moving_average_fraction: 0.95
  }
}
layer {
  name: "group0_block0_conv1_scale"
  type: "Scale"
  bottom: "group0_block0_conv1"
  top: "group0_block0_conv1"
  scale_param {
    bias_term: true
  }
}
layer {
  name: "group0_block0_sum"
  type: "Eltwise"
  bottom: "group0_block0_conv1"
  bottom: "first_conv"
  top: "group0_block0_sum"
  eltwise_param {
    operation: SUM
  }
}
layer {
  name: "group0_block1_conv0"
  type: "Convolution"
  bottom: "group0_block0_sum"
  top: "group0_block1_conv0"
  param {
    lr_mult: 1
    decay_mult: 1
  }
  convolution_param {
    num_output: 16
    pad: 1
    kernel_size: 3
    stride: 1
    weight_filler {
      type: "msra"
    }
  }
}
layer {
  name: "group0_block1_conv0_bn"
  type: "BatchNorm"
  bottom: "group0_block1_conv0"
  top: "group0_block1_conv0"
  batch_norm_param {
    use_global_stats: false
    moving_average_fraction: 0.95
  }
}
layer {
  name: "group0_block1_conv0_scale"
  type: "Scale"
  bottom: "group0_block1_conv0"
  top: "group0_block1_conv0"
  scale_param {
    bias_term: true
  }
}
layer {
  name: "group0_block1_conv0_relu"
  type: "ReLU"
  bottom: "group0_block1_conv0"
  top: "group0_block1_conv0"
}
layer {
  name: "group0_block1_conv1"
  type: "Convolution"
  bottom: "group0_block1_conv0"
  top: "group0_block1_conv1"
  param {
    lr_mult: 1
    decay_mult: 1
  }
  convolution_param {
    num_output: 16
    pad: 1
    kernel_size: 3
    stride: 1
    weight_filler {
      type: "msra"
    }
  }
}
layer {
  name: "group0_block1_conv1_bn"
  type: "BatchNorm"
  bottom: "group0_block1_conv1"
  top: "group0_block1_conv1"
  batch_norm_param {
    use_global_stats: false
    moving_average_fraction: 0.95
  }
}
layer {
  name: "group0_block1_conv1_scale"
  type: "Scale"
  bottom: "group0_block1_conv1"
  top: "group0_block1_conv1"
  scale_param {
    bias_term: true
  }
}
layer {
  name: "group0_block1_sum"
  type: "Eltwise"
  bottom: "group0_block1_conv1"
  bottom: "group0_block0_sum"
  top: "group0_block1_sum"
  eltwise_param {
    operation: SUM
  }
}
layer {
  name: "group0_block2_conv0"
  type: "Convolution"
  bottom: "group0_block1_sum"
  top: "group0_block2_conv0"
  param {
    lr_mult: 1
    decay_mult: 1
  }
  convolution_param {
    num_output: 16
    pad: 1
    kernel_size: 3
    stride: 1
    weight_filler {
      type: "msra"
    }
  }
}
layer {
  name: "group0_block2_conv0_bn"
  type: "BatchNorm"
  bottom: "group0_block2_conv0"
  top: "group0_block2_conv0"
  batch_norm_param {
    use_global_stats: false
    moving_average_fraction: 0.95
  }
}
layer {
  name: "group0_block2_conv0_scale"
  type: "Scale"
  bottom: "group0_block2_conv0"
  top: "group0_block2_conv0"
  scale_param {
    bias_term: true
  }
}
layer {
  name: "group0_block2_conv0_relu"
  type: "ReLU"
  bottom: "group0_block2_conv0"
  top: "group0_block2_conv0"
}
layer {
  name: "group0_block2_conv1"
  type: "Convolution"
  bottom: "group0_block2_conv0"
  top: "group0_block2_conv1"
  param {
    lr_mult: 1
    decay_mult: 1
  }
  convolution_param {
    num_output: 16
    pad: 1
    kernel_size: 3
    stride: 1
    weight_filler {
      type: "msra"
    }
  }
}
layer {
  name: "group0_block2_conv1_bn"
  type: "BatchNorm"
  bottom: "group0_block2_conv1"
  top: "group0_block2_conv1"
  batch_norm_param {
    use_global_stats: false
    moving_average_fraction: 0.95
  }
}
layer {
  name: "group0_block2_conv1_scale"
  type: "Scale"
  bottom: "group0_block2_conv1"
  top: "group0_block2_conv1"
  scale_param {
    bias_term: true
  }
}
layer {
  name: "group0_block2_sum"
  type: "Eltwise"
  bottom: "group0_block2_conv1"
  bottom: "group0_block1_sum"
  top: "group0_block2_sum"
  eltwise_param {
    operation: SUM
  }
}
layer {
  name: "group1_block0_conv0"
  type: "Convolution"
  bottom: "group0_block2_sum"
  top: "group1_block0_conv0"
  param {
    lr_mult: 1
    decay_mult: 1
  }
  convolution_param {
    num_output: 32
    pad: 1
    kernel_size: 3
    stride: 2
    weight_filler {
      type: "msra"
    }
  }
}
layer {
  name: "group1_block0_conv0_bn"
  type: "BatchNorm"
  bottom: "group1_block0_conv0"
  top: "group1_block0_conv0"
  batch_norm_param {
    use_global_stats: false
    moving_average_fraction: 0.95
  }
}
layer {
  name: "group1_block0_conv0_scale"
  type: "Scale"
  bottom: "group1_block0_conv0"
  top: "group1_block0_conv0"
  scale_param {
    bias_term: true
  }
}
layer {
  name: "group1_block0_conv0_relu"
  type: "ReLU"
  bottom: "group1_block0_conv0"
  top: "group1_block0_conv0"
}
layer {
  name: "group1_block0_conv1"
  type: "Convolution"
  bottom: "group1_block0_conv0"
  top: "group1_block0_conv1"
  param {
    lr_mult: 1
    decay_mult: 1
  }
  convolution_param {
    num_output: 32
    pad: 1
    kernel_size: 3
    stride: 1
    weight_filler {
      type: "msra"
    }
  }
}
layer {
  name: "group1_block0_conv1_bn"
  type: "BatchNorm"
  bottom: "group1_block0_conv1"
  top: "group1_block0_conv1"
  batch_norm_param {
    use_global_stats: false
    moving_average_fraction: 0.95
  }
}
layer {
  name: "group1_block0_conv1_scale"
  type: "Scale"
  bottom: "group1_block0_conv1"
  top: "group1_block0_conv1"
  scale_param {
    bias_term: true
  }
}
layer {
  name: "group1_block0_proj"
  type: "Convolution"
  bottom: "group0_block2_sum"
  top: "group1_block0_proj"
  param {
    lr_mult: 1
    decay_mult: 1
  }
  convolution_param {
    num_output: 32
    pad: 0
    kernel_size: 2
    stride: 2
    weight_filler {
      type: "msra"
    }
  }
}
layer {
  name: "group1_block0_proj_bn"
  type: "BatchNorm"
  bottom: "group1_block0_proj"
  top: "group1_block0_proj"
  batch_norm_param {
    use_global_stats: false
    moving_average_fraction: 0.95
  }
}
layer {
  name: "group1_block0_proj_scale"
  type: "Scale"
  bottom: "group1_block0_proj"
  top: "group1_block0_proj"
  scale_param {
    bias_term: true
  }
}
layer {
  name: "group1_block0_sum"
  type: "Eltwise"
  bottom: "group1_block0_proj"
  bottom: "group1_block0_conv1"
  top: "group1_block0_sum"
  eltwise_param {
    operation: SUM
  }
}
layer {
  name: "group1_block1_conv0"
  type: "Convolution"
  bottom: "group1_block0_sum"
  top: "group1_block1_conv0"
  param {
    lr_mult: 1
    decay_mult: 1
  }
  convolution_param {
    num_output: 32
    pad: 1
    kernel_size: 3
    stride: 1
    weight_filler {
      type: "msra"
    }
  }
}
layer {
  name: "group1_block1_conv0_bn"
  type: "BatchNorm"
  bottom: "group1_block1_conv0"
  top: "group1_block1_conv0"
  batch_norm_param {
    use_global_stats: false
    moving_average_fraction: 0.95
  }
}
layer {
  name: "group1_block1_conv0_scale"
  type: "Scale"
  bottom: "group1_block1_conv0"
  top: "group1_block1_conv0"
  scale_param {
    bias_term: true
  }
}
layer {
  name: "group1_block1_conv0_relu"
  type: "ReLU"
  bottom: "group1_block1_conv0"
  top: "group1_block1_conv0"
}
layer {
  name: "group1_block1_conv1"
  type: "Convolution"
  bottom: "group1_block1_conv0"
  top: "group1_block1_conv1"
  param {
    lr_mult: 1
    decay_mult: 1
  }
  convolution_param {
    num_output: 32
    pad: 1
    kernel_size: 3
    stride: 1
    weight_filler {
      type: "msra"
    }
  }
}
layer {
  name: "group1_block1_conv1_bn"
  type: "BatchNorm"
  bottom: "group1_block1_conv1"
  top: "group1_block1_conv1"
  batch_norm_param {
    use_global_stats: false
    moving_average_fraction: 0.95
  }
}
layer {
  name: "group1_block1_conv1_scale"
  type: "Scale"
  bottom: "group1_block1_conv1"
  top: "group1_block1_conv1"
  scale_param {
    bias_term: true
  }
}
layer {
  name: "group1_block1_sum"
  type: "Eltwise"
  bottom: "group1_block1_conv1"
  bottom: "group1_block0_sum"
  top: "group1_block1_sum"
  eltwise_param {
    operation: SUM
  }
}
layer {
  name: "group1_block2_conv0"
  type: "Convolution"
  bottom: "group1_block1_sum"
  top: "group1_block2_conv0"
  param {
    lr_mult: 1
    decay_mult: 1
  }
  convolution_param {
    num_output: 32
    pad: 1
    kernel_size: 3
    stride: 1
    weight_filler {
      type: "msra"
    }
  }
}
layer {
  name: "group1_block2_conv0_bn"
  type: "BatchNorm"
  bottom: "group1_block2_conv0"
  top: "group1_block2_conv0"
  batch_norm_param {
    use_global_stats: false
    moving_average_fraction: 0.95
  }
}
layer {
  name: "group1_block2_conv0_scale"
  type: "Scale"
  bottom: "group1_block2_conv0"
  top: "group1_block2_conv0"
  scale_param {
    bias_term: true
  }
}
layer {
  name: "group1_block2_conv0_relu"
  type: "ReLU"
  bottom: "group1_block2_conv0"
  top: "group1_block2_conv0"
}
layer {
  name: "group1_block2_conv1"
  type: "Convolution"
  bottom: "group1_block2_conv0"
  top: "group1_block2_conv1"
  param {
    lr_mult: 1
    decay_mult: 1
  }
  convolution_param {
    num_output: 32
    pad: 1
    kernel_size: 3
    stride: 1
    weight_filler {
      type: "msra"
    }
  }
}
layer {
  name: "group1_block2_conv1_bn"
  type: "BatchNorm"
  bottom: "group1_block2_conv1"
  top: "group1_block2_conv1"
  batch_norm_param {
    use_global_stats: false
    moving_average_fraction: 0.95
  }
}
layer {
  name: "group1_block2_conv1_scale"
  type: "Scale"
  bottom: "group1_block2_conv1"
  top: "group1_block2_conv1"
  scale_param {
    bias_term: true
  }
}
layer {
  name: "group1_block2_sum"
  type: "Eltwise"
  bottom: "group1_block2_conv1"
  bottom: "group1_block1_sum"
  top: "group1_block2_sum"
  eltwise_param {
    operation: SUM
  }
}
layer {
  name: "group2_block0_conv0"
  type: "Convolution"
  bottom: "group1_block2_sum"
  top: "group2_block0_conv0"
  param {
    lr_mult: 1
    decay_mult: 1
  }
  convolution_param {
    num_output: 64
    pad: 1
    kernel_size: 3
    stride: 2
    weight_filler {
      type: "msra"
    }
  }
}
layer {
  name: "group2_block0_conv0_bn"
  type: "BatchNorm"
  bottom: "group2_block0_conv0"
  top: "group2_block0_conv0"
  batch_norm_param {
    use_global_stats: false
    moving_average_fraction: 0.95
  }
}
layer {
  name: "group2_block0_conv0_scale"
  type: "Scale"
  bottom: "group2_block0_conv0"
  top: "group2_block0_conv0"
  scale_param {
    bias_term: true
  }
}
layer {
  name: "group2_block0_conv0_relu"
  type: "ReLU"
  bottom: "group2_block0_conv0"
  top: "group2_block0_conv0"
}
layer {
  name: "group2_block0_conv1"
  type: "Convolution"
  bottom: "group2_block0_conv0"
  top: "group2_block0_conv1"
  param {
    lr_mult: 1
    decay_mult: 1
  }
  convolution_param {
    num_output: 64
    pad: 1
    kernel_size: 3
    stride: 1
    weight_filler {
      type: "msra"
    }
  }
}
layer {
  name: "group2_block0_conv1_bn"
  type: "BatchNorm"
  bottom: "group2_block0_conv1"
  top: "group2_block0_conv1"
  batch_norm_param {
    use_global_stats: false
    moving_average_fraction: 0.95
  }
}
layer {
  name: "group2_block0_conv1_scale"
  type: "Scale"
  bottom: "group2_block0_conv1"
  top: "group2_block0_conv1"
  scale_param {
    bias_term: true
  }
}
layer {
  name: "group2_block0_proj"
  type: "Convolution"
  bottom: "group1_block2_sum"
  top: "group2_block0_proj"
  param {
    lr_mult: 1
    decay_mult: 1
  }
  convolution_param {
    num_output: 64
    pad: 0
    kernel_size: 2
    stride: 2
    weight_filler {
      type: "msra"
    }
  }
}
layer {
  name: "group2_block0_proj_bn"
  type: "BatchNorm"
  bottom: "group2_block0_proj"
  top: "group2_block0_proj"
  batch_norm_param {
    use_global_stats: false
    moving_average_fraction: 0.95
  }
}
layer {
  name: "group2_block0_proj_scale"
  type: "Scale"
  bottom: "group2_block0_proj"
  top: "group2_block0_proj"
  scale_param {
    bias_term: true
  }
}
layer {
  name: "group2_block0_sum"
  type: "Eltwise"
  bottom: "group2_block0_proj"
  bottom: "group2_block0_conv1"
  top: "group2_block0_sum"
  eltwise_param {
    operation: SUM
  }
}
layer {
  name: "group2_block1_conv0"
  type: "Convolution"
  bottom: "group2_block0_sum"
  top: "group2_block1_conv0"
  param {
    lr_mult: 1
    decay_mult: 1
  }
  convolution_param {
    num_output: 64
    pad: 1
    kernel_size: 3
    stride: 1
    weight_filler {
      type: "msra"
    }
  }
}
layer {
  name: "group2_block1_conv0_bn"
  type: "BatchNorm"
  bottom: "group2_block1_conv0"
  top: "group2_block1_conv0"
  batch_norm_param {
    use_global_stats: false
    moving_average_fraction: 0.95
  }
}
layer {
  name: "group2_block1_conv0_scale"
  type: "Scale"
  bottom: "group2_block1_conv0"
  top: "group2_block1_conv0"
  scale_param {
    bias_term: true
  }
}
layer {
  name: "group2_block1_conv0_relu"
  type: "ReLU"
  bottom: "group2_block1_conv0"
  top: "group2_block1_conv0"
}
layer {
  name: "group2_block1_conv1"
  type: "Convolution"
  bottom: "group2_block1_conv0"
  top: "group2_block1_conv1"
  param {
    lr_mult: 1
    decay_mult: 1
  }
  convolution_param {
    num_output: 64
    pad: 1
    kernel_size: 3
    stride: 1
    weight_filler {
      type: "msra"
    }
  }
}
layer {
  name: "group2_block1_conv1_bn"
  type: "BatchNorm"
  bottom: "group2_block1_conv1"
  top: "group2_block1_conv1"
  batch_norm_param {
    use_global_stats: false
    moving_average_fraction: 0.95
  }
}
layer {
  name: "group2_block1_conv1_scale"
  type: "Scale"
  bottom: "group2_block1_conv1"
  top: "group2_block1_conv1"
  scale_param {
    bias_term: true
  }
}
layer {
  name: "group2_block1_sum"
  type: "Eltwise"
  bottom: "group2_block1_conv1"
  bottom: "group2_block0_sum"
  top: "group2_block1_sum"
  eltwise_param {
    operation: SUM
  }
}
layer {
  name: "group2_block2_conv0"
  type: "Convolution"
  bottom: "group2_block1_sum"
  top: "group2_block2_conv0"
  param {
    lr_mult: 1
    decay_mult: 1
  }
  convolution_param {
    num_output: 64
    pad: 1
    kernel_size: 3
    stride: 1
    weight_filler {
      type: "msra"
    }
  }
}
layer {
  name: "group2_block2_conv0_bn"
  type: "BatchNorm"
  bottom: "group2_block2_conv0"
  top: "group2_block2_conv0"
  batch_norm_param {
    use_global_stats: false
    moving_average_fraction: 0.95
  }
}
layer {
  name: "group2_block2_conv0_scale"
  type: "Scale"
  bottom: "group2_block2_conv0"
  top: "group2_block2_conv0"
  scale_param {
    bias_term: true
  }
}
layer {
  name: "group2_block2_conv0_relu"
  type: "ReLU"
  bottom: "group2_block2_conv0"
  top: "group2_block2_conv0"
}
layer {
  name: "group2_block2_conv1"
  type: "Convolution"
  bottom: "group2_block2_conv0"
  top: "group2_block2_conv1"
  param {
    lr_mult: 1
    decay_mult: 1
  }
  convolution_param {
    num_output: 64
    pad: 1
    kernel_size: 3
    stride: 1
    weight_filler {
      type: "msra"
    }
  }
}
layer {
  name: "group2_block2_conv1_bn"
  type: "BatchNorm"
  bottom: "group2_block2_conv1"
  top: "group2_block2_conv1"
  batch_norm_param {
    use_global_stats: false
    moving_average_fraction: 0.95
  }
}
layer {
  name: "group2_block2_conv1_scale"
  type: "Scale"
  bottom: "group2_block2_conv1"
  top: "group2_block2_conv1"
  scale_param {
    bias_term: true
  }
}
layer {
  name: "group2_block2_sum"
  type: "Eltwise"
  bottom: "group2_block2_conv1"
  bottom: "group2_block1_sum"
  top: "group2_block2_sum"
  eltwise_param {
    operation: SUM
  }
}
layer {
  name: "global_avg_pool"
  type: "Pooling"
  bottom: "group2_block2_sum"
  top: "global_avg_pool"
  pooling_param {
    pool: AVE
    global_pooling: true
  }
}
layer {
  name: "fc"
  type: "InnerProduct"
  bottom: "global_avg_pool"
  top: "fc"
  param {
    lr_mult: 1
    decay_mult: 1
  }
  param {
    lr_mult: 2
    decay_mult: 0
  }
  inner_product_param {
    num_output: 12
    weight_filler {
      type: "msra"
    }
    bias_filler {
      type: "constant"
      value: 0
    }
  }
}
layer {
  name: "loss"
  type: "SoftmaxWithLoss"
  bottom: "fc"
  bottom: "label"
  top: "loss"
}
layer {
  name: "softmax"
  type: "Softmax"
  bottom: "fc"
  top: "softmax"
}
layer {
  name: "Accuracy"
  type: "Accuracy"
  bottom: "softmax"
  bottom: "label"
  top: "Accuracy"
}
I1105 05:45:15.355533 13010 layer_factory.hpp:77] Creating layer data
I1105 05:45:15.356004 13010 net.cpp:100] Creating Layer data
I1105 05:45:15.356091 13010 net.cpp:408] data -> data
I1105 05:45:15.356209 13010 net.cpp:408] data -> label
I1105 05:45:15.356245 13010 data_transformer.cpp:25] Loading mean file from: data/mean.binaryproto
I1105 05:45:15.356281 13013 db_lmdb.cpp:35] Opened lmdb data/test_lmdb
I1105 05:45:15.356434 13010 data_layer.cpp:41] output data size: 100,3,32,32
I1105 05:45:15.356604 13010 net.cpp:150] Setting up data
I1105 05:45:15.356633 13010 net.cpp:157] Top shape: 100 3 32 32 (307200)
I1105 05:45:15.356652 13010 net.cpp:157] Top shape: 100 (100)
I1105 05:45:15.356662 13010 net.cpp:165] Memory required for data: 1229200
I1105 05:45:15.356680 13010 layer_factory.hpp:77] Creating layer label_data_1_split
I1105 05:45:15.356705 13010 net.cpp:100] Creating Layer label_data_1_split
I1105 05:45:15.356724 13010 net.cpp:434] label_data_1_split <- label
I1105 05:45:15.356750 13010 net.cpp:408] label_data_1_split -> label_data_1_split_0
I1105 05:45:15.356772 13010 net.cpp:408] label_data_1_split -> label_data_1_split_1
I1105 05:45:15.356803 13010 net.cpp:150] Setting up label_data_1_split
I1105 05:45:15.356817 13010 net.cpp:157] Top shape: 100 (100)
I1105 05:45:15.356842 13010 net.cpp:157] Top shape: 100 (100)
I1105 05:45:15.356851 13010 net.cpp:165] Memory required for data: 1230000
I1105 05:45:15.356911 13010 layer_factory.hpp:77] Creating layer first_conv
I1105 05:45:15.356947 13010 net.cpp:100] Creating Layer first_conv
I1105 05:45:15.356963 13010 net.cpp:434] first_conv <- data
I1105 05:45:15.356981 13010 net.cpp:408] first_conv -> first_conv
I1105 05:45:15.357082 13010 net.cpp:150] Setting up first_conv
I1105 05:45:15.357139 13010 net.cpp:157] Top shape: 100 16 32 32 (1638400)
I1105 05:45:15.357152 13010 net.cpp:165] Memory required for data: 7783600
I1105 05:45:15.357187 13010 layer_factory.hpp:77] Creating layer first_conv_bn
I1105 05:45:15.357205 13010 net.cpp:100] Creating Layer first_conv_bn
I1105 05:45:15.357216 13010 net.cpp:434] first_conv_bn <- first_conv
I1105 05:45:15.357230 13010 net.cpp:395] first_conv_bn -> first_conv (in-place)
I1105 05:45:15.357282 13010 net.cpp:150] Setting up first_conv_bn
I1105 05:45:15.357327 13010 net.cpp:157] Top shape: 100 16 32 32 (1638400)
I1105 05:45:15.357337 13010 net.cpp:165] Memory required for data: 14337200
I1105 05:45:15.357362 13010 layer_factory.hpp:77] Creating layer first_conv_scale
I1105 05:45:15.357409 13010 net.cpp:100] Creating Layer first_conv_scale
I1105 05:45:15.357424 13010 net.cpp:434] first_conv_scale <- first_conv
I1105 05:45:15.357439 13010 net.cpp:395] first_conv_scale -> first_conv (in-place)
I1105 05:45:15.357468 13010 layer_factory.hpp:77] Creating layer first_conv_scale
I1105 05:45:15.357540 13010 net.cpp:150] Setting up first_conv_scale
I1105 05:45:15.357559 13010 net.cpp:157] Top shape: 100 16 32 32 (1638400)
I1105 05:45:15.357569 13010 net.cpp:165] Memory required for data: 20890800
I1105 05:45:15.357585 13010 layer_factory.hpp:77] Creating layer first_conv_relu
I1105 05:45:15.357604 13010 net.cpp:100] Creating Layer first_conv_relu
I1105 05:45:15.357615 13010 net.cpp:434] first_conv_relu <- first_conv
I1105 05:45:15.357630 13010 net.cpp:395] first_conv_relu -> first_conv (in-place)
I1105 05:45:15.357647 13010 net.cpp:150] Setting up first_conv_relu
I1105 05:45:15.357661 13010 net.cpp:157] Top shape: 100 16 32 32 (1638400)
I1105 05:45:15.357674 13010 net.cpp:165] Memory required for data: 27444400
I1105 05:45:15.357686 13010 layer_factory.hpp:77] Creating layer first_conv_first_conv_relu_0_split
I1105 05:45:15.357700 13010 net.cpp:100] Creating Layer first_conv_first_conv_relu_0_split
I1105 05:45:15.357714 13010 net.cpp:434] first_conv_first_conv_relu_0_split <- first_conv
I1105 05:45:15.357730 13010 net.cpp:408] first_conv_first_conv_relu_0_split -> first_conv_first_conv_relu_0_split_0
I1105 05:45:15.357753 13010 net.cpp:408] first_conv_first_conv_relu_0_split -> first_conv_first_conv_relu_0_split_1
I1105 05:45:15.357774 13010 net.cpp:150] Setting up first_conv_first_conv_relu_0_split
I1105 05:45:15.357792 13010 net.cpp:157] Top shape: 100 16 32 32 (1638400)
I1105 05:45:15.357805 13010 net.cpp:157] Top shape: 100 16 32 32 (1638400)
I1105 05:45:15.357817 13010 net.cpp:165] Memory required for data: 40551600
I1105 05:45:15.357828 13010 layer_factory.hpp:77] Creating layer group0_block0_conv0
I1105 05:45:15.357848 13010 net.cpp:100] Creating Layer group0_block0_conv0
I1105 05:45:15.357861 13010 net.cpp:434] group0_block0_conv0 <- first_conv_first_conv_relu_0_split_0
I1105 05:45:15.357878 13010 net.cpp:408] group0_block0_conv0 -> group0_block0_conv0
I1105 05:45:15.358017 13010 net.cpp:150] Setting up group0_block0_conv0
I1105 05:45:15.358042 13010 net.cpp:157] Top shape: 100 16 32 32 (1638400)
I1105 05:45:15.358052 13010 net.cpp:165] Memory required for data: 47105200
I1105 05:45:15.358077 13010 layer_factory.hpp:77] Creating layer group0_block0_conv0_bn
I1105 05:45:15.358098 13010 net.cpp:100] Creating Layer group0_block0_conv0_bn
I1105 05:45:15.358111 13010 net.cpp:434] group0_block0_conv0_bn <- group0_block0_conv0
I1105 05:45:15.358126 13010 net.cpp:395] group0_block0_conv0_bn -> group0_block0_conv0 (in-place)
I1105 05:45:15.358158 13010 net.cpp:150] Setting up group0_block0_conv0_bn
I1105 05:45:15.358175 13010 net.cpp:157] Top shape: 100 16 32 32 (1638400)
I1105 05:45:15.358184 13010 net.cpp:165] Memory required for data: 53658800
I1105 05:45:15.358232 13010 layer_factory.hpp:77] Creating layer group0_block0_conv0_scale
I1105 05:45:15.358278 13010 net.cpp:100] Creating Layer group0_block0_conv0_scale
I1105 05:45:15.358292 13010 net.cpp:434] group0_block0_conv0_scale <- group0_block0_conv0
I1105 05:45:15.358307 13010 net.cpp:395] group0_block0_conv0_scale -> group0_block0_conv0 (in-place)
I1105 05:45:15.358330 13010 layer_factory.hpp:77] Creating layer group0_block0_conv0_scale
I1105 05:45:15.358399 13010 net.cpp:150] Setting up group0_block0_conv0_scale
I1105 05:45:15.358417 13010 net.cpp:157] Top shape: 100 16 32 32 (1638400)
I1105 05:45:15.358427 13010 net.cpp:165] Memory required for data: 60212400
I1105 05:45:15.358441 13010 layer_factory.hpp:77] Creating layer group0_block0_conv0_relu
I1105 05:45:15.358459 13010 net.cpp:100] Creating Layer group0_block0_conv0_relu
I1105 05:45:15.358469 13010 net.cpp:434] group0_block0_conv0_relu <- group0_block0_conv0
I1105 05:45:15.358484 13010 net.cpp:395] group0_block0_conv0_relu -> group0_block0_conv0 (in-place)
I1105 05:45:15.358501 13010 net.cpp:150] Setting up group0_block0_conv0_relu
I1105 05:45:15.358515 13010 net.cpp:157] Top shape: 100 16 32 32 (1638400)
I1105 05:45:15.358535 13010 net.cpp:165] Memory required for data: 66766000
I1105 05:45:15.358546 13010 layer_factory.hpp:77] Creating layer group0_block0_conv1
I1105 05:45:15.358568 13010 net.cpp:100] Creating Layer group0_block0_conv1
I1105 05:45:15.358582 13010 net.cpp:434] group0_block0_conv1 <- group0_block0_conv0
I1105 05:45:15.358599 13010 net.cpp:408] group0_block0_conv1 -> group0_block0_conv1
I1105 05:45:15.358701 13010 net.cpp:150] Setting up group0_block0_conv1
I1105 05:45:15.358726 13010 net.cpp:157] Top shape: 100 16 32 32 (1638400)
I1105 05:45:15.358738 13010 net.cpp:165] Memory required for data: 73319600
I1105 05:45:15.358754 13010 layer_factory.hpp:77] Creating layer group0_block0_conv1_bn
I1105 05:45:15.358769 13010 net.cpp:100] Creating Layer group0_block0_conv1_bn
I1105 05:45:15.358783 13010 net.cpp:434] group0_block0_conv1_bn <- group0_block0_conv1
I1105 05:45:15.358808 13010 net.cpp:395] group0_block0_conv1_bn -> group0_block0_conv1 (in-place)
I1105 05:45:15.358855 13010 net.cpp:150] Setting up group0_block0_conv1_bn
I1105 05:45:15.358901 13010 net.cpp:157] Top shape: 100 16 32 32 (1638400)
I1105 05:45:15.358913 13010 net.cpp:165] Memory required for data: 79873200
I1105 05:45:15.358935 13010 layer_factory.hpp:77] Creating layer group0_block0_conv1_scale
I1105 05:45:15.358953 13010 net.cpp:100] Creating Layer group0_block0_conv1_scale
I1105 05:45:15.358963 13010 net.cpp:434] group0_block0_conv1_scale <- group0_block0_conv1
I1105 05:45:15.358978 13010 net.cpp:395] group0_block0_conv1_scale -> group0_block0_conv1 (in-place)
I1105 05:45:15.359004 13010 layer_factory.hpp:77] Creating layer group0_block0_conv1_scale
I1105 05:45:15.359046 13010 net.cpp:150] Setting up group0_block0_conv1_scale
I1105 05:45:15.359063 13010 net.cpp:157] Top shape: 100 16 32 32 (1638400)
I1105 05:45:15.359073 13010 net.cpp:165] Memory required for data: 86426800
I1105 05:45:15.359087 13010 layer_factory.hpp:77] Creating layer group0_block0_sum
I1105 05:45:15.359107 13010 net.cpp:100] Creating Layer group0_block0_sum
I1105 05:45:15.359120 13010 net.cpp:434] group0_block0_sum <- group0_block0_conv1
I1105 05:45:15.359133 13010 net.cpp:434] group0_block0_sum <- first_conv_first_conv_relu_0_split_1
I1105 05:45:15.359146 13010 net.cpp:408] group0_block0_sum -> group0_block0_sum
I1105 05:45:15.359169 13010 net.cpp:150] Setting up group0_block0_sum
I1105 05:45:15.359184 13010 net.cpp:157] Top shape: 100 16 32 32 (1638400)
I1105 05:45:15.359194 13010 net.cpp:165] Memory required for data: 92980400
I1105 05:45:15.359203 13010 layer_factory.hpp:77] Creating layer group0_block0_sum_group0_block0_sum_0_split
I1105 05:45:15.359215 13010 net.cpp:100] Creating Layer group0_block0_sum_group0_block0_sum_0_split
I1105 05:45:15.359225 13010 net.cpp:434] group0_block0_sum_group0_block0_sum_0_split <- group0_block0_sum
I1105 05:45:15.359239 13010 net.cpp:408] group0_block0_sum_group0_block0_sum_0_split -> group0_block0_sum_group0_block0_sum_0_split_0
I1105 05:45:15.359284 13010 net.cpp:408] group0_block0_sum_group0_block0_sum_0_split -> group0_block0_sum_group0_block0_sum_0_split_1
I1105 05:45:15.359305 13010 net.cpp:150] Setting up group0_block0_sum_group0_block0_sum_0_split
I1105 05:45:15.359320 13010 net.cpp:157] Top shape: 100 16 32 32 (1638400)
I1105 05:45:15.359333 13010 net.cpp:157] Top shape: 100 16 32 32 (1638400)
I1105 05:45:15.359341 13010 net.cpp:165] Memory required for data: 106087600
I1105 05:45:15.359351 13010 layer_factory.hpp:77] Creating layer group0_block1_conv0
I1105 05:45:15.359376 13010 net.cpp:100] Creating Layer group0_block1_conv0
I1105 05:45:15.359390 13010 net.cpp:434] group0_block1_conv0 <- group0_block0_sum_group0_block0_sum_0_split_0
I1105 05:45:15.359406 13010 net.cpp:408] group0_block1_conv0 -> group0_block1_conv0
I1105 05:45:15.359495 13010 net.cpp:150] Setting up group0_block1_conv0
I1105 05:45:15.359513 13010 net.cpp:157] Top shape: 100 16 32 32 (1638400)
I1105 05:45:15.359522 13010 net.cpp:165] Memory required for data: 112641200
I1105 05:45:15.359536 13010 layer_factory.hpp:77] Creating layer group0_block1_conv0_bn
I1105 05:45:15.359553 13010 net.cpp:100] Creating Layer group0_block1_conv0_bn
I1105 05:45:15.359563 13010 net.cpp:434] group0_block1_conv0_bn <- group0_block1_conv0
I1105 05:45:15.359577 13010 net.cpp:395] group0_block1_conv0_bn -> group0_block1_conv0 (in-place)
I1105 05:45:15.359609 13010 net.cpp:150] Setting up group0_block1_conv0_bn
I1105 05:45:15.359624 13010 net.cpp:157] Top shape: 100 16 32 32 (1638400)
I1105 05:45:15.359634 13010 net.cpp:165] Memory required for data: 119194800
I1105 05:45:15.359652 13010 layer_factory.hpp:77] Creating layer group0_block1_conv0_scale
I1105 05:45:15.359673 13010 net.cpp:100] Creating Layer group0_block1_conv0_scale
I1105 05:45:15.359685 13010 net.cpp:434] group0_block1_conv0_scale <- group0_block1_conv0
I1105 05:45:15.359699 13010 net.cpp:395] group0_block1_conv0_scale -> group0_block1_conv0 (in-place)
I1105 05:45:15.359719 13010 layer_factory.hpp:77] Creating layer group0_block1_conv0_scale
I1105 05:45:15.359760 13010 net.cpp:150] Setting up group0_block1_conv0_scale
I1105 05:45:15.359777 13010 net.cpp:157] Top shape: 100 16 32 32 (1638400)
I1105 05:45:15.359786 13010 net.cpp:165] Memory required for data: 125748400
I1105 05:45:15.359802 13010 layer_factory.hpp:77] Creating layer group0_block1_conv0_relu
I1105 05:45:15.359817 13010 net.cpp:100] Creating Layer group0_block1_conv0_relu
I1105 05:45:15.359830 13010 net.cpp:434] group0_block1_conv0_relu <- group0_block1_conv0
I1105 05:45:15.359843 13010 net.cpp:395] group0_block1_conv0_relu -> group0_block1_conv0 (in-place)
I1105 05:45:15.359858 13010 net.cpp:150] Setting up group0_block1_conv0_relu
I1105 05:45:15.359872 13010 net.cpp:157] Top shape: 100 16 32 32 (1638400)
I1105 05:45:15.359882 13010 net.cpp:165] Memory required for data: 132302000
I1105 05:45:15.359891 13010 layer_factory.hpp:77] Creating layer group0_block1_conv1
I1105 05:45:15.359911 13010 net.cpp:100] Creating Layer group0_block1_conv1
I1105 05:45:15.359925 13010 net.cpp:434] group0_block1_conv1 <- group0_block1_conv0
I1105 05:45:15.359940 13010 net.cpp:408] group0_block1_conv1 -> group0_block1_conv1
I1105 05:45:15.360035 13010 net.cpp:150] Setting up group0_block1_conv1
I1105 05:45:15.360051 13010 net.cpp:157] Top shape: 100 16 32 32 (1638400)
I1105 05:45:15.360061 13010 net.cpp:165] Memory required for data: 138855600
I1105 05:45:15.360075 13010 layer_factory.hpp:77] Creating layer group0_block1_conv1_bn
I1105 05:45:15.360091 13010 net.cpp:100] Creating Layer group0_block1_conv1_bn
I1105 05:45:15.360102 13010 net.cpp:434] group0_block1_conv1_bn <- group0_block1_conv1
I1105 05:45:15.360119 13010 net.cpp:395] group0_block1_conv1_bn -> group0_block1_conv1 (in-place)
I1105 05:45:15.360152 13010 net.cpp:150] Setting up group0_block1_conv1_bn
I1105 05:45:15.360172 13010 net.cpp:157] Top shape: 100 16 32 32 (1638400)
I1105 05:45:15.360182 13010 net.cpp:165] Memory required for data: 145409200
I1105 05:45:15.360226 13010 layer_factory.hpp:77] Creating layer group0_block1_conv1_scale
I1105 05:45:15.362020 13010 net.cpp:100] Creating Layer group0_block1_conv1_scale
I1105 05:45:15.362054 13010 net.cpp:434] group0_block1_conv1_scale <- group0_block1_conv1
I1105 05:45:15.362073 13010 net.cpp:395] group0_block1_conv1_scale -> group0_block1_conv1 (in-place)
I1105 05:45:15.362095 13010 layer_factory.hpp:77] Creating layer group0_block1_conv1_scale
I1105 05:45:15.362196 13010 net.cpp:150] Setting up group0_block1_conv1_scale
I1105 05:45:15.362210 13010 net.cpp:157] Top shape: 100 16 32 32 (1638400)
I1105 05:45:15.362216 13010 net.cpp:165] Memory required for data: 151962800
I1105 05:45:15.362226 13010 layer_factory.hpp:77] Creating layer group0_block1_sum
I1105 05:45:15.362236 13010 net.cpp:100] Creating Layer group0_block1_sum
I1105 05:45:15.362244 13010 net.cpp:434] group0_block1_sum <- group0_block1_conv1
I1105 05:45:15.362253 13010 net.cpp:434] group0_block1_sum <- group0_block0_sum_group0_block0_sum_0_split_1
I1105 05:45:15.362263 13010 net.cpp:408] group0_block1_sum -> group0_block1_sum
I1105 05:45:15.362277 13010 net.cpp:150] Setting up group0_block1_sum
I1105 05:45:15.362287 13010 net.cpp:157] Top shape: 100 16 32 32 (1638400)
I1105 05:45:15.362293 13010 net.cpp:165] Memory required for data: 158516400
I1105 05:45:15.362299 13010 layer_factory.hpp:77] Creating layer group0_block1_sum_group0_block1_sum_0_split
I1105 05:45:15.362308 13010 net.cpp:100] Creating Layer group0_block1_sum_group0_block1_sum_0_split
I1105 05:45:15.362316 13010 net.cpp:434] group0_block1_sum_group0_block1_sum_0_split <- group0_block1_sum
I1105 05:45:15.362349 13010 net.cpp:408] group0_block1_sum_group0_block1_sum_0_split -> group0_block1_sum_group0_block1_sum_0_split_0
I1105 05:45:15.362363 13010 net.cpp:408] group0_block1_sum_group0_block1_sum_0_split -> group0_block1_sum_group0_block1_sum_0_split_1
I1105 05:45:15.362380 13010 net.cpp:150] Setting up group0_block1_sum_group0_block1_sum_0_split
I1105 05:45:15.362391 13010 net.cpp:157] Top shape: 100 16 32 32 (1638400)
I1105 05:45:15.362401 13010 net.cpp:157] Top shape: 100 16 32 32 (1638400)
I1105 05:45:15.362407 13010 net.cpp:165] Memory required for data: 171623600
I1105 05:45:15.362414 13010 layer_factory.hpp:77] Creating layer group0_block2_conv0
I1105 05:45:15.362447 13010 net.cpp:100] Creating Layer group0_block2_conv0
I1105 05:45:15.362457 13010 net.cpp:434] group0_block2_conv0 <- group0_block1_sum_group0_block1_sum_0_split_0
I1105 05:45:15.362469 13010 net.cpp:408] group0_block2_conv0 -> group0_block2_conv0
I1105 05:45:15.362560 13010 net.cpp:150] Setting up group0_block2_conv0
I1105 05:45:15.362572 13010 net.cpp:157] Top shape: 100 16 32 32 (1638400)
I1105 05:45:15.362579 13010 net.cpp:165] Memory required for data: 178177200
I1105 05:45:15.362591 13010 layer_factory.hpp:77] Creating layer group0_block2_conv0_bn
I1105 05:45:15.362608 13010 net.cpp:100] Creating Layer group0_block2_conv0_bn
I1105 05:45:15.362617 13010 net.cpp:434] group0_block2_conv0_bn <- group0_block2_conv0
I1105 05:45:15.362633 13010 net.cpp:395] group0_block2_conv0_bn -> group0_block2_conv0 (in-place)
I1105 05:45:15.362670 13010 net.cpp:150] Setting up group0_block2_conv0_bn
I1105 05:45:15.362684 13010 net.cpp:157] Top shape: 100 16 32 32 (1638400)
I1105 05:45:15.362690 13010 net.cpp:165] Memory required for data: 184730800
I1105 05:45:15.362705 13010 layer_factory.hpp:77] Creating layer group0_block2_conv0_scale
I1105 05:45:15.362718 13010 net.cpp:100] Creating Layer group0_block2_conv0_scale
I1105 05:45:15.362726 13010 net.cpp:434] group0_block2_conv0_scale <- group0_block2_conv0
I1105 05:45:15.362736 13010 net.cpp:395] group0_block2_conv0_scale -> group0_block2_conv0 (in-place)
I1105 05:45:15.362752 13010 layer_factory.hpp:77] Creating layer group0_block2_conv0_scale
I1105 05:45:15.362829 13010 net.cpp:150] Setting up group0_block2_conv0_scale
I1105 05:45:15.362843 13010 net.cpp:157] Top shape: 100 16 32 32 (1638400)
I1105 05:45:15.362848 13010 net.cpp:165] Memory required for data: 191284400
I1105 05:45:15.362880 13010 layer_factory.hpp:77] Creating layer group0_block2_conv0_relu
I1105 05:45:15.362891 13010 net.cpp:100] Creating Layer group0_block2_conv0_relu
I1105 05:45:15.362898 13010 net.cpp:434] group0_block2_conv0_relu <- group0_block2_conv0
I1105 05:45:15.362931 13010 net.cpp:395] group0_block2_conv0_relu -> group0_block2_conv0 (in-place)
I1105 05:45:15.362946 13010 net.cpp:150] Setting up group0_block2_conv0_relu
I1105 05:45:15.362956 13010 net.cpp:157] Top shape: 100 16 32 32 (1638400)
I1105 05:45:15.362962 13010 net.cpp:165] Memory required for data: 197838000
I1105 05:45:15.362968 13010 layer_factory.hpp:77] Creating layer group0_block2_conv1
I1105 05:45:15.362980 13010 net.cpp:100] Creating Layer group0_block2_conv1
I1105 05:45:15.362988 13010 net.cpp:434] group0_block2_conv1 <- group0_block2_conv0
I1105 05:45:15.362998 13010 net.cpp:408] group0_block2_conv1 -> group0_block2_conv1
I1105 05:45:15.363090 13010 net.cpp:150] Setting up group0_block2_conv1
I1105 05:45:15.363103 13010 net.cpp:157] Top shape: 100 16 32 32 (1638400)
I1105 05:45:15.363111 13010 net.cpp:165] Memory required for data: 204391600
I1105 05:45:15.363121 13010 layer_factory.hpp:77] Creating layer group0_block2_conv1_bn
I1105 05:45:15.363159 13010 net.cpp:100] Creating Layer group0_block2_conv1_bn
I1105 05:45:15.363170 13010 net.cpp:434] group0_block2_conv1_bn <- group0_block2_conv1
I1105 05:45:15.363206 13010 net.cpp:395] group0_block2_conv1_bn -> group0_block2_conv1 (in-place)
I1105 05:45:15.363252 13010 net.cpp:150] Setting up group0_block2_conv1_bn
I1105 05:45:15.363265 13010 net.cpp:157] Top shape: 100 16 32 32 (1638400)
I1105 05:45:15.363272 13010 net.cpp:165] Memory required for data: 210945200
I1105 05:45:15.363284 13010 layer_factory.hpp:77] Creating layer group0_block2_conv1_scale
I1105 05:45:15.363296 13010 net.cpp:100] Creating Layer group0_block2_conv1_scale
I1105 05:45:15.363302 13010 net.cpp:434] group0_block2_conv1_scale <- group0_block2_conv1
I1105 05:45:15.363313 13010 net.cpp:395] group0_block2_conv1_scale -> group0_block2_conv1 (in-place)
I1105 05:45:15.363330 13010 layer_factory.hpp:77] Creating layer group0_block2_conv1_scale
I1105 05:45:15.363404 13010 net.cpp:150] Setting up group0_block2_conv1_scale
I1105 05:45:15.363421 13010 net.cpp:157] Top shape: 100 16 32 32 (1638400)
I1105 05:45:15.363430 13010 net.cpp:165] Memory required for data: 217498800
I1105 05:45:15.363440 13010 layer_factory.hpp:77] Creating layer group0_block2_sum
I1105 05:45:15.363478 13010 net.cpp:100] Creating Layer group0_block2_sum
I1105 05:45:15.363489 13010 net.cpp:434] group0_block2_sum <- group0_block2_conv1
I1105 05:45:15.363498 13010 net.cpp:434] group0_block2_sum <- group0_block1_sum_group0_block1_sum_0_split_1
I1105 05:45:15.363508 13010 net.cpp:408] group0_block2_sum -> group0_block2_sum
I1105 05:45:15.363521 13010 net.cpp:150] Setting up group0_block2_sum
I1105 05:45:15.363534 13010 net.cpp:157] Top shape: 100 16 32 32 (1638400)
I1105 05:45:15.363541 13010 net.cpp:165] Memory required for data: 224052400
I1105 05:45:15.363548 13010 layer_factory.hpp:77] Creating layer group0_block2_sum_group0_block2_sum_0_split
I1105 05:45:15.363557 13010 net.cpp:100] Creating Layer group0_block2_sum_group0_block2_sum_0_split
I1105 05:45:15.363564 13010 net.cpp:434] group0_block2_sum_group0_block2_sum_0_split <- group0_block2_sum
I1105 05:45:15.363596 13010 net.cpp:408] group0_block2_sum_group0_block2_sum_0_split -> group0_block2_sum_group0_block2_sum_0_split_0
I1105 05:45:15.363613 13010 net.cpp:408] group0_block2_sum_group0_block2_sum_0_split -> group0_block2_sum_group0_block2_sum_0_split_1
I1105 05:45:15.363626 13010 net.cpp:150] Setting up group0_block2_sum_group0_block2_sum_0_split
I1105 05:45:15.363636 13010 net.cpp:157] Top shape: 100 16 32 32 (1638400)
I1105 05:45:15.363646 13010 net.cpp:157] Top shape: 100 16 32 32 (1638400)
I1105 05:45:15.363652 13010 net.cpp:165] Memory required for data: 237159600
I1105 05:45:15.363661 13010 layer_factory.hpp:77] Creating layer group1_block0_conv0
I1105 05:45:15.363672 13010 net.cpp:100] Creating Layer group1_block0_conv0
I1105 05:45:15.363700 13010 net.cpp:434] group1_block0_conv0 <- group0_block2_sum_group0_block2_sum_0_split_0
I1105 05:45:15.363734 13010 net.cpp:408] group1_block0_conv0 -> group1_block0_conv0
I1105 05:45:15.363859 13010 net.cpp:150] Setting up group1_block0_conv0
I1105 05:45:15.363873 13010 net.cpp:157] Top shape: 100 32 16 16 (819200)
I1105 05:45:15.363881 13010 net.cpp:165] Memory required for data: 240436400
I1105 05:45:15.363893 13010 layer_factory.hpp:77] Creating layer group1_block0_conv0_bn
I1105 05:45:15.363906 13010 net.cpp:100] Creating Layer group1_block0_conv0_bn
I1105 05:45:15.363914 13010 net.cpp:434] group1_block0_conv0_bn <- group1_block0_conv0
I1105 05:45:15.363924 13010 net.cpp:395] group1_block0_conv0_bn -> group1_block0_conv0 (in-place)
I1105 05:45:15.363947 13010 net.cpp:150] Setting up group1_block0_conv0_bn
I1105 05:45:15.363960 13010 net.cpp:157] Top shape: 100 32 16 16 (819200)
I1105 05:45:15.363967 13010 net.cpp:165] Memory required for data: 243713200
I1105 05:45:15.363978 13010 layer_factory.hpp:77] Creating layer group1_block0_conv0_scale
I1105 05:45:15.363992 13010 net.cpp:100] Creating Layer group1_block0_conv0_scale
I1105 05:45:15.364002 13010 net.cpp:434] group1_block0_conv0_scale <- group1_block0_conv0
I1105 05:45:15.364013 13010 net.cpp:395] group1_block0_conv0_scale -> group1_block0_conv0 (in-place)
I1105 05:45:15.364029 13010 layer_factory.hpp:77] Creating layer group1_block0_conv0_scale
I1105 05:45:15.364076 13010 net.cpp:150] Setting up group1_block0_conv0_scale
I1105 05:45:15.364089 13010 net.cpp:157] Top shape: 100 32 16 16 (819200)
I1105 05:45:15.364097 13010 net.cpp:165] Memory required for data: 246990000
I1105 05:45:15.364109 13010 layer_factory.hpp:77] Creating layer group1_block0_conv0_relu
I1105 05:45:15.364118 13010 net.cpp:100] Creating Layer group1_block0_conv0_relu
I1105 05:45:15.364127 13010 net.cpp:434] group1_block0_conv0_relu <- group1_block0_conv0
I1105 05:45:15.364140 13010 net.cpp:395] group1_block0_conv0_relu -> group1_block0_conv0 (in-place)
I1105 05:45:15.364151 13010 net.cpp:150] Setting up group1_block0_conv0_relu
I1105 05:45:15.364161 13010 net.cpp:157] Top shape: 100 32 16 16 (819200)
I1105 05:45:15.364167 13010 net.cpp:165] Memory required for data: 250266800
I1105 05:45:15.364176 13010 layer_factory.hpp:77] Creating layer group1_block0_conv1
I1105 05:45:15.364192 13010 net.cpp:100] Creating Layer group1_block0_conv1
I1105 05:45:15.364200 13010 net.cpp:434] group1_block0_conv1 <- group1_block0_conv0
I1105 05:45:15.364212 13010 net.cpp:408] group1_block0_conv1 -> group1_block0_conv1
I1105 05:45:15.364400 13010 net.cpp:150] Setting up group1_block0_conv1
I1105 05:45:15.364418 13010 net.cpp:157] Top shape: 100 32 16 16 (819200)
I1105 05:45:15.364428 13010 net.cpp:165] Memory required for data: 253543600
I1105 05:45:15.364442 13010 layer_factory.hpp:77] Creating layer group1_block0_conv1_bn
I1105 05:45:15.364476 13010 net.cpp:100] Creating Layer group1_block0_conv1_bn
I1105 05:45:15.364490 13010 net.cpp:434] group1_block0_conv1_bn <- group1_block0_conv1
I1105 05:45:15.364514 13010 net.cpp:395] group1_block0_conv1_bn -> group1_block0_conv1 (in-place)
I1105 05:45:15.364574 13010 net.cpp:150] Setting up group1_block0_conv1_bn
I1105 05:45:15.364590 13010 net.cpp:157] Top shape: 100 32 16 16 (819200)
I1105 05:45:15.364600 13010 net.cpp:165] Memory required for data: 256820400
I1105 05:45:15.364616 13010 layer_factory.hpp:77] Creating layer group1_block0_conv1_scale
I1105 05:45:15.364635 13010 net.cpp:100] Creating Layer group1_block0_conv1_scale
I1105 05:45:15.364645 13010 net.cpp:434] group1_block0_conv1_scale <- group1_block0_conv1
I1105 05:45:15.364691 13010 net.cpp:395] group1_block0_conv1_scale -> group1_block0_conv1 (in-place)
I1105 05:45:15.364723 13010 layer_factory.hpp:77] Creating layer group1_block0_conv1_scale
I1105 05:45:15.364856 13010 net.cpp:150] Setting up group1_block0_conv1_scale
I1105 05:45:15.364873 13010 net.cpp:157] Top shape: 100 32 16 16 (819200)
I1105 05:45:15.364883 13010 net.cpp:165] Memory required for data: 260097200
I1105 05:45:15.364925 13010 layer_factory.hpp:77] Creating layer group1_block0_proj
I1105 05:45:15.364948 13010 net.cpp:100] Creating Layer group1_block0_proj
I1105 05:45:15.364964 13010 net.cpp:434] group1_block0_proj <- group0_block2_sum_group0_block2_sum_0_split_1
I1105 05:45:15.364984 13010 net.cpp:408] group1_block0_proj -> group1_block0_proj
I1105 05:45:15.365094 13010 net.cpp:150] Setting up group1_block0_proj
I1105 05:45:15.365115 13010 net.cpp:157] Top shape: 100 32 16 16 (819200)
I1105 05:45:15.365124 13010 net.cpp:165] Memory required for data: 263374000
I1105 05:45:15.365218 13010 layer_factory.hpp:77] Creating layer group1_block0_proj_bn
I1105 05:45:15.365236 13010 net.cpp:100] Creating Layer group1_block0_proj_bn
I1105 05:45:15.365247 13010 net.cpp:434] group1_block0_proj_bn <- group1_block0_proj
I1105 05:45:15.365262 13010 net.cpp:395] group1_block0_proj_bn -> group1_block0_proj (in-place)
I1105 05:45:15.365315 13010 net.cpp:150] Setting up group1_block0_proj_bn
I1105 05:45:15.365339 13010 net.cpp:157] Top shape: 100 32 16 16 (819200)
I1105 05:45:15.365350 13010 net.cpp:165] Memory required for data: 266650800
I1105 05:45:15.365367 13010 layer_factory.hpp:77] Creating layer group1_block0_proj_scale
I1105 05:45:15.365384 13010 net.cpp:100] Creating Layer group1_block0_proj_scale
I1105 05:45:15.365394 13010 net.cpp:434] group1_block0_proj_scale <- group1_block0_proj
I1105 05:45:15.365423 13010 net.cpp:395] group1_block0_proj_scale -> group1_block0_proj (in-place)
I1105 05:45:15.365447 13010 layer_factory.hpp:77] Creating layer group1_block0_proj_scale
I1105 05:45:15.365483 13010 net.cpp:150] Setting up group1_block0_proj_scale
I1105 05:45:15.365499 13010 net.cpp:157] Top shape: 100 32 16 16 (819200)
I1105 05:45:15.365509 13010 net.cpp:165] Memory required for data: 269927600
I1105 05:45:15.365521 13010 layer_factory.hpp:77] Creating layer group1_block0_sum
I1105 05:45:15.365535 13010 net.cpp:100] Creating Layer group1_block0_sum
I1105 05:45:15.365548 13010 net.cpp:434] group1_block0_sum <- group1_block0_proj
I1105 05:45:15.365561 13010 net.cpp:434] group1_block0_sum <- group1_block0_conv1
I1105 05:45:15.365622 13010 net.cpp:408] group1_block0_sum -> group1_block0_sum
I1105 05:45:15.365643 13010 net.cpp:150] Setting up group1_block0_sum
I1105 05:45:15.365696 13010 net.cpp:157] Top shape: 100 32 16 16 (819200)
I1105 05:45:15.365710 13010 net.cpp:165] Memory required for data: 273204400
I1105 05:45:15.365718 13010 layer_factory.hpp:77] Creating layer group1_block0_sum_group1_block0_sum_0_split
I1105 05:45:15.365732 13010 net.cpp:100] Creating Layer group1_block0_sum_group1_block0_sum_0_split
I1105 05:45:15.365742 13010 net.cpp:434] group1_block0_sum_group1_block0_sum_0_split <- group1_block0_sum
I1105 05:45:15.365756 13010 net.cpp:408] group1_block0_sum_group1_block0_sum_0_split -> group1_block0_sum_group1_block0_sum_0_split_0
I1105 05:45:15.365772 13010 net.cpp:408] group1_block0_sum_group1_block0_sum_0_split -> group1_block0_sum_group1_block0_sum_0_split_1
I1105 05:45:15.365789 13010 net.cpp:150] Setting up group1_block0_sum_group1_block0_sum_0_split
I1105 05:45:15.365799 13010 net.cpp:157] Top shape: 100 32 16 16 (819200)
I1105 05:45:15.365808 13010 net.cpp:157] Top shape: 100 32 16 16 (819200)
I1105 05:45:15.365815 13010 net.cpp:165] Memory required for data: 279758000
I1105 05:45:15.365823 13010 layer_factory.hpp:77] Creating layer group1_block1_conv0
I1105 05:45:15.365846 13010 net.cpp:100] Creating Layer group1_block1_conv0
I1105 05:45:15.365857 13010 net.cpp:434] group1_block1_conv0 <- group1_block0_sum_group1_block0_sum_0_split_0
I1105 05:45:15.365870 13010 net.cpp:408] group1_block1_conv0 -> group1_block1_conv0
I1105 05:45:15.366068 13010 net.cpp:150] Setting up group1_block1_conv0
I1105 05:45:15.366081 13010 net.cpp:157] Top shape: 100 32 16 16 (819200)
I1105 05:45:15.366088 13010 net.cpp:165] Memory required for data: 283034800
I1105 05:45:15.366098 13010 layer_factory.hpp:77] Creating layer group1_block1_conv0_bn
I1105 05:45:15.366108 13010 net.cpp:100] Creating Layer group1_block1_conv0_bn
I1105 05:45:15.366133 13010 net.cpp:434] group1_block1_conv0_bn <- group1_block1_conv0
I1105 05:45:15.366165 13010 net.cpp:395] group1_block1_conv0_bn -> group1_block1_conv0 (in-place)
I1105 05:45:15.366231 13010 net.cpp:150] Setting up group1_block1_conv0_bn
I1105 05:45:15.366269 13010 net.cpp:157] Top shape: 100 32 16 16 (819200)
I1105 05:45:15.366281 13010 net.cpp:165] Memory required for data: 286311600
I1105 05:45:15.366293 13010 layer_factory.hpp:77] Creating layer group1_block1_conv0_scale
I1105 05:45:15.366304 13010 net.cpp:100] Creating Layer group1_block1_conv0_scale
I1105 05:45:15.366312 13010 net.cpp:434] group1_block1_conv0_scale <- group1_block1_conv0
I1105 05:45:15.366358 13010 net.cpp:395] group1_block1_conv0_scale -> group1_block1_conv0 (in-place)
I1105 05:45:15.366394 13010 layer_factory.hpp:77] Creating layer group1_block1_conv0_scale
I1105 05:45:15.366426 13010 net.cpp:150] Setting up group1_block1_conv0_scale
I1105 05:45:15.366442 13010 net.cpp:157] Top shape: 100 32 16 16 (819200)
I1105 05:45:15.366451 13010 net.cpp:165] Memory required for data: 289588400
I1105 05:45:15.366462 13010 layer_factory.hpp:77] Creating layer group1_block1_conv0_relu
I1105 05:45:15.366473 13010 net.cpp:100] Creating Layer group1_block1_conv0_relu
I1105 05:45:15.366482 13010 net.cpp:434] group1_block1_conv0_relu <- group1_block1_conv0
I1105 05:45:15.366492 13010 net.cpp:395] group1_block1_conv0_relu -> group1_block1_conv0 (in-place)
I1105 05:45:15.366503 13010 net.cpp:150] Setting up group1_block1_conv0_relu
I1105 05:45:15.366513 13010 net.cpp:157] Top shape: 100 32 16 16 (819200)
I1105 05:45:15.366521 13010 net.cpp:165] Memory required for data: 292865200
I1105 05:45:15.366528 13010 layer_factory.hpp:77] Creating layer group1_block1_conv1
I1105 05:45:15.366545 13010 net.cpp:100] Creating Layer group1_block1_conv1
I1105 05:45:15.366554 13010 net.cpp:434] group1_block1_conv1 <- group1_block1_conv0
I1105 05:45:15.366570 13010 net.cpp:408] group1_block1_conv1 -> group1_block1_conv1
I1105 05:45:15.366747 13010 net.cpp:150] Setting up group1_block1_conv1
I1105 05:45:15.366765 13010 net.cpp:157] Top shape: 100 32 16 16 (819200)
I1105 05:45:15.366786 13010 net.cpp:165] Memory required for data: 296142000
I1105 05:45:15.366801 13010 layer_factory.hpp:77] Creating layer group1_block1_conv1_bn
I1105 05:45:15.366813 13010 net.cpp:100] Creating Layer group1_block1_conv1_bn
I1105 05:45:15.366827 13010 net.cpp:434] group1_block1_conv1_bn <- group1_block1_conv1
I1105 05:45:15.366843 13010 net.cpp:395] group1_block1_conv1_bn -> group1_block1_conv1 (in-place)
I1105 05:45:15.366875 13010 net.cpp:150] Setting up group1_block1_conv1_bn
I1105 05:45:15.366895 13010 net.cpp:157] Top shape: 100 32 16 16 (819200)
I1105 05:45:15.366905 13010 net.cpp:165] Memory required for data: 299418800
I1105 05:45:15.366924 13010 layer_factory.hpp:77] Creating layer group1_block1_conv1_scale
I1105 05:45:15.366946 13010 net.cpp:100] Creating Layer group1_block1_conv1_scale
I1105 05:45:15.366961 13010 net.cpp:434] group1_block1_conv1_scale <- group1_block1_conv1
I1105 05:45:15.366987 13010 net.cpp:395] group1_block1_conv1_scale -> group1_block1_conv1 (in-place)
I1105 05:45:15.367012 13010 layer_factory.hpp:77] Creating layer group1_block1_conv1_scale
I1105 05:45:15.367044 13010 net.cpp:150] Setting up group1_block1_conv1_scale
I1105 05:45:15.367064 13010 net.cpp:157] Top shape: 100 32 16 16 (819200)
I1105 05:45:15.367074 13010 net.cpp:165] Memory required for data: 302695600
I1105 05:45:15.367089 13010 layer_factory.hpp:77] Creating layer group1_block1_sum
I1105 05:45:15.367105 13010 net.cpp:100] Creating Layer group1_block1_sum
I1105 05:45:15.367115 13010 net.cpp:434] group1_block1_sum <- group1_block1_conv1
I1105 05:45:15.367125 13010 net.cpp:434] group1_block1_sum <- group1_block0_sum_group1_block0_sum_0_split_1
I1105 05:45:15.367152 13010 net.cpp:408] group1_block1_sum -> group1_block1_sum
I1105 05:45:15.367169 13010 net.cpp:150] Setting up group1_block1_sum
I1105 05:45:15.367182 13010 net.cpp:157] Top shape: 100 32 16 16 (819200)
I1105 05:45:15.367192 13010 net.cpp:165] Memory required for data: 305972400
I1105 05:45:15.367233 13010 layer_factory.hpp:77] Creating layer group1_block1_sum_group1_block1_sum_0_split
I1105 05:45:15.367251 13010 net.cpp:100] Creating Layer group1_block1_sum_group1_block1_sum_0_split
I1105 05:45:15.367262 13010 net.cpp:434] group1_block1_sum_group1_block1_sum_0_split <- group1_block1_sum
I1105 05:45:15.367280 13010 net.cpp:408] group1_block1_sum_group1_block1_sum_0_split -> group1_block1_sum_group1_block1_sum_0_split_0
I1105 05:45:15.367300 13010 net.cpp:408] group1_block1_sum_group1_block1_sum_0_split -> group1_block1_sum_group1_block1_sum_0_split_1
I1105 05:45:15.367336 13010 net.cpp:150] Setting up group1_block1_sum_group1_block1_sum_0_split
I1105 05:45:15.367350 13010 net.cpp:157] Top shape: 100 32 16 16 (819200)
I1105 05:45:15.367363 13010 net.cpp:157] Top shape: 100 32 16 16 (819200)
I1105 05:45:15.367382 13010 net.cpp:165] Memory required for data: 312526000
I1105 05:45:15.367391 13010 layer_factory.hpp:77] Creating layer group1_block2_conv0
I1105 05:45:15.367411 13010 net.cpp:100] Creating Layer group1_block2_conv0
I1105 05:45:15.367422 13010 net.cpp:434] group1_block2_conv0 <- group1_block1_sum_group1_block1_sum_0_split_0
I1105 05:45:15.367447 13010 net.cpp:408] group1_block2_conv0 -> group1_block2_conv0
I1105 05:45:15.367643 13010 net.cpp:150] Setting up group1_block2_conv0
I1105 05:45:15.367682 13010 net.cpp:157] Top shape: 100 32 16 16 (819200)
I1105 05:45:15.367697 13010 net.cpp:165] Memory required for data: 315802800
I1105 05:45:15.367715 13010 layer_factory.hpp:77] Creating layer group1_block2_conv0_bn
I1105 05:45:15.367735 13010 net.cpp:100] Creating Layer group1_block2_conv0_bn
I1105 05:45:15.367750 13010 net.cpp:434] group1_block2_conv0_bn <- group1_block2_conv0
I1105 05:45:15.367774 13010 net.cpp:395] group1_block2_conv0_bn -> group1_block2_conv0 (in-place)
I1105 05:45:15.367817 13010 net.cpp:150] Setting up group1_block2_conv0_bn
I1105 05:45:15.367840 13010 net.cpp:157] Top shape: 100 32 16 16 (819200)
I1105 05:45:15.367853 13010 net.cpp:165] Memory required for data: 319079600
I1105 05:45:15.367871 13010 layer_factory.hpp:77] Creating layer group1_block2_conv0_scale
I1105 05:45:15.367897 13010 net.cpp:100] Creating Layer group1_block2_conv0_scale
I1105 05:45:15.367915 13010 net.cpp:434] group1_block2_conv0_scale <- group1_block2_conv0
I1105 05:45:15.367936 13010 net.cpp:395] group1_block2_conv0_scale -> group1_block2_conv0 (in-place)
I1105 05:45:15.367970 13010 layer_factory.hpp:77] Creating layer group1_block2_conv0_scale
I1105 05:45:15.368010 13010 net.cpp:150] Setting up group1_block2_conv0_scale
I1105 05:45:15.368037 13010 net.cpp:157] Top shape: 100 32 16 16 (819200)
I1105 05:45:15.368047 13010 net.cpp:165] Memory required for data: 322356400
I1105 05:45:15.368062 13010 layer_factory.hpp:77] Creating layer group1_block2_conv0_relu
I1105 05:45:15.368088 13010 net.cpp:100] Creating Layer group1_block2_conv0_relu
I1105 05:45:15.368105 13010 net.cpp:434] group1_block2_conv0_relu <- group1_block2_conv0
I1105 05:45:15.368122 13010 net.cpp:395] group1_block2_conv0_relu -> group1_block2_conv0 (in-place)
I1105 05:45:15.368139 13010 net.cpp:150] Setting up group1_block2_conv0_relu
I1105 05:45:15.368149 13010 net.cpp:157] Top shape: 100 32 16 16 (819200)
I1105 05:45:15.368157 13010 net.cpp:165] Memory required for data: 325633200
I1105 05:45:15.368171 13010 layer_factory.hpp:77] Creating layer group1_block2_conv1
I1105 05:45:15.368185 13010 net.cpp:100] Creating Layer group1_block2_conv1
I1105 05:45:15.368193 13010 net.cpp:434] group1_block2_conv1 <- group1_block2_conv0
I1105 05:45:15.368209 13010 net.cpp:408] group1_block2_conv1 -> group1_block2_conv1
I1105 05:45:15.368388 13010 net.cpp:150] Setting up group1_block2_conv1
I1105 05:45:15.368409 13010 net.cpp:157] Top shape: 100 32 16 16 (819200)
I1105 05:45:15.368419 13010 net.cpp:165] Memory required for data: 328910000
I1105 05:45:15.368434 13010 layer_factory.hpp:77] Creating layer group1_block2_conv1_bn
I1105 05:45:15.368470 13010 net.cpp:100] Creating Layer group1_block2_conv1_bn
I1105 05:45:15.368512 13010 net.cpp:434] group1_block2_conv1_bn <- group1_block2_conv1
I1105 05:45:15.368528 13010 net.cpp:395] group1_block2_conv1_bn -> group1_block2_conv1 (in-place)
I1105 05:45:15.368561 13010 net.cpp:150] Setting up group1_block2_conv1_bn
I1105 05:45:15.368588 13010 net.cpp:157] Top shape: 100 32 16 16 (819200)
I1105 05:45:15.368610 13010 net.cpp:165] Memory required for data: 332186800
I1105 05:45:15.368628 13010 layer_factory.hpp:77] Creating layer group1_block2_conv1_scale
I1105 05:45:15.368643 13010 net.cpp:100] Creating Layer group1_block2_conv1_scale
I1105 05:45:15.368657 13010 net.cpp:434] group1_block2_conv1_scale <- group1_block2_conv1
I1105 05:45:15.368679 13010 net.cpp:395] group1_block2_conv1_scale -> group1_block2_conv1 (in-place)
I1105 05:45:15.368705 13010 layer_factory.hpp:77] Creating layer group1_block2_conv1_scale
I1105 05:45:15.368752 13010 net.cpp:150] Setting up group1_block2_conv1_scale
I1105 05:45:15.368770 13010 net.cpp:157] Top shape: 100 32 16 16 (819200)
I1105 05:45:15.368780 13010 net.cpp:165] Memory required for data: 335463600
I1105 05:45:15.368794 13010 layer_factory.hpp:77] Creating layer group1_block2_sum
I1105 05:45:15.368809 13010 net.cpp:100] Creating Layer group1_block2_sum
I1105 05:45:15.368824 13010 net.cpp:434] group1_block2_sum <- group1_block2_conv1
I1105 05:45:15.368836 13010 net.cpp:434] group1_block2_sum <- group1_block1_sum_group1_block1_sum_0_split_1
I1105 05:45:15.368858 13010 net.cpp:408] group1_block2_sum -> group1_block2_sum
I1105 05:45:15.368880 13010 net.cpp:150] Setting up group1_block2_sum
I1105 05:45:15.368898 13010 net.cpp:157] Top shape: 100 32 16 16 (819200)
I1105 05:45:15.368908 13010 net.cpp:165] Memory required for data: 338740400
I1105 05:45:15.368918 13010 layer_factory.hpp:77] Creating layer group1_block2_sum_group1_block2_sum_0_split
I1105 05:45:15.368932 13010 net.cpp:100] Creating Layer group1_block2_sum_group1_block2_sum_0_split
I1105 05:45:15.368942 13010 net.cpp:434] group1_block2_sum_group1_block2_sum_0_split <- group1_block2_sum
I1105 05:45:15.368962 13010 net.cpp:408] group1_block2_sum_group1_block2_sum_0_split -> group1_block2_sum_group1_block2_sum_0_split_0
I1105 05:45:15.368985 13010 net.cpp:408] group1_block2_sum_group1_block2_sum_0_split -> group1_block2_sum_group1_block2_sum_0_split_1
I1105 05:45:15.369022 13010 net.cpp:150] Setting up group1_block2_sum_group1_block2_sum_0_split
I1105 05:45:15.369040 13010 net.cpp:157] Top shape: 100 32 16 16 (819200)
I1105 05:45:15.369050 13010 net.cpp:157] Top shape: 100 32 16 16 (819200)
I1105 05:45:15.369060 13010 net.cpp:165] Memory required for data: 345294000
I1105 05:45:15.369069 13010 layer_factory.hpp:77] Creating layer group2_block0_conv0
I1105 05:45:15.369114 13010 net.cpp:100] Creating Layer group2_block0_conv0
I1105 05:45:15.369129 13010 net.cpp:434] group2_block0_conv0 <- group1_block2_sum_group1_block2_sum_0_split_0
I1105 05:45:15.369151 13010 net.cpp:408] group2_block0_conv0 -> group2_block0_conv0
I1105 05:45:15.369549 13010 net.cpp:150] Setting up group2_block0_conv0
I1105 05:45:15.369573 13010 net.cpp:157] Top shape: 100 64 8 8 (409600)
I1105 05:45:15.369582 13010 net.cpp:165] Memory required for data: 346932400
I1105 05:45:15.369596 13010 layer_factory.hpp:77] Creating layer group2_block0_conv0_bn
I1105 05:45:15.369611 13010 net.cpp:100] Creating Layer group2_block0_conv0_bn
I1105 05:45:15.369621 13010 net.cpp:434] group2_block0_conv0_bn <- group2_block0_conv0
I1105 05:45:15.369637 13010 net.cpp:395] group2_block0_conv0_bn -> group2_block0_conv0 (in-place)
I1105 05:45:15.369668 13010 net.cpp:150] Setting up group2_block0_conv0_bn
I1105 05:45:15.369683 13010 net.cpp:157] Top shape: 100 64 8 8 (409600)
I1105 05:45:15.369690 13010 net.cpp:165] Memory required for data: 348570800
I1105 05:45:15.369707 13010 layer_factory.hpp:77] Creating layer group2_block0_conv0_scale
I1105 05:45:15.369722 13010 net.cpp:100] Creating Layer group2_block0_conv0_scale
I1105 05:45:15.369730 13010 net.cpp:434] group2_block0_conv0_scale <- group2_block0_conv0
I1105 05:45:15.369746 13010 net.cpp:395] group2_block0_conv0_scale -> group2_block0_conv0 (in-place)
I1105 05:45:15.369796 13010 layer_factory.hpp:77] Creating layer group2_block0_conv0_scale
I1105 05:45:15.369833 13010 net.cpp:150] Setting up group2_block0_conv0_scale
I1105 05:45:15.369853 13010 net.cpp:157] Top shape: 100 64 8 8 (409600)
I1105 05:45:15.369861 13010 net.cpp:165] Memory required for data: 350209200
I1105 05:45:15.369873 13010 layer_factory.hpp:77] Creating layer group2_block0_conv0_relu
I1105 05:45:15.369886 13010 net.cpp:100] Creating Layer group2_block0_conv0_relu
I1105 05:45:15.369894 13010 net.cpp:434] group2_block0_conv0_relu <- group2_block0_conv0
I1105 05:45:15.369904 13010 net.cpp:395] group2_block0_conv0_relu -> group2_block0_conv0 (in-place)
I1105 05:45:15.369915 13010 net.cpp:150] Setting up group2_block0_conv0_relu
I1105 05:45:15.369925 13010 net.cpp:157] Top shape: 100 64 8 8 (409600)
I1105 05:45:15.369930 13010 net.cpp:165] Memory required for data: 351847600
I1105 05:45:15.369938 13010 layer_factory.hpp:77] Creating layer group2_block0_conv1
I1105 05:45:15.369953 13010 net.cpp:100] Creating Layer group2_block0_conv1
I1105 05:45:15.369966 13010 net.cpp:434] group2_block0_conv1 <- group2_block0_conv0
I1105 05:45:15.369984 13010 net.cpp:408] group2_block0_conv1 -> group2_block0_conv1
I1105 05:45:15.370636 13010 net.cpp:150] Setting up group2_block0_conv1
I1105 05:45:15.370653 13010 net.cpp:157] Top shape: 100 64 8 8 (409600)
I1105 05:45:15.370661 13010 net.cpp:165] Memory required for data: 353486000
I1105 05:45:15.370672 13010 layer_factory.hpp:77] Creating layer group2_block0_conv1_bn
I1105 05:45:15.370682 13010 net.cpp:100] Creating Layer group2_block0_conv1_bn
I1105 05:45:15.370692 13010 net.cpp:434] group2_block0_conv1_bn <- group2_block0_conv1
I1105 05:45:15.370704 13010 net.cpp:395] group2_block0_conv1_bn -> group2_block0_conv1 (in-place)
I1105 05:45:15.370729 13010 net.cpp:150] Setting up group2_block0_conv1_bn
I1105 05:45:15.370743 13010 net.cpp:157] Top shape: 100 64 8 8 (409600)
I1105 05:45:15.370750 13010 net.cpp:165] Memory required for data: 355124400
I1105 05:45:15.370762 13010 layer_factory.hpp:77] Creating layer group2_block0_conv1_scale
I1105 05:45:15.370780 13010 net.cpp:100] Creating Layer group2_block0_conv1_scale
I1105 05:45:15.370789 13010 net.cpp:434] group2_block0_conv1_scale <- group2_block0_conv1
I1105 05:45:15.370798 13010 net.cpp:395] group2_block0_conv1_scale -> group2_block0_conv1 (in-place)
I1105 05:45:15.370815 13010 layer_factory.hpp:77] Creating layer group2_block0_conv1_scale
I1105 05:45:15.370839 13010 net.cpp:150] Setting up group2_block0_conv1_scale
I1105 05:45:15.370858 13010 net.cpp:157] Top shape: 100 64 8 8 (409600)
I1105 05:45:15.370865 13010 net.cpp:165] Memory required for data: 356762800
I1105 05:45:15.370877 13010 layer_factory.hpp:77] Creating layer group2_block0_proj
I1105 05:45:15.370894 13010 net.cpp:100] Creating Layer group2_block0_proj
I1105 05:45:15.370904 13010 net.cpp:434] group2_block0_proj <- group1_block2_sum_group1_block2_sum_0_split_1
I1105 05:45:15.370916 13010 net.cpp:408] group2_block0_proj -> group2_block0_proj
I1105 05:45:15.371068 13010 net.cpp:150] Setting up group2_block0_proj
I1105 05:45:15.371086 13010 net.cpp:157] Top shape: 100 64 8 8 (409600)
I1105 05:45:15.371093 13010 net.cpp:165] Memory required for data: 358401200
I1105 05:45:15.371104 13010 layer_factory.hpp:77] Creating layer group2_block0_proj_bn
I1105 05:45:15.371119 13010 net.cpp:100] Creating Layer group2_block0_proj_bn
I1105 05:45:15.371135 13010 net.cpp:434] group2_block0_proj_bn <- group2_block0_proj
I1105 05:45:15.371146 13010 net.cpp:395] group2_block0_proj_bn -> group2_block0_proj (in-place)
I1105 05:45:15.371170 13010 net.cpp:150] Setting up group2_block0_proj_bn
I1105 05:45:15.371184 13010 net.cpp:157] Top shape: 100 64 8 8 (409600)
I1105 05:45:15.371191 13010 net.cpp:165] Memory required for data: 360039600
I1105 05:45:15.371203 13010 layer_factory.hpp:77] Creating layer group2_block0_proj_scale
I1105 05:45:15.371217 13010 net.cpp:100] Creating Layer group2_block0_proj_scale
I1105 05:45:15.371245 13010 net.cpp:434] group2_block0_proj_scale <- group2_block0_proj
I1105 05:45:15.371256 13010 net.cpp:395] group2_block0_proj_scale -> group2_block0_proj (in-place)
I1105 05:45:15.371282 13010 layer_factory.hpp:77] Creating layer group2_block0_proj_scale
I1105 05:45:15.371309 13010 net.cpp:150] Setting up group2_block0_proj_scale
I1105 05:45:15.371322 13010 net.cpp:157] Top shape: 100 64 8 8 (409600)
I1105 05:45:15.371330 13010 net.cpp:165] Memory required for data: 361678000
I1105 05:45:15.371340 13010 layer_factory.hpp:77] Creating layer group2_block0_sum
I1105 05:45:15.371351 13010 net.cpp:100] Creating Layer group2_block0_sum
I1105 05:45:15.371358 13010 net.cpp:434] group2_block0_sum <- group2_block0_proj
I1105 05:45:15.371367 13010 net.cpp:434] group2_block0_sum <- group2_block0_conv1
I1105 05:45:15.371381 13010 net.cpp:408] group2_block0_sum -> group2_block0_sum
I1105 05:45:15.371394 13010 net.cpp:150] Setting up group2_block0_sum
I1105 05:45:15.371407 13010 net.cpp:157] Top shape: 100 64 8 8 (409600)
I1105 05:45:15.371415 13010 net.cpp:165] Memory required for data: 363316400
I1105 05:45:15.371421 13010 layer_factory.hpp:77] Creating layer group2_block0_sum_group2_block0_sum_0_split
I1105 05:45:15.371438 13010 net.cpp:100] Creating Layer group2_block0_sum_group2_block0_sum_0_split
I1105 05:45:15.371449 13010 net.cpp:434] group2_block0_sum_group2_block0_sum_0_split <- group2_block0_sum
I1105 05:45:15.371464 13010 net.cpp:408] group2_block0_sum_group2_block0_sum_0_split -> group2_block0_sum_group2_block0_sum_0_split_0
I1105 05:45:15.371476 13010 net.cpp:408] group2_block0_sum_group2_block0_sum_0_split -> group2_block0_sum_group2_block0_sum_0_split_1
I1105 05:45:15.371493 13010 net.cpp:150] Setting up group2_block0_sum_group2_block0_sum_0_split
I1105 05:45:15.371511 13010 net.cpp:157] Top shape: 100 64 8 8 (409600)
I1105 05:45:15.371520 13010 net.cpp:157] Top shape: 100 64 8 8 (409600)
I1105 05:45:15.371527 13010 net.cpp:165] Memory required for data: 366593200
I1105 05:45:15.371534 13010 layer_factory.hpp:77] Creating layer group2_block1_conv0
I1105 05:45:15.371548 13010 net.cpp:100] Creating Layer group2_block1_conv0
I1105 05:45:15.371556 13010 net.cpp:434] group2_block1_conv0 <- group2_block0_sum_group2_block0_sum_0_split_0
I1105 05:45:15.371572 13010 net.cpp:408] group2_block1_conv0 -> group2_block1_conv0
I1105 05:45:15.372217 13010 net.cpp:150] Setting up group2_block1_conv0
I1105 05:45:15.372244 13010 net.cpp:157] Top shape: 100 64 8 8 (409600)
I1105 05:45:15.372256 13010 net.cpp:165] Memory required for data: 368231600
I1105 05:45:15.372268 13010 layer_factory.hpp:77] Creating layer group2_block1_conv0_bn
I1105 05:45:15.372279 13010 net.cpp:100] Creating Layer group2_block1_conv0_bn
I1105 05:45:15.372288 13010 net.cpp:434] group2_block1_conv0_bn <- group2_block1_conv0
I1105 05:45:15.372298 13010 net.cpp:395] group2_block1_conv0_bn -> group2_block1_conv0 (in-place)
I1105 05:45:15.372323 13010 net.cpp:150] Setting up group2_block1_conv0_bn
I1105 05:45:15.372336 13010 net.cpp:157] Top shape: 100 64 8 8 (409600)
I1105 05:45:15.372344 13010 net.cpp:165] Memory required for data: 369870000
I1105 05:45:15.372357 13010 layer_factory.hpp:77] Creating layer group2_block1_conv0_scale
I1105 05:45:15.372375 13010 net.cpp:100] Creating Layer group2_block1_conv0_scale
I1105 05:45:15.372383 13010 net.cpp:434] group2_block1_conv0_scale <- group2_block1_conv0
I1105 05:45:15.372393 13010 net.cpp:395] group2_block1_conv0_scale -> group2_block1_conv0 (in-place)
I1105 05:45:15.372413 13010 layer_factory.hpp:77] Creating layer group2_block1_conv0_scale
I1105 05:45:15.372438 13010 net.cpp:150] Setting up group2_block1_conv0_scale
I1105 05:45:15.372452 13010 net.cpp:157] Top shape: 100 64 8 8 (409600)
I1105 05:45:15.372459 13010 net.cpp:165] Memory required for data: 371508400
I1105 05:45:15.372469 13010 layer_factory.hpp:77] Creating layer group2_block1_conv0_relu
I1105 05:45:15.372481 13010 net.cpp:100] Creating Layer group2_block1_conv0_relu
I1105 05:45:15.372488 13010 net.cpp:434] group2_block1_conv0_relu <- group2_block1_conv0
I1105 05:45:15.372529 13010 net.cpp:395] group2_block1_conv0_relu -> group2_block1_conv0 (in-place)
I1105 05:45:15.372540 13010 net.cpp:150] Setting up group2_block1_conv0_relu
I1105 05:45:15.372550 13010 net.cpp:157] Top shape: 100 64 8 8 (409600)
I1105 05:45:15.372565 13010 net.cpp:165] Memory required for data: 373146800
I1105 05:45:15.372577 13010 layer_factory.hpp:77] Creating layer group2_block1_conv1
I1105 05:45:15.372591 13010 net.cpp:100] Creating Layer group2_block1_conv1
I1105 05:45:15.372598 13010 net.cpp:434] group2_block1_conv1 <- group2_block1_conv0
I1105 05:45:15.372609 13010 net.cpp:408] group2_block1_conv1 -> group2_block1_conv1
I1105 05:45:15.373246 13010 net.cpp:150] Setting up group2_block1_conv1
I1105 05:45:15.373260 13010 net.cpp:157] Top shape: 100 64 8 8 (409600)
I1105 05:45:15.373267 13010 net.cpp:165] Memory required for data: 374785200
I1105 05:45:15.373277 13010 layer_factory.hpp:77] Creating layer group2_block1_conv1_bn
I1105 05:45:15.373338 13010 net.cpp:100] Creating Layer group2_block1_conv1_bn
I1105 05:45:15.373352 13010 net.cpp:434] group2_block1_conv1_bn <- group2_block1_conv1
I1105 05:45:15.373361 13010 net.cpp:395] group2_block1_conv1_bn -> group2_block1_conv1 (in-place)
I1105 05:45:15.373399 13010 net.cpp:150] Setting up group2_block1_conv1_bn
I1105 05:45:15.373410 13010 net.cpp:157] Top shape: 100 64 8 8 (409600)
I1105 05:45:15.373417 13010 net.cpp:165] Memory required for data: 376423600
I1105 05:45:15.373451 13010 layer_factory.hpp:77] Creating layer group2_block1_conv1_scale
I1105 05:45:15.373466 13010 net.cpp:100] Creating Layer group2_block1_conv1_scale
I1105 05:45:15.373473 13010 net.cpp:434] group2_block1_conv1_scale <- group2_block1_conv1
I1105 05:45:15.373486 13010 net.cpp:395] group2_block1_conv1_scale -> group2_block1_conv1 (in-place)
I1105 05:45:15.373502 13010 layer_factory.hpp:77] Creating layer group2_block1_conv1_scale
I1105 05:45:15.373531 13010 net.cpp:150] Setting up group2_block1_conv1_scale
I1105 05:45:15.373549 13010 net.cpp:157] Top shape: 100 64 8 8 (409600)
I1105 05:45:15.373558 13010 net.cpp:165] Memory required for data: 378062000
I1105 05:45:15.373569 13010 layer_factory.hpp:77] Creating layer group2_block1_sum
I1105 05:45:15.373579 13010 net.cpp:100] Creating Layer group2_block1_sum
I1105 05:45:15.373586 13010 net.cpp:434] group2_block1_sum <- group2_block1_conv1
I1105 05:45:15.373594 13010 net.cpp:434] group2_block1_sum <- group2_block0_sum_group2_block0_sum_0_split_1
I1105 05:45:15.373607 13010 net.cpp:408] group2_block1_sum -> group2_block1_sum
I1105 05:45:15.373628 13010 net.cpp:150] Setting up group2_block1_sum
I1105 05:45:15.373638 13010 net.cpp:157] Top shape: 100 64 8 8 (409600)
I1105 05:45:15.373646 13010 net.cpp:165] Memory required for data: 379700400
I1105 05:45:15.373651 13010 layer_factory.hpp:77] Creating layer group2_block1_sum_group2_block1_sum_0_split
I1105 05:45:15.373661 13010 net.cpp:100] Creating Layer group2_block1_sum_group2_block1_sum_0_split
I1105 05:45:15.373668 13010 net.cpp:434] group2_block1_sum_group2_block1_sum_0_split <- group2_block1_sum
I1105 05:45:15.373678 13010 net.cpp:408] group2_block1_sum_group2_block1_sum_0_split -> group2_block1_sum_group2_block1_sum_0_split_0
I1105 05:45:15.373690 13010 net.cpp:408] group2_block1_sum_group2_block1_sum_0_split -> group2_block1_sum_group2_block1_sum_0_split_1
I1105 05:45:15.373706 13010 net.cpp:150] Setting up group2_block1_sum_group2_block1_sum_0_split
I1105 05:45:15.373723 13010 net.cpp:157] Top shape: 100 64 8 8 (409600)
I1105 05:45:15.373733 13010 net.cpp:157] Top shape: 100 64 8 8 (409600)
I1105 05:45:15.373739 13010 net.cpp:165] Memory required for data: 382977200
I1105 05:45:15.373746 13010 layer_factory.hpp:77] Creating layer group2_block2_conv0
I1105 05:45:15.373759 13010 net.cpp:100] Creating Layer group2_block2_conv0
I1105 05:45:15.373766 13010 net.cpp:434] group2_block2_conv0 <- group2_block1_sum_group2_block1_sum_0_split_0
I1105 05:45:15.373777 13010 net.cpp:408] group2_block2_conv0 -> group2_block2_conv0
I1105 05:45:15.374408 13010 net.cpp:150] Setting up group2_block2_conv0
I1105 05:45:15.374438 13010 net.cpp:157] Top shape: 100 64 8 8 (409600)
I1105 05:45:15.374444 13010 net.cpp:165] Memory required for data: 384615600
I1105 05:45:15.374454 13010 layer_factory.hpp:77] Creating layer group2_block2_conv0_bn
I1105 05:45:15.374469 13010 net.cpp:100] Creating Layer group2_block2_conv0_bn
I1105 05:45:15.374476 13010 net.cpp:434] group2_block2_conv0_bn <- group2_block2_conv0
I1105 05:45:15.374485 13010 net.cpp:395] group2_block2_conv0_bn -> group2_block2_conv0 (in-place)
I1105 05:45:15.374508 13010 net.cpp:150] Setting up group2_block2_conv0_bn
I1105 05:45:15.374533 13010 net.cpp:157] Top shape: 100 64 8 8 (409600)
I1105 05:45:15.374541 13010 net.cpp:165] Memory required for data: 386254000
I1105 05:45:15.374552 13010 layer_factory.hpp:77] Creating layer group2_block2_conv0_scale
I1105 05:45:15.374562 13010 net.cpp:100] Creating Layer group2_block2_conv0_scale
I1105 05:45:15.374569 13010 net.cpp:434] group2_block2_conv0_scale <- group2_block2_conv0
I1105 05:45:15.374582 13010 net.cpp:395] group2_block2_conv0_scale -> group2_block2_conv0 (in-place)
I1105 05:45:15.374604 13010 layer_factory.hpp:77] Creating layer group2_block2_conv0_scale
I1105 05:45:15.374625 13010 net.cpp:150] Setting up group2_block2_conv0_scale
I1105 05:45:15.374642 13010 net.cpp:157] Top shape: 100 64 8 8 (409600)
I1105 05:45:15.374650 13010 net.cpp:165] Memory required for data: 387892400
I1105 05:45:15.374660 13010 layer_factory.hpp:77] Creating layer group2_block2_conv0_relu
I1105 05:45:15.374670 13010 net.cpp:100] Creating Layer group2_block2_conv0_relu
I1105 05:45:15.374676 13010 net.cpp:434] group2_block2_conv0_relu <- group2_block2_conv0
I1105 05:45:15.374686 13010 net.cpp:395] group2_block2_conv0_relu -> group2_block2_conv0 (in-place)
I1105 05:45:15.374696 13010 net.cpp:150] Setting up group2_block2_conv0_relu
I1105 05:45:15.374706 13010 net.cpp:157] Top shape: 100 64 8 8 (409600)
I1105 05:45:15.374711 13010 net.cpp:165] Memory required for data: 389530800
I1105 05:45:15.374718 13010 layer_factory.hpp:77] Creating layer group2_block2_conv1
I1105 05:45:15.374733 13010 net.cpp:100] Creating Layer group2_block2_conv1
I1105 05:45:15.374749 13010 net.cpp:434] group2_block2_conv1 <- group2_block2_conv0
I1105 05:45:15.374763 13010 net.cpp:408] group2_block2_conv1 -> group2_block2_conv1
I1105 05:45:15.375397 13010 net.cpp:150] Setting up group2_block2_conv1
I1105 05:45:15.375411 13010 net.cpp:157] Top shape: 100 64 8 8 (409600)
I1105 05:45:15.375418 13010 net.cpp:165] Memory required for data: 391169200
I1105 05:45:15.375427 13010 layer_factory.hpp:77] Creating layer group2_block2_conv1_bn
I1105 05:45:15.375437 13010 net.cpp:100] Creating Layer group2_block2_conv1_bn
I1105 05:45:15.375445 13010 net.cpp:434] group2_block2_conv1_bn <- group2_block2_conv1
I1105 05:45:15.375454 13010 net.cpp:395] group2_block2_conv1_bn -> group2_block2_conv1 (in-place)
I1105 05:45:15.375475 13010 net.cpp:150] Setting up group2_block2_conv1_bn
I1105 05:45:15.375499 13010 net.cpp:157] Top shape: 100 64 8 8 (409600)
I1105 05:45:15.375506 13010 net.cpp:165] Memory required for data: 392807600
I1105 05:45:15.375517 13010 layer_factory.hpp:77] Creating layer group2_block2_conv1_scale
I1105 05:45:15.375527 13010 net.cpp:100] Creating Layer group2_block2_conv1_scale
I1105 05:45:15.375535 13010 net.cpp:434] group2_block2_conv1_scale <- group2_block2_conv1
I1105 05:45:15.375545 13010 net.cpp:395] group2_block2_conv1_scale -> group2_block2_conv1 (in-place)
I1105 05:45:15.375558 13010 layer_factory.hpp:77] Creating layer group2_block2_conv1_scale
I1105 05:45:15.375587 13010 net.cpp:150] Setting up group2_block2_conv1_scale
I1105 05:45:15.375597 13010 net.cpp:157] Top shape: 100 64 8 8 (409600)
I1105 05:45:15.375603 13010 net.cpp:165] Memory required for data: 394446000
I1105 05:45:15.375613 13010 layer_factory.hpp:77] Creating layer group2_block2_sum
I1105 05:45:15.375627 13010 net.cpp:100] Creating Layer group2_block2_sum
I1105 05:45:15.375633 13010 net.cpp:434] group2_block2_sum <- group2_block2_conv1
I1105 05:45:15.375643 13010 net.cpp:434] group2_block2_sum <- group2_block1_sum_group2_block1_sum_0_split_1
I1105 05:45:15.375677 13010 net.cpp:408] group2_block2_sum -> group2_block2_sum
I1105 05:45:15.375690 13010 net.cpp:150] Setting up group2_block2_sum
I1105 05:45:15.375700 13010 net.cpp:157] Top shape: 100 64 8 8 (409600)
I1105 05:45:15.375707 13010 net.cpp:165] Memory required for data: 396084400
I1105 05:45:15.375715 13010 layer_factory.hpp:77] Creating layer global_avg_pool
I1105 05:45:15.375725 13010 net.cpp:100] Creating Layer global_avg_pool
I1105 05:45:15.375732 13010 net.cpp:434] global_avg_pool <- group2_block2_sum
I1105 05:45:15.375742 13010 net.cpp:408] global_avg_pool -> global_avg_pool
I1105 05:45:15.375777 13010 net.cpp:150] Setting up global_avg_pool
I1105 05:45:15.375790 13010 net.cpp:157] Top shape: 100 64 1 1 (6400)
I1105 05:45:15.375797 13010 net.cpp:165] Memory required for data: 396110000
I1105 05:45:15.375804 13010 layer_factory.hpp:77] Creating layer fc
I1105 05:45:15.375821 13010 net.cpp:100] Creating Layer fc
I1105 05:45:15.375844 13010 net.cpp:434] fc <- global_avg_pool
I1105 05:45:15.375855 13010 net.cpp:408] fc -> fc
I1105 05:45:15.375892 13010 net.cpp:150] Setting up fc
I1105 05:45:15.375910 13010 net.cpp:157] Top shape: 100 12 (1200)
I1105 05:45:15.375916 13010 net.cpp:165] Memory required for data: 396114800
I1105 05:45:15.375926 13010 layer_factory.hpp:77] Creating layer fc_fc_0_split
I1105 05:45:15.375936 13010 net.cpp:100] Creating Layer fc_fc_0_split
I1105 05:45:15.375942 13010 net.cpp:434] fc_fc_0_split <- fc
I1105 05:45:15.375952 13010 net.cpp:408] fc_fc_0_split -> fc_fc_0_split_0
I1105 05:45:15.375977 13010 net.cpp:408] fc_fc_0_split -> fc_fc_0_split_1
I1105 05:45:15.375989 13010 net.cpp:150] Setting up fc_fc_0_split
I1105 05:45:15.375999 13010 net.cpp:157] Top shape: 100 12 (1200)
I1105 05:45:15.376008 13010 net.cpp:157] Top shape: 100 12 (1200)
I1105 05:45:15.376013 13010 net.cpp:165] Memory required for data: 396124400
I1105 05:45:15.376020 13010 layer_factory.hpp:77] Creating layer loss
I1105 05:45:15.376029 13010 net.cpp:100] Creating Layer loss
I1105 05:45:15.376036 13010 net.cpp:434] loss <- fc_fc_0_split_0
I1105 05:45:15.376044 13010 net.cpp:434] loss <- label_data_1_split_0
I1105 05:45:15.376055 13010 net.cpp:408] loss -> loss
I1105 05:45:15.376068 13010 layer_factory.hpp:77] Creating layer loss
I1105 05:45:15.376098 13010 net.cpp:150] Setting up loss
I1105 05:45:15.376116 13010 net.cpp:157] Top shape: (1)
I1105 05:45:15.376122 13010 net.cpp:160]     with loss weight 1
I1105 05:45:15.376173 13010 net.cpp:165] Memory required for data: 396124404
I1105 05:45:15.376180 13010 layer_factory.hpp:77] Creating layer softmax
I1105 05:45:15.376189 13010 net.cpp:100] Creating Layer softmax
I1105 05:45:15.376196 13010 net.cpp:434] softmax <- fc_fc_0_split_1
I1105 05:45:15.376204 13010 net.cpp:408] softmax -> softmax
I1105 05:45:15.376217 13010 net.cpp:150] Setting up softmax
I1105 05:45:15.376225 13010 net.cpp:157] Top shape: 100 12 (1200)
I1105 05:45:15.376231 13010 net.cpp:165] Memory required for data: 396129204
I1105 05:45:15.376238 13010 layer_factory.hpp:77] Creating layer Accuracy
I1105 05:45:15.376250 13010 net.cpp:100] Creating Layer Accuracy
I1105 05:45:15.376266 13010 net.cpp:434] Accuracy <- softmax
I1105 05:45:15.376279 13010 net.cpp:434] Accuracy <- label_data_1_split_1
I1105 05:45:15.376288 13010 net.cpp:408] Accuracy -> Accuracy
…
