…
I1105 05:48:52.325121 13031 net.cpp:322] The NetState phase (0) differed from the phase (1) specified by a rule in layer data
I1105 05:48:52.325937 13031 net.cpp:58] Initializing net from parameters: 
name: "resnet20-cifar10"
state {
  phase: TRAIN
  level: 0
  stage: ""
}
layer {
  name: "data"
  type: "Data"
  top: "data"
  top: "label"
  include {
    phase: TRAIN
  }
  transform_param {
    mirror: true
    crop_size: 32
    mean_file: "data/mean.binaryproto"
  }
  data_param {
    source: "data2/test_lmdb"
    batch_size: 100
    backend: LMDB
  }
}
layer {
  name: "first_conv"
  type: "Convolution"
  bottom: "data"
  top: "first_conv"
  param {
    lr_mult: 1
    decay_mult: 1
  }
  convolution_param {
    num_output: 16
    pad: 1
    kernel_size: 3
    stride: 1
    weight_filler {
      type: "msra"
    }
  }
}
layer {
  name: "first_conv_bn"
  type: "BatchNorm"
  bottom: "first_conv"
  top: "first_conv"
  batch_norm_param {
    use_global_stats: false
    moving_average_fraction: 0.95
  }
}
layer {
  name: "first_conv_scale"
  type: "Scale"
  bottom: "first_conv"
  top: "first_conv"
  scale_param {
    bias_term: true
  }
}
layer {
  name: "first_conv_relu"
  type: "ReLU"
  bottom: "first_conv"
  top: "first_conv"
}
layer {
  name: "group0_block0_conv0"
  type: "Convolution"
  bottom: "first_conv"
  top: "group0_block0_conv0"
  param {
    lr_mult: 1
    decay_mult: 1
  }
  convolution_param {
    num_output: 16
    pad: 1
    kernel_size: 3
    stride: 1
    weight_filler {
      type: "msra"
    }
  }
}
layer {
  name: "group0_block0_conv0_bn"
  type: "BatchNorm"
  bottom: "group0_block0_conv0"
  top: "group0_block0_conv0"
  batch_norm_param {
    use_global_stats: false
    moving_average_fraction: 0.95
  }
}
layer {
  name: "group0_block0_conv0_scale"
  type: "Scale"
  bottom: "group0_block0_conv0"
  top: "group0_block0_conv0"
  scale_param {
    bias_term: true
  }
}
layer {
  name: "group0_block0_conv0_relu"
  type: "ReLU"
  bottom: "group0_block0_conv0"
  top: "group0_block0_conv0"
}
layer {
  name: "group0_block0_conv1"
  type: "Convolution"
  bottom: "group0_block0_conv0"
  top: "group0_block0_conv1"
  param {
    lr_mult: 1
    decay_mult: 1
  }
  convolution_param {
    num_output: 16
    pad: 1
    kernel_size: 3
    stride: 1
    weight_filler {
      type: "msra"
    }
  }
}
layer {
  name: "group0_block0_conv1_bn"
  type: "BatchNorm"
  bottom: "group0_block0_conv1"
  top: "group0_block0_conv1"
  batch_norm_param {
    use_global_stats: false
    moving_average_fraction: 0.95
  }
}
layer {
  name: "group0_block0_conv1_scale"
  type: "Scale"
  bottom: "group0_block0_conv1"
  top: "group0_block0_conv1"
  scale_param {
    bias_term: true
  }
}
layer {
  name: "group0_block0_sum"
  type: "Eltwise"
  bottom: "group0_block0_conv1"
  bottom: "first_conv"
  top: "group0_block0_sum"
  eltwise_param {
    operation: SUM
  }
}
layer {
  name: "group0_block1_conv0"
  type: "Convolution"
  bottom: "group0_block0_sum"
  top: "group0_block1_conv0"
  param {
    lr_mult: 1
    decay_mult: 1
  }
  convolution_param {
    num_output: 16
    pad: 1
    kernel_size: 3
    stride: 1
    weight_filler {
      type: "msra"
    }
  }
}
layer {
  name: "group0_block1_conv0_bn"
  type: "BatchNorm"
  bottom: "group0_block1_conv0"
  top: "group0_block1_conv0"
  batch_norm_param {
    use_global_stats: false
    moving_average_fraction: 0.95
  }
}
layer {
  name: "group0_block1_conv0_scale"
  type: "Scale"
  bottom: "group0_block1_conv0"
  top: "group0_block1_conv0"
  scale_param {
    bias_term: true
  }
}
layer {
  name: "group0_block1_conv0_relu"
  type: "ReLU"
  bottom: "group0_block1_conv0"
  top: "group0_block1_conv0"
}
layer {
  name: "group0_block1_conv1"
  type: "Convolution"
  bottom: "group0_block1_conv0"
  top: "group0_block1_conv1"
  param {
    lr_mult: 1
    decay_mult: 1
  }
  convolution_param {
    num_output: 16
    pad: 1
    kernel_size: 3
    stride: 1
    weight_filler {
      type: "msra"
    }
  }
}
layer {
  name: "group0_block1_conv1_bn"
  type: "BatchNorm"
  bottom: "group0_block1_conv1"
  top: "group0_block1_conv1"
  batch_norm_param {
    use_global_stats: false
    moving_average_fraction: 0.95
  }
}
layer {
  name: "group0_block1_conv1_scale"
  type: "Scale"
  bottom: "group0_block1_conv1"
  top: "group0_block1_conv1"
  scale_param {
    bias_term: true
  }
}
layer {
  name: "group0_block1_sum"
  type: "Eltwise"
  bottom: "group0_block1_conv1"
  bottom: "group0_block0_sum"
  top: "group0_block1_sum"
  eltwise_param {
    operation: SUM
  }
}
layer {
  name: "group0_block2_conv0"
  type: "Convolution"
  bottom: "group0_block1_sum"
  top: "group0_block2_conv0"
  param {
    lr_mult: 1
    decay_mult: 1
  }
  convolution_param {
    num_output: 16
    pad: 1
    kernel_size: 3
    stride: 1
    weight_filler {
      type: "msra"
    }
  }
}
layer {
  name: "group0_block2_conv0_bn"
  type: "BatchNorm"
  bottom: "group0_block2_conv0"
  top: "group0_block2_conv0"
  batch_norm_param {
    use_global_stats: false
    moving_average_fraction: 0.95
  }
}
layer {
  name: "group0_block2_conv0_scale"
  type: "Scale"
  bottom: "group0_block2_conv0"
  top: "group0_block2_conv0"
  scale_param {
    bias_term: true
  }
}
layer {
  name: "group0_block2_conv0_relu"
  type: "ReLU"
  bottom: "group0_block2_conv0"
  top: "group0_block2_conv0"
}
layer {
  name: "group0_block2_conv1"
  type: "Convolution"
  bottom: "group0_block2_conv0"
  top: "group0_block2_conv1"
  param {
    lr_mult: 1
    decay_mult: 1
  }
  convolution_param {
    num_output: 16
    pad: 1
    kernel_size: 3
    stride: 1
    weight_filler {
      type: "msra"
    }
  }
}
layer {
  name: "group0_block2_conv1_bn"
  type: "BatchNorm"
  bottom: "group0_block2_conv1"
  top: "group0_block2_conv1"
  batch_norm_param {
    use_global_stats: false
    moving_average_fraction: 0.95
  }
}
layer {
  name: "group0_block2_conv1_scale"
  type: "Scale"
  bottom: "group0_block2_conv1"
  top: "group0_block2_conv1"
  scale_param {
    bias_term: true
  }
}
layer {
  name: "group0_block2_sum"
  type: "Eltwise"
  bottom: "group0_block2_conv1"
  bottom: "group0_block1_sum"
  top: "group0_block2_sum"
  eltwise_param {
    operation: SUM
  }
}
layer {
  name: "group1_block0_conv0"
  type: "Convolution"
  bottom: "group0_block2_sum"
  top: "group1_block0_conv0"
  param {
    lr_mult: 1
    decay_mult: 1
  }
  convolution_param {
    num_output: 32
    pad: 1
    kernel_size: 3
    stride: 2
    weight_filler {
      type: "msra"
    }
  }
}
layer {
  name: "group1_block0_conv0_bn"
  type: "BatchNorm"
  bottom: "group1_block0_conv0"
  top: "group1_block0_conv0"
  batch_norm_param {
    use_global_stats: false
    moving_average_fraction: 0.95
  }
}
layer {
  name: "group1_block0_conv0_scale"
  type: "Scale"
  bottom: "group1_block0_conv0"
  top: "group1_block0_conv0"
  scale_param {
    bias_term: true
  }
}
layer {
  name: "group1_block0_conv0_relu"
  type: "ReLU"
  bottom: "group1_block0_conv0"
  top: "group1_block0_conv0"
}
layer {
  name: "group1_block0_conv1"
  type: "Convolution"
  bottom: "group1_block0_conv0"
  top: "group1_block0_conv1"
  param {
    lr_mult: 1
    decay_mult: 1
  }
  convolution_param {
    num_output: 32
    pad: 1
    kernel_size: 3
    stride: 1
    weight_filler {
      type: "msra"
    }
  }
}
layer {
  name: "group1_block0_conv1_bn"
  type: "BatchNorm"
  bottom: "group1_block0_conv1"
  top: "group1_block0_conv1"
  batch_norm_param {
    use_global_stats: false
    moving_average_fraction: 0.95
  }
}
layer {
  name: "group1_block0_conv1_scale"
  type: "Scale"
  bottom: "group1_block0_conv1"
  top: "group1_block0_conv1"
  scale_param {
    bias_term: true
  }
}
layer {
  name: "group1_block0_proj"
  type: "Convolution"
  bottom: "group0_block2_sum"
  top: "group1_block0_proj"
  param {
    lr_mult: 1
    decay_mult: 1
  }
  convolution_param {
    num_output: 32
    pad: 0
    kernel_size: 2
    stride: 2
    weight_filler {
      type: "msra"
    }
  }
}
layer {
  name: "group1_block0_proj_bn"
  type: "BatchNorm"
  bottom: "group1_block0_proj"
  top: "group1_block0_proj"
  batch_norm_param {
    use_global_stats: false
    moving_average_fraction: 0.95
  }
}
layer {
  name: "group1_block0_proj_scale"
  type: "Scale"
  bottom: "group1_block0_proj"
  top: "group1_block0_proj"
  scale_param {
    bias_term: true
  }
}
layer {
  name: "group1_block0_sum"
  type: "Eltwise"
  bottom: "group1_block0_proj"
  bottom: "group1_block0_conv1"
  top: "group1_block0_sum"
  eltwise_param {
    operation: SUM
  }
}
layer {
  name: "group1_block1_conv0"
  type: "Convolution"
  bottom: "group1_block0_sum"
  top: "group1_block1_conv0"
  param {
    lr_mult: 1
    decay_mult: 1
  }
  convolution_param {
    num_output: 32
    pad: 1
    kernel_size: 3
    stride: 1
    weight_filler {
      type: "msra"
    }
  }
}
layer {
  name: "group1_block1_conv0_bn"
  type: "BatchNorm"
  bottom: "group1_block1_conv0"
  top: "group1_block1_conv0"
  batch_norm_param {
    use_global_stats: false
    moving_average_fraction: 0.95
  }
}
layer {
  name: "group1_block1_conv0_scale"
  type: "Scale"
  bottom: "group1_block1_conv0"
  top: "group1_block1_conv0"
  scale_param {
    bias_term: true
  }
}
layer {
  name: "group1_block1_conv0_relu"
  type: "ReLU"
  bottom: "group1_block1_conv0"
  top: "group1_block1_conv0"
}
layer {
  name: "group1_block1_conv1"
  type: "Convolution"
  bottom: "group1_block1_conv0"
  top: "group1_block1_conv1"
  param {
    lr_mult: 1
    decay_mult: 1
  }
  convolution_param {
    num_output: 32
    pad: 1
    kernel_size: 3
    stride: 1
    weight_filler {
      type: "msra"
    }
  }
}
layer {
  name: "group1_block1_conv1_bn"
  type: "BatchNorm"
  bottom: "group1_block1_conv1"
  top: "group1_block1_conv1"
  batch_norm_param {
    use_global_stats: false
    moving_average_fraction: 0.95
  }
}
layer {
  name: "group1_block1_conv1_scale"
  type: "Scale"
  bottom: "group1_block1_conv1"
  top: "group1_block1_conv1"
  scale_param {
    bias_term: true
  }
}
layer {
  name: "group1_block1_sum"
  type: "Eltwise"
  bottom: "group1_block1_conv1"
  bottom: "group1_block0_sum"
  top: "group1_block1_sum"
  eltwise_param {
    operation: SUM
  }
}
layer {
  name: "group1_block2_conv0"
  type: "Convolution"
  bottom: "group1_block1_sum"
  top: "group1_block2_conv0"
  param {
    lr_mult: 1
    decay_mult: 1
  }
  convolution_param {
    num_output: 32
    pad: 1
    kernel_size: 3
    stride: 1
    weight_filler {
      type: "msra"
    }
  }
}
layer {
  name: "group1_block2_conv0_bn"
  type: "BatchNorm"
  bottom: "group1_block2_conv0"
  top: "group1_block2_conv0"
  batch_norm_param {
    use_global_stats: false
    moving_average_fraction: 0.95
  }
}
layer {
  name: "group1_block2_conv0_scale"
  type: "Scale"
  bottom: "group1_block2_conv0"
  top: "group1_block2_conv0"
  scale_param {
    bias_term: true
  }
}
layer {
  name: "group1_block2_conv0_relu"
  type: "ReLU"
  bottom: "group1_block2_conv0"
  top: "group1_block2_conv0"
}
layer {
  name: "group1_block2_conv1"
  type: "Convolution"
  bottom: "group1_block2_conv0"
  top: "group1_block2_conv1"
  param {
    lr_mult: 1
    decay_mult: 1
  }
  convolution_param {
    num_output: 32
    pad: 1
    kernel_size: 3
    stride: 1
    weight_filler {
      type: "msra"
    }
  }
}
layer {
  name: "group1_block2_conv1_bn"
  type: "BatchNorm"
  bottom: "group1_block2_conv1"
  top: "group1_block2_conv1"
  batch_norm_param {
    use_global_stats: false
    moving_average_fraction: 0.95
  }
}
layer {
  name: "group1_block2_conv1_scale"
  type: "Scale"
  bottom: "group1_block2_conv1"
  top: "group1_block2_conv1"
  scale_param {
    bias_term: true
  }
}
layer {
  name: "group1_block2_sum"
  type: "Eltwise"
  bottom: "group1_block2_conv1"
  bottom: "group1_block1_sum"
  top: "group1_block2_sum"
  eltwise_param {
    operation: SUM
  }
}
layer {
  name: "group2_block0_conv0"
  type: "Convolution"
  bottom: "group1_block2_sum"
  top: "group2_block0_conv0"
  param {
    lr_mult: 1
    decay_mult: 1
  }
  convolution_param {
    num_output: 64
    pad: 1
    kernel_size: 3
    stride: 2
    weight_filler {
      type: "msra"
    }
  }
}
layer {
  name: "group2_block0_conv0_bn"
  type: "BatchNorm"
  bottom: "group2_block0_conv0"
  top: "group2_block0_conv0"
  batch_norm_param {
    use_global_stats: false
    moving_average_fraction: 0.95
  }
}
layer {
  name: "group2_block0_conv0_scale"
  type: "Scale"
  bottom: "group2_block0_conv0"
  top: "group2_block0_conv0"
  scale_param {
    bias_term: true
  }
}
layer {
  name: "group2_block0_conv0_relu"
  type: "ReLU"
  bottom: "group2_block0_conv0"
  top: "group2_block0_conv0"
}
layer {
  name: "group2_block0_conv1"
  type: "Convolution"
  bottom: "group2_block0_conv0"
  top: "group2_block0_conv1"
  param {
    lr_mult: 1
    decay_mult: 1
  }
  convolution_param {
    num_output: 64
    pad: 1
    kernel_size: 3
    stride: 1
    weight_filler {
      type: "msra"
    }
  }
}
layer {
  name: "group2_block0_conv1_bn"
  type: "BatchNorm"
  bottom: "group2_block0_conv1"
  top: "group2_block0_conv1"
  batch_norm_param {
    use_global_stats: false
    moving_average_fraction: 0.95
  }
}
layer {
  name: "group2_block0_conv1_scale"
  type: "Scale"
  bottom: "group2_block0_conv1"
  top: "group2_block0_conv1"
  scale_param {
    bias_term: true
  }
}
layer {
  name: "group2_block0_proj"
  type: "Convolution"
  bottom: "group1_block2_sum"
  top: "group2_block0_proj"
  param {
    lr_mult: 1
    decay_mult: 1
  }
  convolution_param {
    num_output: 64
    pad: 0
    kernel_size: 2
    stride: 2
    weight_filler {
      type: "msra"
    }
  }
}
layer {
  name: "group2_block0_proj_bn"
  type: "BatchNorm"
  bottom: "group2_block0_proj"
  top: "group2_block0_proj"
  batch_norm_param {
    use_global_stats: false
    moving_average_fraction: 0.95
  }
}
layer {
  name: "group2_block0_proj_scale"
  type: "Scale"
  bottom: "group2_block0_proj"
  top: "group2_block0_proj"
  scale_param {
    bias_term: true
  }
}
layer {
  name: "group2_block0_sum"
  type: "Eltwise"
  bottom: "group2_block0_proj"
  bottom: "group2_block0_conv1"
  top: "group2_block0_sum"
  eltwise_param {
    operation: SUM
  }
}
layer {
  name: "group2_block1_conv0"
  type: "Convolution"
  bottom: "group2_block0_sum"
  top: "group2_block1_conv0"
  param {
    lr_mult: 1
    decay_mult: 1
  }
  convolution_param {
    num_output: 64
    pad: 1
    kernel_size: 3
    stride: 1
    weight_filler {
      type: "msra"
    }
  }
}
layer {
  name: "group2_block1_conv0_bn"
  type: "BatchNorm"
  bottom: "group2_block1_conv0"
  top: "group2_block1_conv0"
  batch_norm_param {
    use_global_stats: false
    moving_average_fraction: 0.95
  }
}
layer {
  name: "group2_block1_conv0_scale"
  type: "Scale"
  bottom: "group2_block1_conv0"
  top: "group2_block1_conv0"
  scale_param {
    bias_term: true
  }
}
layer {
  name: "group2_block1_conv0_relu"
  type: "ReLU"
  bottom: "group2_block1_conv0"
  top: "group2_block1_conv0"
}
layer {
  name: "group2_block1_conv1"
  type: "Convolution"
  bottom: "group2_block1_conv0"
  top: "group2_block1_conv1"
  param {
    lr_mult: 1
    decay_mult: 1
  }
  convolution_param {
    num_output: 64
    pad: 1
    kernel_size: 3
    stride: 1
    weight_filler {
      type: "msra"
    }
  }
}
layer {
  name: "group2_block1_conv1_bn"
  type: "BatchNorm"
  bottom: "group2_block1_conv1"
  top: "group2_block1_conv1"
  batch_norm_param {
    use_global_stats: false
    moving_average_fraction: 0.95
  }
}
layer {
  name: "group2_block1_conv1_scale"
  type: "Scale"
  bottom: "group2_block1_conv1"
  top: "group2_block1_conv1"
  scale_param {
    bias_term: true
  }
}
layer {
  name: "group2_block1_sum"
  type: "Eltwise"
  bottom: "group2_block1_conv1"
  bottom: "group2_block0_sum"
  top: "group2_block1_sum"
  eltwise_param {
    operation: SUM
  }
}
layer {
  name: "group2_block2_conv0"
  type: "Convolution"
  bottom: "group2_block1_sum"
  top: "group2_block2_conv0"
  param {
    lr_mult: 1
    decay_mult: 1
  }
  convolution_param {
    num_output: 64
    pad: 1
    kernel_size: 3
    stride: 1
    weight_filler {
      type: "msra"
    }
  }
}
layer {
  name: "group2_block2_conv0_bn"
  type: "BatchNorm"
  bottom: "group2_block2_conv0"
  top: "group2_block2_conv0"
  batch_norm_param {
    use_global_stats: false
    moving_average_fraction: 0.95
  }
}
layer {
  name: "group2_block2_conv0_scale"
  type: "Scale"
  bottom: "group2_block2_conv0"
  top: "group2_block2_conv0"
  scale_param {
    bias_term: true
  }
}
layer {
  name: "group2_block2_conv0_relu"
  type: "ReLU"
  bottom: "group2_block2_conv0"
  top: "group2_block2_conv0"
}
layer {
  name: "group2_block2_conv1"
  type: "Convolution"
  bottom: "group2_block2_conv0"
  top: "group2_block2_conv1"
  param {
    lr_mult: 1
    decay_mult: 1
  }
  convolution_param {
    num_output: 64
    pad: 1
    kernel_size: 3
    stride: 1
    weight_filler {
      type: "msra"
    }
  }
}
layer {
  name: "group2_block2_conv1_bn"
  type: "BatchNorm"
  bottom: "group2_block2_conv1"
  top: "group2_block2_conv1"
  batch_norm_param {
    use_global_stats: false
    moving_average_fraction: 0.95
  }
}
layer {
  name: "group2_block2_conv1_scale"
  type: "Scale"
  bottom: "group2_block2_conv1"
  top: "group2_block2_conv1"
  scale_param {
    bias_term: true
  }
}
layer {
  name: "group2_block2_sum"
  type: "Eltwise"
  bottom: "group2_block2_conv1"
  bottom: "group2_block1_sum"
  top: "group2_block2_sum"
  eltwise_param {
    operation: SUM
  }
}
layer {
  name: "global_avg_pool"
  type: "Pooling"
  bottom: "group2_block2_sum"
  top: "global_avg_pool"
  pooling_param {
    pool: AVE
    global_pooling: true
  }
}
layer {
  name: "fc"
  type: "InnerProduct"
  bottom: "global_avg_pool"
  top: "fc"
  param {
    lr_mult: 1
    decay_mult: 1
  }
  param {
    lr_mult: 2
    decay_mult: 0
  }
  inner_product_param {
    num_output: 12
    weight_filler {
      type: "msra"
    }
    bias_filler {
      type: "constant"
      value: 0
    }
  }
}
layer {
  name: "loss"
  type: "SoftmaxWithLoss"
  bottom: "fc"
  bottom: "label"
  top: "loss"
}
layer {
  name: "softmax"
  type: "Softmax"
  bottom: "fc"
  top: "softmax"
}
layer {
  name: "Accuracy"
  type: "Accuracy"
  bottom: "softmax"
  bottom: "label"
  top: "Accuracy"
}
I1105 05:48:52.326499 13031 layer_factory.hpp:77] Creating layer data
I1105 05:48:52.326973 13031 net.cpp:100] Creating Layer data
I1105 05:48:52.327061 13031 net.cpp:408] data -> data
I1105 05:48:52.327198 13031 net.cpp:408] data -> label
I1105 05:48:52.327232 13031 data_transformer.cpp:25] Loading mean file from: data/mean.binaryproto
I1105 05:48:52.327347 13034 db_lmdb.cpp:35] Opened lmdb data2/test_lmdb
I1105 05:48:52.327461 13031 data_layer.cpp:41] output data size: 100,3,32,32
I1105 05:48:52.327682 13031 net.cpp:150] Setting up data
I1105 05:48:52.327711 13031 net.cpp:157] Top shape: 100 3 32 32 (307200)
I1105 05:48:52.327726 13031 net.cpp:157] Top shape: 100 (100)
I1105 05:48:52.327738 13031 net.cpp:165] Memory required for data: 1229200
I1105 05:48:52.327759 13031 layer_factory.hpp:77] Creating layer label_data_1_split
I1105 05:48:52.327781 13031 net.cpp:100] Creating Layer label_data_1_split
I1105 05:48:52.327836 13031 net.cpp:434] label_data_1_split <- label
I1105 05:48:52.327867 13031 net.cpp:408] label_data_1_split -> label_data_1_split_0
I1105 05:48:52.327889 13031 net.cpp:408] label_data_1_split -> label_data_1_split_1
I1105 05:48:52.327920 13031 net.cpp:150] Setting up label_data_1_split
I1105 05:48:52.327939 13031 net.cpp:157] Top shape: 100 (100)
I1105 05:48:52.327952 13031 net.cpp:157] Top shape: 100 (100)
I1105 05:48:52.327962 13031 net.cpp:165] Memory required for data: 1230000
I1105 05:48:52.328037 13031 layer_factory.hpp:77] Creating layer first_conv
I1105 05:48:52.328078 13031 net.cpp:100] Creating Layer first_conv
I1105 05:48:52.328093 13031 net.cpp:434] first_conv <- data
I1105 05:48:52.328111 13031 net.cpp:408] first_conv -> first_conv
I1105 05:48:52.328220 13031 net.cpp:150] Setting up first_conv
I1105 05:48:52.328239 13031 net.cpp:157] Top shape: 100 16 32 32 (1638400)
I1105 05:48:52.328251 13031 net.cpp:165] Memory required for data: 7783600
I1105 05:48:52.328330 13031 layer_factory.hpp:77] Creating layer first_conv_bn
I1105 05:48:52.328384 13031 net.cpp:100] Creating Layer first_conv_bn
I1105 05:48:52.328400 13031 net.cpp:434] first_conv_bn <- first_conv
I1105 05:48:52.328416 13031 net.cpp:395] first_conv_bn -> first_conv (in-place)
I1105 05:48:52.328516 13031 net.cpp:150] Setting up first_conv_bn
I1105 05:48:52.328534 13031 net.cpp:157] Top shape: 100 16 32 32 (1638400)
I1105 05:48:52.328547 13031 net.cpp:165] Memory required for data: 14337200
I1105 05:48:52.328574 13031 layer_factory.hpp:77] Creating layer first_conv_scale
I1105 05:48:52.328656 13031 net.cpp:100] Creating Layer first_conv_scale
I1105 05:48:52.328672 13031 net.cpp:434] first_conv_scale <- first_conv
I1105 05:48:52.328691 13031 net.cpp:395] first_conv_scale -> first_conv (in-place)
I1105 05:48:52.328727 13031 layer_factory.hpp:77] Creating layer first_conv_scale
I1105 05:48:52.328790 13031 net.cpp:150] Setting up first_conv_scale
I1105 05:48:52.328809 13031 net.cpp:157] Top shape: 100 16 32 32 (1638400)
I1105 05:48:52.328820 13031 net.cpp:165] Memory required for data: 20890800
I1105 05:48:52.328837 13031 layer_factory.hpp:77] Creating layer first_conv_relu
I1105 05:48:52.328855 13031 net.cpp:100] Creating Layer first_conv_relu
I1105 05:48:52.328883 13031 net.cpp:434] first_conv_relu <- first_conv
I1105 05:48:52.328898 13031 net.cpp:395] first_conv_relu -> first_conv (in-place)
I1105 05:48:52.328917 13031 net.cpp:150] Setting up first_conv_relu
I1105 05:48:52.328933 13031 net.cpp:157] Top shape: 100 16 32 32 (1638400)
I1105 05:48:52.328943 13031 net.cpp:165] Memory required for data: 27444400
I1105 05:48:52.328954 13031 layer_factory.hpp:77] Creating layer first_conv_first_conv_relu_0_split
I1105 05:48:52.328970 13031 net.cpp:100] Creating Layer first_conv_first_conv_relu_0_split
I1105 05:48:52.328982 13031 net.cpp:434] first_conv_first_conv_relu_0_split <- first_conv
I1105 05:48:52.328999 13031 net.cpp:408] first_conv_first_conv_relu_0_split -> first_conv_first_conv_relu_0_split_0
I1105 05:48:52.329025 13031 net.cpp:408] first_conv_first_conv_relu_0_split -> first_conv_first_conv_relu_0_split_1
I1105 05:48:52.329046 13031 net.cpp:150] Setting up first_conv_first_conv_relu_0_split
I1105 05:48:52.329062 13031 net.cpp:157] Top shape: 100 16 32 32 (1638400)
I1105 05:48:52.329077 13031 net.cpp:157] Top shape: 100 16 32 32 (1638400)
I1105 05:48:52.329087 13031 net.cpp:165] Memory required for data: 40551600
I1105 05:48:52.329099 13031 layer_factory.hpp:77] Creating layer group0_block0_conv0
I1105 05:48:52.329120 13031 net.cpp:100] Creating Layer group0_block0_conv0
I1105 05:48:52.329133 13031 net.cpp:434] group0_block0_conv0 <- first_conv_first_conv_relu_0_split_0
I1105 05:48:52.329157 13031 net.cpp:408] group0_block0_conv0 -> group0_block0_conv0
I1105 05:48:52.329357 13031 net.cpp:150] Setting up group0_block0_conv0
I1105 05:48:52.329378 13031 net.cpp:157] Top shape: 100 16 32 32 (1638400)
I1105 05:48:52.329391 13031 net.cpp:165] Memory required for data: 47105200
I1105 05:48:52.329421 13031 layer_factory.hpp:77] Creating layer group0_block0_conv0_bn
I1105 05:48:52.329444 13031 net.cpp:100] Creating Layer group0_block0_conv0_bn
I1105 05:48:52.329457 13031 net.cpp:434] group0_block0_conv0_bn <- group0_block0_conv0
I1105 05:48:52.329475 13031 net.cpp:395] group0_block0_conv0_bn -> group0_block0_conv0 (in-place)
I1105 05:48:52.329529 13031 net.cpp:150] Setting up group0_block0_conv0_bn
I1105 05:48:52.329546 13031 net.cpp:157] Top shape: 100 16 32 32 (1638400)
I1105 05:48:52.329560 13031 net.cpp:165] Memory required for data: 53658800
I1105 05:48:52.329613 13031 layer_factory.hpp:77] Creating layer group0_block0_conv0_scale
I1105 05:48:52.329651 13031 net.cpp:100] Creating Layer group0_block0_conv0_scale
I1105 05:48:52.329666 13031 net.cpp:434] group0_block0_conv0_scale <- group0_block0_conv0
I1105 05:48:52.329687 13031 net.cpp:395] group0_block0_conv0_scale -> group0_block0_conv0 (in-place)
I1105 05:48:52.329715 13031 layer_factory.hpp:77] Creating layer group0_block0_conv0_scale
I1105 05:48:52.329803 13031 net.cpp:150] Setting up group0_block0_conv0_scale
I1105 05:48:52.329823 13031 net.cpp:157] Top shape: 100 16 32 32 (1638400)
I1105 05:48:52.329834 13031 net.cpp:165] Memory required for data: 60212400
I1105 05:48:52.329851 13031 layer_factory.hpp:77] Creating layer group0_block0_conv0_relu
I1105 05:48:52.329869 13031 net.cpp:100] Creating Layer group0_block0_conv0_relu
I1105 05:48:52.329884 13031 net.cpp:434] group0_block0_conv0_relu <- group0_block0_conv0
I1105 05:48:52.329910 13031 net.cpp:395] group0_block0_conv0_relu -> group0_block0_conv0 (in-place)
I1105 05:48:52.329928 13031 net.cpp:150] Setting up group0_block0_conv0_relu
I1105 05:48:52.329946 13031 net.cpp:157] Top shape: 100 16 32 32 (1638400)
I1105 05:48:52.329957 13031 net.cpp:165] Memory required for data: 66766000
I1105 05:48:52.329968 13031 layer_factory.hpp:77] Creating layer group0_block0_conv1
I1105 05:48:52.329994 13031 net.cpp:100] Creating Layer group0_block0_conv1
I1105 05:48:52.330008 13031 net.cpp:434] group0_block0_conv1 <- group0_block0_conv0
I1105 05:48:52.330027 13031 net.cpp:408] group0_block0_conv1 -> group0_block0_conv1
I1105 05:48:52.330158 13031 net.cpp:150] Setting up group0_block0_conv1
I1105 05:48:52.330179 13031 net.cpp:157] Top shape: 100 16 32 32 (1638400)
I1105 05:48:52.330191 13031 net.cpp:165] Memory required for data: 73319600
I1105 05:48:52.330209 13031 layer_factory.hpp:77] Creating layer group0_block0_conv1_bn
I1105 05:48:52.330226 13031 net.cpp:100] Creating Layer group0_block0_conv1_bn
I1105 05:48:52.330240 13031 net.cpp:434] group0_block0_conv1_bn <- group0_block0_conv1
I1105 05:48:52.330286 13031 net.cpp:395] group0_block0_conv1_bn -> group0_block0_conv1 (in-place)
I1105 05:48:52.330368 13031 net.cpp:150] Setting up group0_block0_conv1_bn
I1105 05:48:52.330418 13031 net.cpp:157] Top shape: 100 16 32 32 (1638400)
I1105 05:48:52.330433 13031 net.cpp:165] Memory required for data: 79873200
I1105 05:48:52.330461 13031 layer_factory.hpp:77] Creating layer group0_block0_conv1_scale
I1105 05:48:52.330482 13031 net.cpp:100] Creating Layer group0_block0_conv1_scale
I1105 05:48:52.330494 13031 net.cpp:434] group0_block0_conv1_scale <- group0_block0_conv1
I1105 05:48:52.330523 13031 net.cpp:395] group0_block0_conv1_scale -> group0_block0_conv1 (in-place)
I1105 05:48:52.330556 13031 layer_factory.hpp:77] Creating layer group0_block0_conv1_scale
I1105 05:48:52.330741 13031 net.cpp:150] Setting up group0_block0_conv1_scale
I1105 05:48:52.330762 13031 net.cpp:157] Top shape: 100 16 32 32 (1638400)
I1105 05:48:52.330775 13031 net.cpp:165] Memory required for data: 86426800
I1105 05:48:52.330793 13031 layer_factory.hpp:77] Creating layer group0_block0_sum
I1105 05:48:52.330849 13031 net.cpp:100] Creating Layer group0_block0_sum
I1105 05:48:52.330869 13031 net.cpp:434] group0_block0_sum <- group0_block0_conv1
I1105 05:48:52.330885 13031 net.cpp:434] group0_block0_sum <- first_conv_first_conv_relu_0_split_1
I1105 05:48:52.330909 13031 net.cpp:408] group0_block0_sum -> group0_block0_sum
I1105 05:48:52.330938 13031 net.cpp:150] Setting up group0_block0_sum
I1105 05:48:52.330955 13031 net.cpp:157] Top shape: 100 16 32 32 (1638400)
I1105 05:48:52.330966 13031 net.cpp:165] Memory required for data: 92980400
I1105 05:48:52.330977 13031 layer_factory.hpp:77] Creating layer group0_block0_sum_group0_block0_sum_0_split
I1105 05:48:52.330993 13031 net.cpp:100] Creating Layer group0_block0_sum_group0_block0_sum_0_split
I1105 05:48:52.331006 13031 net.cpp:434] group0_block0_sum_group0_block0_sum_0_split <- group0_block0_sum
I1105 05:48:52.331069 13031 net.cpp:408] group0_block0_sum_group0_block0_sum_0_split -> group0_block0_sum_group0_block0_sum_0_split_0
I1105 05:48:52.331120 13031 net.cpp:408] group0_block0_sum_group0_block0_sum_0_split -> group0_block0_sum_group0_block0_sum_0_split_1
I1105 05:48:52.331143 13031 net.cpp:150] Setting up group0_block0_sum_group0_block0_sum_0_split
I1105 05:48:52.331161 13031 net.cpp:157] Top shape: 100 16 32 32 (1638400)
I1105 05:48:52.331174 13031 net.cpp:157] Top shape: 100 16 32 32 (1638400)
I1105 05:48:52.331185 13031 net.cpp:165] Memory required for data: 106087600
I1105 05:48:52.331195 13031 layer_factory.hpp:77] Creating layer group0_block1_conv0
I1105 05:48:52.331228 13031 net.cpp:100] Creating Layer group0_block1_conv0
I1105 05:48:52.331246 13031 net.cpp:434] group0_block1_conv0 <- group0_block0_sum_group0_block0_sum_0_split_0
I1105 05:48:52.331266 13031 net.cpp:408] group0_block1_conv0 -> group0_block1_conv0
I1105 05:48:52.331377 13031 net.cpp:150] Setting up group0_block1_conv0
I1105 05:48:52.331399 13031 net.cpp:157] Top shape: 100 16 32 32 (1638400)
I1105 05:48:52.331411 13031 net.cpp:165] Memory required for data: 112641200
I1105 05:48:52.331429 13031 layer_factory.hpp:77] Creating layer group0_block1_conv0_bn
I1105 05:48:52.331449 13031 net.cpp:100] Creating Layer group0_block1_conv0_bn
I1105 05:48:52.331466 13031 net.cpp:434] group0_block1_conv0_bn <- group0_block1_conv0
I1105 05:48:52.331483 13031 net.cpp:395] group0_block1_conv0_bn -> group0_block1_conv0 (in-place)
I1105 05:48:52.331522 13031 net.cpp:150] Setting up group0_block1_conv0_bn
I1105 05:48:52.331544 13031 net.cpp:157] Top shape: 100 16 32 32 (1638400)
I1105 05:48:52.331555 13031 net.cpp:165] Memory required for data: 119194800
I1105 05:48:52.331574 13031 layer_factory.hpp:77] Creating layer group0_block1_conv0_scale
I1105 05:48:52.331598 13031 net.cpp:100] Creating Layer group0_block1_conv0_scale
I1105 05:48:52.331610 13031 net.cpp:434] group0_block1_conv0_scale <- group0_block1_conv0
I1105 05:48:52.331626 13031 net.cpp:395] group0_block1_conv0_scale -> group0_block1_conv0 (in-place)
I1105 05:48:52.331651 13031 layer_factory.hpp:77] Creating layer group0_block1_conv0_scale
I1105 05:48:52.331697 13031 net.cpp:150] Setting up group0_block1_conv0_scale
I1105 05:48:52.331714 13031 net.cpp:157] Top shape: 100 16 32 32 (1638400)
I1105 05:48:52.331725 13031 net.cpp:165] Memory required for data: 125748400
I1105 05:48:52.331743 13031 layer_factory.hpp:77] Creating layer group0_block1_conv0_relu
I1105 05:48:52.331763 13031 net.cpp:100] Creating Layer group0_block1_conv0_relu
I1105 05:48:52.331776 13031 net.cpp:434] group0_block1_conv0_relu <- group0_block1_conv0
I1105 05:48:52.331791 13031 net.cpp:395] group0_block1_conv0_relu -> group0_block1_conv0 (in-place)
I1105 05:48:52.331809 13031 net.cpp:150] Setting up group0_block1_conv0_relu
I1105 05:48:52.331823 13031 net.cpp:157] Top shape: 100 16 32 32 (1638400)
I1105 05:48:52.331835 13031 net.cpp:165] Memory required for data: 132302000
I1105 05:48:52.331846 13031 layer_factory.hpp:77] Creating layer group0_block1_conv1
I1105 05:48:52.331871 13031 net.cpp:100] Creating Layer group0_block1_conv1
I1105 05:48:52.331883 13031 net.cpp:434] group0_block1_conv1 <- group0_block1_conv0
I1105 05:48:52.331902 13031 net.cpp:408] group0_block1_conv1 -> group0_block1_conv1
I1105 05:48:52.332003 13031 net.cpp:150] Setting up group0_block1_conv1
I1105 05:48:52.332021 13031 net.cpp:157] Top shape: 100 16 32 32 (1638400)
I1105 05:48:52.332032 13031 net.cpp:165] Memory required for data: 138855600
I1105 05:48:52.332049 13031 layer_factory.hpp:77] Creating layer group0_block1_conv1_bn
I1105 05:48:52.332067 13031 net.cpp:100] Creating Layer group0_block1_conv1_bn
I1105 05:48:52.332078 13031 net.cpp:434] group0_block1_conv1_bn <- group0_block1_conv1
I1105 05:48:52.332099 13031 net.cpp:395] group0_block1_conv1_bn -> group0_block1_conv1 (in-place)
I1105 05:48:52.332144 13031 net.cpp:150] Setting up group0_block1_conv1_bn
I1105 05:48:52.332160 13031 net.cpp:157] Top shape: 100 16 32 32 (1638400)
I1105 05:48:52.332172 13031 net.cpp:165] Memory required for data: 145409200
I1105 05:48:52.332224 13031 layer_factory.hpp:77] Creating layer group0_block1_conv1_scale
I1105 05:48:52.332253 13031 net.cpp:100] Creating Layer group0_block1_conv1_scale
I1105 05:48:52.332275 13031 net.cpp:434] group0_block1_conv1_scale <- group0_block1_conv1
I1105 05:48:52.332294 13031 net.cpp:395] group0_block1_conv1_scale -> group0_block1_conv1 (in-place)
I1105 05:48:52.332325 13031 layer_factory.hpp:77] Creating layer group0_block1_conv1_scale
I1105 05:48:52.332370 13031 net.cpp:150] Setting up group0_block1_conv1_scale
I1105 05:48:52.332386 13031 net.cpp:157] Top shape: 100 16 32 32 (1638400)
I1105 05:48:52.332397 13031 net.cpp:165] Memory required for data: 151962800
I1105 05:48:52.332413 13031 layer_factory.hpp:77] Creating layer group0_block1_sum
I1105 05:48:52.332429 13031 net.cpp:100] Creating Layer group0_block1_sum
I1105 05:48:52.332442 13031 net.cpp:434] group0_block1_sum <- group0_block1_conv1
I1105 05:48:52.332455 13031 net.cpp:434] group0_block1_sum <- group0_block0_sum_group0_block0_sum_0_split_1
I1105 05:48:52.332471 13031 net.cpp:408] group0_block1_sum -> group0_block1_sum
I1105 05:48:52.332491 13031 net.cpp:150] Setting up group0_block1_sum
I1105 05:48:52.332507 13031 net.cpp:157] Top shape: 100 16 32 32 (1638400)
I1105 05:48:52.332517 13031 net.cpp:165] Memory required for data: 158516400
I1105 05:48:52.332528 13031 layer_factory.hpp:77] Creating layer group0_block1_sum_group0_block1_sum_0_split
I1105 05:48:52.332547 13031 net.cpp:100] Creating Layer group0_block1_sum_group0_block1_sum_0_split
I1105 05:48:52.332559 13031 net.cpp:434] group0_block1_sum_group0_block1_sum_0_split <- group0_block1_sum
I1105 05:48:52.332576 13031 net.cpp:408] group0_block1_sum_group0_block1_sum_0_split -> group0_block1_sum_group0_block1_sum_0_split_0
I1105 05:48:52.332597 13031 net.cpp:408] group0_block1_sum_group0_block1_sum_0_split -> group0_block1_sum_group0_block1_sum_0_split_1
I1105 05:48:52.332626 13031 net.cpp:150] Setting up group0_block1_sum_group0_block1_sum_0_split
I1105 05:48:52.332643 13031 net.cpp:157] Top shape: 100 16 32 32 (1638400)
I1105 05:48:52.332656 13031 net.cpp:157] Top shape: 100 16 32 32 (1638400)
I1105 05:48:52.332666 13031 net.cpp:165] Memory required for data: 171623600
I1105 05:48:52.332677 13031 layer_factory.hpp:77] Creating layer group0_block2_conv0
I1105 05:48:52.332696 13031 net.cpp:100] Creating Layer group0_block2_conv0
I1105 05:48:52.332708 13031 net.cpp:434] group0_block2_conv0 <- group0_block1_sum_group0_block1_sum_0_split_0
I1105 05:48:52.332726 13031 net.cpp:408] group0_block2_conv0 -> group0_block2_conv0
I1105 05:48:52.332825 13031 net.cpp:150] Setting up group0_block2_conv0
I1105 05:48:52.332842 13031 net.cpp:157] Top shape: 100 16 32 32 (1638400)
I1105 05:48:52.332854 13031 net.cpp:165] Memory required for data: 178177200
I1105 05:48:52.332870 13031 layer_factory.hpp:77] Creating layer group0_block2_conv0_bn
I1105 05:48:52.332890 13031 net.cpp:100] Creating Layer group0_block2_conv0_bn
I1105 05:48:52.332901 13031 net.cpp:434] group0_block2_conv0_bn <- group0_block2_conv0
I1105 05:48:52.332916 13031 net.cpp:395] group0_block2_conv0_bn -> group0_block2_conv0 (in-place)
I1105 05:48:52.332952 13031 net.cpp:150] Setting up group0_block2_conv0_bn
I1105 05:48:52.332972 13031 net.cpp:157] Top shape: 100 16 32 32 (1638400)
I1105 05:48:52.332983 13031 net.cpp:165] Memory required for data: 184730800
I1105 05:48:52.333003 13031 layer_factory.hpp:77] Creating layer group0_block2_conv0_scale
I1105 05:48:52.333022 13031 net.cpp:100] Creating Layer group0_block2_conv0_scale
I1105 05:48:52.333034 13031 net.cpp:434] group0_block2_conv0_scale <- group0_block2_conv0
I1105 05:48:52.333050 13031 net.cpp:395] group0_block2_conv0_scale -> group0_block2_conv0 (in-place)
I1105 05:48:52.333078 13031 layer_factory.hpp:77] Creating layer group0_block2_conv0_scale
I1105 05:48:52.333139 13031 net.cpp:150] Setting up group0_block2_conv0_scale
I1105 05:48:52.333160 13031 net.cpp:157] Top shape: 100 16 32 32 (1638400)
I1105 05:48:52.333171 13031 net.cpp:165] Memory required for data: 191284400
I1105 05:48:52.333211 13031 layer_factory.hpp:77] Creating layer group0_block2_conv0_relu
I1105 05:48:52.333228 13031 net.cpp:100] Creating Layer group0_block2_conv0_relu
I1105 05:48:52.333240 13031 net.cpp:434] group0_block2_conv0_relu <- group0_block2_conv0
I1105 05:48:52.333261 13031 net.cpp:395] group0_block2_conv0_relu -> group0_block2_conv0 (in-place)
I1105 05:48:52.333278 13031 net.cpp:150] Setting up group0_block2_conv0_relu
I1105 05:48:52.333364 13031 net.cpp:157] Top shape: 100 16 32 32 (1638400)
I1105 05:48:52.333381 13031 net.cpp:165] Memory required for data: 197838000
I1105 05:48:52.333395 13031 layer_factory.hpp:77] Creating layer group0_block2_conv1
I1105 05:48:52.333430 13031 net.cpp:100] Creating Layer group0_block2_conv1
I1105 05:48:52.333443 13031 net.cpp:434] group0_block2_conv1 <- group0_block2_conv0
I1105 05:48:52.333473 13031 net.cpp:408] group0_block2_conv1 -> group0_block2_conv1
I1105 05:48:52.333586 13031 net.cpp:150] Setting up group0_block2_conv1
I1105 05:48:52.333606 13031 net.cpp:157] Top shape: 100 16 32 32 (1638400)
I1105 05:48:52.333619 13031 net.cpp:165] Memory required for data: 204391600
I1105 05:48:52.333637 13031 layer_factory.hpp:77] Creating layer group0_block2_conv1_bn
I1105 05:48:52.333662 13031 net.cpp:100] Creating Layer group0_block2_conv1_bn
I1105 05:48:52.333675 13031 net.cpp:434] group0_block2_conv1_bn <- group0_block2_conv1
I1105 05:48:52.333698 13031 net.cpp:395] group0_block2_conv1_bn -> group0_block2_conv1 (in-place)
I1105 05:48:52.333765 13031 net.cpp:150] Setting up group0_block2_conv1_bn
I1105 05:48:52.333788 13031 net.cpp:157] Top shape: 100 16 32 32 (1638400)
I1105 05:48:52.333801 13031 net.cpp:165] Memory required for data: 210945200
I1105 05:48:52.333820 13031 layer_factory.hpp:77] Creating layer group0_block2_conv1_scale
I1105 05:48:52.333838 13031 net.cpp:100] Creating Layer group0_block2_conv1_scale
I1105 05:48:52.333861 13031 net.cpp:434] group0_block2_conv1_scale <- group0_block2_conv1
I1105 05:48:52.333894 13031 net.cpp:395] group0_block2_conv1_scale -> group0_block2_conv1 (in-place)
I1105 05:48:52.333930 13031 layer_factory.hpp:77] Creating layer group0_block2_conv1_scale
I1105 05:48:52.334106 13031 net.cpp:150] Setting up group0_block2_conv1_scale
I1105 05:48:52.334161 13031 net.cpp:157] Top shape: 100 16 32 32 (1638400)
I1105 05:48:52.334180 13031 net.cpp:165] Memory required for data: 217498800
I1105 05:48:52.334202 13031 layer_factory.hpp:77] Creating layer group0_block2_sum
I1105 05:48:52.334245 13031 net.cpp:100] Creating Layer group0_block2_sum
I1105 05:48:52.334264 13031 net.cpp:434] group0_block2_sum <- group0_block2_conv1
I1105 05:48:52.334280 13031 net.cpp:434] group0_block2_sum <- group0_block1_sum_group0_block1_sum_0_split_1
I1105 05:48:52.334305 13031 net.cpp:408] group0_block2_sum -> group0_block2_sum
I1105 05:48:52.334329 13031 net.cpp:150] Setting up group0_block2_sum
I1105 05:48:52.334347 13031 net.cpp:157] Top shape: 100 16 32 32 (1638400)
I1105 05:48:52.334358 13031 net.cpp:165] Memory required for data: 224052400
I1105 05:48:52.334383 13031 layer_factory.hpp:77] Creating layer group0_block2_sum_group0_block2_sum_0_split
I1105 05:48:52.334399 13031 net.cpp:100] Creating Layer group0_block2_sum_group0_block2_sum_0_split
I1105 05:48:52.334414 13031 net.cpp:434] group0_block2_sum_group0_block2_sum_0_split <- group0_block2_sum
I1105 05:48:52.334431 13031 net.cpp:408] group0_block2_sum_group0_block2_sum_0_split -> group0_block2_sum_group0_block2_sum_0_split_0
I1105 05:48:52.334455 13031 net.cpp:408] group0_block2_sum_group0_block2_sum_0_split -> group0_block2_sum_group0_block2_sum_0_split_1
I1105 05:48:52.334477 13031 net.cpp:150] Setting up group0_block2_sum_group0_block2_sum_0_split
I1105 05:48:52.334494 13031 net.cpp:157] Top shape: 100 16 32 32 (1638400)
I1105 05:48:52.334511 13031 net.cpp:157] Top shape: 100 16 32 32 (1638400)
I1105 05:48:52.334522 13031 net.cpp:165] Memory required for data: 237159600
I1105 05:48:52.334535 13031 layer_factory.hpp:77] Creating layer group1_block0_conv0
I1105 05:48:52.334568 13031 net.cpp:100] Creating Layer group1_block0_conv0
I1105 05:48:52.334617 13031 net.cpp:434] group1_block0_conv0 <- group0_block2_sum_group0_block2_sum_0_split_0
I1105 05:48:52.334661 13031 net.cpp:408] group1_block0_conv0 -> group1_block0_conv0
I1105 05:48:52.334949 13031 net.cpp:150] Setting up group1_block0_conv0
I1105 05:48:52.334972 13031 net.cpp:157] Top shape: 100 32 16 16 (819200)
I1105 05:48:52.334985 13031 net.cpp:165] Memory required for data: 240436400
I1105 05:48:52.335005 13031 layer_factory.hpp:77] Creating layer group1_block0_conv0_bn
I1105 05:48:52.335031 13031 net.cpp:100] Creating Layer group1_block0_conv0_bn
I1105 05:48:52.335044 13031 net.cpp:434] group1_block0_conv0_bn <- group1_block0_conv0
I1105 05:48:52.335062 13031 net.cpp:395] group1_block0_conv0_bn -> group1_block0_conv0 (in-place)
I1105 05:48:52.335098 13031 net.cpp:150] Setting up group1_block0_conv0_bn
I1105 05:48:52.335115 13031 net.cpp:157] Top shape: 100 32 16 16 (819200)
I1105 05:48:52.335125 13031 net.cpp:165] Memory required for data: 243713200
I1105 05:48:52.335145 13031 layer_factory.hpp:77] Creating layer group1_block0_conv0_scale
I1105 05:48:52.335196 13031 net.cpp:100] Creating Layer group1_block0_conv0_scale
I1105 05:48:52.335211 13031 net.cpp:434] group1_block0_conv0_scale <- group1_block0_conv0
I1105 05:48:52.335228 13031 net.cpp:395] group1_block0_conv0_scale -> group1_block0_conv0 (in-place)
I1105 05:48:52.335258 13031 layer_factory.hpp:77] Creating layer group1_block0_conv0_scale
I1105 05:48:52.335341 13031 net.cpp:150] Setting up group1_block0_conv0_scale
I1105 05:48:52.335362 13031 net.cpp:157] Top shape: 100 32 16 16 (819200)
I1105 05:48:52.335374 13031 net.cpp:165] Memory required for data: 246990000
I1105 05:48:52.335391 13031 layer_factory.hpp:77] Creating layer group1_block0_conv0_relu
I1105 05:48:52.335412 13031 net.cpp:100] Creating Layer group1_block0_conv0_relu
I1105 05:48:52.335427 13031 net.cpp:434] group1_block0_conv0_relu <- group1_block0_conv0
I1105 05:48:52.335448 13031 net.cpp:395] group1_block0_conv0_relu -> group1_block0_conv0 (in-place)
I1105 05:48:52.335466 13031 net.cpp:150] Setting up group1_block0_conv0_relu
I1105 05:48:52.335482 13031 net.cpp:157] Top shape: 100 32 16 16 (819200)
I1105 05:48:52.335494 13031 net.cpp:165] Memory required for data: 250266800
I1105 05:48:52.335526 13031 layer_factory.hpp:77] Creating layer group1_block0_conv1
I1105 05:48:52.335553 13031 net.cpp:100] Creating Layer group1_block0_conv1
I1105 05:48:52.335568 13031 net.cpp:434] group1_block0_conv1 <- group1_block0_conv0
I1105 05:48:52.335588 13031 net.cpp:408] group1_block0_conv1 -> group1_block0_conv1
I1105 05:48:52.335878 13031 net.cpp:150] Setting up group1_block0_conv1
I1105 05:48:52.335901 13031 net.cpp:157] Top shape: 100 32 16 16 (819200)
I1105 05:48:52.335916 13031 net.cpp:165] Memory required for data: 253543600
I1105 05:48:52.335933 13031 layer_factory.hpp:77] Creating layer group1_block0_conv1_bn
I1105 05:48:52.335973 13031 net.cpp:100] Creating Layer group1_block0_conv1_bn
I1105 05:48:52.335994 13031 net.cpp:434] group1_block0_conv1_bn <- group1_block0_conv1
I1105 05:48:52.336028 13031 net.cpp:395] group1_block0_conv1_bn -> group1_block0_conv1 (in-place)
I1105 05:48:52.336100 13031 net.cpp:150] Setting up group1_block0_conv1_bn
I1105 05:48:52.336122 13031 net.cpp:157] Top shape: 100 32 16 16 (819200)
I1105 05:48:52.336134 13031 net.cpp:165] Memory required for data: 256820400
I1105 05:48:52.336153 13031 layer_factory.hpp:77] Creating layer group1_block0_conv1_scale
I1105 05:48:52.336202 13031 net.cpp:100] Creating Layer group1_block0_conv1_scale
I1105 05:48:52.336261 13031 net.cpp:434] group1_block0_conv1_scale <- group1_block0_conv1
I1105 05:48:52.336282 13031 net.cpp:395] group1_block0_conv1_scale -> group1_block0_conv1 (in-place)
I1105 05:48:52.336318 13031 layer_factory.hpp:77] Creating layer group1_block0_conv1_scale
I1105 05:48:52.336361 13031 net.cpp:150] Setting up group1_block0_conv1_scale
I1105 05:48:52.336383 13031 net.cpp:157] Top shape: 100 32 16 16 (819200)
I1105 05:48:52.336395 13031 net.cpp:165] Memory required for data: 260097200
I1105 05:48:52.336441 13031 layer_factory.hpp:77] Creating layer group1_block0_proj
I1105 05:48:52.336469 13031 net.cpp:100] Creating Layer group1_block0_proj
I1105 05:48:52.336484 13031 net.cpp:434] group1_block0_proj <- group0_block2_sum_group0_block2_sum_0_split_1
I1105 05:48:52.336510 13031 net.cpp:408] group1_block0_proj -> group1_block0_proj
I1105 05:48:52.336603 13031 net.cpp:150] Setting up group1_block0_proj
I1105 05:48:52.336627 13031 net.cpp:157] Top shape: 100 32 16 16 (819200)
I1105 05:48:52.336640 13031 net.cpp:165] Memory required for data: 263374000
I1105 05:48:52.336683 13031 layer_factory.hpp:77] Creating layer group1_block0_proj_bn
I1105 05:48:52.336712 13031 net.cpp:100] Creating Layer group1_block0_proj_bn
I1105 05:48:52.336724 13031 net.cpp:434] group1_block0_proj_bn <- group1_block0_proj
I1105 05:48:52.336740 13031 net.cpp:395] group1_block0_proj_bn -> group1_block0_proj (in-place)
I1105 05:48:52.336779 13031 net.cpp:150] Setting up group1_block0_proj_bn
I1105 05:48:52.336796 13031 net.cpp:157] Top shape: 100 32 16 16 (819200)
I1105 05:48:52.336813 13031 net.cpp:165] Memory required for data: 266650800
I1105 05:48:52.336834 13031 layer_factory.hpp:77] Creating layer group1_block0_proj_scale
I1105 05:48:52.336863 13031 net.cpp:100] Creating Layer group1_block0_proj_scale
I1105 05:48:52.336876 13031 net.cpp:434] group1_block0_proj_scale <- group1_block0_proj
I1105 05:48:52.336894 13031 net.cpp:395] group1_block0_proj_scale -> group1_block0_proj (in-place)
I1105 05:48:52.336920 13031 layer_factory.hpp:77] Creating layer group1_block0_proj_scale
I1105 05:48:52.336961 13031 net.cpp:150] Setting up group1_block0_proj_scale
I1105 05:48:52.336978 13031 net.cpp:157] Top shape: 100 32 16 16 (819200)
I1105 05:48:52.336990 13031 net.cpp:165] Memory required for data: 269927600
I1105 05:48:52.337008 13031 layer_factory.hpp:77] Creating layer group1_block0_sum
I1105 05:48:52.337023 13031 net.cpp:100] Creating Layer group1_block0_sum
I1105 05:48:52.337036 13031 net.cpp:434] group1_block0_sum <- group1_block0_proj
I1105 05:48:52.337049 13031 net.cpp:434] group1_block0_sum <- group1_block0_conv1
I1105 05:48:52.337077 13031 net.cpp:408] group1_block0_sum -> group1_block0_sum
I1105 05:48:52.337098 13031 net.cpp:150] Setting up group1_block0_sum
I1105 05:48:52.337126 13031 net.cpp:157] Top shape: 100 32 16 16 (819200)
I1105 05:48:52.337141 13031 net.cpp:165] Memory required for data: 273204400
I1105 05:48:52.337154 13031 layer_factory.hpp:77] Creating layer group1_block0_sum_group1_block0_sum_0_split
I1105 05:48:52.337170 13031 net.cpp:100] Creating Layer group1_block0_sum_group1_block0_sum_0_split
I1105 05:48:52.337182 13031 net.cpp:434] group1_block0_sum_group1_block0_sum_0_split <- group1_block0_sum
I1105 05:48:52.337199 13031 net.cpp:408] group1_block0_sum_group1_block0_sum_0_split -> group1_block0_sum_group1_block0_sum_0_split_0
I1105 05:48:52.337224 13031 net.cpp:408] group1_block0_sum_group1_block0_sum_0_split -> group1_block0_sum_group1_block0_sum_0_split_1
I1105 05:48:52.337260 13031 net.cpp:150] Setting up group1_block0_sum_group1_block0_sum_0_split
I1105 05:48:52.337280 13031 net.cpp:157] Top shape: 100 32 16 16 (819200)
I1105 05:48:52.337386 13031 net.cpp:157] Top shape: 100 32 16 16 (819200)
I1105 05:48:52.337401 13031 net.cpp:165] Memory required for data: 279758000
I1105 05:48:52.337411 13031 layer_factory.hpp:77] Creating layer group1_block1_conv0
I1105 05:48:52.337429 13031 net.cpp:100] Creating Layer group1_block1_conv0
I1105 05:48:52.337440 13031 net.cpp:434] group1_block1_conv0 <- group1_block0_sum_group1_block0_sum_0_split_0
I1105 05:48:52.337456 13031 net.cpp:408] group1_block1_conv0 -> group1_block1_conv0
I1105 05:48:52.337826 13031 net.cpp:150] Setting up group1_block1_conv0
I1105 05:48:52.337846 13031 net.cpp:157] Top shape: 100 32 16 16 (819200)
I1105 05:48:52.337855 13031 net.cpp:165] Memory required for data: 283034800
I1105 05:48:52.337869 13031 layer_factory.hpp:77] Creating layer group1_block1_conv0_bn
I1105 05:48:52.337920 13031 net.cpp:100] Creating Layer group1_block1_conv0_bn
I1105 05:48:52.337961 13031 net.cpp:434] group1_block1_conv0_bn <- group1_block1_conv0
I1105 05:48:52.337976 13031 net.cpp:395] group1_block1_conv0_bn -> group1_block1_conv0 (in-place)
I1105 05:48:52.338101 13031 net.cpp:150] Setting up group1_block1_conv0_bn
I1105 05:48:52.338119 13031 net.cpp:157] Top shape: 100 32 16 16 (819200)
I1105 05:48:52.338129 13031 net.cpp:165] Memory required for data: 286311600
I1105 05:48:52.338145 13031 layer_factory.hpp:77] Creating layer group1_block1_conv0_scale
I1105 05:48:52.338160 13031 net.cpp:100] Creating Layer group1_block1_conv0_scale
I1105 05:48:52.338173 13031 net.cpp:434] group1_block1_conv0_scale <- group1_block1_conv0
I1105 05:48:52.338213 13031 net.cpp:395] group1_block1_conv0_scale -> group1_block1_conv0 (in-place)
I1105 05:48:52.338277 13031 layer_factory.hpp:77] Creating layer group1_block1_conv0_scale
I1105 05:48:52.338325 13031 net.cpp:150] Setting up group1_block1_conv0_scale
I1105 05:48:52.338342 13031 net.cpp:157] Top shape: 100 32 16 16 (819200)
I1105 05:48:52.338352 13031 net.cpp:165] Memory required for data: 289588400
I1105 05:48:52.338367 13031 layer_factory.hpp:77] Creating layer group1_block1_conv0_relu
I1105 05:48:52.338385 13031 net.cpp:100] Creating Layer group1_block1_conv0_relu
I1105 05:48:52.338397 13031 net.cpp:434] group1_block1_conv0_relu <- group1_block1_conv0
I1105 05:48:52.338416 13031 net.cpp:395] group1_block1_conv0_relu -> group1_block1_conv0 (in-place)
I1105 05:48:52.338439 13031 net.cpp:150] Setting up group1_block1_conv0_relu
I1105 05:48:52.338452 13031 net.cpp:157] Top shape: 100 32 16 16 (819200)
I1105 05:48:52.338466 13031 net.cpp:165] Memory required for data: 292865200
I1105 05:48:52.338476 13031 layer_factory.hpp:77] Creating layer group1_block1_conv1
I1105 05:48:52.338498 13031 net.cpp:100] Creating Layer group1_block1_conv1
I1105 05:48:52.338512 13031 net.cpp:434] group1_block1_conv1 <- group1_block1_conv0
I1105 05:48:52.338532 13031 net.cpp:408] group1_block1_conv1 -> group1_block1_conv1
I1105 05:48:52.338745 13031 net.cpp:150] Setting up group1_block1_conv1
I1105 05:48:52.338763 13031 net.cpp:157] Top shape: 100 32 16 16 (819200)
I1105 05:48:52.338774 13031 net.cpp:165] Memory required for data: 296142000
I1105 05:48:52.338790 13031 layer_factory.hpp:77] Creating layer group1_block1_conv1_bn
I1105 05:48:52.338819 13031 net.cpp:100] Creating Layer group1_block1_conv1_bn
I1105 05:48:52.338830 13031 net.cpp:434] group1_block1_conv1_bn <- group1_block1_conv1
I1105 05:48:52.338852 13031 net.cpp:395] group1_block1_conv1_bn -> group1_block1_conv1 (in-place)
I1105 05:48:52.338888 13031 net.cpp:150] Setting up group1_block1_conv1_bn
I1105 05:48:52.338901 13031 net.cpp:157] Top shape: 100 32 16 16 (819200)
I1105 05:48:52.338910 13031 net.cpp:165] Memory required for data: 299418800
I1105 05:48:52.338927 13031 layer_factory.hpp:77] Creating layer group1_block1_conv1_scale
I1105 05:48:52.338946 13031 net.cpp:100] Creating Layer group1_block1_conv1_scale
I1105 05:48:52.338963 13031 net.cpp:434] group1_block1_conv1_scale <- group1_block1_conv1
I1105 05:48:52.338978 13031 net.cpp:395] group1_block1_conv1_scale -> group1_block1_conv1 (in-place)
I1105 05:48:52.338997 13031 layer_factory.hpp:77] Creating layer group1_block1_conv1_scale
I1105 05:48:52.339035 13031 net.cpp:150] Setting up group1_block1_conv1_scale
I1105 05:48:52.339056 13031 net.cpp:157] Top shape: 100 32 16 16 (819200)
I1105 05:48:52.339066 13031 net.cpp:165] Memory required for data: 302695600
I1105 05:48:52.339079 13031 layer_factory.hpp:77] Creating layer group1_block1_sum
I1105 05:48:52.339098 13031 net.cpp:100] Creating Layer group1_block1_sum
I1105 05:48:52.339108 13031 net.cpp:434] group1_block1_sum <- group1_block1_conv1
I1105 05:48:52.339120 13031 net.cpp:434] group1_block1_sum <- group1_block0_sum_group1_block0_sum_0_split_1
I1105 05:48:52.339136 13031 net.cpp:408] group1_block1_sum -> group1_block1_sum
I1105 05:48:52.339154 13031 net.cpp:150] Setting up group1_block1_sum
I1105 05:48:52.339172 13031 net.cpp:157] Top shape: 100 32 16 16 (819200)
I1105 05:48:52.339187 13031 net.cpp:165] Memory required for data: 305972400
I1105 05:48:52.339227 13031 layer_factory.hpp:77] Creating layer group1_block1_sum_group1_block1_sum_0_split
I1105 05:48:52.339242 13031 net.cpp:100] Creating Layer group1_block1_sum_group1_block1_sum_0_split
I1105 05:48:52.339258 13031 net.cpp:434] group1_block1_sum_group1_block1_sum_0_split <- group1_block1_sum
I1105 05:48:52.339272 13031 net.cpp:408] group1_block1_sum_group1_block1_sum_0_split -> group1_block1_sum_group1_block1_sum_0_split_0
I1105 05:48:52.339293 13031 net.cpp:408] group1_block1_sum_group1_block1_sum_0_split -> group1_block1_sum_group1_block1_sum_0_split_1
I1105 05:48:52.339324 13031 net.cpp:150] Setting up group1_block1_sum_group1_block1_sum_0_split
I1105 05:48:52.339339 13031 net.cpp:157] Top shape: 100 32 16 16 (819200)
I1105 05:48:52.339350 13031 net.cpp:157] Top shape: 100 32 16 16 (819200)
I1105 05:48:52.339366 13031 net.cpp:165] Memory required for data: 312526000
I1105 05:48:52.339375 13031 layer_factory.hpp:77] Creating layer group1_block2_conv0
I1105 05:48:52.339395 13031 net.cpp:100] Creating Layer group1_block2_conv0
I1105 05:48:52.339406 13031 net.cpp:434] group1_block2_conv0 <- group1_block1_sum_group1_block1_sum_0_split_0
I1105 05:48:52.339422 13031 net.cpp:408] group1_block2_conv0 -> group1_block2_conv0
I1105 05:48:52.339659 13031 net.cpp:150] Setting up group1_block2_conv0
I1105 05:48:52.339694 13031 net.cpp:157] Top shape: 100 32 16 16 (819200)
I1105 05:48:52.339706 13031 net.cpp:165] Memory required for data: 315802800
I1105 05:48:52.339723 13031 layer_factory.hpp:77] Creating layer group1_block2_conv0_bn
I1105 05:48:52.339740 13031 net.cpp:100] Creating Layer group1_block2_conv0_bn
I1105 05:48:52.339752 13031 net.cpp:434] group1_block2_conv0_bn <- group1_block2_conv0
I1105 05:48:52.339772 13031 net.cpp:395] group1_block2_conv0_bn -> group1_block2_conv0 (in-place)
I1105 05:48:52.339813 13031 net.cpp:150] Setting up group1_block2_conv0_bn
I1105 05:48:52.339829 13031 net.cpp:157] Top shape: 100 32 16 16 (819200)
I1105 05:48:52.339838 13031 net.cpp:165] Memory required for data: 319079600
I1105 05:48:52.339856 13031 layer_factory.hpp:77] Creating layer group1_block2_conv0_scale
I1105 05:48:52.339880 13031 net.cpp:100] Creating Layer group1_block2_conv0_scale
I1105 05:48:52.339892 13031 net.cpp:434] group1_block2_conv0_scale <- group1_block2_conv0
I1105 05:48:52.339907 13031 net.cpp:395] group1_block2_conv0_scale -> group1_block2_conv0 (in-place)
I1105 05:48:52.339931 13031 layer_factory.hpp:77] Creating layer group1_block2_conv0_scale
I1105 05:48:52.339972 13031 net.cpp:150] Setting up group1_block2_conv0_scale
I1105 05:48:52.339989 13031 net.cpp:157] Top shape: 100 32 16 16 (819200)
I1105 05:48:52.340003 13031 net.cpp:165] Memory required for data: 322356400
I1105 05:48:52.340018 13031 layer_factory.hpp:77] Creating layer group1_block2_conv0_relu
I1105 05:48:52.340037 13031 net.cpp:100] Creating Layer group1_block2_conv0_relu
I1105 05:48:52.340050 13031 net.cpp:434] group1_block2_conv0_relu <- group1_block2_conv0
I1105 05:48:52.340065 13031 net.cpp:395] group1_block2_conv0_relu -> group1_block2_conv0 (in-place)
I1105 05:48:52.340080 13031 net.cpp:150] Setting up group1_block2_conv0_relu
I1105 05:48:52.340095 13031 net.cpp:157] Top shape: 100 32 16 16 (819200)
I1105 05:48:52.340104 13031 net.cpp:165] Memory required for data: 325633200
I1105 05:48:52.340116 13031 layer_factory.hpp:77] Creating layer group1_block2_conv1
I1105 05:48:52.340138 13031 net.cpp:100] Creating Layer group1_block2_conv1
I1105 05:48:52.340152 13031 net.cpp:434] group1_block2_conv1 <- group1_block2_conv0
I1105 05:48:52.340171 13031 net.cpp:408] group1_block2_conv1 -> group1_block2_conv1
I1105 05:48:52.340395 13031 net.cpp:150] Setting up group1_block2_conv1
I1105 05:48:52.340415 13031 net.cpp:157] Top shape: 100 32 16 16 (819200)
I1105 05:48:52.340426 13031 net.cpp:165] Memory required for data: 328910000
I1105 05:48:52.340441 13031 layer_factory.hpp:77] Creating layer group1_block2_conv1_bn
I1105 05:48:52.340457 13031 net.cpp:100] Creating Layer group1_block2_conv1_bn
I1105 05:48:52.340497 13031 net.cpp:434] group1_block2_conv1_bn <- group1_block2_conv1
I1105 05:48:52.340519 13031 net.cpp:395] group1_block2_conv1_bn -> group1_block2_conv1 (in-place)
I1105 05:48:52.340554 13031 net.cpp:150] Setting up group1_block2_conv1_bn
I1105 05:48:52.340569 13031 net.cpp:157] Top shape: 100 32 16 16 (819200)
I1105 05:48:52.340579 13031 net.cpp:165] Memory required for data: 332186800
I1105 05:48:52.340596 13031 layer_factory.hpp:77] Creating layer group1_block2_conv1_scale
I1105 05:48:52.340616 13031 net.cpp:100] Creating Layer group1_block2_conv1_scale
I1105 05:48:52.340628 13031 net.cpp:434] group1_block2_conv1_scale <- group1_block2_conv1
I1105 05:48:52.340642 13031 net.cpp:395] group1_block2_conv1_scale -> group1_block2_conv1 (in-place)
I1105 05:48:52.340670 13031 layer_factory.hpp:77] Creating layer group1_block2_conv1_scale
I1105 05:48:52.340708 13031 net.cpp:150] Setting up group1_block2_conv1_scale
I1105 05:48:52.340724 13031 net.cpp:157] Top shape: 100 32 16 16 (819200)
I1105 05:48:52.340737 13031 net.cpp:165] Memory required for data: 335463600
I1105 05:48:52.340754 13031 layer_factory.hpp:77] Creating layer group1_block2_sum
I1105 05:48:52.340780 13031 net.cpp:100] Creating Layer group1_block2_sum
I1105 05:48:52.340793 13031 net.cpp:434] group1_block2_sum <- group1_block2_conv1
I1105 05:48:52.340806 13031 net.cpp:434] group1_block2_sum <- group1_block1_sum_group1_block1_sum_0_split_1
I1105 05:48:52.340826 13031 net.cpp:408] group1_block2_sum -> group1_block2_sum
I1105 05:48:52.340850 13031 net.cpp:150] Setting up group1_block2_sum
I1105 05:48:52.340867 13031 net.cpp:157] Top shape: 100 32 16 16 (819200)
I1105 05:48:52.340876 13031 net.cpp:165] Memory required for data: 338740400
I1105 05:48:52.340886 13031 layer_factory.hpp:77] Creating layer group1_block2_sum_group1_block2_sum_0_split
I1105 05:48:52.340901 13031 net.cpp:100] Creating Layer group1_block2_sum_group1_block2_sum_0_split
I1105 05:48:52.340916 13031 net.cpp:434] group1_block2_sum_group1_block2_sum_0_split <- group1_block2_sum
I1105 05:48:52.340939 13031 net.cpp:408] group1_block2_sum_group1_block2_sum_0_split -> group1_block2_sum_group1_block2_sum_0_split_0
I1105 05:48:52.340958 13031 net.cpp:408] group1_block2_sum_group1_block2_sum_0_split -> group1_block2_sum_group1_block2_sum_0_split_1
I1105 05:48:52.340977 13031 net.cpp:150] Setting up group1_block2_sum_group1_block2_sum_0_split
I1105 05:48:52.340992 13031 net.cpp:157] Top shape: 100 32 16 16 (819200)
I1105 05:48:52.341006 13031 net.cpp:157] Top shape: 100 32 16 16 (819200)
I1105 05:48:52.341015 13031 net.cpp:165] Memory required for data: 345294000
I1105 05:48:52.341027 13031 layer_factory.hpp:77] Creating layer group2_block0_conv0
I1105 05:48:52.341075 13031 net.cpp:100] Creating Layer group2_block0_conv0
I1105 05:48:52.341094 13031 net.cpp:434] group2_block0_conv0 <- group1_block2_sum_group1_block2_sum_0_split_0
I1105 05:48:52.341112 13031 net.cpp:408] group2_block0_conv0 -> group2_block0_conv0
I1105 05:48:52.341536 13031 net.cpp:150] Setting up group2_block0_conv0
I1105 05:48:52.341558 13031 net.cpp:157] Top shape: 100 64 8 8 (409600)
I1105 05:48:52.341570 13031 net.cpp:165] Memory required for data: 346932400
I1105 05:48:52.341588 13031 layer_factory.hpp:77] Creating layer group2_block0_conv0_bn
I1105 05:48:52.341612 13031 net.cpp:100] Creating Layer group2_block0_conv0_bn
I1105 05:48:52.341629 13031 net.cpp:434] group2_block0_conv0_bn <- group2_block0_conv0
I1105 05:48:52.341645 13031 net.cpp:395] group2_block0_conv0_bn -> group2_block0_conv0 (in-place)
I1105 05:48:52.341681 13031 net.cpp:150] Setting up group2_block0_conv0_bn
I1105 05:48:52.341697 13031 net.cpp:157] Top shape: 100 64 8 8 (409600)
I1105 05:48:52.341707 13031 net.cpp:165] Memory required for data: 348570800
I1105 05:48:52.341727 13031 layer_factory.hpp:77] Creating layer group2_block0_conv0_scale
I1105 05:48:52.341749 13031 net.cpp:100] Creating Layer group2_block0_conv0_scale
I1105 05:48:52.341763 13031 net.cpp:434] group2_block0_conv0_scale <- group2_block0_conv0
I1105 05:48:52.341784 13031 net.cpp:395] group2_block0_conv0_scale -> group2_block0_conv0 (in-place)
I1105 05:48:52.341836 13031 layer_factory.hpp:77] Creating layer group2_block0_conv0_scale
I1105 05:48:52.341876 13031 net.cpp:150] Setting up group2_block0_conv0_scale
I1105 05:48:52.341892 13031 net.cpp:157] Top shape: 100 64 8 8 (409600)
I1105 05:48:52.341904 13031 net.cpp:165] Memory required for data: 350209200
I1105 05:48:52.341919 13031 layer_factory.hpp:77] Creating layer group2_block0_conv0_relu
I1105 05:48:52.341936 13031 net.cpp:100] Creating Layer group2_block0_conv0_relu
I1105 05:48:52.341948 13031 net.cpp:434] group2_block0_conv0_relu <- group2_block0_conv0
I1105 05:48:52.341967 13031 net.cpp:395] group2_block0_conv0_relu -> group2_block0_conv0 (in-place)
I1105 05:48:52.341985 13031 net.cpp:150] Setting up group2_block0_conv0_relu
I1105 05:48:52.342000 13031 net.cpp:157] Top shape: 100 64 8 8 (409600)
I1105 05:48:52.342010 13031 net.cpp:165] Memory required for data: 351847600
I1105 05:48:52.342021 13031 layer_factory.hpp:77] Creating layer group2_block0_conv1
I1105 05:48:52.342046 13031 net.cpp:100] Creating Layer group2_block0_conv1
I1105 05:48:52.342058 13031 net.cpp:434] group2_block0_conv1 <- group2_block0_conv0
I1105 05:48:52.342077 13031 net.cpp:408] group2_block0_conv1 -> group2_block0_conv1
I1105 05:48:52.342885 13031 net.cpp:150] Setting up group2_block0_conv1
I1105 05:48:52.342907 13031 net.cpp:157] Top shape: 100 64 8 8 (409600)
I1105 05:48:52.342919 13031 net.cpp:165] Memory required for data: 353486000
I1105 05:48:52.342936 13031 layer_factory.hpp:77] Creating layer group2_block0_conv1_bn
I1105 05:48:52.342962 13031 net.cpp:100] Creating Layer group2_block0_conv1_bn
I1105 05:48:52.342979 13031 net.cpp:434] group2_block0_conv1_bn <- group2_block0_conv1
I1105 05:48:52.342996 13031 net.cpp:395] group2_block0_conv1_bn -> group2_block0_conv1 (in-place)
I1105 05:48:52.343032 13031 net.cpp:150] Setting up group2_block0_conv1_bn
I1105 05:48:52.343050 13031 net.cpp:157] Top shape: 100 64 8 8 (409600)
I1105 05:48:52.343060 13031 net.cpp:165] Memory required for data: 355124400
I1105 05:48:52.343080 13031 layer_factory.hpp:77] Creating layer group2_block0_conv1_scale
I1105 05:48:52.343096 13031 net.cpp:100] Creating Layer group2_block0_conv1_scale
I1105 05:48:52.343108 13031 net.cpp:434] group2_block0_conv1_scale <- group2_block0_conv1
I1105 05:48:52.343128 13031 net.cpp:395] group2_block0_conv1_scale -> group2_block0_conv1 (in-place)
I1105 05:48:52.343154 13031 layer_factory.hpp:77] Creating layer group2_block0_conv1_scale
I1105 05:48:52.343189 13031 net.cpp:150] Setting up group2_block0_conv1_scale
I1105 05:48:52.343206 13031 net.cpp:157] Top shape: 100 64 8 8 (409600)
I1105 05:48:52.343221 13031 net.cpp:165] Memory required for data: 356762800
I1105 05:48:52.343240 13031 layer_factory.hpp:77] Creating layer group2_block0_proj
I1105 05:48:52.343258 13031 net.cpp:100] Creating Layer group2_block0_proj
I1105 05:48:52.343271 13031 net.cpp:434] group2_block0_proj <- group1_block2_sum_group1_block2_sum_0_split_1
I1105 05:48:52.343298 13031 net.cpp:408] group2_block0_proj -> group2_block0_proj
I1105 05:48:52.343493 13031 net.cpp:150] Setting up group2_block0_proj
I1105 05:48:52.343514 13031 net.cpp:157] Top shape: 100 64 8 8 (409600)
I1105 05:48:52.343526 13031 net.cpp:165] Memory required for data: 358401200
I1105 05:48:52.343544 13031 layer_factory.hpp:77] Creating layer group2_block0_proj_bn
I1105 05:48:52.343569 13031 net.cpp:100] Creating Layer group2_block0_proj_bn
I1105 05:48:52.343585 13031 net.cpp:434] group2_block0_proj_bn <- group2_block0_proj
I1105 05:48:52.343605 13031 net.cpp:395] group2_block0_proj_bn -> group2_block0_proj (in-place)
I1105 05:48:52.343643 13031 net.cpp:150] Setting up group2_block0_proj_bn
I1105 05:48:52.343659 13031 net.cpp:157] Top shape: 100 64 8 8 (409600)
I1105 05:48:52.343674 13031 net.cpp:165] Memory required for data: 360039600
I1105 05:48:52.343693 13031 layer_factory.hpp:77] Creating layer group2_block0_proj_scale
I1105 05:48:52.343709 13031 net.cpp:100] Creating Layer group2_block0_proj_scale
I1105 05:48:52.343749 13031 net.cpp:434] group2_block0_proj_scale <- group2_block0_proj
I1105 05:48:52.343771 13031 net.cpp:395] group2_block0_proj_scale -> group2_block0_proj (in-place)
I1105 05:48:52.343802 13031 layer_factory.hpp:77] Creating layer group2_block0_proj_scale
I1105 05:48:52.343847 13031 net.cpp:150] Setting up group2_block0_proj_scale
I1105 05:48:52.343870 13031 net.cpp:157] Top shape: 100 64 8 8 (409600)
I1105 05:48:52.343883 13031 net.cpp:165] Memory required for data: 361678000
I1105 05:48:52.343899 13031 layer_factory.hpp:77] Creating layer group2_block0_sum
I1105 05:48:52.343916 13031 net.cpp:100] Creating Layer group2_block0_sum
I1105 05:48:52.343933 13031 net.cpp:434] group2_block0_sum <- group2_block0_proj
I1105 05:48:52.343947 13031 net.cpp:434] group2_block0_sum <- group2_block0_conv1
I1105 05:48:52.343964 13031 net.cpp:408] group2_block0_sum -> group2_block0_sum
I1105 05:48:52.343991 13031 net.cpp:150] Setting up group2_block0_sum
I1105 05:48:52.344008 13031 net.cpp:157] Top shape: 100 64 8 8 (409600)
I1105 05:48:52.344020 13031 net.cpp:165] Memory required for data: 363316400
I1105 05:48:52.344032 13031 layer_factory.hpp:77] Creating layer group2_block0_sum_group2_block0_sum_0_split
I1105 05:48:52.344048 13031 net.cpp:100] Creating Layer group2_block0_sum_group2_block0_sum_0_split
I1105 05:48:52.344059 13031 net.cpp:434] group2_block0_sum_group2_block0_sum_0_split <- group2_block0_sum
I1105 05:48:52.344080 13031 net.cpp:408] group2_block0_sum_group2_block0_sum_0_split -> group2_block0_sum_group2_block0_sum_0_split_0
I1105 05:48:52.344102 13031 net.cpp:408] group2_block0_sum_group2_block0_sum_0_split -> group2_block0_sum_group2_block0_sum_0_split_1
I1105 05:48:52.344125 13031 net.cpp:150] Setting up group2_block0_sum_group2_block0_sum_0_split
I1105 05:48:52.344141 13031 net.cpp:157] Top shape: 100 64 8 8 (409600)
I1105 05:48:52.344154 13031 net.cpp:157] Top shape: 100 64 8 8 (409600)
I1105 05:48:52.344166 13031 net.cpp:165] Memory required for data: 366593200
I1105 05:48:52.344177 13031 layer_factory.hpp:77] Creating layer group2_block1_conv0
I1105 05:48:52.344202 13031 net.cpp:100] Creating Layer group2_block1_conv0
I1105 05:48:52.344216 13031 net.cpp:434] group2_block1_conv0 <- group2_block0_sum_group2_block0_sum_0_split_0
I1105 05:48:52.344240 13031 net.cpp:408] group2_block1_conv0 -> group2_block1_conv0
I1105 05:48:52.345057 13031 net.cpp:150] Setting up group2_block1_conv0
I1105 05:48:52.345088 13031 net.cpp:157] Top shape: 100 64 8 8 (409600)
I1105 05:48:52.345103 13031 net.cpp:165] Memory required for data: 368231600
I1105 05:48:52.345121 13031 layer_factory.hpp:77] Creating layer group2_block1_conv0_bn
I1105 05:48:52.345137 13031 net.cpp:100] Creating Layer group2_block1_conv0_bn
I1105 05:48:52.345150 13031 net.cpp:434] group2_block1_conv0_bn <- group2_block1_conv0
I1105 05:48:52.345171 13031 net.cpp:395] group2_block1_conv0_bn -> group2_block1_conv0 (in-place)
I1105 05:48:52.345203 13031 net.cpp:150] Setting up group2_block1_conv0_bn
I1105 05:48:52.345221 13031 net.cpp:157] Top shape: 100 64 8 8 (409600)
I1105 05:48:52.345230 13031 net.cpp:165] Memory required for data: 369870000
I1105 05:48:52.345249 13031 layer_factory.hpp:77] Creating layer group2_block1_conv0_scale
I1105 05:48:52.345265 13031 net.cpp:100] Creating Layer group2_block1_conv0_scale
I1105 05:48:52.345278 13031 net.cpp:434] group2_block1_conv0_scale <- group2_block1_conv0
I1105 05:48:52.345468 13031 net.cpp:395] group2_block1_conv0_scale -> group2_block1_conv0 (in-place)
I1105 05:48:52.345548 13031 layer_factory.hpp:77] Creating layer group2_block1_conv0_scale
I1105 05:48:52.345635 13031 net.cpp:150] Setting up group2_block1_conv0_scale
I1105 05:48:52.345657 13031 net.cpp:157] Top shape: 100 64 8 8 (409600)
I1105 05:48:52.345669 13031 net.cpp:165] Memory required for data: 371508400
I1105 05:48:52.345682 13031 layer_factory.hpp:77] Creating layer group2_block1_conv0_relu
I1105 05:48:52.345703 13031 net.cpp:100] Creating Layer group2_block1_conv0_relu
I1105 05:48:52.345715 13031 net.cpp:434] group2_block1_conv0_relu <- group2_block1_conv0
I1105 05:48:52.345757 13031 net.cpp:395] group2_block1_conv0_relu -> group2_block1_conv0 (in-place)
I1105 05:48:52.345772 13031 net.cpp:150] Setting up group2_block1_conv0_relu
I1105 05:48:52.345785 13031 net.cpp:157] Top shape: 100 64 8 8 (409600)
I1105 05:48:52.345795 13031 net.cpp:165] Memory required for data: 373146800
I1105 05:48:52.345816 13031 layer_factory.hpp:77] Creating layer group2_block1_conv1
I1105 05:48:52.345834 13031 net.cpp:100] Creating Layer group2_block1_conv1
I1105 05:48:52.345849 13031 net.cpp:434] group2_block1_conv1 <- group2_block1_conv0
I1105 05:48:52.345867 13031 net.cpp:408] group2_block1_conv1 -> group2_block1_conv1
I1105 05:48:52.346602 13031 net.cpp:150] Setting up group2_block1_conv1
I1105 05:48:52.346619 13031 net.cpp:157] Top shape: 100 64 8 8 (409600)
I1105 05:48:52.346628 13031 net.cpp:165] Memory required for data: 374785200
I1105 05:48:52.346642 13031 layer_factory.hpp:77] Creating layer group2_block1_conv1_bn
I1105 05:48:52.346660 13031 net.cpp:100] Creating Layer group2_block1_conv1_bn
I1105 05:48:52.346673 13031 net.cpp:434] group2_block1_conv1_bn <- group2_block1_conv1
I1105 05:48:52.346693 13031 net.cpp:395] group2_block1_conv1_bn -> group2_block1_conv1 (in-place)
I1105 05:48:52.346719 13031 net.cpp:150] Setting up group2_block1_conv1_bn
I1105 05:48:52.346735 13031 net.cpp:157] Top shape: 100 64 8 8 (409600)
I1105 05:48:52.346741 13031 net.cpp:165] Memory required for data: 376423600
I1105 05:48:52.346776 13031 layer_factory.hpp:77] Creating layer group2_block1_conv1_scale
I1105 05:48:52.346796 13031 net.cpp:100] Creating Layer group2_block1_conv1_scale
I1105 05:48:52.346804 13031 net.cpp:434] group2_block1_conv1_scale <- group2_block1_conv1
I1105 05:48:52.346815 13031 net.cpp:395] group2_block1_conv1_scale -> group2_block1_conv1 (in-place)
I1105 05:48:52.346834 13031 layer_factory.hpp:77] Creating layer group2_block1_conv1_scale
I1105 05:48:52.346856 13031 net.cpp:150] Setting up group2_block1_conv1_scale
I1105 05:48:52.346868 13031 net.cpp:157] Top shape: 100 64 8 8 (409600)
I1105 05:48:52.346874 13031 net.cpp:165] Memory required for data: 378062000
I1105 05:48:52.346886 13031 layer_factory.hpp:77] Creating layer group2_block1_sum
I1105 05:48:52.346904 13031 net.cpp:100] Creating Layer group2_block1_sum
I1105 05:48:52.346913 13031 net.cpp:434] group2_block1_sum <- group2_block1_conv1
I1105 05:48:52.346923 13031 net.cpp:434] group2_block1_sum <- group2_block0_sum_group2_block0_sum_0_split_1
I1105 05:48:52.346940 13031 net.cpp:408] group2_block1_sum -> group2_block1_sum
I1105 05:48:52.346956 13031 net.cpp:150] Setting up group2_block1_sum
I1105 05:48:52.346972 13031 net.cpp:157] Top shape: 100 64 8 8 (409600)
I1105 05:48:52.346982 13031 net.cpp:165] Memory required for data: 379700400
I1105 05:48:52.346988 13031 layer_factory.hpp:77] Creating layer group2_block1_sum_group2_block1_sum_0_split
I1105 05:48:52.346999 13031 net.cpp:100] Creating Layer group2_block1_sum_group2_block1_sum_0_split
I1105 05:48:52.347008 13031 net.cpp:434] group2_block1_sum_group2_block1_sum_0_split <- group2_block1_sum
I1105 05:48:52.347025 13031 net.cpp:408] group2_block1_sum_group2_block1_sum_0_split -> group2_block1_sum_group2_block1_sum_0_split_0
I1105 05:48:52.347040 13031 net.cpp:408] group2_block1_sum_group2_block1_sum_0_split -> group2_block1_sum_group2_block1_sum_0_split_1
I1105 05:48:52.347054 13031 net.cpp:150] Setting up group2_block1_sum_group2_block1_sum_0_split
I1105 05:48:52.347065 13031 net.cpp:157] Top shape: 100 64 8 8 (409600)
I1105 05:48:52.347074 13031 net.cpp:157] Top shape: 100 64 8 8 (409600)
I1105 05:48:52.347081 13031 net.cpp:165] Memory required for data: 382977200
I1105 05:48:52.347090 13031 layer_factory.hpp:77] Creating layer group2_block2_conv0
I1105 05:48:52.347103 13031 net.cpp:100] Creating Layer group2_block2_conv0
I1105 05:48:52.347112 13031 net.cpp:434] group2_block2_conv0 <- group2_block1_sum_group2_block1_sum_0_split_0
I1105 05:48:52.347131 13031 net.cpp:408] group2_block2_conv0 -> group2_block2_conv0
I1105 05:48:52.347827 13031 net.cpp:150] Setting up group2_block2_conv0
I1105 05:48:52.347868 13031 net.cpp:157] Top shape: 100 64 8 8 (409600)
I1105 05:48:52.347877 13031 net.cpp:165] Memory required for data: 384615600
I1105 05:48:52.347889 13031 layer_factory.hpp:77] Creating layer group2_block2_conv0_bn
I1105 05:48:52.347908 13031 net.cpp:100] Creating Layer group2_block2_conv0_bn
I1105 05:48:52.347928 13031 net.cpp:434] group2_block2_conv0_bn <- group2_block2_conv0
I1105 05:48:52.347944 13031 net.cpp:395] group2_block2_conv0_bn -> group2_block2_conv0 (in-place)
I1105 05:48:52.347985 13031 net.cpp:150] Setting up group2_block2_conv0_bn
I1105 05:48:52.347997 13031 net.cpp:157] Top shape: 100 64 8 8 (409600)
I1105 05:48:52.348004 13031 net.cpp:165] Memory required for data: 386254000
I1105 05:48:52.348017 13031 layer_factory.hpp:77] Creating layer group2_block2_conv0_scale
I1105 05:48:52.348050 13031 net.cpp:100] Creating Layer group2_block2_conv0_scale
I1105 05:48:52.348060 13031 net.cpp:434] group2_block2_conv0_scale <- group2_block2_conv0
I1105 05:48:52.348073 13031 net.cpp:395] group2_block2_conv0_scale -> group2_block2_conv0 (in-place)
I1105 05:48:52.348091 13031 layer_factory.hpp:77] Creating layer group2_block2_conv0_scale
I1105 05:48:52.348119 13031 net.cpp:150] Setting up group2_block2_conv0_scale
I1105 05:48:52.348134 13031 net.cpp:157] Top shape: 100 64 8 8 (409600)
I1105 05:48:52.348141 13031 net.cpp:165] Memory required for data: 387892400
I1105 05:48:52.348155 13031 layer_factory.hpp:77] Creating layer group2_block2_conv0_relu
I1105 05:48:52.348167 13031 net.cpp:100] Creating Layer group2_block2_conv0_relu
I1105 05:48:52.348179 13031 net.cpp:434] group2_block2_conv0_relu <- group2_block2_conv0
I1105 05:48:52.348192 13031 net.cpp:395] group2_block2_conv0_relu -> group2_block2_conv0 (in-place)
I1105 05:48:52.348204 13031 net.cpp:150] Setting up group2_block2_conv0_relu
I1105 05:48:52.348214 13031 net.cpp:157] Top shape: 100 64 8 8 (409600)
I1105 05:48:52.348222 13031 net.cpp:165] Memory required for data: 389530800
I1105 05:48:52.348229 13031 layer_factory.hpp:77] Creating layer group2_block2_conv1
I1105 05:48:52.348248 13031 net.cpp:100] Creating Layer group2_block2_conv1
I1105 05:48:52.348258 13031 net.cpp:434] group2_block2_conv1 <- group2_block2_conv0
I1105 05:48:52.348270 13031 net.cpp:408] group2_block2_conv1 -> group2_block2_conv1
I1105 05:48:52.351028 13031 net.cpp:150] Setting up group2_block2_conv1
I1105 05:48:52.351061 13031 net.cpp:157] Top shape: 100 64 8 8 (409600)
I1105 05:48:52.351069 13031 net.cpp:165] Memory required for data: 391169200
I1105 05:48:52.351084 13031 layer_factory.hpp:77] Creating layer group2_block2_conv1_bn
I1105 05:48:52.351099 13031 net.cpp:100] Creating Layer group2_block2_conv1_bn
I1105 05:48:52.351109 13031 net.cpp:434] group2_block2_conv1_bn <- group2_block2_conv1
I1105 05:48:52.351120 13031 net.cpp:395] group2_block2_conv1_bn -> group2_block2_conv1 (in-place)
I1105 05:48:52.351146 13031 net.cpp:150] Setting up group2_block2_conv1_bn
I1105 05:48:52.351167 13031 net.cpp:157] Top shape: 100 64 8 8 (409600)
I1105 05:48:52.351174 13031 net.cpp:165] Memory required for data: 392807600
I1105 05:48:52.351187 13031 layer_factory.hpp:77] Creating layer group2_block2_conv1_scale
I1105 05:48:52.351199 13031 net.cpp:100] Creating Layer group2_block2_conv1_scale
I1105 05:48:52.351207 13031 net.cpp:434] group2_block2_conv1_scale <- group2_block2_conv1
I1105 05:48:52.351217 13031 net.cpp:395] group2_block2_conv1_scale -> group2_block2_conv1 (in-place)
I1105 05:48:52.351233 13031 layer_factory.hpp:77] Creating layer group2_block2_conv1_scale
I1105 05:48:52.351261 13031 net.cpp:150] Setting up group2_block2_conv1_scale
I1105 05:48:52.351272 13031 net.cpp:157] Top shape: 100 64 8 8 (409600)
I1105 05:48:52.351279 13031 net.cpp:165] Memory required for data: 394446000
I1105 05:48:52.351289 13031 layer_factory.hpp:77] Creating layer group2_block2_sum
I1105 05:48:52.351305 13031 net.cpp:100] Creating Layer group2_block2_sum
I1105 05:48:52.351315 13031 net.cpp:434] group2_block2_sum <- group2_block2_conv1
I1105 05:48:52.351323 13031 net.cpp:434] group2_block2_sum <- group2_block1_sum_group2_block1_sum_0_split_1
I1105 05:48:52.351377 13031 net.cpp:408] group2_block2_sum -> group2_block2_sum
I1105 05:48:52.351393 13031 net.cpp:150] Setting up group2_block2_sum
I1105 05:48:52.351407 13031 net.cpp:157] Top shape: 100 64 8 8 (409600)
I1105 05:48:52.351413 13031 net.cpp:165] Memory required for data: 396084400
I1105 05:48:52.351420 13031 layer_factory.hpp:77] Creating layer global_avg_pool
I1105 05:48:52.351433 13031 net.cpp:100] Creating Layer global_avg_pool
I1105 05:48:52.351439 13031 net.cpp:434] global_avg_pool <- group2_block2_sum
I1105 05:48:52.351450 13031 net.cpp:408] global_avg_pool -> global_avg_pool
I1105 05:48:52.351480 13031 net.cpp:150] Setting up global_avg_pool
I1105 05:48:52.351490 13031 net.cpp:157] Top shape: 100 64 1 1 (6400)
I1105 05:48:52.351497 13031 net.cpp:165] Memory required for data: 396110000
I1105 05:48:52.351505 13031 layer_factory.hpp:77] Creating layer fc
I1105 05:48:52.351531 13031 net.cpp:100] Creating Layer fc
I1105 05:48:52.351550 13031 net.cpp:434] fc <- global_avg_pool
I1105 05:48:52.351562 13031 net.cpp:408] fc -> fc
I1105 05:48:52.351603 13031 net.cpp:150] Setting up fc
I1105 05:48:52.351613 13031 net.cpp:157] Top shape: 100 12 (1200)
I1105 05:48:52.351620 13031 net.cpp:165] Memory required for data: 396114800
I1105 05:48:52.351630 13031 layer_factory.hpp:77] Creating layer fc_fc_0_split
I1105 05:48:52.351641 13031 net.cpp:100] Creating Layer fc_fc_0_split
I1105 05:48:52.351649 13031 net.cpp:434] fc_fc_0_split <- fc
I1105 05:48:52.351662 13031 net.cpp:408] fc_fc_0_split -> fc_fc_0_split_0
I1105 05:48:52.351675 13031 net.cpp:408] fc_fc_0_split -> fc_fc_0_split_1
I1105 05:48:52.351687 13031 net.cpp:150] Setting up fc_fc_0_split
I1105 05:48:52.351696 13031 net.cpp:157] Top shape: 100 12 (1200)
I1105 05:48:52.351704 13031 net.cpp:157] Top shape: 100 12 (1200)
I1105 05:48:52.351711 13031 net.cpp:165] Memory required for data: 396124400
I1105 05:48:52.351717 13031 layer_factory.hpp:77] Creating layer loss
I1105 05:48:52.351727 13031 net.cpp:100] Creating Layer loss
I1105 05:48:52.351734 13031 net.cpp:434] loss <- fc_fc_0_split_0
I1105 05:48:52.351744 13031 net.cpp:434] loss <- label_data_1_split_0
I1105 05:48:52.351754 13031 net.cpp:408] loss -> loss
I1105 05:48:52.351770 13031 layer_factory.hpp:77] Creating layer loss
I1105 05:48:52.351809 13031 net.cpp:150] Setting up loss
I1105 05:48:52.351821 13031 net.cpp:157] Top shape: (1)
I1105 05:48:52.351827 13031 net.cpp:160]     with loss weight 1
I1105 05:48:52.351863 13031 net.cpp:165] Memory required for data: 396124404
I1105 05:48:52.351871 13031 layer_factory.hpp:77] Creating layer softmax
I1105 05:48:52.351881 13031 net.cpp:100] Creating Layer softmax
I1105 05:48:52.351888 13031 net.cpp:434] softmax <- fc_fc_0_split_1
I1105 05:48:52.351897 13031 net.cpp:408] softmax -> softmax
I1105 05:48:52.351915 13031 net.cpp:150] Setting up softmax
I1105 05:48:52.351928 13031 net.cpp:157] Top shape: 100 12 (1200)
I1105 05:48:52.351936 13031 net.cpp:165] Memory required for data: 396129204
I1105 05:48:52.351943 13031 layer_factory.hpp:77] Creating layer Accuracy
I1105 05:48:52.351953 13031 net.cpp:100] Creating Layer Accuracy
I1105 05:48:52.351960 13031 net.cpp:434] Accuracy <- softmax
I1105 05:48:52.351969 13031 net.cpp:434] Accuracy <- label_data_1_split_1
I1105 05:48:52.351979 13031 net.cpp:408] Accuracy -> Accuracy
…
