…
I1106 02:43:01.090148 13425 net.cpp:322] The NetState phase (0) differed from the phase (1) specified by a rule in layer data
I1106 02:43:01.090950 13425 net.cpp:58] Initializing net from parameters: 
name: "resnet20-cifar10"
state {
  phase: TRAIN
  level: 0
  stage: ""
}
layer {
  name: "data"
  type: "Data"
  top: "data"
  top: "label"
  include {
    phase: TRAIN
  }
  transform_param {
    mirror: true
    crop_size: 32
    mean_file: "data/mean.binaryproto"
  }
  data_param {
    source: "data/train_lmdb"
    batch_size: 100
    backend: LMDB
  }
}
layer {
  name: "first_conv"
  type: "Convolution"
  bottom: "data"
  top: "first_conv"
  param {
    lr_mult: 1
    decay_mult: 1
  }
  convolution_param {
    num_output: 16
    pad: 1
    kernel_size: 3
    stride: 1
    weight_filler {
      type: "msra"
    }
  }
}
layer {
  name: "first_conv_bn"
  type: "BatchNorm"
  bottom: "first_conv"
  top: "first_conv"
  batch_norm_param {
    use_global_stats: false
    moving_average_fraction: 0.95
  }
}
layer {
  name: "first_conv_scale"
  type: "Scale"
  bottom: "first_conv"
  top: "first_conv"
  scale_param {
    bias_term: true
  }
}
layer {
  name: "first_conv_relu"
  type: "ReLU"
  bottom: "first_conv"
  top: "first_conv"
}
layer {
  name: "group0_block0_conv0"
  type: "Convolution"
  bottom: "first_conv"
  top: "group0_block0_conv0"
  param {
    lr_mult: 1
    decay_mult: 1
  }
  convolution_param {
    num_output: 16
    pad: 1
    kernel_size: 3
    stride: 1
    weight_filler {
      type: "msra"
    }
  }
}
layer {
  name: "group0_block0_conv0_bn"
  type: "BatchNorm"
  bottom: "group0_block0_conv0"
  top: "group0_block0_conv0"
  batch_norm_param {
    use_global_stats: false
    moving_average_fraction: 0.95
  }
}
layer {
  name: "group0_block0_conv0_scale"
  type: "Scale"
  bottom: "group0_block0_conv0"
  top: "group0_block0_conv0"
  scale_param {
    bias_term: true
  }
}
layer {
  name: "group0_block0_conv0_relu"
  type: "ReLU"
  bottom: "group0_block0_conv0"
  top: "group0_block0_conv0"
}
layer {
  name: "group0_block0_conv1"
  type: "Convolution"
  bottom: "group0_block0_conv0"
  top: "group0_block0_conv1"
  param {
    lr_mult: 1
    decay_mult: 1
  }
  convolution_param {
    num_output: 16
    pad: 1
    kernel_size: 3
    stride: 1
    weight_filler {
      type: "msra"
    }
  }
}
layer {
  name: "group0_block0_conv1_bn"
  type: "BatchNorm"
  bottom: "group0_block0_conv1"
  top: "group0_block0_conv1"
  batch_norm_param {
    use_global_stats: false
    moving_average_fraction: 0.95
  }
}
layer {
  name: "group0_block0_conv1_scale"
  type: "Scale"
  bottom: "group0_block0_conv1"
  top: "group0_block0_conv1"
  scale_param {
    bias_term: true
  }
}
layer {
  name: "group0_block0_sum"
  type: "Eltwise"
  bottom: "group0_block0_conv1"
  bottom: "first_conv"
  top: "group0_block0_sum"
  eltwise_param {
    operation: SUM
  }
}
layer {
  name: "group0_block1_conv0"
  type: "Convolution"
  bottom: "group0_block0_sum"
  top: "group0_block1_conv0"
  param {
    lr_mult: 1
    decay_mult: 1
  }
  convolution_param {
    num_output: 16
    pad: 1
    kernel_size: 3
    stride: 1
    weight_filler {
      type: "msra"
    }
  }
}
layer {
  name: "group0_block1_conv0_bn"
  type: "BatchNorm"
  bottom: "group0_block1_conv0"
  top: "group0_block1_conv0"
  batch_norm_param {
    use_global_stats: false
    moving_average_fraction: 0.95
  }
}
layer {
  name: "group0_block1_conv0_scale"
  type: "Scale"
  bottom: "group0_block1_conv0"
  top: "group0_block1_conv0"
  scale_param {
    bias_term: true
  }
}
layer {
  name: "group0_block1_conv0_relu"
  type: "ReLU"
  bottom: "group0_block1_conv0"
  top: "group0_block1_conv0"
}
layer {
  name: "group0_block1_conv1"
  type: "Convolution"
  bottom: "group0_block1_conv0"
  top: "group0_block1_conv1"
  param {
    lr_mult: 1
    decay_mult: 1
  }
  convolution_param {
    num_output: 16
    pad: 1
    kernel_size: 3
    stride: 1
    weight_filler {
      type: "msra"
    }
  }
}
layer {
  name: "group0_block1_conv1_bn"
  type: "BatchNorm"
  bottom: "group0_block1_conv1"
  top: "group0_block1_conv1"
  batch_norm_param {
    use_global_stats: false
    moving_average_fraction: 0.95
  }
}
layer {
  name: "group0_block1_conv1_scale"
  type: "Scale"
  bottom: "group0_block1_conv1"
  top: "group0_block1_conv1"
  scale_param {
    bias_term: true
  }
}
layer {
  name: "group0_block1_sum"
  type: "Eltwise"
  bottom: "group0_block1_conv1"
  bottom: "group0_block0_sum"
  top: "group0_block1_sum"
  eltwise_param {
    operation: SUM
  }
}
layer {
  name: "group0_block2_conv0"
  type: "Convolution"
  bottom: "group0_block1_sum"
  top: "group0_block2_conv0"
  param {
    lr_mult: 1
    decay_mult: 1
  }
  convolution_param {
    num_output: 16
    pad: 1
    kernel_size: 3
    stride: 1
    weight_filler {
      type: "msra"
    }
  }
}
layer {
  name: "group0_block2_conv0_bn"
  type: "BatchNorm"
  bottom: "group0_block2_conv0"
  top: "group0_block2_conv0"
  batch_norm_param {
    use_global_stats: false
    moving_average_fraction: 0.95
  }
}
layer {
  name: "group0_block2_conv0_scale"
  type: "Scale"
  bottom: "group0_block2_conv0"
  top: "group0_block2_conv0"
  scale_param {
    bias_term: true
  }
}
layer {
  name: "group0_block2_conv0_relu"
  type: "ReLU"
  bottom: "group0_block2_conv0"
  top: "group0_block2_conv0"
}
layer {
  name: "group0_block2_conv1"
  type: "Convolution"
  bottom: "group0_block2_conv0"
  top: "group0_block2_conv1"
  param {
    lr_mult: 1
    decay_mult: 1
  }
  convolution_param {
    num_output: 16
    pad: 1
    kernel_size: 3
    stride: 1
    weight_filler {
      type: "msra"
    }
  }
}
layer {
  name: "group0_block2_conv1_bn"
  type: "BatchNorm"
  bottom: "group0_block2_conv1"
  top: "group0_block2_conv1"
  batch_norm_param {
    use_global_stats: false
    moving_average_fraction: 0.95
  }
}
layer {
  name: "group0_block2_conv1_scale"
  type: "Scale"
  bottom: "group0_block2_conv1"
  top: "group0_block2_conv1"
  scale_param {
    bias_term: true
  }
}
layer {
  name: "group0_block2_sum"
  type: "Eltwise"
  bottom: "group0_block2_conv1"
  bottom: "group0_block1_sum"
  top: "group0_block2_sum"
  eltwise_param {
    operation: SUM
  }
}
layer {
  name: "group1_block0_conv0"
  type: "Convolution"
  bottom: "group0_block2_sum"
  top: "group1_block0_conv0"
  param {
    lr_mult: 1
    decay_mult: 1
  }
  convolution_param {
    num_output: 32
    pad: 1
    kernel_size: 3
    stride: 2
    weight_filler {
      type: "msra"
    }
  }
}
layer {
  name: "group1_block0_conv0_bn"
  type: "BatchNorm"
  bottom: "group1_block0_conv0"
  top: "group1_block0_conv0"
  batch_norm_param {
    use_global_stats: false
    moving_average_fraction: 0.95
  }
}
layer {
  name: "group1_block0_conv0_scale"
  type: "Scale"
  bottom: "group1_block0_conv0"
  top: "group1_block0_conv0"
  scale_param {
    bias_term: true
  }
}
layer {
  name: "group1_block0_conv0_relu"
  type: "ReLU"
  bottom: "group1_block0_conv0"
  top: "group1_block0_conv0"
}
layer {
  name: "group1_block0_conv1"
  type: "Convolution"
  bottom: "group1_block0_conv0"
  top: "group1_block0_conv1"
  param {
    lr_mult: 1
    decay_mult: 1
  }
  convolution_param {
    num_output: 32
    pad: 1
    kernel_size: 3
    stride: 1
    weight_filler {
      type: "msra"
    }
  }
}
layer {
  name: "group1_block0_conv1_bn"
  type: "BatchNorm"
  bottom: "group1_block0_conv1"
  top: "group1_block0_conv1"
  batch_norm_param {
    use_global_stats: false
    moving_average_fraction: 0.95
  }
}
layer {
  name: "group1_block0_conv1_scale"
  type: "Scale"
  bottom: "group1_block0_conv1"
  top: "group1_block0_conv1"
  scale_param {
    bias_term: true
  }
}
layer {
  name: "group1_block0_proj"
  type: "Convolution"
  bottom: "group0_block2_sum"
  top: "group1_block0_proj"
  param {
    lr_mult: 1
    decay_mult: 1
  }
  convolution_param {
    num_output: 32
    pad: 0
    kernel_size: 2
    stride: 2
    weight_filler {
      type: "msra"
    }
  }
}
layer {
  name: "group1_block0_proj_bn"
  type: "BatchNorm"
  bottom: "group1_block0_proj"
  top: "group1_block0_proj"
  batch_norm_param {
    use_global_stats: false
    moving_average_fraction: 0.95
  }
}
layer {
  name: "group1_block0_proj_scale"
  type: "Scale"
  bottom: "group1_block0_proj"
  top: "group1_block0_proj"
  scale_param {
    bias_term: true
  }
}
layer {
  name: "group1_block0_sum"
  type: "Eltwise"
  bottom: "group1_block0_proj"
  bottom: "group1_block0_conv1"
  top: "group1_block0_sum"
  eltwise_param {
    operation: SUM
  }
}
layer {
  name: "group1_block1_conv0"
  type: "Convolution"
  bottom: "group1_block0_sum"
  top: "group1_block1_conv0"
  param {
    lr_mult: 1
    decay_mult: 1
  }
  convolution_param {
    num_output: 32
    pad: 1
    kernel_size: 3
    stride: 1
    weight_filler {
      type: "msra"
    }
  }
}
layer {
  name: "group1_block1_conv0_bn"
  type: "BatchNorm"
  bottom: "group1_block1_conv0"
  top: "group1_block1_conv0"
  batch_norm_param {
    use_global_stats: false
    moving_average_fraction: 0.95
  }
}
layer {
  name: "group1_block1_conv0_scale"
  type: "Scale"
  bottom: "group1_block1_conv0"
  top: "group1_block1_conv0"
  scale_param {
    bias_term: true
  }
}
layer {
  name: "group1_block1_conv0_relu"
  type: "ReLU"
  bottom: "group1_block1_conv0"
  top: "group1_block1_conv0"
}
layer {
  name: "group1_block1_conv1"
  type: "Convolution"
  bottom: "group1_block1_conv0"
  top: "group1_block1_conv1"
  param {
    lr_mult: 1
    decay_mult: 1
  }
  convolution_param {
    num_output: 32
    pad: 1
    kernel_size: 3
    stride: 1
    weight_filler {
      type: "msra"
    }
  }
}
layer {
  name: "group1_block1_conv1_bn"
  type: "BatchNorm"
  bottom: "group1_block1_conv1"
  top: "group1_block1_conv1"
  batch_norm_param {
    use_global_stats: false
    moving_average_fraction: 0.95
  }
}
layer {
  name: "group1_block1_conv1_scale"
  type: "Scale"
  bottom: "group1_block1_conv1"
  top: "group1_block1_conv1"
  scale_param {
    bias_term: true
  }
}
layer {
  name: "group1_block1_sum"
  type: "Eltwise"
  bottom: "group1_block1_conv1"
  bottom: "group1_block0_sum"
  top: "group1_block1_sum"
  eltwise_param {
    operation: SUM
  }
}
layer {
  name: "group1_block2_conv0"
  type: "Convolution"
  bottom: "group1_block1_sum"
  top: "group1_block2_conv0"
  param {
    lr_mult: 1
    decay_mult: 1
  }
  convolution_param {
    num_output: 32
    pad: 1
    kernel_size: 3
    stride: 1
    weight_filler {
      type: "msra"
    }
  }
}
layer {
  name: "group1_block2_conv0_bn"
  type: "BatchNorm"
  bottom: "group1_block2_conv0"
  top: "group1_block2_conv0"
  batch_norm_param {
    use_global_stats: false
    moving_average_fraction: 0.95
  }
}
layer {
  name: "group1_block2_conv0_scale"
  type: "Scale"
  bottom: "group1_block2_conv0"
  top: "group1_block2_conv0"
  scale_param {
    bias_term: true
  }
}
layer {
  name: "group1_block2_conv0_relu"
  type: "ReLU"
  bottom: "group1_block2_conv0"
  top: "group1_block2_conv0"
}
layer {
  name: "group1_block2_conv1"
  type: "Convolution"
  bottom: "group1_block2_conv0"
  top: "group1_block2_conv1"
  param {
    lr_mult: 1
    decay_mult: 1
  }
  convolution_param {
    num_output: 32
    pad: 1
    kernel_size: 3
    stride: 1
    weight_filler {
      type: "msra"
    }
  }
}
layer {
  name: "group1_block2_conv1_bn"
  type: "BatchNorm"
  bottom: "group1_block2_conv1"
  top: "group1_block2_conv1"
  batch_norm_param {
    use_global_stats: false
    moving_average_fraction: 0.95
  }
}
layer {
  name: "group1_block2_conv1_scale"
  type: "Scale"
  bottom: "group1_block2_conv1"
  top: "group1_block2_conv1"
  scale_param {
    bias_term: true
  }
}
layer {
  name: "group1_block2_sum"
  type: "Eltwise"
  bottom: "group1_block2_conv1"
  bottom: "group1_block1_sum"
  top: "group1_block2_sum"
  eltwise_param {
    operation: SUM
  }
}
layer {
  name: "group2_block0_conv0"
  type: "Convolution"
  bottom: "group1_block2_sum"
  top: "group2_block0_conv0"
  param {
    lr_mult: 1
    decay_mult: 1
  }
  convolution_param {
    num_output: 64
    pad: 1
    kernel_size: 3
    stride: 2
    weight_filler {
      type: "msra"
    }
  }
}
layer {
  name: "group2_block0_conv0_bn"
  type: "BatchNorm"
  bottom: "group2_block0_conv0"
  top: "group2_block0_conv0"
  batch_norm_param {
    use_global_stats: false
    moving_average_fraction: 0.95
  }
}
layer {
  name: "group2_block0_conv0_scale"
  type: "Scale"
  bottom: "group2_block0_conv0"
  top: "group2_block0_conv0"
  scale_param {
    bias_term: true
  }
}
layer {
  name: "group2_block0_conv0_relu"
  type: "ReLU"
  bottom: "group2_block0_conv0"
  top: "group2_block0_conv0"
}
layer {
  name: "group2_block0_conv1"
  type: "Convolution"
  bottom: "group2_block0_conv0"
  top: "group2_block0_conv1"
  param {
    lr_mult: 1
    decay_mult: 1
  }
  convolution_param {
    num_output: 64
    pad: 1
    kernel_size: 3
    stride: 1
    weight_filler {
      type: "msra"
    }
  }
}
layer {
  name: "group2_block0_conv1_bn"
  type: "BatchNorm"
  bottom: "group2_block0_conv1"
  top: "group2_block0_conv1"
  batch_norm_param {
    use_global_stats: false
    moving_average_fraction: 0.95
  }
}
layer {
  name: "group2_block0_conv1_scale"
  type: "Scale"
  bottom: "group2_block0_conv1"
  top: "group2_block0_conv1"
  scale_param {
    bias_term: true
  }
}
layer {
  name: "group2_block0_proj"
  type: "Convolution"
  bottom: "group1_block2_sum"
  top: "group2_block0_proj"
  param {
    lr_mult: 1
    decay_mult: 1
  }
  convolution_param {
    num_output: 64
    pad: 0
    kernel_size: 2
    stride: 2
    weight_filler {
      type: "msra"
    }
  }
}
layer {
  name: "group2_block0_proj_bn"
  type: "BatchNorm"
  bottom: "group2_block0_proj"
  top: "group2_block0_proj"
  batch_norm_param {
    use_global_stats: false
    moving_average_fraction: 0.95
  }
}
layer {
  name: "group2_block0_proj_scale"
  type: "Scale"
  bottom: "group2_block0_proj"
  top: "group2_block0_proj"
  scale_param {
    bias_term: true
  }
}
layer {
  name: "group2_block0_sum"
  type: "Eltwise"
  bottom: "group2_block0_proj"
  bottom: "group2_block0_conv1"
  top: "group2_block0_sum"
  eltwise_param {
    operation: SUM
  }
}
layer {
  name: "group2_block1_conv0"
  type: "Convolution"
  bottom: "group2_block0_sum"
  top: "group2_block1_conv0"
  param {
    lr_mult: 1
    decay_mult: 1
  }
  convolution_param {
    num_output: 64
    pad: 1
    kernel_size: 3
    stride: 1
    weight_filler {
      type: "msra"
    }
  }
}
layer {
  name: "group2_block1_conv0_bn"
  type: "BatchNorm"
  bottom: "group2_block1_conv0"
  top: "group2_block1_conv0"
  batch_norm_param {
    use_global_stats: false
    moving_average_fraction: 0.95
  }
}
layer {
  name: "group2_block1_conv0_scale"
  type: "Scale"
  bottom: "group2_block1_conv0"
  top: "group2_block1_conv0"
  scale_param {
    bias_term: true
  }
}
layer {
  name: "group2_block1_conv0_relu"
  type: "ReLU"
  bottom: "group2_block1_conv0"
  top: "group2_block1_conv0"
}
layer {
  name: "group2_block1_conv1"
  type: "Convolution"
  bottom: "group2_block1_conv0"
  top: "group2_block1_conv1"
  param {
    lr_mult: 1
    decay_mult: 1
  }
  convolution_param {
    num_output: 64
    pad: 1
    kernel_size: 3
    stride: 1
    weight_filler {
      type: "msra"
    }
  }
}
layer {
  name: "group2_block1_conv1_bn"
  type: "BatchNorm"
  bottom: "group2_block1_conv1"
  top: "group2_block1_conv1"
  batch_norm_param {
    use_global_stats: false
    moving_average_fraction: 0.95
  }
}
layer {
  name: "group2_block1_conv1_scale"
  type: "Scale"
  bottom: "group2_block1_conv1"
  top: "group2_block1_conv1"
  scale_param {
    bias_term: true
  }
}
layer {
  name: "group2_block1_sum"
  type: "Eltwise"
  bottom: "group2_block1_conv1"
  bottom: "group2_block0_sum"
  top: "group2_block1_sum"
  eltwise_param {
    operation: SUM
  }
}
layer {
  name: "group2_block2_conv0"
  type: "Convolution"
  bottom: "group2_block1_sum"
  top: "group2_block2_conv0"
  param {
    lr_mult: 1
    decay_mult: 1
  }
  convolution_param {
    num_output: 64
    pad: 1
    kernel_size: 3
    stride: 1
    weight_filler {
      type: "msra"
    }
  }
}
layer {
  name: "group2_block2_conv0_bn"
  type: "BatchNorm"
  bottom: "group2_block2_conv0"
  top: "group2_block2_conv0"
  batch_norm_param {
    use_global_stats: false
    moving_average_fraction: 0.95
  }
}
layer {
  name: "group2_block2_conv0_scale"
  type: "Scale"
  bottom: "group2_block2_conv0"
  top: "group2_block2_conv0"
  scale_param {
    bias_term: true
  }
}
layer {
  name: "group2_block2_conv0_relu"
  type: "ReLU"
  bottom: "group2_block2_conv0"
  top: "group2_block2_conv0"
}
layer {
  name: "group2_block2_conv1"
  type: "Convolution"
  bottom: "group2_block2_conv0"
  top: "group2_block2_conv1"
  param {
    lr_mult: 1
    decay_mult: 1
  }
  convolution_param {
    num_output: 64
    pad: 1
    kernel_size: 3
    stride: 1
    weight_filler {
      type: "msra"
    }
  }
}
layer {
  name: "group2_block2_conv1_bn"
  type: "BatchNorm"
  bottom: "group2_block2_conv1"
  top: "group2_block2_conv1"
  batch_norm_param {
    use_global_stats: false
    moving_average_fraction: 0.95
  }
}
layer {
  name: "group2_block2_conv1_scale"
  type: "Scale"
  bottom: "group2_block2_conv1"
  top: "group2_block2_conv1"
  scale_param {
    bias_term: true
  }
}
layer {
  name: "group2_block2_sum"
  type: "Eltwise"
  bottom: "group2_block2_conv1"
  bottom: "group2_block1_sum"
  top: "group2_block2_sum"
  eltwise_param {
    operation: SUM
  }
}
layer {
  name: "global_avg_pool"
  type: "Pooling"
  bottom: "group2_block2_sum"
  top: "global_avg_pool"
  pooling_param {
    pool: AVE
    global_pooling: true
  }
}
layer {
  name: "fc"
  type: "InnerProduct"
  bottom: "global_avg_pool"
  top: "fc"
  param {
    lr_mult: 1
    decay_mult: 1
  }
  param {
    lr_mult: 2
    decay_mult: 0
  }
  inner_product_param {
    num_output: 12
    weight_filler {
      type: "msra"
    }
    bias_filler {
      type: "constant"
      value: 0
    }
  }
}
layer {
  name: "loss"
  type: "SoftmaxWithLoss"
  bottom: "fc"
  bottom: "label"
  top: "loss"
}
layer {
  name: "softmax"
  type: "Softmax"
  bottom: "fc"
  top: "softmax"
}
layer {
  name: "Accuracy"
  type: "Accuracy"
  bottom: "softmax"
  bottom: "label"
  top: "Accuracy"
}
I1106 02:43:01.091487 13425 layer_factory.hpp:77] Creating layer data
I1106 02:43:01.091945 13425 net.cpp:100] Creating Layer data
I1106 02:43:01.092015 13425 net.cpp:408] data -> data
I1106 02:43:01.092120 13425 net.cpp:408] data -> label
I1106 02:43:01.092185 13425 data_transformer.cpp:25] Loading mean file from: data/mean.binaryproto
I1106 02:43:01.092226 13428 db_lmdb.cpp:35] Opened lmdb data/train_lmdb
I1106 02:43:01.092362 13425 data_layer.cpp:41] output data size: 100,3,32,32
I1106 02:43:01.092519 13425 net.cpp:150] Setting up data
I1106 02:43:01.092542 13425 net.cpp:157] Top shape: 100 3 32 32 (307200)
I1106 02:43:01.092555 13425 net.cpp:157] Top shape: 100 (100)
I1106 02:43:01.092564 13425 net.cpp:165] Memory required for data: 1229200
I1106 02:43:01.092579 13425 layer_factory.hpp:77] Creating layer label_data_1_split
I1106 02:43:01.092598 13425 net.cpp:100] Creating Layer label_data_1_split
I1106 02:43:01.092612 13425 net.cpp:434] label_data_1_split <- label
I1106 02:43:01.092636 13425 net.cpp:408] label_data_1_split -> label_data_1_split_0
I1106 02:43:01.092900 13425 net.cpp:408] label_data_1_split -> label_data_1_split_1
I1106 02:43:01.092952 13425 net.cpp:150] Setting up label_data_1_split
I1106 02:43:01.092973 13425 net.cpp:157] Top shape: 100 (100)
I1106 02:43:01.092985 13425 net.cpp:157] Top shape: 100 (100)
I1106 02:43:01.092993 13425 net.cpp:165] Memory required for data: 1230000
I1106 02:43:01.093061 13425 layer_factory.hpp:77] Creating layer first_conv
I1106 02:43:01.093099 13425 net.cpp:100] Creating Layer first_conv
I1106 02:43:01.093111 13425 net.cpp:434] first_conv <- data
I1106 02:43:01.093130 13425 net.cpp:408] first_conv -> first_conv
I1106 02:43:01.093245 13425 net.cpp:150] Setting up first_conv
I1106 02:43:01.093262 13425 net.cpp:157] Top shape: 100 16 32 32 (1638400)
I1106 02:43:01.093271 13425 net.cpp:165] Memory required for data: 7783600
I1106 02:43:01.093381 13425 layer_factory.hpp:77] Creating layer first_conv_bn
I1106 02:43:01.093420 13425 net.cpp:100] Creating Layer first_conv_bn
I1106 02:43:01.093431 13425 net.cpp:434] first_conv_bn <- first_conv
I1106 02:43:01.093446 13425 net.cpp:395] first_conv_bn -> first_conv (in-place)
I1106 02:43:01.093513 13425 net.cpp:150] Setting up first_conv_bn
I1106 02:43:01.093530 13425 net.cpp:157] Top shape: 100 16 32 32 (1638400)
I1106 02:43:01.093540 13425 net.cpp:165] Memory required for data: 14337200
I1106 02:43:01.093564 13425 layer_factory.hpp:77] Creating layer first_conv_scale
I1106 02:43:01.093593 13425 net.cpp:100] Creating Layer first_conv_scale
I1106 02:43:01.093657 13425 net.cpp:434] first_conv_scale <- first_conv
I1106 02:43:01.093701 13425 net.cpp:395] first_conv_scale -> first_conv (in-place)
I1106 02:43:01.093751 13425 layer_factory.hpp:77] Creating layer first_conv_scale
I1106 02:43:01.093863 13425 net.cpp:150] Setting up first_conv_scale
I1106 02:43:01.093909 13425 net.cpp:157] Top shape: 100 16 32 32 (1638400)
I1106 02:43:01.093956 13425 net.cpp:165] Memory required for data: 20890800
I1106 02:43:01.093996 13425 layer_factory.hpp:77] Creating layer first_conv_relu
I1106 02:43:01.094033 13425 net.cpp:100] Creating Layer first_conv_relu
I1106 02:43:01.094066 13425 net.cpp:434] first_conv_relu <- first_conv
I1106 02:43:01.094108 13425 net.cpp:395] first_conv_relu -> first_conv (in-place)
I1106 02:43:01.094151 13425 net.cpp:150] Setting up first_conv_relu
I1106 02:43:01.094188 13425 net.cpp:157] Top shape: 100 16 32 32 (1638400)
I1106 02:43:01.094223 13425 net.cpp:165] Memory required for data: 27444400
I1106 02:43:01.094257 13425 layer_factory.hpp:77] Creating layer first_conv_first_conv_relu_0_split
I1106 02:43:01.094296 13425 net.cpp:100] Creating Layer first_conv_first_conv_relu_0_split
I1106 02:43:01.094331 13425 net.cpp:434] first_conv_first_conv_relu_0_split <- first_conv
I1106 02:43:01.094372 13425 net.cpp:408] first_conv_first_conv_relu_0_split -> first_conv_first_conv_relu_0_split_0
I1106 02:43:01.094413 13425 net.cpp:408] first_conv_first_conv_relu_0_split -> first_conv_first_conv_relu_0_split_1
I1106 02:43:01.094478 13425 net.cpp:150] Setting up first_conv_first_conv_relu_0_split
I1106 02:43:01.094532 13425 net.cpp:157] Top shape: 100 16 32 32 (1638400)
I1106 02:43:01.094595 13425 net.cpp:157] Top shape: 100 16 32 32 (1638400)
I1106 02:43:01.094640 13425 net.cpp:165] Memory required for data: 40551600
I1106 02:43:01.094708 13425 layer_factory.hpp:77] Creating layer group0_block0_conv0
I1106 02:43:01.094763 13425 net.cpp:100] Creating Layer group0_block0_conv0
I1106 02:43:01.094815 13425 net.cpp:434] group0_block0_conv0 <- first_conv_first_conv_relu_0_split_0
I1106 02:43:01.094877 13425 net.cpp:408] group0_block0_conv0 -> group0_block0_conv0
I1106 02:43:01.095048 13425 net.cpp:150] Setting up group0_block0_conv0
I1106 02:43:01.095111 13425 net.cpp:157] Top shape: 100 16 32 32 (1638400)
I1106 02:43:01.095151 13425 net.cpp:165] Memory required for data: 47105200
I1106 02:43:01.095212 13425 layer_factory.hpp:77] Creating layer group0_block0_conv0_bn
I1106 02:43:01.095281 13425 net.cpp:100] Creating Layer group0_block0_conv0_bn
I1106 02:43:01.095324 13425 net.cpp:434] group0_block0_conv0_bn <- group0_block0_conv0
I1106 02:43:01.095397 13425 net.cpp:395] group0_block0_conv0_bn -> group0_block0_conv0 (in-place)
I1106 02:43:01.095474 13425 net.cpp:150] Setting up group0_block0_conv0_bn
I1106 02:43:01.095535 13425 net.cpp:157] Top shape: 100 16 32 32 (1638400)
I1106 02:43:01.095576 13425 net.cpp:165] Memory required for data: 53658800
I1106 02:43:01.095674 13425 layer_factory.hpp:77] Creating layer group0_block0_conv0_scale
I1106 02:43:01.095719 13425 net.cpp:100] Creating Layer group0_block0_conv0_scale
I1106 02:43:01.095770 13425 net.cpp:434] group0_block0_conv0_scale <- group0_block0_conv0
I1106 02:43:01.095847 13425 net.cpp:395] group0_block0_conv0_scale -> group0_block0_conv0 (in-place)
I1106 02:43:01.095912 13425 layer_factory.hpp:77] Creating layer group0_block0_conv0_scale
I1106 02:43:01.096022 13425 net.cpp:150] Setting up group0_block0_conv0_scale
I1106 02:43:01.096081 13425 net.cpp:157] Top shape: 100 16 32 32 (1638400)
I1106 02:43:01.096122 13425 net.cpp:165] Memory required for data: 60212400
I1106 02:43:01.096180 13425 layer_factory.hpp:77] Creating layer group0_block0_conv0_relu
I1106 02:43:01.096279 13425 net.cpp:100] Creating Layer group0_block0_conv0_relu
I1106 02:43:01.096302 13425 net.cpp:434] group0_block0_conv0_relu <- group0_block0_conv0
I1106 02:43:01.096316 13425 net.cpp:395] group0_block0_conv0_relu -> group0_block0_conv0 (in-place)
I1106 02:43:01.096331 13425 net.cpp:150] Setting up group0_block0_conv0_relu
I1106 02:43:01.096343 13425 net.cpp:157] Top shape: 100 16 32 32 (1638400)
I1106 02:43:01.096352 13425 net.cpp:165] Memory required for data: 66766000
I1106 02:43:01.096361 13425 layer_factory.hpp:77] Creating layer group0_block0_conv1
I1106 02:43:01.096377 13425 net.cpp:100] Creating Layer group0_block0_conv1
I1106 02:43:01.096387 13425 net.cpp:434] group0_block0_conv1 <- group0_block0_conv0
I1106 02:43:01.096408 13425 net.cpp:408] group0_block0_conv1 -> group0_block0_conv1
I1106 02:43:01.096513 13425 net.cpp:150] Setting up group0_block0_conv1
I1106 02:43:01.096532 13425 net.cpp:157] Top shape: 100 16 32 32 (1638400)
I1106 02:43:01.096541 13425 net.cpp:165] Memory required for data: 73319600
I1106 02:43:01.096555 13425 layer_factory.hpp:77] Creating layer group0_block0_conv1_bn
I1106 02:43:01.096573 13425 net.cpp:100] Creating Layer group0_block0_conv1_bn
I1106 02:43:01.096583 13425 net.cpp:434] group0_block0_conv1_bn <- group0_block0_conv1
I1106 02:43:01.096597 13425 net.cpp:395] group0_block0_conv1_bn -> group0_block0_conv1 (in-place)
I1106 02:43:01.096632 13425 net.cpp:150] Setting up group0_block0_conv1_bn
I1106 02:43:01.096653 13425 net.cpp:157] Top shape: 100 16 32 32 (1638400)
I1106 02:43:01.096662 13425 net.cpp:165] Memory required for data: 79873200
I1106 02:43:01.096688 13425 layer_factory.hpp:77] Creating layer group0_block0_conv1_scale
I1106 02:43:01.096702 13425 net.cpp:100] Creating Layer group0_block0_conv1_scale
I1106 02:43:01.096712 13425 net.cpp:434] group0_block0_conv1_scale <- group0_block0_conv1
I1106 02:43:01.096725 13425 net.cpp:395] group0_block0_conv1_scale -> group0_block0_conv1 (in-place)
I1106 02:43:01.096745 13425 layer_factory.hpp:77] Creating layer group0_block0_conv1_scale
I1106 02:43:01.096786 13425 net.cpp:150] Setting up group0_block0_conv1_scale
I1106 02:43:01.096799 13425 net.cpp:157] Top shape: 100 16 32 32 (1638400)
I1106 02:43:01.096808 13425 net.cpp:165] Memory required for data: 86426800
I1106 02:43:01.096822 13425 layer_factory.hpp:77] Creating layer group0_block0_sum
I1106 02:43:01.096837 13425 net.cpp:100] Creating Layer group0_block0_sum
I1106 02:43:01.096848 13425 net.cpp:434] group0_block0_sum <- group0_block0_conv1
I1106 02:43:01.096858 13425 net.cpp:434] group0_block0_sum <- first_conv_first_conv_relu_0_split_1
I1106 02:43:01.096876 13425 net.cpp:408] group0_block0_sum -> group0_block0_sum
I1106 02:43:01.096899 13425 net.cpp:150] Setting up group0_block0_sum
I1106 02:43:01.096911 13425 net.cpp:157] Top shape: 100 16 32 32 (1638400)
I1106 02:43:01.096920 13425 net.cpp:165] Memory required for data: 92980400
I1106 02:43:01.096930 13425 layer_factory.hpp:77] Creating layer group0_block0_sum_group0_block0_sum_0_split
I1106 02:43:01.096942 13425 net.cpp:100] Creating Layer group0_block0_sum_group0_block0_sum_0_split
I1106 02:43:01.096951 13425 net.cpp:434] group0_block0_sum_group0_block0_sum_0_split <- group0_block0_sum
I1106 02:43:01.096964 13425 net.cpp:408] group0_block0_sum_group0_block0_sum_0_split -> group0_block0_sum_group0_block0_sum_0_split_0
I1106 02:43:01.097002 13425 net.cpp:408] group0_block0_sum_group0_block0_sum_0_split -> group0_block0_sum_group0_block0_sum_0_split_1
I1106 02:43:01.097023 13425 net.cpp:150] Setting up group0_block0_sum_group0_block0_sum_0_split
I1106 02:43:01.097038 13425 net.cpp:157] Top shape: 100 16 32 32 (1638400)
I1106 02:43:01.097049 13425 net.cpp:157] Top shape: 100 16 32 32 (1638400)
I1106 02:43:01.097057 13425 net.cpp:165] Memory required for data: 106087600
I1106 02:43:01.097066 13425 layer_factory.hpp:77] Creating layer group0_block1_conv0
I1106 02:43:01.097091 13425 net.cpp:100] Creating Layer group0_block1_conv0
I1106 02:43:01.097102 13425 net.cpp:434] group0_block1_conv0 <- group0_block0_sum_group0_block0_sum_0_split_0
I1106 02:43:01.097126 13425 net.cpp:408] group0_block1_conv0 -> group0_block1_conv0
I1106 02:43:01.097220 13425 net.cpp:150] Setting up group0_block1_conv0
I1106 02:43:01.097239 13425 net.cpp:157] Top shape: 100 16 32 32 (1638400)
I1106 02:43:01.097249 13425 net.cpp:165] Memory required for data: 112641200
I1106 02:43:01.097261 13425 layer_factory.hpp:77] Creating layer group0_block1_conv0_bn
I1106 02:43:01.097277 13425 net.cpp:100] Creating Layer group0_block1_conv0_bn
I1106 02:43:01.097286 13425 net.cpp:434] group0_block1_conv0_bn <- group0_block1_conv0
I1106 02:43:01.097318 13425 net.cpp:395] group0_block1_conv0_bn -> group0_block1_conv0 (in-place)
I1106 02:43:01.097352 13425 net.cpp:150] Setting up group0_block1_conv0_bn
I1106 02:43:01.097364 13425 net.cpp:157] Top shape: 100 16 32 32 (1638400)
I1106 02:43:01.097373 13425 net.cpp:165] Memory required for data: 119194800
I1106 02:43:01.097389 13425 layer_factory.hpp:77] Creating layer group0_block1_conv0_scale
I1106 02:43:01.097404 13425 net.cpp:100] Creating Layer group0_block1_conv0_scale
I1106 02:43:01.097412 13425 net.cpp:434] group0_block1_conv0_scale <- group0_block1_conv0
I1106 02:43:01.097429 13425 net.cpp:395] group0_block1_conv0_scale -> group0_block1_conv0 (in-place)
I1106 02:43:01.097450 13425 layer_factory.hpp:77] Creating layer group0_block1_conv0_scale
I1106 02:43:01.097489 13425 net.cpp:150] Setting up group0_block1_conv0_scale
I1106 02:43:01.097504 13425 net.cpp:157] Top shape: 100 16 32 32 (1638400)
I1106 02:43:01.097513 13425 net.cpp:165] Memory required for data: 125748400
I1106 02:43:01.097527 13425 layer_factory.hpp:77] Creating layer group0_block1_conv0_relu
I1106 02:43:01.097539 13425 net.cpp:100] Creating Layer group0_block1_conv0_relu
I1106 02:43:01.097548 13425 net.cpp:434] group0_block1_conv0_relu <- group0_block1_conv0
I1106 02:43:01.097561 13425 net.cpp:395] group0_block1_conv0_relu -> group0_block1_conv0 (in-place)
I1106 02:43:01.097575 13425 net.cpp:150] Setting up group0_block1_conv0_relu
I1106 02:43:01.097587 13425 net.cpp:157] Top shape: 100 16 32 32 (1638400)
I1106 02:43:01.097596 13425 net.cpp:165] Memory required for data: 132302000
I1106 02:43:01.097604 13425 layer_factory.hpp:77] Creating layer group0_block1_conv1
I1106 02:43:01.097625 13425 net.cpp:100] Creating Layer group0_block1_conv1
I1106 02:43:01.097640 13425 net.cpp:434] group0_block1_conv1 <- group0_block1_conv0
I1106 02:43:01.097656 13425 net.cpp:408] group0_block1_conv1 -> group0_block1_conv1
I1106 02:43:01.097749 13425 net.cpp:150] Setting up group0_block1_conv1
I1106 02:43:01.097770 13425 net.cpp:157] Top shape: 100 16 32 32 (1638400)
I1106 02:43:01.097781 13425 net.cpp:165] Memory required for data: 138855600
I1106 02:43:01.097795 13425 layer_factory.hpp:77] Creating layer group0_block1_conv1_bn
I1106 02:43:01.097808 13425 net.cpp:100] Creating Layer group0_block1_conv1_bn
I1106 02:43:01.097817 13425 net.cpp:434] group0_block1_conv1_bn <- group0_block1_conv1
I1106 02:43:01.097833 13425 net.cpp:395] group0_block1_conv1_bn -> group0_block1_conv1 (in-place)
I1106 02:43:01.097864 13425 net.cpp:150] Setting up group0_block1_conv1_bn
I1106 02:43:01.097882 13425 net.cpp:157] Top shape: 100 16 32 32 (1638400)
I1106 02:43:01.097892 13425 net.cpp:165] Memory required for data: 145409200
I1106 02:43:01.097941 13425 layer_factory.hpp:77] Creating layer group0_block1_conv1_scale
I1106 02:43:01.097965 13425 net.cpp:100] Creating Layer group0_block1_conv1_scale
I1106 02:43:01.097975 13425 net.cpp:434] group0_block1_conv1_scale <- group0_block1_conv1
I1106 02:43:01.097997 13425 net.cpp:395] group0_block1_conv1_scale -> group0_block1_conv1 (in-place)
I1106 02:43:01.098027 13425 layer_factory.hpp:77] Creating layer group0_block1_conv1_scale
I1106 02:43:01.098073 13425 net.cpp:150] Setting up group0_block1_conv1_scale
I1106 02:43:01.098090 13425 net.cpp:157] Top shape: 100 16 32 32 (1638400)
I1106 02:43:01.098126 13425 net.cpp:165] Memory required for data: 151962800
I1106 02:43:01.098142 13425 layer_factory.hpp:77] Creating layer group0_block1_sum
I1106 02:43:01.098158 13425 net.cpp:100] Creating Layer group0_block1_sum
I1106 02:43:01.098170 13425 net.cpp:434] group0_block1_sum <- group0_block1_conv1
I1106 02:43:01.098181 13425 net.cpp:434] group0_block1_sum <- group0_block0_sum_group0_block0_sum_0_split_1
I1106 02:43:01.098194 13425 net.cpp:408] group0_block1_sum -> group0_block1_sum
I1106 02:43:01.098212 13425 net.cpp:150] Setting up group0_block1_sum
I1106 02:43:01.098225 13425 net.cpp:157] Top shape: 100 16 32 32 (1638400)
I1106 02:43:01.098233 13425 net.cpp:165] Memory required for data: 158516400
I1106 02:43:01.098242 13425 layer_factory.hpp:77] Creating layer group0_block1_sum_group0_block1_sum_0_split
I1106 02:43:01.098254 13425 net.cpp:100] Creating Layer group0_block1_sum_group0_block1_sum_0_split
I1106 02:43:01.098264 13425 net.cpp:434] group0_block1_sum_group0_block1_sum_0_split <- group0_block1_sum
I1106 02:43:01.098281 13425 net.cpp:408] group0_block1_sum_group0_block1_sum_0_split -> group0_block1_sum_group0_block1_sum_0_split_0
I1106 02:43:01.098299 13425 net.cpp:408] group0_block1_sum_group0_block1_sum_0_split -> group0_block1_sum_group0_block1_sum_0_split_1
I1106 02:43:01.098320 13425 net.cpp:150] Setting up group0_block1_sum_group0_block1_sum_0_split
I1106 02:43:01.098333 13425 net.cpp:157] Top shape: 100 16 32 32 (1638400)
I1106 02:43:01.098345 13425 net.cpp:157] Top shape: 100 16 32 32 (1638400)
I1106 02:43:01.098353 13425 net.cpp:165] Memory required for data: 171623600
I1106 02:43:01.098362 13425 layer_factory.hpp:77] Creating layer group0_block2_conv0
I1106 02:43:01.098381 13425 net.cpp:100] Creating Layer group0_block2_conv0
I1106 02:43:01.098392 13425 net.cpp:434] group0_block2_conv0 <- group0_block1_sum_group0_block1_sum_0_split_0
I1106 02:43:01.098407 13425 net.cpp:408] group0_block2_conv0 -> group0_block2_conv0
I1106 02:43:01.098495 13425 net.cpp:150] Setting up group0_block2_conv0
I1106 02:43:01.098515 13425 net.cpp:157] Top shape: 100 16 32 32 (1638400)
I1106 02:43:01.098523 13425 net.cpp:165] Memory required for data: 178177200
I1106 02:43:01.098537 13425 layer_factory.hpp:77] Creating layer group0_block2_conv0_bn
I1106 02:43:01.098551 13425 net.cpp:100] Creating Layer group0_block2_conv0_bn
I1106 02:43:01.098561 13425 net.cpp:434] group0_block2_conv0_bn <- group0_block2_conv0
I1106 02:43:01.098577 13425 net.cpp:395] group0_block2_conv0_bn -> group0_block2_conv0 (in-place)
I1106 02:43:01.098608 13425 net.cpp:150] Setting up group0_block2_conv0_bn
I1106 02:43:01.098628 13425 net.cpp:157] Top shape: 100 16 32 32 (1638400)
I1106 02:43:01.098639 13425 net.cpp:165] Memory required for data: 184730800
I1106 02:43:01.098654 13425 layer_factory.hpp:77] Creating layer group0_block2_conv0_scale
I1106 02:43:01.098666 13425 net.cpp:100] Creating Layer group0_block2_conv0_scale
I1106 02:43:01.098676 13425 net.cpp:434] group0_block2_conv0_scale <- group0_block2_conv0
I1106 02:43:01.098688 13425 net.cpp:395] group0_block2_conv0_scale -> group0_block2_conv0 (in-place)
I1106 02:43:01.098708 13425 layer_factory.hpp:77] Creating layer group0_block2_conv0_scale
I1106 02:43:01.098747 13425 net.cpp:150] Setting up group0_block2_conv0_scale
I1106 02:43:01.098764 13425 net.cpp:157] Top shape: 100 16 32 32 (1638400)
I1106 02:43:01.098773 13425 net.cpp:165] Memory required for data: 191284400
I1106 02:43:01.098806 13425 layer_factory.hpp:77] Creating layer group0_block2_conv0_relu
I1106 02:43:01.098820 13425 net.cpp:100] Creating Layer group0_block2_conv0_relu
I1106 02:43:01.098830 13425 net.cpp:434] group0_block2_conv0_relu <- group0_block2_conv0
I1106 02:43:01.098842 13425 net.cpp:395] group0_block2_conv0_relu -> group0_block2_conv0 (in-place)
I1106 02:43:01.098860 13425 net.cpp:150] Setting up group0_block2_conv0_relu
I1106 02:43:01.098873 13425 net.cpp:157] Top shape: 100 16 32 32 (1638400)
I1106 02:43:01.098882 13425 net.cpp:165] Memory required for data: 197838000
I1106 02:43:01.098891 13425 layer_factory.hpp:77] Creating layer group0_block2_conv1
I1106 02:43:01.098906 13425 net.cpp:100] Creating Layer group0_block2_conv1
I1106 02:43:01.098917 13425 net.cpp:434] group0_block2_conv1 <- group0_block2_conv0
I1106 02:43:01.098930 13425 net.cpp:408] group0_block2_conv1 -> group0_block2_conv1
I1106 02:43:01.099020 13425 net.cpp:150] Setting up group0_block2_conv1
I1106 02:43:01.099037 13425 net.cpp:157] Top shape: 100 16 32 32 (1638400)
I1106 02:43:01.099046 13425 net.cpp:165] Memory required for data: 204391600
I1106 02:43:01.099061 13425 layer_factory.hpp:77] Creating layer group0_block2_conv1_bn
I1106 02:43:01.099077 13425 net.cpp:100] Creating Layer group0_block2_conv1_bn
I1106 02:43:01.099087 13425 net.cpp:434] group0_block2_conv1_bn <- group0_block2_conv1
I1106 02:43:01.099100 13425 net.cpp:395] group0_block2_conv1_bn -> group0_block2_conv1 (in-place)
I1106 02:43:01.099133 13425 net.cpp:150] Setting up group0_block2_conv1_bn
I1106 02:43:01.099146 13425 net.cpp:157] Top shape: 100 16 32 32 (1638400)
I1106 02:43:01.099154 13425 net.cpp:165] Memory required for data: 210945200
I1106 02:43:01.099170 13425 layer_factory.hpp:77] Creating layer group0_block2_conv1_scale
I1106 02:43:01.099184 13425 net.cpp:100] Creating Layer group0_block2_conv1_scale
I1106 02:43:01.099194 13425 net.cpp:434] group0_block2_conv1_scale <- group0_block2_conv1
I1106 02:43:01.099205 13425 net.cpp:395] group0_block2_conv1_scale -> group0_block2_conv1 (in-place)
I1106 02:43:01.099225 13425 layer_factory.hpp:77] Creating layer group0_block2_conv1_scale
I1106 02:43:01.099267 13425 net.cpp:150] Setting up group0_block2_conv1_scale
I1106 02:43:01.099292 13425 net.cpp:157] Top shape: 100 16 32 32 (1638400)
I1106 02:43:01.099301 13425 net.cpp:165] Memory required for data: 217498800
I1106 02:43:01.099315 13425 layer_factory.hpp:77] Creating layer group0_block2_sum
I1106 02:43:01.099341 13425 net.cpp:100] Creating Layer group0_block2_sum
I1106 02:43:01.099352 13425 net.cpp:434] group0_block2_sum <- group0_block2_conv1
I1106 02:43:01.099364 13425 net.cpp:434] group0_block2_sum <- group0_block1_sum_group0_block1_sum_0_split_1
I1106 02:43:01.099377 13425 net.cpp:408] group0_block2_sum -> group0_block2_sum
I1106 02:43:01.099395 13425 net.cpp:150] Setting up group0_block2_sum
I1106 02:43:01.099407 13425 net.cpp:157] Top shape: 100 16 32 32 (1638400)
I1106 02:43:01.099416 13425 net.cpp:165] Memory required for data: 224052400
I1106 02:43:01.099426 13425 layer_factory.hpp:77] Creating layer group0_block2_sum_group0_block2_sum_0_split
I1106 02:43:01.099437 13425 net.cpp:100] Creating Layer group0_block2_sum_group0_block2_sum_0_split
I1106 02:43:01.099447 13425 net.cpp:434] group0_block2_sum_group0_block2_sum_0_split <- group0_block2_sum
I1106 02:43:01.099463 13425 net.cpp:408] group0_block2_sum_group0_block2_sum_0_split -> group0_block2_sum_group0_block2_sum_0_split_0
I1106 02:43:01.099480 13425 net.cpp:408] group0_block2_sum_group0_block2_sum_0_split -> group0_block2_sum_group0_block2_sum_0_split_1
I1106 02:43:01.099498 13425 net.cpp:150] Setting up group0_block2_sum_group0_block2_sum_0_split
I1106 02:43:01.099510 13425 net.cpp:157] Top shape: 100 16 32 32 (1638400)
I1106 02:43:01.099522 13425 net.cpp:157] Top shape: 100 16 32 32 (1638400)
I1106 02:43:01.099531 13425 net.cpp:165] Memory required for data: 237159600
I1106 02:43:01.099540 13425 layer_factory.hpp:77] Creating layer group1_block0_conv0
I1106 02:43:01.099560 13425 net.cpp:100] Creating Layer group1_block0_conv0
I1106 02:43:01.099589 13425 net.cpp:434] group1_block0_conv0 <- group0_block2_sum_group0_block2_sum_0_split_0
I1106 02:43:01.099606 13425 net.cpp:408] group1_block0_conv0 -> group1_block0_conv0
I1106 02:43:01.099761 13425 net.cpp:150] Setting up group1_block0_conv0
I1106 02:43:01.099779 13425 net.cpp:157] Top shape: 100 32 16 16 (819200)
I1106 02:43:01.099789 13425 net.cpp:165] Memory required for data: 240436400
I1106 02:43:01.099804 13425 layer_factory.hpp:77] Creating layer group1_block0_conv0_bn
I1106 02:43:01.099835 13425 net.cpp:100] Creating Layer group1_block0_conv0_bn
I1106 02:43:01.099851 13425 net.cpp:434] group1_block0_conv0_bn <- group1_block0_conv0
I1106 02:43:01.099916 13425 net.cpp:395] group1_block0_conv0_bn -> group1_block0_conv0 (in-place)
I1106 02:43:01.099963 13425 net.cpp:150] Setting up group1_block0_conv0_bn
I1106 02:43:01.099982 13425 net.cpp:157] Top shape: 100 32 16 16 (819200)
I1106 02:43:01.100003 13425 net.cpp:165] Memory required for data: 243713200
I1106 02:43:01.100064 13425 layer_factory.hpp:77] Creating layer group1_block0_conv0_scale
I1106 02:43:01.100097 13425 net.cpp:100] Creating Layer group1_block0_conv0_scale
I1106 02:43:01.100113 13425 net.cpp:434] group1_block0_conv0_scale <- group1_block0_conv0
I1106 02:43:01.100142 13425 net.cpp:395] group1_block0_conv0_scale -> group1_block0_conv0 (in-place)
I1106 02:43:01.100174 13425 layer_factory.hpp:77] Creating layer group1_block0_conv0_scale
I1106 02:43:01.100250 13425 net.cpp:150] Setting up group1_block0_conv0_scale
I1106 02:43:01.100268 13425 net.cpp:157] Top shape: 100 32 16 16 (819200)
I1106 02:43:01.100291 13425 net.cpp:165] Memory required for data: 246990000
I1106 02:43:01.100333 13425 layer_factory.hpp:77] Creating layer group1_block0_conv0_relu
I1106 02:43:01.100366 13425 net.cpp:100] Creating Layer group1_block0_conv0_relu
I1106 02:43:01.100389 13425 net.cpp:434] group1_block0_conv0_relu <- group1_block0_conv0
I1106 02:43:01.100424 13425 net.cpp:395] group1_block0_conv0_relu -> group1_block0_conv0 (in-place)
I1106 02:43:01.100447 13425 net.cpp:150] Setting up group1_block0_conv0_relu
I1106 02:43:01.100504 13425 net.cpp:157] Top shape: 100 32 16 16 (819200)
I1106 02:43:01.100538 13425 net.cpp:165] Memory required for data: 250266800
I1106 02:43:01.100553 13425 layer_factory.hpp:77] Creating layer group1_block0_conv1
I1106 02:43:01.100612 13425 net.cpp:100] Creating Layer group1_block0_conv1
I1106 02:43:01.100626 13425 net.cpp:434] group1_block0_conv1 <- group1_block0_conv0
I1106 02:43:01.100674 13425 net.cpp:408] group1_block0_conv1 -> group1_block0_conv1
I1106 02:43:01.100947 13425 net.cpp:150] Setting up group1_block0_conv1
I1106 02:43:01.100970 13425 net.cpp:157] Top shape: 100 32 16 16 (819200)
I1106 02:43:01.100993 13425 net.cpp:165] Memory required for data: 253543600
I1106 02:43:01.101038 13425 layer_factory.hpp:77] Creating layer group1_block0_conv1_bn
I1106 02:43:01.101075 13425 net.cpp:100] Creating Layer group1_block0_conv1_bn
I1106 02:43:01.101105 13425 net.cpp:434] group1_block0_conv1_bn <- group1_block0_conv1
I1106 02:43:01.101126 13425 net.cpp:395] group1_block0_conv1_bn -> group1_block0_conv1 (in-place)
I1106 02:43:01.101178 13425 net.cpp:150] Setting up group1_block0_conv1_bn
I1106 02:43:01.101215 13425 net.cpp:157] Top shape: 100 32 16 16 (819200)
I1106 02:43:01.101236 13425 net.cpp:165] Memory required for data: 256820400
I1106 02:43:01.101315 13425 layer_factory.hpp:77] Creating layer group1_block0_conv1_scale
I1106 02:43:01.101347 13425 net.cpp:100] Creating Layer group1_block0_conv1_scale
I1106 02:43:01.101361 13425 net.cpp:434] group1_block0_conv1_scale <- group1_block0_conv1
I1106 02:43:01.101400 13425 net.cpp:395] group1_block0_conv1_scale -> group1_block0_conv1 (in-place)
I1106 02:43:01.101459 13425 layer_factory.hpp:77] Creating layer group1_block0_conv1_scale
I1106 02:43:01.101521 13425 net.cpp:150] Setting up group1_block0_conv1_scale
I1106 02:43:01.101539 13425 net.cpp:157] Top shape: 100 32 16 16 (819200)
I1106 02:43:01.101559 13425 net.cpp:165] Memory required for data: 260097200
I1106 02:43:01.101625 13425 layer_factory.hpp:77] Creating layer group1_block0_proj
I1106 02:43:01.101673 13425 net.cpp:100] Creating Layer group1_block0_proj
I1106 02:43:01.101688 13425 net.cpp:434] group1_block0_proj <- group0_block2_sum_group0_block2_sum_0_split_1
I1106 02:43:01.101722 13425 net.cpp:408] group1_block0_proj -> group1_block0_proj
I1106 02:43:01.101855 13425 net.cpp:150] Setting up group1_block0_proj
I1106 02:43:01.101872 13425 net.cpp:157] Top shape: 100 32 16 16 (819200)
I1106 02:43:01.101896 13425 net.cpp:165] Memory required for data: 263374000
I1106 02:43:01.101974 13425 layer_factory.hpp:77] Creating layer group1_block0_proj_bn
I1106 02:43:01.102015 13425 net.cpp:100] Creating Layer group1_block0_proj_bn
I1106 02:43:01.102031 13425 net.cpp:434] group1_block0_proj_bn <- group1_block0_proj
I1106 02:43:01.102077 13425 net.cpp:395] group1_block0_proj_bn -> group1_block0_proj (in-place)
I1106 02:43:01.102126 13425 net.cpp:150] Setting up group1_block0_proj_bn
I1106 02:43:01.102144 13425 net.cpp:157] Top shape: 100 32 16 16 (819200)
I1106 02:43:01.102164 13425 net.cpp:165] Memory required for data: 266650800
I1106 02:43:01.102207 13425 layer_factory.hpp:77] Creating layer group1_block0_proj_scale
I1106 02:43:01.102244 13425 net.cpp:100] Creating Layer group1_block0_proj_scale
I1106 02:43:01.102275 13425 net.cpp:434] group1_block0_proj_scale <- group1_block0_proj
I1106 02:43:01.102308 13425 net.cpp:395] group1_block0_proj_scale -> group1_block0_proj (in-place)
I1106 02:43:01.102340 13425 layer_factory.hpp:77] Creating layer group1_block0_proj_scale
I1106 02:43:01.102403 13425 net.cpp:150] Setting up group1_block0_proj_scale
I1106 02:43:01.102432 13425 net.cpp:157] Top shape: 100 32 16 16 (819200)
I1106 02:43:01.102453 13425 net.cpp:165] Memory required for data: 269927600
I1106 02:43:01.102483 13425 layer_factory.hpp:77] Creating layer group1_block0_sum
I1106 02:43:01.102517 13425 net.cpp:100] Creating Layer group1_block0_sum
I1106 02:43:01.102531 13425 net.cpp:434] group1_block0_sum <- group1_block0_proj
I1106 02:43:01.102562 13425 net.cpp:434] group1_block0_sum <- group1_block0_conv1
I1106 02:43:01.102603 13425 net.cpp:408] group1_block0_sum -> group1_block0_sum
I1106 02:43:01.102648 13425 net.cpp:150] Setting up group1_block0_sum
I1106 02:43:01.102679 13425 net.cpp:157] Top shape: 100 32 16 16 (819200)
I1106 02:43:01.102691 13425 net.cpp:165] Memory required for data: 273204400
I1106 02:43:01.102712 13425 layer_factory.hpp:77] Creating layer group1_block0_sum_group1_block0_sum_0_split
I1106 02:43:01.102741 13425 net.cpp:100] Creating Layer group1_block0_sum_group1_block0_sum_0_split
I1106 02:43:01.102756 13425 net.cpp:434] group1_block0_sum_group1_block0_sum_0_split <- group1_block0_sum
I1106 02:43:01.102816 13425 net.cpp:408] group1_block0_sum_group1_block0_sum_0_split -> group1_block0_sum_group1_block0_sum_0_split_0
I1106 02:43:01.102942 13425 net.cpp:408] group1_block0_sum_group1_block0_sum_0_split -> group1_block0_sum_group1_block0_sum_0_split_1
I1106 02:43:01.103375 13425 net.cpp:150] Setting up group1_block0_sum_group1_block0_sum_0_split
I1106 02:43:01.103394 13425 net.cpp:157] Top shape: 100 32 16 16 (819200)
I1106 02:43:01.103426 13425 net.cpp:157] Top shape: 100 32 16 16 (819200)
I1106 02:43:01.103453 13425 net.cpp:165] Memory required for data: 279758000
I1106 02:43:01.104094 13425 layer_factory.hpp:77] Creating layer group1_block1_conv0
I1106 02:43:01.104143 13425 net.cpp:100] Creating Layer group1_block1_conv0
I1106 02:43:01.104161 13425 net.cpp:434] group1_block1_conv0 <- group1_block0_sum_group1_block0_sum_0_split_0
I1106 02:43:01.104187 13425 net.cpp:408] group1_block1_conv0 -> group1_block1_conv0
I1106 02:43:01.104488 13425 net.cpp:150] Setting up group1_block1_conv0
I1106 02:43:01.104511 13425 net.cpp:157] Top shape: 100 32 16 16 (819200)
I1106 02:43:01.104521 13425 net.cpp:165] Memory required for data: 283034800
I1106 02:43:01.104538 13425 layer_factory.hpp:77] Creating layer group1_block1_conv0_bn
I1106 02:43:01.104557 13425 net.cpp:100] Creating Layer group1_block1_conv0_bn
I1106 02:43:01.104624 13425 net.cpp:434] group1_block1_conv0_bn <- group1_block1_conv0
I1106 02:43:01.104645 13425 net.cpp:395] group1_block1_conv0_bn -> group1_block1_conv0 (in-place)
I1106 02:43:01.104682 13425 net.cpp:150] Setting up group1_block1_conv0_bn
I1106 02:43:01.104698 13425 net.cpp:157] Top shape: 100 32 16 16 (819200)
I1106 02:43:01.104713 13425 net.cpp:165] Memory required for data: 286311600
I1106 02:43:01.104732 13425 layer_factory.hpp:77] Creating layer group1_block1_conv0_scale
I1106 02:43:01.104751 13425 net.cpp:100] Creating Layer group1_block1_conv0_scale
I1106 02:43:01.104763 13425 net.cpp:434] group1_block1_conv0_scale <- group1_block1_conv0
I1106 02:43:01.104778 13425 net.cpp:395] group1_block1_conv0_scale -> group1_block1_conv0 (in-place)
I1106 02:43:01.104820 13425 layer_factory.hpp:77] Creating layer group1_block1_conv0_scale
I1106 02:43:01.104923 13425 net.cpp:150] Setting up group1_block1_conv0_scale
I1106 02:43:01.104995 13425 net.cpp:157] Top shape: 100 32 16 16 (819200)
I1106 02:43:01.105038 13425 net.cpp:165] Memory required for data: 289588400
I1106 02:43:01.105079 13425 layer_factory.hpp:77] Creating layer group1_block1_conv0_relu
I1106 02:43:01.105118 13425 net.cpp:100] Creating Layer group1_block1_conv0_relu
I1106 02:43:01.105154 13425 net.cpp:434] group1_block1_conv0_relu <- group1_block1_conv0
I1106 02:43:01.105191 13425 net.cpp:395] group1_block1_conv0_relu -> group1_block1_conv0 (in-place)
I1106 02:43:01.105229 13425 net.cpp:150] Setting up group1_block1_conv0_relu
I1106 02:43:01.105268 13425 net.cpp:157] Top shape: 100 32 16 16 (819200)
I1106 02:43:01.105345 13425 net.cpp:165] Memory required for data: 292865200
I1106 02:43:01.105381 13425 layer_factory.hpp:77] Creating layer group1_block1_conv1
I1106 02:43:01.105428 13425 net.cpp:100] Creating Layer group1_block1_conv1
I1106 02:43:01.105461 13425 net.cpp:434] group1_block1_conv1 <- group1_block1_conv0
I1106 02:43:01.105505 13425 net.cpp:408] group1_block1_conv1 -> group1_block1_conv1
I1106 02:43:01.105720 13425 net.cpp:150] Setting up group1_block1_conv1
I1106 02:43:01.105751 13425 net.cpp:157] Top shape: 100 32 16 16 (819200)
I1106 02:43:01.105782 13425 net.cpp:165] Memory required for data: 296142000
I1106 02:43:01.105813 13425 layer_factory.hpp:77] Creating layer group1_block1_conv1_bn
I1106 02:43:01.105844 13425 net.cpp:100] Creating Layer group1_block1_conv1_bn
I1106 02:43:01.105866 13425 net.cpp:434] group1_block1_conv1_bn <- group1_block1_conv1
I1106 02:43:01.105892 13425 net.cpp:395] group1_block1_conv1_bn -> group1_block1_conv1 (in-place)
I1106 02:43:01.105934 13425 net.cpp:150] Setting up group1_block1_conv1_bn
I1106 02:43:01.105963 13425 net.cpp:157] Top shape: 100 32 16 16 (819200)
I1106 02:43:01.105985 13425 net.cpp:165] Memory required for data: 299418800
I1106 02:43:01.106014 13425 layer_factory.hpp:77] Creating layer group1_block1_conv1_scale
I1106 02:43:01.106042 13425 net.cpp:100] Creating Layer group1_block1_conv1_scale
I1106 02:43:01.106070 13425 net.cpp:434] group1_block1_conv1_scale <- group1_block1_conv1
I1106 02:43:01.106101 13425 net.cpp:395] group1_block1_conv1_scale -> group1_block1_conv1 (in-place)
I1106 02:43:01.106132 13425 layer_factory.hpp:77] Creating layer group1_block1_conv1_scale
I1106 02:43:01.106175 13425 net.cpp:150] Setting up group1_block1_conv1_scale
I1106 02:43:01.106206 13425 net.cpp:157] Top shape: 100 32 16 16 (819200)
I1106 02:43:01.106230 13425 net.cpp:165] Memory required for data: 302695600
I1106 02:43:01.106256 13425 layer_factory.hpp:77] Creating layer group1_block1_sum
I1106 02:43:01.106292 13425 net.cpp:100] Creating Layer group1_block1_sum
I1106 02:43:01.106314 13425 net.cpp:434] group1_block1_sum <- group1_block1_conv1
I1106 02:43:01.106339 13425 net.cpp:434] group1_block1_sum <- group1_block0_sum_group1_block0_sum_0_split_1
I1106 02:43:01.106376 13425 net.cpp:408] group1_block1_sum -> group1_block1_sum
I1106 02:43:01.106418 13425 net.cpp:150] Setting up group1_block1_sum
I1106 02:43:01.106443 13425 net.cpp:157] Top shape: 100 32 16 16 (819200)
I1106 02:43:01.106490 13425 net.cpp:165] Memory required for data: 305972400
I1106 02:43:01.106513 13425 layer_factory.hpp:77] Creating layer group1_block1_sum_group1_block1_sum_0_split
I1106 02:43:01.106549 13425 net.cpp:100] Creating Layer group1_block1_sum_group1_block1_sum_0_split
I1106 02:43:01.106572 13425 net.cpp:434] group1_block1_sum_group1_block1_sum_0_split <- group1_block1_sum
I1106 02:43:01.106603 13425 net.cpp:408] group1_block1_sum_group1_block1_sum_0_split -> group1_block1_sum_group1_block1_sum_0_split_0
I1106 02:43:01.106633 13425 net.cpp:408] group1_block1_sum_group1_block1_sum_0_split -> group1_block1_sum_group1_block1_sum_0_split_1
I1106 02:43:01.106680 13425 net.cpp:150] Setting up group1_block1_sum_group1_block1_sum_0_split
I1106 02:43:01.106706 13425 net.cpp:157] Top shape: 100 32 16 16 (819200)
I1106 02:43:01.106734 13425 net.cpp:157] Top shape: 100 32 16 16 (819200)
I1106 02:43:01.106761 13425 net.cpp:165] Memory required for data: 312526000
I1106 02:43:01.106786 13425 layer_factory.hpp:77] Creating layer group1_block2_conv0
I1106 02:43:01.106818 13425 net.cpp:100] Creating Layer group1_block2_conv0
I1106 02:43:01.106842 13425 net.cpp:434] group1_block2_conv0 <- group1_block1_sum_group1_block1_sum_0_split_0
I1106 02:43:01.106870 13425 net.cpp:408] group1_block2_conv0 -> group1_block2_conv0
I1106 02:43:01.107065 13425 net.cpp:150] Setting up group1_block2_conv0
I1106 02:43:01.107100 13425 net.cpp:157] Top shape: 100 32 16 16 (819200)
I1106 02:43:01.107125 13425 net.cpp:165] Memory required for data: 315802800
I1106 02:43:01.107156 13425 layer_factory.hpp:77] Creating layer group1_block2_conv0_bn
I1106 02:43:01.107187 13425 net.cpp:100] Creating Layer group1_block2_conv0_bn
I1106 02:43:01.107209 13425 net.cpp:434] group1_block2_conv0_bn <- group1_block2_conv0
I1106 02:43:01.107235 13425 net.cpp:395] group1_block2_conv0_bn -> group1_block2_conv0 (in-place)
I1106 02:43:01.107277 13425 net.cpp:150] Setting up group1_block2_conv0_bn
I1106 02:43:01.107307 13425 net.cpp:157] Top shape: 100 32 16 16 (819200)
I1106 02:43:01.107329 13425 net.cpp:165] Memory required for data: 319079600
I1106 02:43:01.107362 13425 layer_factory.hpp:77] Creating layer group1_block2_conv0_scale
I1106 02:43:01.107389 13425 net.cpp:100] Creating Layer group1_block2_conv0_scale
I1106 02:43:01.107416 13425 net.cpp:434] group1_block2_conv0_scale <- group1_block2_conv0
I1106 02:43:01.107445 13425 net.cpp:395] group1_block2_conv0_scale -> group1_block2_conv0 (in-place)
I1106 02:43:01.107480 13425 layer_factory.hpp:77] Creating layer group1_block2_conv0_scale
I1106 02:43:01.107524 13425 net.cpp:150] Setting up group1_block2_conv0_scale
I1106 02:43:01.107552 13425 net.cpp:157] Top shape: 100 32 16 16 (819200)
I1106 02:43:01.107574 13425 net.cpp:165] Memory required for data: 322356400
I1106 02:43:01.107620 13425 layer_factory.hpp:77] Creating layer group1_block2_conv0_relu
I1106 02:43:01.107653 13425 net.cpp:100] Creating Layer group1_block2_conv0_relu
I1106 02:43:01.107678 13425 net.cpp:434] group1_block2_conv0_relu <- group1_block2_conv0
I1106 02:43:01.107707 13425 net.cpp:395] group1_block2_conv0_relu -> group1_block2_conv0 (in-place)
I1106 02:43:01.107735 13425 net.cpp:150] Setting up group1_block2_conv0_relu
I1106 02:43:01.107761 13425 net.cpp:157] Top shape: 100 32 16 16 (819200)
I1106 02:43:01.107784 13425 net.cpp:165] Memory required for data: 325633200
I1106 02:43:01.107810 13425 layer_factory.hpp:77] Creating layer group1_block2_conv1
I1106 02:43:01.107837 13425 net.cpp:100] Creating Layer group1_block2_conv1
I1106 02:43:01.107861 13425 net.cpp:434] group1_block2_conv1 <- group1_block2_conv0
I1106 02:43:01.107892 13425 net.cpp:408] group1_block2_conv1 -> group1_block2_conv1
I1106 02:43:01.108083 13425 net.cpp:150] Setting up group1_block2_conv1
I1106 02:43:01.108122 13425 net.cpp:157] Top shape: 100 32 16 16 (819200)
I1106 02:43:01.108146 13425 net.cpp:165] Memory required for data: 328910000
I1106 02:43:01.108173 13425 layer_factory.hpp:77] Creating layer group1_block2_conv1_bn
I1106 02:43:01.108202 13425 net.cpp:100] Creating Layer group1_block2_conv1_bn
I1106 02:43:01.108240 13425 net.cpp:434] group1_block2_conv1_bn <- group1_block2_conv1
I1106 02:43:01.108274 13425 net.cpp:395] group1_block2_conv1_bn -> group1_block2_conv1 (in-place)
I1106 02:43:01.108322 13425 net.cpp:150] Setting up group1_block2_conv1_bn
I1106 02:43:01.108348 13425 net.cpp:157] Top shape: 100 32 16 16 (819200)
I1106 02:43:01.108371 13425 net.cpp:165] Memory required for data: 332186800
I1106 02:43:01.108403 13425 layer_factory.hpp:77] Creating layer group1_block2_conv1_scale
I1106 02:43:01.108429 13425 net.cpp:100] Creating Layer group1_block2_conv1_scale
I1106 02:43:01.108456 13425 net.cpp:434] group1_block2_conv1_scale <- group1_block2_conv1
I1106 02:43:01.108481 13425 net.cpp:395] group1_block2_conv1_scale -> group1_block2_conv1 (in-place)
I1106 02:43:01.108513 13425 layer_factory.hpp:77] Creating layer group1_block2_conv1_scale
I1106 02:43:01.108558 13425 net.cpp:150] Setting up group1_block2_conv1_scale
I1106 02:43:01.108585 13425 net.cpp:157] Top shape: 100 32 16 16 (819200)
I1106 02:43:01.108608 13425 net.cpp:165] Memory required for data: 335463600
I1106 02:43:01.108634 13425 layer_factory.hpp:77] Creating layer group1_block2_sum
I1106 02:43:01.108659 13425 net.cpp:100] Creating Layer group1_block2_sum
I1106 02:43:01.108681 13425 net.cpp:434] group1_block2_sum <- group1_block2_conv1
I1106 02:43:01.108706 13425 net.cpp:434] group1_block2_sum <- group1_block1_sum_group1_block1_sum_0_split_1
I1106 02:43:01.108738 13425 net.cpp:408] group1_block2_sum -> group1_block2_sum
I1106 02:43:01.108767 13425 net.cpp:150] Setting up group1_block2_sum
I1106 02:43:01.108793 13425 net.cpp:157] Top shape: 100 32 16 16 (819200)
I1106 02:43:01.108819 13425 net.cpp:165] Memory required for data: 338740400
I1106 02:43:01.108841 13425 layer_factory.hpp:77] Creating layer group1_block2_sum_group1_block2_sum_0_split
I1106 02:43:01.108866 13425 net.cpp:100] Creating Layer group1_block2_sum_group1_block2_sum_0_split
I1106 02:43:01.108892 13425 net.cpp:434] group1_block2_sum_group1_block2_sum_0_split <- group1_block2_sum
I1106 02:43:01.108922 13425 net.cpp:408] group1_block2_sum_group1_block2_sum_0_split -> group1_block2_sum_group1_block2_sum_0_split_0
I1106 02:43:01.108950 13425 net.cpp:408] group1_block2_sum_group1_block2_sum_0_split -> group1_block2_sum_group1_block2_sum_0_split_1
I1106 02:43:01.108986 13425 net.cpp:150] Setting up group1_block2_sum_group1_block2_sum_0_split
I1106 02:43:01.109014 13425 net.cpp:157] Top shape: 100 32 16 16 (819200)
I1106 02:43:01.109040 13425 net.cpp:157] Top shape: 100 32 16 16 (819200)
I1106 02:43:01.109061 13425 net.cpp:165] Memory required for data: 345294000
I1106 02:43:01.109083 13425 layer_factory.hpp:77] Creating layer group2_block0_conv0
I1106 02:43:01.109138 13425 net.cpp:100] Creating Layer group2_block0_conv0
I1106 02:43:01.109164 13425 net.cpp:434] group2_block0_conv0 <- group1_block2_sum_group1_block2_sum_0_split_0
I1106 02:43:01.109191 13425 net.cpp:408] group2_block0_conv0 -> group2_block0_conv0
I1106 02:43:01.109550 13425 net.cpp:150] Setting up group2_block0_conv0
I1106 02:43:01.109586 13425 net.cpp:157] Top shape: 100 64 8 8 (409600)
I1106 02:43:01.109613 13425 net.cpp:165] Memory required for data: 346932400
I1106 02:43:01.109642 13425 layer_factory.hpp:77] Creating layer group2_block0_conv0_bn
I1106 02:43:01.109673 13425 net.cpp:100] Creating Layer group2_block0_conv0_bn
I1106 02:43:01.109697 13425 net.cpp:434] group2_block0_conv0_bn <- group2_block0_conv0
I1106 02:43:01.109726 13425 net.cpp:395] group2_block0_conv0_bn -> group2_block0_conv0 (in-place)
I1106 02:43:01.109768 13425 net.cpp:150] Setting up group2_block0_conv0_bn
I1106 02:43:01.109796 13425 net.cpp:157] Top shape: 100 64 8 8 (409600)
I1106 02:43:01.109817 13425 net.cpp:165] Memory required for data: 348570800
I1106 02:43:01.109860 13425 layer_factory.hpp:77] Creating layer group2_block0_conv0_scale
I1106 02:43:01.109887 13425 net.cpp:100] Creating Layer group2_block0_conv0_scale
I1106 02:43:01.109910 13425 net.cpp:434] group2_block0_conv0_scale <- group2_block0_conv0
I1106 02:43:01.109952 13425 net.cpp:395] group2_block0_conv0_scale -> group2_block0_conv0 (in-place)
I1106 02:43:01.109984 13425 layer_factory.hpp:77] Creating layer group2_block0_conv0_scale
I1106 02:43:01.110025 13425 net.cpp:150] Setting up group2_block0_conv0_scale
I1106 02:43:01.110062 13425 net.cpp:157] Top shape: 100 64 8 8 (409600)
I1106 02:43:01.110085 13425 net.cpp:165] Memory required for data: 350209200
I1106 02:43:01.110111 13425 layer_factory.hpp:77] Creating layer group2_block0_conv0_relu
I1106 02:43:01.110136 13425 net.cpp:100] Creating Layer group2_block0_conv0_relu
I1106 02:43:01.110162 13425 net.cpp:434] group2_block0_conv0_relu <- group2_block0_conv0
I1106 02:43:01.110190 13425 net.cpp:395] group2_block0_conv0_relu -> group2_block0_conv0 (in-place)
I1106 02:43:01.110216 13425 net.cpp:150] Setting up group2_block0_conv0_relu
I1106 02:43:01.110244 13425 net.cpp:157] Top shape: 100 64 8 8 (409600)
I1106 02:43:01.110265 13425 net.cpp:165] Memory required for data: 351847600
I1106 02:43:01.110301 13425 layer_factory.hpp:77] Creating layer group2_block0_conv1
I1106 02:43:01.110338 13425 net.cpp:100] Creating Layer group2_block0_conv1
I1106 02:43:01.110361 13425 net.cpp:434] group2_block0_conv1 <- group2_block0_conv0
I1106 02:43:01.110393 13425 net.cpp:408] group2_block0_conv1 -> group2_block0_conv1
I1106 02:43:01.111068 13425 net.cpp:150] Setting up group2_block0_conv1
I1106 02:43:01.111104 13425 net.cpp:157] Top shape: 100 64 8 8 (409600)
I1106 02:43:01.111129 13425 net.cpp:165] Memory required for data: 353486000
I1106 02:43:01.111157 13425 layer_factory.hpp:77] Creating layer group2_block0_conv1_bn
I1106 02:43:01.111184 13425 net.cpp:100] Creating Layer group2_block0_conv1_bn
I1106 02:43:01.111207 13425 net.cpp:434] group2_block0_conv1_bn <- group2_block0_conv1
I1106 02:43:01.111239 13425 net.cpp:395] group2_block0_conv1_bn -> group2_block0_conv1 (in-place)
I1106 02:43:01.111279 13425 net.cpp:150] Setting up group2_block0_conv1_bn
I1106 02:43:01.111305 13425 net.cpp:157] Top shape: 100 64 8 8 (409600)
I1106 02:43:01.111327 13425 net.cpp:165] Memory required for data: 355124400
I1106 02:43:01.111366 13425 layer_factory.hpp:77] Creating layer group2_block0_conv1_scale
I1106 02:43:01.111393 13425 net.cpp:100] Creating Layer group2_block0_conv1_scale
I1106 02:43:01.111418 13425 net.cpp:434] group2_block0_conv1_scale <- group2_block0_conv1
I1106 02:43:01.111441 13425 net.cpp:395] group2_block0_conv1_scale -> group2_block0_conv1 (in-place)
I1106 02:43:01.111477 13425 layer_factory.hpp:77] Creating layer group2_block0_conv1_scale
I1106 02:43:01.111515 13425 net.cpp:150] Setting up group2_block0_conv1_scale
I1106 02:43:01.111529 13425 net.cpp:157] Top shape: 100 64 8 8 (409600)
I1106 02:43:01.111536 13425 net.cpp:165] Memory required for data: 356762800
I1106 02:43:01.111546 13425 layer_factory.hpp:77] Creating layer group2_block0_proj
I1106 02:43:01.111562 13425 net.cpp:100] Creating Layer group2_block0_proj
I1106 02:43:01.111572 13425 net.cpp:434] group2_block0_proj <- group1_block2_sum_group1_block2_sum_0_split_1
I1106 02:43:01.111583 13425 net.cpp:408] group2_block0_proj -> group2_block0_proj
I1106 02:43:01.111737 13425 net.cpp:150] Setting up group2_block0_proj
I1106 02:43:01.111750 13425 net.cpp:157] Top shape: 100 64 8 8 (409600)
I1106 02:43:01.111763 13425 net.cpp:165] Memory required for data: 358401200
I1106 02:43:01.111773 13425 layer_factory.hpp:77] Creating layer group2_block0_proj_bn
I1106 02:43:01.111790 13425 net.cpp:100] Creating Layer group2_block0_proj_bn
I1106 02:43:01.111800 13425 net.cpp:434] group2_block0_proj_bn <- group2_block0_proj
I1106 02:43:01.111810 13425 net.cpp:395] group2_block0_proj_bn -> group2_block0_proj (in-place)
I1106 02:43:01.111834 13425 net.cpp:150] Setting up group2_block0_proj_bn
I1106 02:43:01.111845 13425 net.cpp:157] Top shape: 100 64 8 8 (409600)
I1106 02:43:01.111857 13425 net.cpp:165] Memory required for data: 360039600
I1106 02:43:01.111870 13425 layer_factory.hpp:77] Creating layer group2_block0_proj_scale
I1106 02:43:01.111879 13425 net.cpp:100] Creating Layer group2_block0_proj_scale
I1106 02:43:01.111902 13425 net.cpp:434] group2_block0_proj_scale <- group2_block0_proj
I1106 02:43:01.111917 13425 net.cpp:395] group2_block0_proj_scale -> group2_block0_proj (in-place)
I1106 02:43:01.111934 13425 layer_factory.hpp:77] Creating layer group2_block0_proj_scale
I1106 02:43:01.111960 13425 net.cpp:150] Setting up group2_block0_proj_scale
I1106 02:43:01.111974 13425 net.cpp:157] Top shape: 100 64 8 8 (409600)
I1106 02:43:01.111979 13425 net.cpp:165] Memory required for data: 361678000
I1106 02:43:01.111989 13425 layer_factory.hpp:77] Creating layer group2_block0_sum
I1106 02:43:01.111999 13425 net.cpp:100] Creating Layer group2_block0_sum
I1106 02:43:01.112010 13425 net.cpp:434] group2_block0_sum <- group2_block0_proj
I1106 02:43:01.112018 13425 net.cpp:434] group2_block0_sum <- group2_block0_conv1
I1106 02:43:01.112031 13425 net.cpp:408] group2_block0_sum -> group2_block0_sum
I1106 02:43:01.112046 13425 net.cpp:150] Setting up group2_block0_sum
I1106 02:43:01.112058 13425 net.cpp:157] Top shape: 100 64 8 8 (409600)
I1106 02:43:01.112064 13425 net.cpp:165] Memory required for data: 363316400
I1106 02:43:01.112071 13425 layer_factory.hpp:77] Creating layer group2_block0_sum_group2_block0_sum_0_split
I1106 02:43:01.112081 13425 net.cpp:100] Creating Layer group2_block0_sum_group2_block0_sum_0_split
I1106 02:43:01.112087 13425 net.cpp:434] group2_block0_sum_group2_block0_sum_0_split <- group2_block0_sum
I1106 02:43:01.112102 13425 net.cpp:408] group2_block0_sum_group2_block0_sum_0_split -> group2_block0_sum_group2_block0_sum_0_split_0
I1106 02:43:01.112118 13425 net.cpp:408] group2_block0_sum_group2_block0_sum_0_split -> group2_block0_sum_group2_block0_sum_0_split_1
I1106 02:43:01.112136 13425 net.cpp:150] Setting up group2_block0_sum_group2_block0_sum_0_split
I1106 02:43:01.112148 13425 net.cpp:157] Top shape: 100 64 8 8 (409600)
I1106 02:43:01.112156 13425 net.cpp:157] Top shape: 100 64 8 8 (409600)
I1106 02:43:01.112162 13425 net.cpp:165] Memory required for data: 366593200
I1106 02:43:01.112169 13425 layer_factory.hpp:77] Creating layer group2_block1_conv0
I1106 02:43:01.112180 13425 net.cpp:100] Creating Layer group2_block1_conv0
I1106 02:43:01.112190 13425 net.cpp:434] group2_block1_conv0 <- group2_block0_sum_group2_block0_sum_0_split_0
I1106 02:43:01.112203 13425 net.cpp:408] group2_block1_conv0 -> group2_block1_conv0
I1106 02:43:01.112833 13425 net.cpp:150] Setting up group2_block1_conv0
I1106 02:43:01.112857 13425 net.cpp:157] Top shape: 100 64 8 8 (409600)
I1106 02:43:01.112866 13425 net.cpp:165] Memory required for data: 368231600
I1106 02:43:01.112877 13425 layer_factory.hpp:77] Creating layer group2_block1_conv0_bn
I1106 02:43:01.112886 13425 net.cpp:100] Creating Layer group2_block1_conv0_bn
I1106 02:43:01.112896 13425 net.cpp:434] group2_block1_conv0_bn <- group2_block1_conv0
I1106 02:43:01.112906 13425 net.cpp:395] group2_block1_conv0_bn -> group2_block1_conv0 (in-place)
I1106 02:43:01.112927 13425 net.cpp:150] Setting up group2_block1_conv0_bn
I1106 02:43:01.112939 13425 net.cpp:157] Top shape: 100 64 8 8 (409600)
I1106 02:43:01.112946 13425 net.cpp:165] Memory required for data: 369870000
I1106 02:43:01.112957 13425 layer_factory.hpp:77] Creating layer group2_block1_conv0_scale
I1106 02:43:01.112973 13425 net.cpp:100] Creating Layer group2_block1_conv0_scale
I1106 02:43:01.112982 13425 net.cpp:434] group2_block1_conv0_scale <- group2_block1_conv0
I1106 02:43:01.112993 13425 net.cpp:395] group2_block1_conv0_scale -> group2_block1_conv0 (in-place)
I1106 02:43:01.113008 13425 layer_factory.hpp:77] Creating layer group2_block1_conv0_scale
I1106 02:43:01.113030 13425 net.cpp:150] Setting up group2_block1_conv0_scale
I1106 02:43:01.113042 13425 net.cpp:157] Top shape: 100 64 8 8 (409600)
I1106 02:43:01.113049 13425 net.cpp:165] Memory required for data: 371508400
I1106 02:43:01.113059 13425 layer_factory.hpp:77] Creating layer group2_block1_conv0_relu
I1106 02:43:01.113068 13425 net.cpp:100] Creating Layer group2_block1_conv0_relu
I1106 02:43:01.113075 13425 net.cpp:434] group2_block1_conv0_relu <- group2_block1_conv0
I1106 02:43:01.113104 13425 net.cpp:395] group2_block1_conv0_relu -> group2_block1_conv0 (in-place)
I1106 02:43:01.113118 13425 net.cpp:150] Setting up group2_block1_conv0_relu
I1106 02:43:01.113127 13425 net.cpp:157] Top shape: 100 64 8 8 (409600)
I1106 02:43:01.113137 13425 net.cpp:165] Memory required for data: 373146800
I1106 02:43:01.113143 13425 layer_factory.hpp:77] Creating layer group2_block1_conv1
I1106 02:43:01.113154 13425 net.cpp:100] Creating Layer group2_block1_conv1
I1106 02:43:01.113165 13425 net.cpp:434] group2_block1_conv1 <- group2_block1_conv0
I1106 02:43:01.113176 13425 net.cpp:408] group2_block1_conv1 -> group2_block1_conv1
I1106 02:43:01.113821 13425 net.cpp:150] Setting up group2_block1_conv1
I1106 02:43:01.113837 13425 net.cpp:157] Top shape: 100 64 8 8 (409600)
I1106 02:43:01.113845 13425 net.cpp:165] Memory required for data: 374785200
I1106 02:43:01.113855 13425 layer_factory.hpp:77] Creating layer group2_block1_conv1_bn
I1106 02:43:01.113868 13425 net.cpp:100] Creating Layer group2_block1_conv1_bn
I1106 02:43:01.113878 13425 net.cpp:434] group2_block1_conv1_bn <- group2_block1_conv1
I1106 02:43:01.113888 13425 net.cpp:395] group2_block1_conv1_bn -> group2_block1_conv1 (in-place)
I1106 02:43:01.113909 13425 net.cpp:150] Setting up group2_block1_conv1_bn
I1106 02:43:01.113920 13425 net.cpp:157] Top shape: 100 64 8 8 (409600)
I1106 02:43:01.113927 13425 net.cpp:165] Memory required for data: 376423600
I1106 02:43:01.113961 13425 layer_factory.hpp:77] Creating layer group2_block1_conv1_scale
I1106 02:43:01.113975 13425 net.cpp:100] Creating Layer group2_block1_conv1_scale
I1106 02:43:01.113981 13425 net.cpp:434] group2_block1_conv1_scale <- group2_block1_conv1
I1106 02:43:01.113991 13425 net.cpp:395] group2_block1_conv1_scale -> group2_block1_conv1 (in-place)
I1106 02:43:01.114009 13425 layer_factory.hpp:77] Creating layer group2_block1_conv1_scale
I1106 02:43:01.114032 13425 net.cpp:150] Setting up group2_block1_conv1_scale
I1106 02:43:01.114045 13425 net.cpp:157] Top shape: 100 64 8 8 (409600)
I1106 02:43:01.114051 13425 net.cpp:165] Memory required for data: 378062000
I1106 02:43:01.114061 13425 layer_factory.hpp:77] Creating layer group2_block1_sum
I1106 02:43:01.114074 13425 net.cpp:100] Creating Layer group2_block1_sum
I1106 02:43:01.114084 13425 net.cpp:434] group2_block1_sum <- group2_block1_conv1
I1106 02:43:01.114092 13425 net.cpp:434] group2_block1_sum <- group2_block0_sum_group2_block0_sum_0_split_1
I1106 02:43:01.114106 13425 net.cpp:408] group2_block1_sum -> group2_block1_sum
I1106 02:43:01.114121 13425 net.cpp:150] Setting up group2_block1_sum
I1106 02:43:01.114133 13425 net.cpp:157] Top shape: 100 64 8 8 (409600)
I1106 02:43:01.114140 13425 net.cpp:165] Memory required for data: 379700400
I1106 02:43:01.114146 13425 layer_factory.hpp:77] Creating layer group2_block1_sum_group2_block1_sum_0_split
I1106 02:43:01.114156 13425 net.cpp:100] Creating Layer group2_block1_sum_group2_block1_sum_0_split
I1106 02:43:01.114162 13425 net.cpp:434] group2_block1_sum_group2_block1_sum_0_split <- group2_block1_sum
I1106 02:43:01.114172 13425 net.cpp:408] group2_block1_sum_group2_block1_sum_0_split -> group2_block1_sum_group2_block1_sum_0_split_0
I1106 02:43:01.114187 13425 net.cpp:408] group2_block1_sum_group2_block1_sum_0_split -> group2_block1_sum_group2_block1_sum_0_split_1
I1106 02:43:01.114204 13425 net.cpp:150] Setting up group2_block1_sum_group2_block1_sum_0_split
I1106 02:43:01.114217 13425 net.cpp:157] Top shape: 100 64 8 8 (409600)
I1106 02:43:01.114224 13425 net.cpp:157] Top shape: 100 64 8 8 (409600)
I1106 02:43:01.114230 13425 net.cpp:165] Memory required for data: 382977200
I1106 02:43:01.114238 13425 layer_factory.hpp:77] Creating layer group2_block2_conv0
I1106 02:43:01.114249 13425 net.cpp:100] Creating Layer group2_block2_conv0
I1106 02:43:01.114256 13425 net.cpp:434] group2_block2_conv0 <- group2_block1_sum_group2_block1_sum_0_split_0
I1106 02:43:01.114267 13425 net.cpp:408] group2_block2_conv0 -> group2_block2_conv0
I1106 02:43:01.114888 13425 net.cpp:150] Setting up group2_block2_conv0
I1106 02:43:01.114915 13425 net.cpp:157] Top shape: 100 64 8 8 (409600)
I1106 02:43:01.114925 13425 net.cpp:165] Memory required for data: 384615600
I1106 02:43:01.114935 13425 layer_factory.hpp:77] Creating layer group2_block2_conv0_bn
I1106 02:43:01.114951 13425 net.cpp:100] Creating Layer group2_block2_conv0_bn
I1106 02:43:01.114961 13425 net.cpp:434] group2_block2_conv0_bn <- group2_block2_conv0
I1106 02:43:01.114971 13425 net.cpp:395] group2_block2_conv0_bn -> group2_block2_conv0 (in-place)
I1106 02:43:01.114995 13425 net.cpp:150] Setting up group2_block2_conv0_bn
I1106 02:43:01.115010 13425 net.cpp:157] Top shape: 100 64 8 8 (409600)
I1106 02:43:01.115020 13425 net.cpp:165] Memory required for data: 386254000
I1106 02:43:01.115031 13425 layer_factory.hpp:77] Creating layer group2_block2_conv0_scale
I1106 02:43:01.115043 13425 net.cpp:100] Creating Layer group2_block2_conv0_scale
I1106 02:43:01.115051 13425 net.cpp:434] group2_block2_conv0_scale <- group2_block2_conv0
I1106 02:43:01.115062 13425 net.cpp:395] group2_block2_conv0_scale -> group2_block2_conv0 (in-place)
I1106 02:43:01.115079 13425 layer_factory.hpp:77] Creating layer group2_block2_conv0_scale
I1106 02:43:01.115103 13425 net.cpp:150] Setting up group2_block2_conv0_scale
I1106 02:43:01.115115 13425 net.cpp:157] Top shape: 100 64 8 8 (409600)
I1106 02:43:01.115121 13425 net.cpp:165] Memory required for data: 387892400
I1106 02:43:01.115131 13425 layer_factory.hpp:77] Creating layer group2_block2_conv0_relu
I1106 02:43:01.115144 13425 net.cpp:100] Creating Layer group2_block2_conv0_relu
I1106 02:43:01.115150 13425 net.cpp:434] group2_block2_conv0_relu <- group2_block2_conv0
I1106 02:43:01.115162 13425 net.cpp:395] group2_block2_conv0_relu -> group2_block2_conv0 (in-place)
I1106 02:43:01.115172 13425 net.cpp:150] Setting up group2_block2_conv0_relu
I1106 02:43:01.115183 13425 net.cpp:157] Top shape: 100 64 8 8 (409600)
I1106 02:43:01.115190 13425 net.cpp:165] Memory required for data: 389530800
I1106 02:43:01.115196 13425 layer_factory.hpp:77] Creating layer group2_block2_conv1
I1106 02:43:01.115211 13425 net.cpp:100] Creating Layer group2_block2_conv1
I1106 02:43:01.115221 13425 net.cpp:434] group2_block2_conv1 <- group2_block2_conv0
I1106 02:43:01.115231 13425 net.cpp:408] group2_block2_conv1 -> group2_block2_conv1
I1106 02:43:01.115854 13425 net.cpp:150] Setting up group2_block2_conv1
I1106 02:43:01.115867 13425 net.cpp:157] Top shape: 100 64 8 8 (409600)
I1106 02:43:01.115880 13425 net.cpp:165] Memory required for data: 391169200
I1106 02:43:01.115890 13425 layer_factory.hpp:77] Creating layer group2_block2_conv1_bn
I1106 02:43:01.115900 13425 net.cpp:100] Creating Layer group2_block2_conv1_bn
I1106 02:43:01.115908 13425 net.cpp:434] group2_block2_conv1_bn <- group2_block2_conv1
I1106 02:43:01.115918 13425 net.cpp:395] group2_block2_conv1_bn -> group2_block2_conv1 (in-place)
I1106 02:43:01.115939 13425 net.cpp:150] Setting up group2_block2_conv1_bn
I1106 02:43:01.115954 13425 net.cpp:157] Top shape: 100 64 8 8 (409600)
I1106 02:43:01.115963 13425 net.cpp:165] Memory required for data: 392807600
I1106 02:43:01.115974 13425 layer_factory.hpp:77] Creating layer group2_block2_conv1_scale
I1106 02:43:01.115986 13425 net.cpp:100] Creating Layer group2_block2_conv1_scale
I1106 02:43:01.115993 13425 net.cpp:434] group2_block2_conv1_scale <- group2_block2_conv1
I1106 02:43:01.116003 13425 net.cpp:395] group2_block2_conv1_scale -> group2_block2_conv1 (in-place)
I1106 02:43:01.116020 13425 layer_factory.hpp:77] Creating layer group2_block2_conv1_scale
I1106 02:43:01.116047 13425 net.cpp:150] Setting up group2_block2_conv1_scale
I1106 02:43:01.116060 13425 net.cpp:157] Top shape: 100 64 8 8 (409600)
I1106 02:43:01.116065 13425 net.cpp:165] Memory required for data: 394446000
I1106 02:43:01.116075 13425 layer_factory.hpp:77] Creating layer group2_block2_sum
I1106 02:43:01.116088 13425 net.cpp:100] Creating Layer group2_block2_sum
I1106 02:43:01.116096 13425 net.cpp:434] group2_block2_sum <- group2_block2_conv1
I1106 02:43:01.116120 13425 net.cpp:434] group2_block2_sum <- group2_block1_sum_group2_block1_sum_0_split_1
I1106 02:43:01.116133 13425 net.cpp:408] group2_block2_sum -> group2_block2_sum
I1106 02:43:01.116149 13425 net.cpp:150] Setting up group2_block2_sum
I1106 02:43:01.116161 13425 net.cpp:157] Top shape: 100 64 8 8 (409600)
I1106 02:43:01.116168 13425 net.cpp:165] Memory required for data: 396084400
I1106 02:43:01.116174 13425 layer_factory.hpp:77] Creating layer global_avg_pool
I1106 02:43:01.116184 13425 net.cpp:100] Creating Layer global_avg_pool
I1106 02:43:01.116194 13425 net.cpp:434] global_avg_pool <- group2_block2_sum
I1106 02:43:01.116204 13425 net.cpp:408] global_avg_pool -> global_avg_pool
I1106 02:43:01.116235 13425 net.cpp:150] Setting up global_avg_pool
I1106 02:43:01.116247 13425 net.cpp:157] Top shape: 100 64 1 1 (6400)
I1106 02:43:01.116255 13425 net.cpp:165] Memory required for data: 396110000
I1106 02:43:01.116261 13425 layer_factory.hpp:77] Creating layer fc
I1106 02:43:01.116278 13425 net.cpp:100] Creating Layer fc
I1106 02:43:01.116292 13425 net.cpp:434] fc <- global_avg_pool
I1106 02:43:01.116307 13425 net.cpp:408] fc -> fc
I1106 02:43:01.116345 13425 net.cpp:150] Setting up fc
I1106 02:43:01.116358 13425 net.cpp:157] Top shape: 100 12 (1200)
I1106 02:43:01.116364 13425 net.cpp:165] Memory required for data: 396114800
I1106 02:43:01.116375 13425 layer_factory.hpp:77] Creating layer fc_fc_0_split
I1106 02:43:01.116384 13425 net.cpp:100] Creating Layer fc_fc_0_split
I1106 02:43:01.116391 13425 net.cpp:434] fc_fc_0_split <- fc
I1106 02:43:01.116405 13425 net.cpp:408] fc_fc_0_split -> fc_fc_0_split_0
I1106 02:43:01.116418 13425 net.cpp:408] fc_fc_0_split -> fc_fc_0_split_1
I1106 02:43:01.116432 13425 net.cpp:150] Setting up fc_fc_0_split
I1106 02:43:01.116443 13425 net.cpp:157] Top shape: 100 12 (1200)
I1106 02:43:01.116451 13425 net.cpp:157] Top shape: 100 12 (1200)
I1106 02:43:01.116457 13425 net.cpp:165] Memory required for data: 396124400
I1106 02:43:01.116463 13425 layer_factory.hpp:77] Creating layer loss
I1106 02:43:01.116473 13425 net.cpp:100] Creating Layer loss
I1106 02:43:01.116480 13425 net.cpp:434] loss <- fc_fc_0_split_0
I1106 02:43:01.116488 13425 net.cpp:434] loss <- label_data_1_split_0
I1106 02:43:01.116497 13425 net.cpp:408] loss -> loss
I1106 02:43:01.116514 13425 layer_factory.hpp:77] Creating layer loss
I1106 02:43:01.116544 13425 net.cpp:150] Setting up loss
I1106 02:43:01.116554 13425 net.cpp:157] Top shape: (1)
I1106 02:43:01.116561 13425 net.cpp:160]     with loss weight 1
I1106 02:43:01.116593 13425 net.cpp:165] Memory required for data: 396124404
I1106 02:43:01.116600 13425 layer_factory.hpp:77] Creating layer softmax
I1106 02:43:01.116608 13425 net.cpp:100] Creating Layer softmax
I1106 02:43:01.116616 13425 net.cpp:434] softmax <- fc_fc_0_split_1
I1106 02:43:01.116624 13425 net.cpp:408] softmax -> softmax
I1106 02:43:01.116641 13425 net.cpp:150] Setting up softmax
I1106 02:43:01.116652 13425 net.cpp:157] Top shape: 100 12 (1200)
I1106 02:43:01.116658 13425 net.cpp:165] Memory required for data: 396129204
I1106 02:43:01.116664 13425 layer_factory.hpp:77] Creating layer Accuracy
I1106 02:43:01.116673 13425 net.cpp:100] Creating Layer Accuracy
I1106 02:43:01.116680 13425 net.cpp:434] Accuracy <- softmax
I1106 02:43:01.116688 13425 net.cpp:434] Accuracy <- label_data_1_split_1
I1106 02:43:01.116698 13425 net.cpp:408] Accuracy -> Accuracy
…
