…
I1105 06:20:55.244721 13083 net.cpp:322] The NetState phase (0) differed from the phase (1) specified by a rule in layer data
I1105 06:20:55.245543 13083 net.cpp:58] Initializing net from parameters: 
name: "resnet20-cifar10"
state {
  phase: TRAIN
  level: 0
  stage: ""
}
layer {
  name: "data"
  type: "Data"
  top: "data"
  top: "label"
  include {
    phase: TRAIN
  }
  transform_param {
    mirror: true
    crop_size: 32
    mean_file: "data/mean.binaryproto"
  }
  data_param {
    source: "data2/test_lmdb"
    batch_size: 100
    backend: LMDB
  }
}
layer {
  name: "first_conv"
  type: "Convolution"
  bottom: "data"
  top: "first_conv"
  param {
    lr_mult: 1
    decay_mult: 1
  }
  convolution_param {
    num_output: 16
    pad: 1
    kernel_size: 3
    stride: 1
    weight_filler {
      type: "msra"
    }
  }
}
layer {
  name: "first_conv_bn"
  type: "BatchNorm"
  bottom: "first_conv"
  top: "first_conv"
  batch_norm_param {
    use_global_stats: false
    moving_average_fraction: 0.95
  }
}
layer {
  name: "first_conv_scale"
  type: "Scale"
  bottom: "first_conv"
  top: "first_conv"
  scale_param {
    bias_term: true
  }
}
layer {
  name: "first_conv_relu"
  type: "ReLU"
  bottom: "first_conv"
  top: "first_conv"
}
layer {
  name: "group0_block0_conv0"
  type: "Convolution"
  bottom: "first_conv"
  top: "group0_block0_conv0"
  param {
    lr_mult: 1
    decay_mult: 1
  }
  convolution_param {
    num_output: 16
    pad: 1
    kernel_size: 3
    stride: 1
    weight_filler {
      type: "msra"
    }
  }
}
layer {
  name: "group0_block0_conv0_bn"
  type: "BatchNorm"
  bottom: "group0_block0_conv0"
  top: "group0_block0_conv0"
  batch_norm_param {
    use_global_stats: false
    moving_average_fraction: 0.95
  }
}
layer {
  name: "group0_block0_conv0_scale"
  type: "Scale"
  bottom: "group0_block0_conv0"
  top: "group0_block0_conv0"
  scale_param {
    bias_term: true
  }
}
layer {
  name: "group0_block0_conv0_relu"
  type: "ReLU"
  bottom: "group0_block0_conv0"
  top: "group0_block0_conv0"
}
layer {
  name: "group0_block0_conv1"
  type: "Convolution"
  bottom: "group0_block0_conv0"
  top: "group0_block0_conv1"
  param {
    lr_mult: 1
    decay_mult: 1
  }
  convolution_param {
    num_output: 16
    pad: 1
    kernel_size: 3
    stride: 1
    weight_filler {
      type: "msra"
    }
  }
}
layer {
  name: "group0_block0_conv1_bn"
  type: "BatchNorm"
  bottom: "group0_block0_conv1"
  top: "group0_block0_conv1"
  batch_norm_param {
    use_global_stats: false
    moving_average_fraction: 0.95
  }
}
layer {
  name: "group0_block0_conv1_scale"
  type: "Scale"
  bottom: "group0_block0_conv1"
  top: "group0_block0_conv1"
  scale_param {
    bias_term: true
  }
}
layer {
  name: "group0_block0_sum"
  type: "Eltwise"
  bottom: "group0_block0_conv1"
  bottom: "first_conv"
  top: "group0_block0_sum"
  eltwise_param {
    operation: SUM
  }
}
layer {
  name: "group0_block1_conv0"
  type: "Convolution"
  bottom: "group0_block0_sum"
  top: "group0_block1_conv0"
  param {
    lr_mult: 1
    decay_mult: 1
  }
  convolution_param {
    num_output: 16
    pad: 1
    kernel_size: 3
    stride: 1
    weight_filler {
      type: "msra"
    }
  }
}
layer {
  name: "group0_block1_conv0_bn"
  type: "BatchNorm"
  bottom: "group0_block1_conv0"
  top: "group0_block1_conv0"
  batch_norm_param {
    use_global_stats: false
    moving_average_fraction: 0.95
  }
}
layer {
  name: "group0_block1_conv0_scale"
  type: "Scale"
  bottom: "group0_block1_conv0"
  top: "group0_block1_conv0"
  scale_param {
    bias_term: true
  }
}
layer {
  name: "group0_block1_conv0_relu"
  type: "ReLU"
  bottom: "group0_block1_conv0"
  top: "group0_block1_conv0"
}
layer {
  name: "group0_block1_conv1"
  type: "Convolution"
  bottom: "group0_block1_conv0"
  top: "group0_block1_conv1"
  param {
    lr_mult: 1
    decay_mult: 1
  }
  convolution_param {
    num_output: 16
    pad: 1
    kernel_size: 3
    stride: 1
    weight_filler {
      type: "msra"
    }
  }
}
layer {
  name: "group0_block1_conv1_bn"
  type: "BatchNorm"
  bottom: "group0_block1_conv1"
  top: "group0_block1_conv1"
  batch_norm_param {
    use_global_stats: false
    moving_average_fraction: 0.95
  }
}
layer {
  name: "group0_block1_conv1_scale"
  type: "Scale"
  bottom: "group0_block1_conv1"
  top: "group0_block1_conv1"
  scale_param {
    bias_term: true
  }
}
layer {
  name: "group0_block1_sum"
  type: "Eltwise"
  bottom: "group0_block1_conv1"
  bottom: "group0_block0_sum"
  top: "group0_block1_sum"
  eltwise_param {
    operation: SUM
  }
}
layer {
  name: "group0_block2_conv0"
  type: "Convolution"
  bottom: "group0_block1_sum"
  top: "group0_block2_conv0"
  param {
    lr_mult: 1
    decay_mult: 1
  }
  convolution_param {
    num_output: 16
    pad: 1
    kernel_size: 3
    stride: 1
    weight_filler {
      type: "msra"
    }
  }
}
layer {
  name: "group0_block2_conv0_bn"
  type: "BatchNorm"
  bottom: "group0_block2_conv0"
  top: "group0_block2_conv0"
  batch_norm_param {
    use_global_stats: false
    moving_average_fraction: 0.95
  }
}
layer {
  name: "group0_block2_conv0_scale"
  type: "Scale"
  bottom: "group0_block2_conv0"
  top: "group0_block2_conv0"
  scale_param {
    bias_term: true
  }
}
layer {
  name: "group0_block2_conv0_relu"
  type: "ReLU"
  bottom: "group0_block2_conv0"
  top: "group0_block2_conv0"
}
layer {
  name: "group0_block2_conv1"
  type: "Convolution"
  bottom: "group0_block2_conv0"
  top: "group0_block2_conv1"
  param {
    lr_mult: 1
    decay_mult: 1
  }
  convolution_param {
    num_output: 16
    pad: 1
    kernel_size: 3
    stride: 1
    weight_filler {
      type: "msra"
    }
  }
}
layer {
  name: "group0_block2_conv1_bn"
  type: "BatchNorm"
  bottom: "group0_block2_conv1"
  top: "group0_block2_conv1"
  batch_norm_param {
    use_global_stats: false
    moving_average_fraction: 0.95
  }
}
layer {
  name: "group0_block2_conv1_scale"
  type: "Scale"
  bottom: "group0_block2_conv1"
  top: "group0_block2_conv1"
  scale_param {
    bias_term: true
  }
}
layer {
  name: "group0_block2_sum"
  type: "Eltwise"
  bottom: "group0_block2_conv1"
  bottom: "group0_block1_sum"
  top: "group0_block2_sum"
  eltwise_param {
    operation: SUM
  }
}
layer {
  name: "group1_block0_conv0"
  type: "Convolution"
  bottom: "group0_block2_sum"
  top: "group1_block0_conv0"
  param {
    lr_mult: 1
    decay_mult: 1
  }
  convolution_param {
    num_output: 32
    pad: 1
    kernel_size: 3
    stride: 2
    weight_filler {
      type: "msra"
    }
  }
}
layer {
  name: "group1_block0_conv0_bn"
  type: "BatchNorm"
  bottom: "group1_block0_conv0"
  top: "group1_block0_conv0"
  batch_norm_param {
    use_global_stats: false
    moving_average_fraction: 0.95
  }
}
layer {
  name: "group1_block0_conv0_scale"
  type: "Scale"
  bottom: "group1_block0_conv0"
  top: "group1_block0_conv0"
  scale_param {
    bias_term: true
  }
}
layer {
  name: "group1_block0_conv0_relu"
  type: "ReLU"
  bottom: "group1_block0_conv0"
  top: "group1_block0_conv0"
}
layer {
  name: "group1_block0_conv1"
  type: "Convolution"
  bottom: "group1_block0_conv0"
  top: "group1_block0_conv1"
  param {
    lr_mult: 1
    decay_mult: 1
  }
  convolution_param {
    num_output: 32
    pad: 1
    kernel_size: 3
    stride: 1
    weight_filler {
      type: "msra"
    }
  }
}
layer {
  name: "group1_block0_conv1_bn"
  type: "BatchNorm"
  bottom: "group1_block0_conv1"
  top: "group1_block0_conv1"
  batch_norm_param {
    use_global_stats: false
    moving_average_fraction: 0.95
  }
}
layer {
  name: "group1_block0_conv1_scale"
  type: "Scale"
  bottom: "group1_block0_conv1"
  top: "group1_block0_conv1"
  scale_param {
    bias_term: true
  }
}
layer {
  name: "group1_block0_proj"
  type: "Convolution"
  bottom: "group0_block2_sum"
  top: "group1_block0_proj"
  param {
    lr_mult: 1
    decay_mult: 1
  }
  convolution_param {
    num_output: 32
    pad: 0
    kernel_size: 2
    stride: 2
    weight_filler {
      type: "msra"
    }
  }
}
layer {
  name: "group1_block0_proj_bn"
  type: "BatchNorm"
  bottom: "group1_block0_proj"
  top: "group1_block0_proj"
  batch_norm_param {
    use_global_stats: false
    moving_average_fraction: 0.95
  }
}
layer {
  name: "group1_block0_proj_scale"
  type: "Scale"
  bottom: "group1_block0_proj"
  top: "group1_block0_proj"
  scale_param {
    bias_term: true
  }
}
layer {
  name: "group1_block0_sum"
  type: "Eltwise"
  bottom: "group1_block0_proj"
  bottom: "group1_block0_conv1"
  top: "group1_block0_sum"
  eltwise_param {
    operation: SUM
  }
}
layer {
  name: "group1_block1_conv0"
  type: "Convolution"
  bottom: "group1_block0_sum"
  top: "group1_block1_conv0"
  param {
    lr_mult: 1
    decay_mult: 1
  }
  convolution_param {
    num_output: 32
    pad: 1
    kernel_size: 3
    stride: 1
    weight_filler {
      type: "msra"
    }
  }
}
layer {
  name: "group1_block1_conv0_bn"
  type: "BatchNorm"
  bottom: "group1_block1_conv0"
  top: "group1_block1_conv0"
  batch_norm_param {
    use_global_stats: false
    moving_average_fraction: 0.95
  }
}
layer {
  name: "group1_block1_conv0_scale"
  type: "Scale"
  bottom: "group1_block1_conv0"
  top: "group1_block1_conv0"
  scale_param {
    bias_term: true
  }
}
layer {
  name: "group1_block1_conv0_relu"
  type: "ReLU"
  bottom: "group1_block1_conv0"
  top: "group1_block1_conv0"
}
layer {
  name: "group1_block1_conv1"
  type: "Convolution"
  bottom: "group1_block1_conv0"
  top: "group1_block1_conv1"
  param {
    lr_mult: 1
    decay_mult: 1
  }
  convolution_param {
    num_output: 32
    pad: 1
    kernel_size: 3
    stride: 1
    weight_filler {
      type: "msra"
    }
  }
}
layer {
  name: "group1_block1_conv1_bn"
  type: "BatchNorm"
  bottom: "group1_block1_conv1"
  top: "group1_block1_conv1"
  batch_norm_param {
    use_global_stats: false
    moving_average_fraction: 0.95
  }
}
layer {
  name: "group1_block1_conv1_scale"
  type: "Scale"
  bottom: "group1_block1_conv1"
  top: "group1_block1_conv1"
  scale_param {
    bias_term: true
  }
}
layer {
  name: "group1_block1_sum"
  type: "Eltwise"
  bottom: "group1_block1_conv1"
  bottom: "group1_block0_sum"
  top: "group1_block1_sum"
  eltwise_param {
    operation: SUM
  }
}
layer {
  name: "group1_block2_conv0"
  type: "Convolution"
  bottom: "group1_block1_sum"
  top: "group1_block2_conv0"
  param {
    lr_mult: 1
    decay_mult: 1
  }
  convolution_param {
    num_output: 32
    pad: 1
    kernel_size: 3
    stride: 1
    weight_filler {
      type: "msra"
    }
  }
}
layer {
  name: "group1_block2_conv0_bn"
  type: "BatchNorm"
  bottom: "group1_block2_conv0"
  top: "group1_block2_conv0"
  batch_norm_param {
    use_global_stats: false
    moving_average_fraction: 0.95
  }
}
layer {
  name: "group1_block2_conv0_scale"
  type: "Scale"
  bottom: "group1_block2_conv0"
  top: "group1_block2_conv0"
  scale_param {
    bias_term: true
  }
}
layer {
  name: "group1_block2_conv0_relu"
  type: "ReLU"
  bottom: "group1_block2_conv0"
  top: "group1_block2_conv0"
}
layer {
  name: "group1_block2_conv1"
  type: "Convolution"
  bottom: "group1_block2_conv0"
  top: "group1_block2_conv1"
  param {
    lr_mult: 1
    decay_mult: 1
  }
  convolution_param {
    num_output: 32
    pad: 1
    kernel_size: 3
    stride: 1
    weight_filler {
      type: "msra"
    }
  }
}
layer {
  name: "group1_block2_conv1_bn"
  type: "BatchNorm"
  bottom: "group1_block2_conv1"
  top: "group1_block2_conv1"
  batch_norm_param {
    use_global_stats: false
    moving_average_fraction: 0.95
  }
}
layer {
  name: "group1_block2_conv1_scale"
  type: "Scale"
  bottom: "group1_block2_conv1"
  top: "group1_block2_conv1"
  scale_param {
    bias_term: true
  }
}
layer {
  name: "group1_block2_sum"
  type: "Eltwise"
  bottom: "group1_block2_conv1"
  bottom: "group1_block1_sum"
  top: "group1_block2_sum"
  eltwise_param {
    operation: SUM
  }
}
layer {
  name: "group2_block0_conv0"
  type: "Convolution"
  bottom: "group1_block2_sum"
  top: "group2_block0_conv0"
  param {
    lr_mult: 1
    decay_mult: 1
  }
  convolution_param {
    num_output: 64
    pad: 1
    kernel_size: 3
    stride: 2
    weight_filler {
      type: "msra"
    }
  }
}
layer {
  name: "group2_block0_conv0_bn"
  type: "BatchNorm"
  bottom: "group2_block0_conv0"
  top: "group2_block0_conv0"
  batch_norm_param {
    use_global_stats: false
    moving_average_fraction: 0.95
  }
}
layer {
  name: "group2_block0_conv0_scale"
  type: "Scale"
  bottom: "group2_block0_conv0"
  top: "group2_block0_conv0"
  scale_param {
    bias_term: true
  }
}
layer {
  name: "group2_block0_conv0_relu"
  type: "ReLU"
  bottom: "group2_block0_conv0"
  top: "group2_block0_conv0"
}
layer {
  name: "group2_block0_conv1"
  type: "Convolution"
  bottom: "group2_block0_conv0"
  top: "group2_block0_conv1"
  param {
    lr_mult: 1
    decay_mult: 1
  }
  convolution_param {
    num_output: 64
    pad: 1
    kernel_size: 3
    stride: 1
    weight_filler {
      type: "msra"
    }
  }
}
layer {
  name: "group2_block0_conv1_bn"
  type: "BatchNorm"
  bottom: "group2_block0_conv1"
  top: "group2_block0_conv1"
  batch_norm_param {
    use_global_stats: false
    moving_average_fraction: 0.95
  }
}
layer {
  name: "group2_block0_conv1_scale"
  type: "Scale"
  bottom: "group2_block0_conv1"
  top: "group2_block0_conv1"
  scale_param {
    bias_term: true
  }
}
layer {
  name: "group2_block0_proj"
  type: "Convolution"
  bottom: "group1_block2_sum"
  top: "group2_block0_proj"
  param {
    lr_mult: 1
    decay_mult: 1
  }
  convolution_param {
    num_output: 64
    pad: 0
    kernel_size: 2
    stride: 2
    weight_filler {
      type: "msra"
    }
  }
}
layer {
  name: "group2_block0_proj_bn"
  type: "BatchNorm"
  bottom: "group2_block0_proj"
  top: "group2_block0_proj"
  batch_norm_param {
    use_global_stats: false
    moving_average_fraction: 0.95
  }
}
layer {
  name: "group2_block0_proj_scale"
  type: "Scale"
  bottom: "group2_block0_proj"
  top: "group2_block0_proj"
  scale_param {
    bias_term: true
  }
}
layer {
  name: "group2_block0_sum"
  type: "Eltwise"
  bottom: "group2_block0_proj"
  bottom: "group2_block0_conv1"
  top: "group2_block0_sum"
  eltwise_param {
    operation: SUM
  }
}
layer {
  name: "group2_block1_conv0"
  type: "Convolution"
  bottom: "group2_block0_sum"
  top: "group2_block1_conv0"
  param {
    lr_mult: 1
    decay_mult: 1
  }
  convolution_param {
    num_output: 64
    pad: 1
    kernel_size: 3
    stride: 1
    weight_filler {
      type: "msra"
    }
  }
}
layer {
  name: "group2_block1_conv0_bn"
  type: "BatchNorm"
  bottom: "group2_block1_conv0"
  top: "group2_block1_conv0"
  batch_norm_param {
    use_global_stats: false
    moving_average_fraction: 0.95
  }
}
layer {
  name: "group2_block1_conv0_scale"
  type: "Scale"
  bottom: "group2_block1_conv0"
  top: "group2_block1_conv0"
  scale_param {
    bias_term: true
  }
}
layer {
  name: "group2_block1_conv0_relu"
  type: "ReLU"
  bottom: "group2_block1_conv0"
  top: "group2_block1_conv0"
}
layer {
  name: "group2_block1_conv1"
  type: "Convolution"
  bottom: "group2_block1_conv0"
  top: "group2_block1_conv1"
  param {
    lr_mult: 1
    decay_mult: 1
  }
  convolution_param {
    num_output: 64
    pad: 1
    kernel_size: 3
    stride: 1
    weight_filler {
      type: "msra"
    }
  }
}
layer {
  name: "group2_block1_conv1_bn"
  type: "BatchNorm"
  bottom: "group2_block1_conv1"
  top: "group2_block1_conv1"
  batch_norm_param {
    use_global_stats: false
    moving_average_fraction: 0.95
  }
}
layer {
  name: "group2_block1_conv1_scale"
  type: "Scale"
  bottom: "group2_block1_conv1"
  top: "group2_block1_conv1"
  scale_param {
    bias_term: true
  }
}
layer {
  name: "group2_block1_sum"
  type: "Eltwise"
  bottom: "group2_block1_conv1"
  bottom: "group2_block0_sum"
  top: "group2_block1_sum"
  eltwise_param {
    operation: SUM
  }
}
layer {
  name: "group2_block2_conv0"
  type: "Convolution"
  bottom: "group2_block1_sum"
  top: "group2_block2_conv0"
  param {
    lr_mult: 1
    decay_mult: 1
  }
  convolution_param {
    num_output: 64
    pad: 1
    kernel_size: 3
    stride: 1
    weight_filler {
      type: "msra"
    }
  }
}
layer {
  name: "group2_block2_conv0_bn"
  type: "BatchNorm"
  bottom: "group2_block2_conv0"
  top: "group2_block2_conv0"
  batch_norm_param {
    use_global_stats: false
    moving_average_fraction: 0.95
  }
}
layer {
  name: "group2_block2_conv0_scale"
  type: "Scale"
  bottom: "group2_block2_conv0"
  top: "group2_block2_conv0"
  scale_param {
    bias_term: true
  }
}
layer {
  name: "group2_block2_conv0_relu"
  type: "ReLU"
  bottom: "group2_block2_conv0"
  top: "group2_block2_conv0"
}
layer {
  name: "group2_block2_conv1"
  type: "Convolution"
  bottom: "group2_block2_conv0"
  top: "group2_block2_conv1"
  param {
    lr_mult: 1
    decay_mult: 1
  }
  convolution_param {
    num_output: 64
    pad: 1
    kernel_size: 3
    stride: 1
    weight_filler {
      type: "msra"
    }
  }
}
layer {
  name: "group2_block2_conv1_bn"
  type: "BatchNorm"
  bottom: "group2_block2_conv1"
  top: "group2_block2_conv1"
  batch_norm_param {
    use_global_stats: false
    moving_average_fraction: 0.95
  }
}
layer {
  name: "group2_block2_conv1_scale"
  type: "Scale"
  bottom: "group2_block2_conv1"
  top: "group2_block2_conv1"
  scale_param {
    bias_term: true
  }
}
layer {
  name: "group2_block2_sum"
  type: "Eltwise"
  bottom: "group2_block2_conv1"
  bottom: "group2_block1_sum"
  top: "group2_block2_sum"
  eltwise_param {
    operation: SUM
  }
}
layer {
  name: "global_avg_pool"
  type: "Pooling"
  bottom: "group2_block2_sum"
  top: "global_avg_pool"
  pooling_param {
    pool: AVE
    global_pooling: true
  }
}
layer {
  name: "fc"
  type: "InnerProduct"
  bottom: "global_avg_pool"
  top: "fc"
  param {
    lr_mult: 1
    decay_mult: 1
  }
  param {
    lr_mult: 2
    decay_mult: 0
  }
  inner_product_param {
    num_output: 12
    weight_filler {
      type: "msra"
    }
    bias_filler {
      type: "constant"
      value: 0
    }
  }
}
layer {
  name: "loss"
  type: "SoftmaxWithLoss"
  bottom: "fc"
  bottom: "label"
  top: "loss"
}
layer {
  name: "softmax"
  type: "Softmax"
  bottom: "fc"
  top: "softmax"
}
layer {
  name: "Accuracy"
  type: "Accuracy"
  bottom: "softmax"
  bottom: "label"
  top: "Accuracy"
}
I1105 06:20:55.246109 13083 layer_factory.hpp:77] Creating layer data
I1105 06:20:55.246561 13083 net.cpp:100] Creating Layer data
I1105 06:20:55.246634 13083 net.cpp:408] data -> data
I1105 06:20:55.246757 13083 net.cpp:408] data -> label
I1105 06:20:55.246788 13083 data_transformer.cpp:25] Loading mean file from: data/mean.binaryproto
I1105 06:20:55.246872 13086 db_lmdb.cpp:35] Opened lmdb data2/test_lmdb
I1105 06:20:55.246973 13083 data_layer.cpp:41] output data size: 100,3,32,32
I1105 06:20:55.247110 13083 net.cpp:150] Setting up data
I1105 06:20:55.247136 13083 net.cpp:157] Top shape: 100 3 32 32 (307200)
I1105 06:20:55.247150 13083 net.cpp:157] Top shape: 100 (100)
I1105 06:20:55.247159 13083 net.cpp:165] Memory required for data: 1229200
I1105 06:20:55.247175 13083 layer_factory.hpp:77] Creating layer label_data_1_split
I1105 06:20:55.247195 13083 net.cpp:100] Creating Layer label_data_1_split
I1105 06:20:55.247210 13083 net.cpp:434] label_data_1_split <- label
I1105 06:20:55.247233 13083 net.cpp:408] label_data_1_split -> label_data_1_split_0
I1105 06:20:55.247252 13083 net.cpp:408] label_data_1_split -> label_data_1_split_1
I1105 06:20:55.247278 13083 net.cpp:150] Setting up label_data_1_split
I1105 06:20:55.247292 13083 net.cpp:157] Top shape: 100 (100)
I1105 06:20:55.247303 13083 net.cpp:157] Top shape: 100 (100)
I1105 06:20:55.247313 13083 net.cpp:165] Memory required for data: 1230000
I1105 06:20:55.247370 13083 layer_factory.hpp:77] Creating layer first_conv
I1105 06:20:55.247406 13083 net.cpp:100] Creating Layer first_conv
I1105 06:20:55.247417 13083 net.cpp:434] first_conv <- data
I1105 06:20:55.247433 13083 net.cpp:408] first_conv -> first_conv
I1105 06:20:55.247537 13083 net.cpp:150] Setting up first_conv
I1105 06:20:55.247555 13083 net.cpp:157] Top shape: 100 16 32 32 (1638400)
I1105 06:20:55.247565 13083 net.cpp:165] Memory required for data: 7783600
I1105 06:20:55.247615 13083 layer_factory.hpp:77] Creating layer first_conv_bn
I1105 06:20:55.247642 13083 net.cpp:100] Creating Layer first_conv_bn
I1105 06:20:55.247653 13083 net.cpp:434] first_conv_bn <- first_conv
I1105 06:20:55.247668 13083 net.cpp:395] first_conv_bn -> first_conv (in-place)
I1105 06:20:55.247719 13083 net.cpp:150] Setting up first_conv_bn
I1105 06:20:55.247735 13083 net.cpp:157] Top shape: 100 16 32 32 (1638400)
I1105 06:20:55.247745 13083 net.cpp:165] Memory required for data: 14337200
I1105 06:20:55.247767 13083 layer_factory.hpp:77] Creating layer first_conv_scale
I1105 06:20:55.247792 13083 net.cpp:100] Creating Layer first_conv_scale
I1105 06:20:55.247802 13083 net.cpp:434] first_conv_scale <- first_conv
I1105 06:20:55.247817 13083 net.cpp:395] first_conv_scale -> first_conv (in-place)
I1105 06:20:55.247846 13083 layer_factory.hpp:77] Creating layer first_conv_scale
I1105 06:20:55.247905 13083 net.cpp:150] Setting up first_conv_scale
I1105 06:20:55.247920 13083 net.cpp:157] Top shape: 100 16 32 32 (1638400)
I1105 06:20:55.247930 13083 net.cpp:165] Memory required for data: 20890800
I1105 06:20:55.247946 13083 layer_factory.hpp:77] Creating layer first_conv_relu
I1105 06:20:55.247961 13083 net.cpp:100] Creating Layer first_conv_relu
I1105 06:20:55.247979 13083 net.cpp:434] first_conv_relu <- first_conv
I1105 06:20:55.247994 13083 net.cpp:395] first_conv_relu -> first_conv (in-place)
I1105 06:20:55.248013 13083 net.cpp:150] Setting up first_conv_relu
I1105 06:20:55.248028 13083 net.cpp:157] Top shape: 100 16 32 32 (1638400)
I1105 06:20:55.248040 13083 net.cpp:165] Memory required for data: 27444400
I1105 06:20:55.248051 13083 layer_factory.hpp:77] Creating layer first_conv_first_conv_relu_0_split
I1105 06:20:55.248067 13083 net.cpp:100] Creating Layer first_conv_first_conv_relu_0_split
I1105 06:20:55.248080 13083 net.cpp:434] first_conv_first_conv_relu_0_split <- first_conv
I1105 06:20:55.248095 13083 net.cpp:408] first_conv_first_conv_relu_0_split -> first_conv_first_conv_relu_0_split_0
I1105 06:20:55.248124 13083 net.cpp:408] first_conv_first_conv_relu_0_split -> first_conv_first_conv_relu_0_split_1
I1105 06:20:55.248153 13083 net.cpp:150] Setting up first_conv_first_conv_relu_0_split
I1105 06:20:55.248174 13083 net.cpp:157] Top shape: 100 16 32 32 (1638400)
I1105 06:20:55.248188 13083 net.cpp:157] Top shape: 100 16 32 32 (1638400)
I1105 06:20:55.248200 13083 net.cpp:165] Memory required for data: 40551600
I1105 06:20:55.248211 13083 layer_factory.hpp:77] Creating layer group0_block0_conv0
I1105 06:20:55.248231 13083 net.cpp:100] Creating Layer group0_block0_conv0
I1105 06:20:55.248244 13083 net.cpp:434] group0_block0_conv0 <- first_conv_first_conv_relu_0_split_0
I1105 06:20:55.248260 13083 net.cpp:408] group0_block0_conv0 -> group0_block0_conv0
I1105 06:20:55.248394 13083 net.cpp:150] Setting up group0_block0_conv0
I1105 06:20:55.248414 13083 net.cpp:157] Top shape: 100 16 32 32 (1638400)
I1105 06:20:55.248425 13083 net.cpp:165] Memory required for data: 47105200
I1105 06:20:55.248479 13083 layer_factory.hpp:77] Creating layer group0_block0_conv0_bn
I1105 06:20:55.248507 13083 net.cpp:100] Creating Layer group0_block0_conv0_bn
I1105 06:20:55.248522 13083 net.cpp:434] group0_block0_conv0_bn <- group0_block0_conv0
I1105 06:20:55.248538 13083 net.cpp:395] group0_block0_conv0_bn -> group0_block0_conv0 (in-place)
I1105 06:20:55.248611 13083 net.cpp:150] Setting up group0_block0_conv0_bn
I1105 06:20:55.248633 13083 net.cpp:157] Top shape: 100 16 32 32 (1638400)
I1105 06:20:55.248651 13083 net.cpp:165] Memory required for data: 53658800
I1105 06:20:55.248703 13083 layer_factory.hpp:77] Creating layer group0_block0_conv0_scale
I1105 06:20:55.248733 13083 net.cpp:100] Creating Layer group0_block0_conv0_scale
I1105 06:20:55.248749 13083 net.cpp:434] group0_block0_conv0_scale <- group0_block0_conv0
I1105 06:20:55.248762 13083 net.cpp:395] group0_block0_conv0_scale -> group0_block0_conv0 (in-place)
I1105 06:20:55.248785 13083 layer_factory.hpp:77] Creating layer group0_block0_conv0_scale
I1105 06:20:55.248829 13083 net.cpp:150] Setting up group0_block0_conv0_scale
I1105 06:20:55.248847 13083 net.cpp:157] Top shape: 100 16 32 32 (1638400)
I1105 06:20:55.248855 13083 net.cpp:165] Memory required for data: 60212400
I1105 06:20:55.248869 13083 layer_factory.hpp:77] Creating layer group0_block0_conv0_relu
I1105 06:20:55.248883 13083 net.cpp:100] Creating Layer group0_block0_conv0_relu
I1105 06:20:55.248893 13083 net.cpp:434] group0_block0_conv0_relu <- group0_block0_conv0
I1105 06:20:55.248905 13083 net.cpp:395] group0_block0_conv0_relu -> group0_block0_conv0 (in-place)
I1105 06:20:55.248919 13083 net.cpp:150] Setting up group0_block0_conv0_relu
I1105 06:20:55.248931 13083 net.cpp:157] Top shape: 100 16 32 32 (1638400)
I1105 06:20:55.248940 13083 net.cpp:165] Memory required for data: 66766000
I1105 06:20:55.248950 13083 layer_factory.hpp:77] Creating layer group0_block0_conv1
I1105 06:20:55.248970 13083 net.cpp:100] Creating Layer group0_block0_conv1
I1105 06:20:55.248980 13083 net.cpp:434] group0_block0_conv1 <- group0_block0_conv0
I1105 06:20:55.248996 13083 net.cpp:408] group0_block0_conv1 -> group0_block0_conv1
I1105 06:20:55.249089 13083 net.cpp:150] Setting up group0_block0_conv1
I1105 06:20:55.249107 13083 net.cpp:157] Top shape: 100 16 32 32 (1638400)
I1105 06:20:55.249116 13083 net.cpp:165] Memory required for data: 73319600
I1105 06:20:55.249130 13083 layer_factory.hpp:77] Creating layer group0_block0_conv1_bn
I1105 06:20:55.249155 13083 net.cpp:100] Creating Layer group0_block0_conv1_bn
I1105 06:20:55.249174 13083 net.cpp:434] group0_block0_conv1_bn <- group0_block0_conv1
I1105 06:20:55.249191 13083 net.cpp:395] group0_block0_conv1_bn -> group0_block0_conv1 (in-place)
I1105 06:20:55.249240 13083 net.cpp:150] Setting up group0_block0_conv1_bn
I1105 06:20:55.249269 13083 net.cpp:157] Top shape: 100 16 32 32 (1638400)
I1105 06:20:55.249280 13083 net.cpp:165] Memory required for data: 79873200
I1105 06:20:55.249546 13083 layer_factory.hpp:77] Creating layer group0_block0_conv1_scale
I1105 06:20:55.249570 13083 net.cpp:100] Creating Layer group0_block0_conv1_scale
I1105 06:20:55.249583 13083 net.cpp:434] group0_block0_conv1_scale <- group0_block0_conv1
I1105 06:20:55.249603 13083 net.cpp:395] group0_block0_conv1_scale -> group0_block0_conv1 (in-place)
I1105 06:20:55.249655 13083 layer_factory.hpp:77] Creating layer group0_block0_conv1_scale
I1105 06:20:55.249781 13083 net.cpp:150] Setting up group0_block0_conv1_scale
I1105 06:20:55.249799 13083 net.cpp:157] Top shape: 100 16 32 32 (1638400)
I1105 06:20:55.249809 13083 net.cpp:165] Memory required for data: 86426800
I1105 06:20:55.249825 13083 layer_factory.hpp:77] Creating layer group0_block0_sum
I1105 06:20:55.249861 13083 net.cpp:100] Creating Layer group0_block0_sum
I1105 06:20:55.249874 13083 net.cpp:434] group0_block0_sum <- group0_block0_conv1
I1105 06:20:55.249887 13083 net.cpp:434] group0_block0_sum <- first_conv_first_conv_relu_0_split_1
I1105 06:20:55.249905 13083 net.cpp:408] group0_block0_sum -> group0_block0_sum
I1105 06:20:55.249929 13083 net.cpp:150] Setting up group0_block0_sum
I1105 06:20:55.249943 13083 net.cpp:157] Top shape: 100 16 32 32 (1638400)
I1105 06:20:55.249953 13083 net.cpp:165] Memory required for data: 92980400
I1105 06:20:55.249963 13083 layer_factory.hpp:77] Creating layer group0_block0_sum_group0_block0_sum_0_split
I1105 06:20:55.249975 13083 net.cpp:100] Creating Layer group0_block0_sum_group0_block0_sum_0_split
I1105 06:20:55.249986 13083 net.cpp:434] group0_block0_sum_group0_block0_sum_0_split <- group0_block0_sum
I1105 06:20:55.250000 13083 net.cpp:408] group0_block0_sum_group0_block0_sum_0_split -> group0_block0_sum_group0_block0_sum_0_split_0
I1105 06:20:55.250054 13083 net.cpp:408] group0_block0_sum_group0_block0_sum_0_split -> group0_block0_sum_group0_block0_sum_0_split_1
I1105 06:20:55.250077 13083 net.cpp:150] Setting up group0_block0_sum_group0_block0_sum_0_split
I1105 06:20:55.250090 13083 net.cpp:157] Top shape: 100 16 32 32 (1638400)
I1105 06:20:55.250103 13083 net.cpp:157] Top shape: 100 16 32 32 (1638400)
I1105 06:20:55.250113 13083 net.cpp:165] Memory required for data: 106087600
I1105 06:20:55.250123 13083 layer_factory.hpp:77] Creating layer group0_block1_conv0
I1105 06:20:55.250154 13083 net.cpp:100] Creating Layer group0_block1_conv0
I1105 06:20:55.250169 13083 net.cpp:434] group0_block1_conv0 <- group0_block0_sum_group0_block0_sum_0_split_0
I1105 06:20:55.250185 13083 net.cpp:408] group0_block1_conv0 -> group0_block1_conv0
I1105 06:20:55.250316 13083 net.cpp:150] Setting up group0_block1_conv0
I1105 06:20:55.250339 13083 net.cpp:157] Top shape: 100 16 32 32 (1638400)
I1105 06:20:55.250349 13083 net.cpp:165] Memory required for data: 112641200
I1105 06:20:55.250365 13083 layer_factory.hpp:77] Creating layer group0_block1_conv0_bn
I1105 06:20:55.250391 13083 net.cpp:100] Creating Layer group0_block1_conv0_bn
I1105 06:20:55.250402 13083 net.cpp:434] group0_block1_conv0_bn <- group0_block1_conv0
I1105 06:20:55.250416 13083 net.cpp:395] group0_block1_conv0_bn -> group0_block1_conv0 (in-place)
I1105 06:20:55.250452 13083 net.cpp:150] Setting up group0_block1_conv0_bn
I1105 06:20:55.250466 13083 net.cpp:157] Top shape: 100 16 32 32 (1638400)
I1105 06:20:55.250476 13083 net.cpp:165] Memory required for data: 119194800
I1105 06:20:55.250494 13083 layer_factory.hpp:77] Creating layer group0_block1_conv0_scale
I1105 06:20:55.250510 13083 net.cpp:100] Creating Layer group0_block1_conv0_scale
I1105 06:20:55.250519 13083 net.cpp:434] group0_block1_conv0_scale <- group0_block1_conv0
I1105 06:20:55.250555 13083 net.cpp:395] group0_block1_conv0_scale -> group0_block1_conv0 (in-place)
I1105 06:20:55.250581 13083 layer_factory.hpp:77] Creating layer group0_block1_conv0_scale
I1105 06:20:55.250668 13083 net.cpp:150] Setting up group0_block1_conv0_scale
I1105 06:20:55.250686 13083 net.cpp:157] Top shape: 100 16 32 32 (1638400)
I1105 06:20:55.250695 13083 net.cpp:165] Memory required for data: 125748400
I1105 06:20:55.250711 13083 layer_factory.hpp:77] Creating layer group0_block1_conv0_relu
I1105 06:20:55.250726 13083 net.cpp:100] Creating Layer group0_block1_conv0_relu
I1105 06:20:55.250736 13083 net.cpp:434] group0_block1_conv0_relu <- group0_block1_conv0
I1105 06:20:55.250754 13083 net.cpp:395] group0_block1_conv0_relu -> group0_block1_conv0 (in-place)
I1105 06:20:55.250773 13083 net.cpp:150] Setting up group0_block1_conv0_relu
I1105 06:20:55.250790 13083 net.cpp:157] Top shape: 100 16 32 32 (1638400)
I1105 06:20:55.250799 13083 net.cpp:165] Memory required for data: 132302000
I1105 06:20:55.250809 13083 layer_factory.hpp:77] Creating layer group0_block1_conv1
I1105 06:20:55.250831 13083 net.cpp:100] Creating Layer group0_block1_conv1
I1105 06:20:55.250843 13083 net.cpp:434] group0_block1_conv1 <- group0_block1_conv0
I1105 06:20:55.250864 13083 net.cpp:408] group0_block1_conv1 -> group0_block1_conv1
I1105 06:20:55.250958 13083 net.cpp:150] Setting up group0_block1_conv1
I1105 06:20:55.250988 13083 net.cpp:157] Top shape: 100 16 32 32 (1638400)
I1105 06:20:55.250998 13083 net.cpp:165] Memory required for data: 138855600
I1105 06:20:55.251013 13083 layer_factory.hpp:77] Creating layer group0_block1_conv1_bn
I1105 06:20:55.251027 13083 net.cpp:100] Creating Layer group0_block1_conv1_bn
I1105 06:20:55.251039 13083 net.cpp:434] group0_block1_conv1_bn <- group0_block1_conv1
I1105 06:20:55.251061 13083 net.cpp:395] group0_block1_conv1_bn -> group0_block1_conv1 (in-place)
I1105 06:20:55.251129 13083 net.cpp:150] Setting up group0_block1_conv1_bn
I1105 06:20:55.251144 13083 net.cpp:157] Top shape: 100 16 32 32 (1638400)
I1105 06:20:55.251160 13083 net.cpp:165] Memory required for data: 145409200
I1105 06:20:55.251261 13083 layer_factory.hpp:77] Creating layer group0_block1_conv1_scale
I1105 06:20:55.251281 13083 net.cpp:100] Creating Layer group0_block1_conv1_scale
I1105 06:20:55.251299 13083 net.cpp:434] group0_block1_conv1_scale <- group0_block1_conv1
I1105 06:20:55.251334 13083 net.cpp:395] group0_block1_conv1_scale -> group0_block1_conv1 (in-place)
I1105 06:20:55.251368 13083 layer_factory.hpp:77] Creating layer group0_block1_conv1_scale
I1105 06:20:55.251449 13083 net.cpp:150] Setting up group0_block1_conv1_scale
I1105 06:20:55.251469 13083 net.cpp:157] Top shape: 100 16 32 32 (1638400)
I1105 06:20:55.251479 13083 net.cpp:165] Memory required for data: 151962800
I1105 06:20:55.251493 13083 layer_factory.hpp:77] Creating layer group0_block1_sum
I1105 06:20:55.251524 13083 net.cpp:100] Creating Layer group0_block1_sum
I1105 06:20:55.251538 13083 net.cpp:434] group0_block1_sum <- group0_block1_conv1
I1105 06:20:55.251551 13083 net.cpp:434] group0_block1_sum <- group0_block0_sum_group0_block0_sum_0_split_1
I1105 06:20:55.251566 13083 net.cpp:408] group0_block1_sum -> group0_block1_sum
I1105 06:20:55.251586 13083 net.cpp:150] Setting up group0_block1_sum
I1105 06:20:55.251605 13083 net.cpp:157] Top shape: 100 16 32 32 (1638400)
I1105 06:20:55.251616 13083 net.cpp:165] Memory required for data: 158516400
I1105 06:20:55.251626 13083 layer_factory.hpp:77] Creating layer group0_block1_sum_group0_block1_sum_0_split
I1105 06:20:55.251639 13083 net.cpp:100] Creating Layer group0_block1_sum_group0_block1_sum_0_split
I1105 06:20:55.251672 13083 net.cpp:434] group0_block1_sum_group0_block1_sum_0_split <- group0_block1_sum
I1105 06:20:55.251691 13083 net.cpp:408] group0_block1_sum_group0_block1_sum_0_split -> group0_block1_sum_group0_block1_sum_0_split_0
I1105 06:20:55.251714 13083 net.cpp:408] group0_block1_sum_group0_block1_sum_0_split -> group0_block1_sum_group0_block1_sum_0_split_1
I1105 06:20:55.251741 13083 net.cpp:150] Setting up group0_block1_sum_group0_block1_sum_0_split
I1105 06:20:55.251761 13083 net.cpp:157] Top shape: 100 16 32 32 (1638400)
I1105 06:20:55.251775 13083 net.cpp:157] Top shape: 100 16 32 32 (1638400)
I1105 06:20:55.251785 13083 net.cpp:165] Memory required for data: 171623600
I1105 06:20:55.251798 13083 layer_factory.hpp:77] Creating layer group0_block2_conv0
I1105 06:20:55.251817 13083 net.cpp:100] Creating Layer group0_block2_conv0
I1105 06:20:55.251832 13083 net.cpp:434] group0_block2_conv0 <- group0_block1_sum_group0_block1_sum_0_split_0
I1105 06:20:55.251852 13083 net.cpp:408] group0_block2_conv0 -> group0_block2_conv0
I1105 06:20:55.252004 13083 net.cpp:150] Setting up group0_block2_conv0
I1105 06:20:55.252023 13083 net.cpp:157] Top shape: 100 16 32 32 (1638400)
I1105 06:20:55.252033 13083 net.cpp:165] Memory required for data: 178177200
I1105 06:20:55.252048 13083 layer_factory.hpp:77] Creating layer group0_block2_conv0_bn
I1105 06:20:55.252063 13083 net.cpp:100] Creating Layer group0_block2_conv0_bn
I1105 06:20:55.252074 13083 net.cpp:434] group0_block2_conv0_bn <- group0_block2_conv0
I1105 06:20:55.252086 13083 net.cpp:395] group0_block2_conv0_bn -> group0_block2_conv0 (in-place)
I1105 06:20:55.252167 13083 net.cpp:150] Setting up group0_block2_conv0_bn
I1105 06:20:55.252185 13083 net.cpp:157] Top shape: 100 16 32 32 (1638400)
I1105 06:20:55.252195 13083 net.cpp:165] Memory required for data: 184730800
I1105 06:20:55.252213 13083 layer_factory.hpp:77] Creating layer group0_block2_conv0_scale
I1105 06:20:55.252269 13083 net.cpp:100] Creating Layer group0_block2_conv0_scale
I1105 06:20:55.252285 13083 net.cpp:434] group0_block2_conv0_scale <- group0_block2_conv0
I1105 06:20:55.252300 13083 net.cpp:395] group0_block2_conv0_scale -> group0_block2_conv0 (in-place)
I1105 06:20:55.252328 13083 layer_factory.hpp:77] Creating layer group0_block2_conv0_scale
I1105 06:20:55.252393 13083 net.cpp:150] Setting up group0_block2_conv0_scale
I1105 06:20:55.252415 13083 net.cpp:157] Top shape: 100 16 32 32 (1638400)
I1105 06:20:55.252426 13083 net.cpp:165] Memory required for data: 191284400
I1105 06:20:55.252465 13083 layer_factory.hpp:77] Creating layer group0_block2_conv0_relu
I1105 06:20:55.252497 13083 net.cpp:100] Creating Layer group0_block2_conv0_relu
I1105 06:20:55.252516 13083 net.cpp:434] group0_block2_conv0_relu <- group0_block2_conv0
I1105 06:20:55.252531 13083 net.cpp:395] group0_block2_conv0_relu -> group0_block2_conv0 (in-place)
I1105 06:20:55.252547 13083 net.cpp:150] Setting up group0_block2_conv0_relu
I1105 06:20:55.252562 13083 net.cpp:157] Top shape: 100 16 32 32 (1638400)
I1105 06:20:55.252570 13083 net.cpp:165] Memory required for data: 197838000
I1105 06:20:55.252588 13083 layer_factory.hpp:77] Creating layer group0_block2_conv1
I1105 06:20:55.252612 13083 net.cpp:100] Creating Layer group0_block2_conv1
I1105 06:20:55.252635 13083 net.cpp:434] group0_block2_conv1 <- group0_block2_conv0
I1105 06:20:55.252651 13083 net.cpp:408] group0_block2_conv1 -> group0_block2_conv1
I1105 06:20:55.252787 13083 net.cpp:150] Setting up group0_block2_conv1
I1105 06:20:55.252805 13083 net.cpp:157] Top shape: 100 16 32 32 (1638400)
I1105 06:20:55.252815 13083 net.cpp:165] Memory required for data: 204391600
I1105 06:20:55.252830 13083 layer_factory.hpp:77] Creating layer group0_block2_conv1_bn
I1105 06:20:55.252846 13083 net.cpp:100] Creating Layer group0_block2_conv1_bn
I1105 06:20:55.252859 13083 net.cpp:434] group0_block2_conv1_bn <- group0_block2_conv1
I1105 06:20:55.252889 13083 net.cpp:395] group0_block2_conv1_bn -> group0_block2_conv1 (in-place)
I1105 06:20:55.252948 13083 net.cpp:150] Setting up group0_block2_conv1_bn
I1105 06:20:55.252977 13083 net.cpp:157] Top shape: 100 16 32 32 (1638400)
I1105 06:20:55.252995 13083 net.cpp:165] Memory required for data: 210945200
I1105 06:20:55.253010 13083 layer_factory.hpp:77] Creating layer group0_block2_conv1_scale
I1105 06:20:55.253024 13083 net.cpp:100] Creating Layer group0_block2_conv1_scale
I1105 06:20:55.253043 13083 net.cpp:434] group0_block2_conv1_scale <- group0_block2_conv1
I1105 06:20:55.253057 13083 net.cpp:395] group0_block2_conv1_scale -> group0_block2_conv1 (in-place)
I1105 06:20:55.253082 13083 layer_factory.hpp:77] Creating layer group0_block2_conv1_scale
I1105 06:20:55.253134 13083 net.cpp:150] Setting up group0_block2_conv1_scale
I1105 06:20:55.253161 13083 net.cpp:157] Top shape: 100 16 32 32 (1638400)
I1105 06:20:55.253178 13083 net.cpp:165] Memory required for data: 217498800
I1105 06:20:55.253193 13083 layer_factory.hpp:77] Creating layer group0_block2_sum
I1105 06:20:55.253231 13083 net.cpp:100] Creating Layer group0_block2_sum
I1105 06:20:55.253250 13083 net.cpp:434] group0_block2_sum <- group0_block2_conv1
I1105 06:20:55.253263 13083 net.cpp:434] group0_block2_sum <- group0_block1_sum_group0_block1_sum_0_split_1
I1105 06:20:55.253280 13083 net.cpp:408] group0_block2_sum -> group0_block2_sum
I1105 06:20:55.253320 13083 net.cpp:150] Setting up group0_block2_sum
I1105 06:20:55.253339 13083 net.cpp:157] Top shape: 100 16 32 32 (1638400)
I1105 06:20:55.253350 13083 net.cpp:165] Memory required for data: 224052400
I1105 06:20:55.253362 13083 layer_factory.hpp:77] Creating layer group0_block2_sum_group0_block2_sum_0_split
I1105 06:20:55.253376 13083 net.cpp:100] Creating Layer group0_block2_sum_group0_block2_sum_0_split
I1105 06:20:55.253386 13083 net.cpp:434] group0_block2_sum_group0_block2_sum_0_split <- group0_block2_sum
I1105 06:20:55.253399 13083 net.cpp:408] group0_block2_sum_group0_block2_sum_0_split -> group0_block2_sum_group0_block2_sum_0_split_0
I1105 06:20:55.253427 13083 net.cpp:408] group0_block2_sum_group0_block2_sum_0_split -> group0_block2_sum_group0_block2_sum_0_split_1
I1105 06:20:55.253454 13083 net.cpp:150] Setting up group0_block2_sum_group0_block2_sum_0_split
I1105 06:20:55.253470 13083 net.cpp:157] Top shape: 100 16 32 32 (1638400)
I1105 06:20:55.253484 13083 net.cpp:157] Top shape: 100 16 32 32 (1638400)
I1105 06:20:55.253492 13083 net.cpp:165] Memory required for data: 237159600
I1105 06:20:55.253504 13083 layer_factory.hpp:77] Creating layer group1_block0_conv0
I1105 06:20:55.253522 13083 net.cpp:100] Creating Layer group1_block0_conv0
I1105 06:20:55.253572 13083 net.cpp:434] group1_block0_conv0 <- group0_block2_sum_group0_block2_sum_0_split_0
I1105 06:20:55.253598 13083 net.cpp:408] group1_block0_conv0 -> group1_block0_conv0
I1105 06:20:55.253757 13083 net.cpp:150] Setting up group1_block0_conv0
I1105 06:20:55.253775 13083 net.cpp:157] Top shape: 100 32 16 16 (819200)
I1105 06:20:55.253787 13083 net.cpp:165] Memory required for data: 240436400
I1105 06:20:55.253801 13083 layer_factory.hpp:77] Creating layer group1_block0_conv0_bn
I1105 06:20:55.253815 13083 net.cpp:100] Creating Layer group1_block0_conv0_bn
I1105 06:20:55.253826 13083 net.cpp:434] group1_block0_conv0_bn <- group1_block0_conv0
I1105 06:20:55.253844 13083 net.cpp:395] group1_block0_conv0_bn -> group1_block0_conv0 (in-place)
I1105 06:20:55.253877 13083 net.cpp:150] Setting up group1_block0_conv0_bn
I1105 06:20:55.253895 13083 net.cpp:157] Top shape: 100 32 16 16 (819200)
I1105 06:20:55.253904 13083 net.cpp:165] Memory required for data: 243713200
I1105 06:20:55.253932 13083 layer_factory.hpp:77] Creating layer group1_block0_conv0_scale
I1105 06:20:55.253958 13083 net.cpp:100] Creating Layer group1_block0_conv0_scale
I1105 06:20:55.253968 13083 net.cpp:434] group1_block0_conv0_scale <- group1_block0_conv0
I1105 06:20:55.253986 13083 net.cpp:395] group1_block0_conv0_scale -> group1_block0_conv0 (in-place)
I1105 06:20:55.254017 13083 layer_factory.hpp:77] Creating layer group1_block0_conv0_scale
I1105 06:20:55.254053 13083 net.cpp:150] Setting up group1_block0_conv0_scale
I1105 06:20:55.254076 13083 net.cpp:157] Top shape: 100 32 16 16 (819200)
I1105 06:20:55.254086 13083 net.cpp:165] Memory required for data: 246990000
I1105 06:20:55.254103 13083 layer_factory.hpp:77] Creating layer group1_block0_conv0_relu
I1105 06:20:55.254117 13083 net.cpp:100] Creating Layer group1_block0_conv0_relu
I1105 06:20:55.254145 13083 net.cpp:434] group1_block0_conv0_relu <- group1_block0_conv0
I1105 06:20:55.254160 13083 net.cpp:395] group1_block0_conv0_relu -> group1_block0_conv0 (in-place)
I1105 06:20:55.254189 13083 net.cpp:150] Setting up group1_block0_conv0_relu
I1105 06:20:55.254209 13083 net.cpp:157] Top shape: 100 32 16 16 (819200)
I1105 06:20:55.254218 13083 net.cpp:165] Memory required for data: 250266800
I1105 06:20:55.254228 13083 layer_factory.hpp:77] Creating layer group1_block0_conv1
I1105 06:20:55.254259 13083 net.cpp:100] Creating Layer group1_block0_conv1
I1105 06:20:55.254273 13083 net.cpp:434] group1_block0_conv1 <- group1_block0_conv0
I1105 06:20:55.254297 13083 net.cpp:408] group1_block0_conv1 -> group1_block0_conv1
I1105 06:20:55.254562 13083 net.cpp:150] Setting up group1_block0_conv1
I1105 06:20:55.254585 13083 net.cpp:157] Top shape: 100 32 16 16 (819200)
I1105 06:20:55.254595 13083 net.cpp:165] Memory required for data: 253543600
I1105 06:20:55.254611 13083 layer_factory.hpp:77] Creating layer group1_block0_conv1_bn
I1105 06:20:55.254626 13083 net.cpp:100] Creating Layer group1_block0_conv1_bn
I1105 06:20:55.254645 13083 net.cpp:434] group1_block0_conv1_bn <- group1_block0_conv1
I1105 06:20:55.254672 13083 net.cpp:395] group1_block0_conv1_bn -> group1_block0_conv1 (in-place)
I1105 06:20:55.254711 13083 net.cpp:150] Setting up group1_block0_conv1_bn
I1105 06:20:55.254739 13083 net.cpp:157] Top shape: 100 32 16 16 (819200)
I1105 06:20:55.254750 13083 net.cpp:165] Memory required for data: 256820400
I1105 06:20:55.254767 13083 layer_factory.hpp:77] Creating layer group1_block0_conv1_scale
I1105 06:20:55.254796 13083 net.cpp:100] Creating Layer group1_block0_conv1_scale
I1105 06:20:55.254811 13083 net.cpp:434] group1_block0_conv1_scale <- group1_block0_conv1
I1105 06:20:55.254825 13083 net.cpp:395] group1_block0_conv1_scale -> group1_block0_conv1 (in-place)
I1105 06:20:55.254858 13083 layer_factory.hpp:77] Creating layer group1_block0_conv1_scale
I1105 06:20:55.254905 13083 net.cpp:150] Setting up group1_block0_conv1_scale
I1105 06:20:55.254933 13083 net.cpp:157] Top shape: 100 32 16 16 (819200)
I1105 06:20:55.254952 13083 net.cpp:165] Memory required for data: 260097200
I1105 06:20:55.255000 13083 layer_factory.hpp:77] Creating layer group1_block0_proj
I1105 06:20:55.255029 13083 net.cpp:100] Creating Layer group1_block0_proj
I1105 06:20:55.255048 13083 net.cpp:434] group1_block0_proj <- group0_block2_sum_group0_block2_sum_0_split_1
I1105 06:20:55.255069 13083 net.cpp:408] group1_block0_proj -> group1_block0_proj
I1105 06:20:55.255168 13083 net.cpp:150] Setting up group1_block0_proj
I1105 06:20:55.255198 13083 net.cpp:157] Top shape: 100 32 16 16 (819200)
I1105 06:20:55.255215 13083 net.cpp:165] Memory required for data: 263374000
I1105 06:20:55.255245 13083 layer_factory.hpp:77] Creating layer group1_block0_proj_bn
I1105 06:20:55.255267 13083 net.cpp:100] Creating Layer group1_block0_proj_bn
I1105 06:20:55.255286 13083 net.cpp:434] group1_block0_proj_bn <- group1_block0_proj
I1105 06:20:55.255300 13083 net.cpp:395] group1_block0_proj_bn -> group1_block0_proj (in-place)
I1105 06:20:55.255342 13083 net.cpp:150] Setting up group1_block0_proj_bn
I1105 06:20:55.255360 13083 net.cpp:157] Top shape: 100 32 16 16 (819200)
I1105 06:20:55.255370 13083 net.cpp:165] Memory required for data: 266650800
I1105 06:20:55.255388 13083 layer_factory.hpp:77] Creating layer group1_block0_proj_scale
I1105 06:20:55.255415 13083 net.cpp:100] Creating Layer group1_block0_proj_scale
I1105 06:20:55.255427 13083 net.cpp:434] group1_block0_proj_scale <- group1_block0_proj
I1105 06:20:55.255441 13083 net.cpp:395] group1_block0_proj_scale -> group1_block0_proj (in-place)
I1105 06:20:55.255465 13083 layer_factory.hpp:77] Creating layer group1_block0_proj_scale
I1105 06:20:55.255504 13083 net.cpp:150] Setting up group1_block0_proj_scale
I1105 06:20:55.255522 13083 net.cpp:157] Top shape: 100 32 16 16 (819200)
I1105 06:20:55.255530 13083 net.cpp:165] Memory required for data: 269927600
I1105 06:20:55.255545 13083 layer_factory.hpp:77] Creating layer group1_block0_sum
I1105 06:20:55.255568 13083 net.cpp:100] Creating Layer group1_block0_sum
I1105 06:20:55.255578 13083 net.cpp:434] group1_block0_sum <- group1_block0_proj
I1105 06:20:55.255597 13083 net.cpp:434] group1_block0_sum <- group1_block0_conv1
I1105 06:20:55.255611 13083 net.cpp:408] group1_block0_sum -> group1_block0_sum
I1105 06:20:55.255632 13083 net.cpp:150] Setting up group1_block0_sum
I1105 06:20:55.255666 13083 net.cpp:157] Top shape: 100 32 16 16 (819200)
I1105 06:20:55.255679 13083 net.cpp:165] Memory required for data: 273204400
I1105 06:20:55.255691 13083 layer_factory.hpp:77] Creating layer group1_block0_sum_group1_block0_sum_0_split
I1105 06:20:55.255707 13083 net.cpp:100] Creating Layer group1_block0_sum_group1_block0_sum_0_split
I1105 06:20:55.255722 13083 net.cpp:434] group1_block0_sum_group1_block0_sum_0_split <- group1_block0_sum
I1105 06:20:55.255736 13083 net.cpp:408] group1_block0_sum_group1_block0_sum_0_split -> group1_block0_sum_group1_block0_sum_0_split_0
I1105 06:20:55.255760 13083 net.cpp:408] group1_block0_sum_group1_block0_sum_0_split -> group1_block0_sum_group1_block0_sum_0_split_1
I1105 06:20:55.255784 13083 net.cpp:150] Setting up group1_block0_sum_group1_block0_sum_0_split
I1105 06:20:55.255797 13083 net.cpp:157] Top shape: 100 32 16 16 (819200)
I1105 06:20:55.255825 13083 net.cpp:157] Top shape: 100 32 16 16 (819200)
I1105 06:20:55.255833 13083 net.cpp:165] Memory required for data: 279758000
I1105 06:20:55.255843 13083 layer_factory.hpp:77] Creating layer group1_block1_conv0
I1105 06:20:55.255867 13083 net.cpp:100] Creating Layer group1_block1_conv0
I1105 06:20:55.255890 13083 net.cpp:434] group1_block1_conv0 <- group1_block0_sum_group1_block0_sum_0_split_0
I1105 06:20:55.255908 13083 net.cpp:408] group1_block1_conv0 -> group1_block1_conv0
I1105 06:20:55.256162 13083 net.cpp:150] Setting up group1_block1_conv0
I1105 06:20:55.256180 13083 net.cpp:157] Top shape: 100 32 16 16 (819200)
I1105 06:20:55.256189 13083 net.cpp:165] Memory required for data: 283034800
I1105 06:20:55.256204 13083 layer_factory.hpp:77] Creating layer group1_block1_conv0_bn
I1105 06:20:55.256227 13083 net.cpp:100] Creating Layer group1_block1_conv0_bn
I1105 06:20:55.256268 13083 net.cpp:434] group1_block1_conv0_bn <- group1_block1_conv0
I1105 06:20:55.256288 13083 net.cpp:395] group1_block1_conv0_bn -> group1_block1_conv0 (in-place)
I1105 06:20:55.256328 13083 net.cpp:150] Setting up group1_block1_conv0_bn
I1105 06:20:55.256345 13083 net.cpp:157] Top shape: 100 32 16 16 (819200)
I1105 06:20:55.256355 13083 net.cpp:165] Memory required for data: 286311600
I1105 06:20:55.256373 13083 layer_factory.hpp:77] Creating layer group1_block1_conv0_scale
I1105 06:20:55.256394 13083 net.cpp:100] Creating Layer group1_block1_conv0_scale
I1105 06:20:55.256412 13083 net.cpp:434] group1_block1_conv0_scale <- group1_block1_conv0
I1105 06:20:55.257367 13083 net.cpp:395] group1_block1_conv0_scale -> group1_block1_conv0 (in-place)
I1105 06:20:55.257416 13083 layer_factory.hpp:77] Creating layer group1_block1_conv0_scale
I1105 06:20:55.257475 13083 net.cpp:150] Setting up group1_block1_conv0_scale
I1105 06:20:55.257575 13083 net.cpp:157] Top shape: 100 32 16 16 (819200)
I1105 06:20:55.257591 13083 net.cpp:165] Memory required for data: 289588400
I1105 06:20:55.257606 13083 layer_factory.hpp:77] Creating layer group1_block1_conv0_relu
I1105 06:20:55.257627 13083 net.cpp:100] Creating Layer group1_block1_conv0_relu
I1105 06:20:55.257644 13083 net.cpp:434] group1_block1_conv0_relu <- group1_block1_conv0
I1105 06:20:55.257660 13083 net.cpp:395] group1_block1_conv0_relu -> group1_block1_conv0 (in-place)
I1105 06:20:55.257676 13083 net.cpp:150] Setting up group1_block1_conv0_relu
I1105 06:20:55.257696 13083 net.cpp:157] Top shape: 100 32 16 16 (819200)
I1105 06:20:55.257706 13083 net.cpp:165] Memory required for data: 292865200
I1105 06:20:55.257717 13083 layer_factory.hpp:77] Creating layer group1_block1_conv1
I1105 06:20:55.257740 13083 net.cpp:100] Creating Layer group1_block1_conv1
I1105 06:20:55.257760 13083 net.cpp:434] group1_block1_conv1 <- group1_block1_conv0
I1105 06:20:55.257779 13083 net.cpp:408] group1_block1_conv1 -> group1_block1_conv1
I1105 06:20:55.258031 13083 net.cpp:150] Setting up group1_block1_conv1
I1105 06:20:55.258052 13083 net.cpp:157] Top shape: 100 32 16 16 (819200)
I1105 06:20:55.258072 13083 net.cpp:165] Memory required for data: 296142000
I1105 06:20:55.258088 13083 layer_factory.hpp:77] Creating layer group1_block1_conv1_bn
I1105 06:20:55.258102 13083 net.cpp:100] Creating Layer group1_block1_conv1_bn
I1105 06:20:55.258121 13083 net.cpp:434] group1_block1_conv1_bn <- group1_block1_conv1
I1105 06:20:55.258139 13083 net.cpp:395] group1_block1_conv1_bn -> group1_block1_conv1 (in-place)
I1105 06:20:55.258180 13083 net.cpp:150] Setting up group1_block1_conv1_bn
I1105 06:20:55.258200 13083 net.cpp:157] Top shape: 100 32 16 16 (819200)
I1105 06:20:55.258219 13083 net.cpp:165] Memory required for data: 299418800
I1105 06:20:55.258239 13083 layer_factory.hpp:77] Creating layer group1_block1_conv1_scale
I1105 06:20:55.258265 13083 net.cpp:100] Creating Layer group1_block1_conv1_scale
I1105 06:20:55.258276 13083 net.cpp:434] group1_block1_conv1_scale <- group1_block1_conv1
I1105 06:20:55.258293 13083 net.cpp:395] group1_block1_conv1_scale -> group1_block1_conv1 (in-place)
I1105 06:20:55.258317 13083 layer_factory.hpp:77] Creating layer group1_block1_conv1_scale
I1105 06:20:55.258358 13083 net.cpp:150] Setting up group1_block1_conv1_scale
I1105 06:20:55.258379 13083 net.cpp:157] Top shape: 100 32 16 16 (819200)
I1105 06:20:55.258393 13083 net.cpp:165] Memory required for data: 302695600
I1105 06:20:55.258409 13083 layer_factory.hpp:77] Creating layer group1_block1_sum
I1105 06:20:55.258424 13083 net.cpp:100] Creating Layer group1_block1_sum
I1105 06:20:55.258440 13083 net.cpp:434] group1_block1_sum <- group1_block1_conv1
I1105 06:20:55.258452 13083 net.cpp:434] group1_block1_sum <- group1_block0_sum_group1_block0_sum_0_split_1
I1105 06:20:55.258476 13083 net.cpp:408] group1_block1_sum -> group1_block1_sum
I1105 06:20:55.258494 13083 net.cpp:150] Setting up group1_block1_sum
I1105 06:20:55.258515 13083 net.cpp:157] Top shape: 100 32 16 16 (819200)
I1105 06:20:55.258525 13083 net.cpp:165] Memory required for data: 305972400
I1105 06:20:55.258576 13083 layer_factory.hpp:77] Creating layer group1_block1_sum_group1_block1_sum_0_split
I1105 06:20:55.258591 13083 net.cpp:100] Creating Layer group1_block1_sum_group1_block1_sum_0_split
I1105 06:20:55.258612 13083 net.cpp:434] group1_block1_sum_group1_block1_sum_0_split <- group1_block1_sum
I1105 06:20:55.258632 13083 net.cpp:408] group1_block1_sum_group1_block1_sum_0_split -> group1_block1_sum_group1_block1_sum_0_split_0
I1105 06:20:55.258661 13083 net.cpp:408] group1_block1_sum_group1_block1_sum_0_split -> group1_block1_sum_group1_block1_sum_0_split_1
I1105 06:20:55.258702 13083 net.cpp:150] Setting up group1_block1_sum_group1_block1_sum_0_split
I1105 06:20:55.258721 13083 net.cpp:157] Top shape: 100 32 16 16 (819200)
I1105 06:20:55.258735 13083 net.cpp:157] Top shape: 100 32 16 16 (819200)
I1105 06:20:55.258746 13083 net.cpp:165] Memory required for data: 312526000
I1105 06:20:55.258756 13083 layer_factory.hpp:77] Creating layer group1_block2_conv0
I1105 06:20:55.258788 13083 net.cpp:100] Creating Layer group1_block2_conv0
I1105 06:20:55.258806 13083 net.cpp:434] group1_block2_conv0 <- group1_block1_sum_group1_block1_sum_0_split_0
I1105 06:20:55.258824 13083 net.cpp:408] group1_block2_conv0 -> group1_block2_conv0
I1105 06:20:55.259090 13083 net.cpp:150] Setting up group1_block2_conv0
I1105 06:20:55.259161 13083 net.cpp:157] Top shape: 100 32 16 16 (819200)
I1105 06:20:55.259181 13083 net.cpp:165] Memory required for data: 315802800
I1105 06:20:55.259198 13083 layer_factory.hpp:77] Creating layer group1_block2_conv0_bn
I1105 06:20:55.259219 13083 net.cpp:100] Creating Layer group1_block2_conv0_bn
I1105 06:20:55.259233 13083 net.cpp:434] group1_block2_conv0_bn <- group1_block2_conv0
I1105 06:20:55.259248 13083 net.cpp:395] group1_block2_conv0_bn -> group1_block2_conv0 (in-place)
I1105 06:20:55.259284 13083 net.cpp:150] Setting up group1_block2_conv0_bn
I1105 06:20:55.259305 13083 net.cpp:157] Top shape: 100 32 16 16 (819200)
I1105 06:20:55.259321 13083 net.cpp:165] Memory required for data: 319079600
I1105 06:20:55.259341 13083 layer_factory.hpp:77] Creating layer group1_block2_conv0_scale
I1105 06:20:55.259367 13083 net.cpp:100] Creating Layer group1_block2_conv0_scale
I1105 06:20:55.259379 13083 net.cpp:434] group1_block2_conv0_scale <- group1_block2_conv0
I1105 06:20:55.259398 13083 net.cpp:395] group1_block2_conv0_scale -> group1_block2_conv0 (in-place)
I1105 06:20:55.259420 13083 layer_factory.hpp:77] Creating layer group1_block2_conv0_scale
I1105 06:20:55.259461 13083 net.cpp:150] Setting up group1_block2_conv0_scale
I1105 06:20:55.259482 13083 net.cpp:157] Top shape: 100 32 16 16 (819200)
I1105 06:20:55.259492 13083 net.cpp:165] Memory required for data: 322356400
I1105 06:20:55.259506 13083 layer_factory.hpp:77] Creating layer group1_block2_conv0_relu
I1105 06:20:55.259524 13083 net.cpp:100] Creating Layer group1_block2_conv0_relu
I1105 06:20:55.259534 13083 net.cpp:434] group1_block2_conv0_relu <- group1_block2_conv0
I1105 06:20:55.259552 13083 net.cpp:395] group1_block2_conv0_relu -> group1_block2_conv0 (in-place)
I1105 06:20:55.259568 13083 net.cpp:150] Setting up group1_block2_conv0_relu
I1105 06:20:55.259582 13083 net.cpp:157] Top shape: 100 32 16 16 (819200)
I1105 06:20:55.259590 13083 net.cpp:165] Memory required for data: 325633200
I1105 06:20:55.259599 13083 layer_factory.hpp:77] Creating layer group1_block2_conv1
I1105 06:20:55.259616 13083 net.cpp:100] Creating Layer group1_block2_conv1
I1105 06:20:55.259629 13083 net.cpp:434] group1_block2_conv1 <- group1_block2_conv0
I1105 06:20:55.259649 13083 net.cpp:408] group1_block2_conv1 -> group1_block2_conv1
I1105 06:20:55.259886 13083 net.cpp:150] Setting up group1_block2_conv1
I1105 06:20:55.259903 13083 net.cpp:157] Top shape: 100 32 16 16 (819200)
I1105 06:20:55.259912 13083 net.cpp:165] Memory required for data: 328910000
I1105 06:20:55.259927 13083 layer_factory.hpp:77] Creating layer group1_block2_conv1_bn
I1105 06:20:55.259946 13083 net.cpp:100] Creating Layer group1_block2_conv1_bn
I1105 06:20:55.259985 13083 net.cpp:434] group1_block2_conv1_bn <- group1_block2_conv1
I1105 06:20:55.260000 13083 net.cpp:395] group1_block2_conv1_bn -> group1_block2_conv1 (in-place)
I1105 06:20:55.260035 13083 net.cpp:150] Setting up group1_block2_conv1_bn
I1105 06:20:55.260052 13083 net.cpp:157] Top shape: 100 32 16 16 (819200)
I1105 06:20:55.260061 13083 net.cpp:165] Memory required for data: 332186800
I1105 06:20:55.260077 13083 layer_factory.hpp:77] Creating layer group1_block2_conv1_scale
I1105 06:20:55.260093 13083 net.cpp:100] Creating Layer group1_block2_conv1_scale
I1105 06:20:55.260104 13083 net.cpp:434] group1_block2_conv1_scale <- group1_block2_conv1
I1105 06:20:55.260124 13083 net.cpp:395] group1_block2_conv1_scale -> group1_block2_conv1 (in-place)
I1105 06:20:55.260148 13083 layer_factory.hpp:77] Creating layer group1_block2_conv1_scale
I1105 06:20:55.260192 13083 net.cpp:150] Setting up group1_block2_conv1_scale
I1105 06:20:55.260210 13083 net.cpp:157] Top shape: 100 32 16 16 (819200)
I1105 06:20:55.260217 13083 net.cpp:165] Memory required for data: 335463600
I1105 06:20:55.260231 13083 layer_factory.hpp:77] Creating layer group1_block2_sum
I1105 06:20:55.260246 13083 net.cpp:100] Creating Layer group1_block2_sum
I1105 06:20:55.260257 13083 net.cpp:434] group1_block2_sum <- group1_block2_conv1
I1105 06:20:55.260268 13083 net.cpp:434] group1_block2_sum <- group1_block1_sum_group1_block1_sum_0_split_1
I1105 06:20:55.260287 13083 net.cpp:408] group1_block2_sum -> group1_block2_sum
I1105 06:20:55.260313 13083 net.cpp:150] Setting up group1_block2_sum
I1105 06:20:55.260334 13083 net.cpp:157] Top shape: 100 32 16 16 (819200)
I1105 06:20:55.260344 13083 net.cpp:165] Memory required for data: 338740400
I1105 06:20:55.260354 13083 layer_factory.hpp:77] Creating layer group1_block2_sum_group1_block2_sum_0_split
I1105 06:20:55.260366 13083 net.cpp:100] Creating Layer group1_block2_sum_group1_block2_sum_0_split
I1105 06:20:55.260378 13083 net.cpp:434] group1_block2_sum_group1_block2_sum_0_split <- group1_block2_sum
I1105 06:20:55.260396 13083 net.cpp:408] group1_block2_sum_group1_block2_sum_0_split -> group1_block2_sum_group1_block2_sum_0_split_0
I1105 06:20:55.260419 13083 net.cpp:408] group1_block2_sum_group1_block2_sum_0_split -> group1_block2_sum_group1_block2_sum_0_split_1
I1105 06:20:55.260440 13083 net.cpp:150] Setting up group1_block2_sum_group1_block2_sum_0_split
I1105 06:20:55.260460 13083 net.cpp:157] Top shape: 100 32 16 16 (819200)
I1105 06:20:55.260473 13083 net.cpp:157] Top shape: 100 32 16 16 (819200)
I1105 06:20:55.260483 13083 net.cpp:165] Memory required for data: 345294000
I1105 06:20:55.260491 13083 layer_factory.hpp:77] Creating layer group2_block0_conv0
I1105 06:20:55.260540 13083 net.cpp:100] Creating Layer group2_block0_conv0
I1105 06:20:55.260558 13083 net.cpp:434] group2_block0_conv0 <- group1_block2_sum_group1_block2_sum_0_split_0
I1105 06:20:55.260574 13083 net.cpp:408] group2_block0_conv0 -> group2_block0_conv0
I1105 06:20:55.261075 13083 net.cpp:150] Setting up group2_block0_conv0
I1105 06:20:55.261101 13083 net.cpp:157] Top shape: 100 64 8 8 (409600)
I1105 06:20:55.261113 13083 net.cpp:165] Memory required for data: 346932400
I1105 06:20:55.261144 13083 layer_factory.hpp:77] Creating layer group2_block0_conv0_bn
I1105 06:20:55.261173 13083 net.cpp:100] Creating Layer group2_block0_conv0_bn
I1105 06:20:55.261191 13083 net.cpp:434] group2_block0_conv0_bn <- group2_block0_conv0
I1105 06:20:55.261211 13083 net.cpp:395] group2_block0_conv0_bn -> group2_block0_conv0 (in-place)
I1105 06:20:55.261253 13083 net.cpp:150] Setting up group2_block0_conv0_bn
I1105 06:20:55.261274 13083 net.cpp:157] Top shape: 100 64 8 8 (409600)
I1105 06:20:55.261284 13083 net.cpp:165] Memory required for data: 348570800
I1105 06:20:55.261458 13083 layer_factory.hpp:77] Creating layer group2_block0_conv0_scale
I1105 06:20:55.261495 13083 net.cpp:100] Creating Layer group2_block0_conv0_scale
I1105 06:20:55.261503 13083 net.cpp:434] group2_block0_conv0_scale <- group2_block0_conv0
I1105 06:20:55.261518 13083 net.cpp:395] group2_block0_conv0_scale -> group2_block0_conv0 (in-place)
I1105 06:20:55.261557 13083 layer_factory.hpp:77] Creating layer group2_block0_conv0_scale
I1105 06:20:55.261585 13083 net.cpp:150] Setting up group2_block0_conv0_scale
I1105 06:20:55.261606 13083 net.cpp:157] Top shape: 100 64 8 8 (409600)
I1105 06:20:55.261615 13083 net.cpp:165] Memory required for data: 350209200
I1105 06:20:55.261625 13083 layer_factory.hpp:77] Creating layer group2_block0_conv0_relu
I1105 06:20:55.261639 13083 net.cpp:100] Creating Layer group2_block0_conv0_relu
I1105 06:20:55.261649 13083 net.cpp:434] group2_block0_conv0_relu <- group2_block0_conv0
I1105 06:20:55.261659 13083 net.cpp:395] group2_block0_conv0_relu -> group2_block0_conv0 (in-place)
I1105 06:20:55.261670 13083 net.cpp:150] Setting up group2_block0_conv0_relu
I1105 06:20:55.261680 13083 net.cpp:157] Top shape: 100 64 8 8 (409600)
I1105 06:20:55.261687 13083 net.cpp:165] Memory required for data: 351847600
I1105 06:20:55.261695 13083 layer_factory.hpp:77] Creating layer group2_block0_conv1
I1105 06:20:55.261713 13083 net.cpp:100] Creating Layer group2_block0_conv1
I1105 06:20:55.261723 13083 net.cpp:434] group2_block0_conv1 <- group2_block0_conv0
I1105 06:20:55.261742 13083 net.cpp:408] group2_block0_conv1 -> group2_block0_conv1
I1105 06:20:55.262410 13083 net.cpp:150] Setting up group2_block0_conv1
I1105 06:20:55.262428 13083 net.cpp:157] Top shape: 100 64 8 8 (409600)
I1105 06:20:55.262436 13083 net.cpp:165] Memory required for data: 353486000
I1105 06:20:55.262449 13083 layer_factory.hpp:77] Creating layer group2_block0_conv1_bn
I1105 06:20:55.262460 13083 net.cpp:100] Creating Layer group2_block0_conv1_bn
I1105 06:20:55.262468 13083 net.cpp:434] group2_block0_conv1_bn <- group2_block0_conv1
I1105 06:20:55.262482 13083 net.cpp:395] group2_block0_conv1_bn -> group2_block0_conv1 (in-place)
I1105 06:20:55.262504 13083 net.cpp:150] Setting up group2_block0_conv1_bn
I1105 06:20:55.262516 13083 net.cpp:157] Top shape: 100 64 8 8 (409600)
I1105 06:20:55.262526 13083 net.cpp:165] Memory required for data: 355124400
I1105 06:20:55.262537 13083 layer_factory.hpp:77] Creating layer group2_block0_conv1_scale
I1105 06:20:55.262554 13083 net.cpp:100] Creating Layer group2_block0_conv1_scale
I1105 06:20:55.262562 13083 net.cpp:434] group2_block0_conv1_scale <- group2_block0_conv1
I1105 06:20:55.262573 13083 net.cpp:395] group2_block0_conv1_scale -> group2_block0_conv1 (in-place)
I1105 06:20:55.262588 13083 layer_factory.hpp:77] Creating layer group2_block0_conv1_scale
I1105 06:20:55.262614 13083 net.cpp:150] Setting up group2_block0_conv1_scale
I1105 06:20:55.262625 13083 net.cpp:157] Top shape: 100 64 8 8 (409600)
I1105 06:20:55.262634 13083 net.cpp:165] Memory required for data: 356762800
I1105 06:20:55.262643 13083 layer_factory.hpp:77] Creating layer group2_block0_proj
I1105 06:20:55.262663 13083 net.cpp:100] Creating Layer group2_block0_proj
I1105 06:20:55.262675 13083 net.cpp:434] group2_block0_proj <- group1_block2_sum_group1_block2_sum_0_split_1
I1105 06:20:55.262686 13083 net.cpp:408] group2_block0_proj -> group2_block0_proj
I1105 06:20:55.262838 13083 net.cpp:150] Setting up group2_block0_proj
I1105 06:20:55.262852 13083 net.cpp:157] Top shape: 100 64 8 8 (409600)
I1105 06:20:55.262861 13083 net.cpp:165] Memory required for data: 358401200
I1105 06:20:55.262871 13083 layer_factory.hpp:77] Creating layer group2_block0_proj_bn
I1105 06:20:55.262884 13083 net.cpp:100] Creating Layer group2_block0_proj_bn
I1105 06:20:55.262902 13083 net.cpp:434] group2_block0_proj_bn <- group2_block0_proj
I1105 06:20:55.262912 13083 net.cpp:395] group2_block0_proj_bn -> group2_block0_proj (in-place)
I1105 06:20:55.262943 13083 net.cpp:150] Setting up group2_block0_proj_bn
I1105 06:20:55.262962 13083 net.cpp:157] Top shape: 100 64 8 8 (409600)
I1105 06:20:55.262974 13083 net.cpp:165] Memory required for data: 360039600
I1105 06:20:55.262987 13083 layer_factory.hpp:77] Creating layer group2_block0_proj_scale
I1105 06:20:55.262998 13083 net.cpp:100] Creating Layer group2_block0_proj_scale
I1105 06:20:55.263036 13083 net.cpp:434] group2_block0_proj_scale <- group2_block0_proj
I1105 06:20:55.263047 13083 net.cpp:395] group2_block0_proj_scale -> group2_block0_proj (in-place)
I1105 06:20:55.263068 13083 layer_factory.hpp:77] Creating layer group2_block0_proj_scale
I1105 06:20:55.263104 13083 net.cpp:150] Setting up group2_block0_proj_scale
I1105 06:20:55.263120 13083 net.cpp:157] Top shape: 100 64 8 8 (409600)
I1105 06:20:55.263128 13083 net.cpp:165] Memory required for data: 361678000
I1105 06:20:55.263141 13083 layer_factory.hpp:77] Creating layer group2_block0_sum
I1105 06:20:55.263154 13083 net.cpp:100] Creating Layer group2_block0_sum
I1105 06:20:55.263164 13083 net.cpp:434] group2_block0_sum <- group2_block0_proj
I1105 06:20:55.263172 13083 net.cpp:434] group2_block0_sum <- group2_block0_conv1
I1105 06:20:55.263187 13083 net.cpp:408] group2_block0_sum -> group2_block0_sum
I1105 06:20:55.263201 13083 net.cpp:150] Setting up group2_block0_sum
I1105 06:20:55.263214 13083 net.cpp:157] Top shape: 100 64 8 8 (409600)
I1105 06:20:55.263221 13083 net.cpp:165] Memory required for data: 363316400
I1105 06:20:55.263228 13083 layer_factory.hpp:77] Creating layer group2_block0_sum_group2_block0_sum_0_split
I1105 06:20:55.263237 13083 net.cpp:100] Creating Layer group2_block0_sum_group2_block0_sum_0_split
I1105 06:20:55.263245 13083 net.cpp:434] group2_block0_sum_group2_block0_sum_0_split <- group2_block0_sum
I1105 06:20:55.263258 13083 net.cpp:408] group2_block0_sum_group2_block0_sum_0_split -> group2_block0_sum_group2_block0_sum_0_split_0
I1105 06:20:55.263272 13083 net.cpp:408] group2_block0_sum_group2_block0_sum_0_split -> group2_block0_sum_group2_block0_sum_0_split_1
I1105 06:20:55.263299 13083 net.cpp:150] Setting up group2_block0_sum_group2_block0_sum_0_split
I1105 06:20:55.263317 13083 net.cpp:157] Top shape: 100 64 8 8 (409600)
I1105 06:20:55.263327 13083 net.cpp:157] Top shape: 100 64 8 8 (409600)
I1105 06:20:55.263334 13083 net.cpp:165] Memory required for data: 366593200
I1105 06:20:55.263340 13083 layer_factory.hpp:77] Creating layer group2_block1_conv0
I1105 06:20:55.263353 13083 net.cpp:100] Creating Layer group2_block1_conv0
I1105 06:20:55.263361 13083 net.cpp:434] group2_block1_conv0 <- group2_block0_sum_group2_block0_sum_0_split_0
I1105 06:20:55.263376 13083 net.cpp:408] group2_block1_conv0 -> group2_block1_conv0
I1105 06:20:55.264011 13083 net.cpp:150] Setting up group2_block1_conv0
I1105 06:20:55.264034 13083 net.cpp:157] Top shape: 100 64 8 8 (409600)
I1105 06:20:55.264042 13083 net.cpp:165] Memory required for data: 368231600
I1105 06:20:55.264053 13083 layer_factory.hpp:77] Creating layer group2_block1_conv0_bn
I1105 06:20:55.264063 13083 net.cpp:100] Creating Layer group2_block1_conv0_bn
I1105 06:20:55.264070 13083 net.cpp:434] group2_block1_conv0_bn <- group2_block1_conv0
I1105 06:20:55.264081 13083 net.cpp:395] group2_block1_conv0_bn -> group2_block1_conv0 (in-place)
I1105 06:20:55.264111 13083 net.cpp:150] Setting up group2_block1_conv0_bn
I1105 06:20:55.264127 13083 net.cpp:157] Top shape: 100 64 8 8 (409600)
I1105 06:20:55.264134 13083 net.cpp:165] Memory required for data: 369870000
I1105 06:20:55.264147 13083 layer_factory.hpp:77] Creating layer group2_block1_conv0_scale
I1105 06:20:55.264161 13083 net.cpp:100] Creating Layer group2_block1_conv0_scale
I1105 06:20:55.264169 13083 net.cpp:434] group2_block1_conv0_scale <- group2_block1_conv0
I1105 06:20:55.264178 13083 net.cpp:395] group2_block1_conv0_scale -> group2_block1_conv0 (in-place)
I1105 06:20:55.264194 13083 layer_factory.hpp:77] Creating layer group2_block1_conv0_scale
I1105 06:20:55.264221 13083 net.cpp:150] Setting up group2_block1_conv0_scale
I1105 06:20:55.264235 13083 net.cpp:157] Top shape: 100 64 8 8 (409600)
I1105 06:20:55.264242 13083 net.cpp:165] Memory required for data: 371508400
I1105 06:20:55.264252 13083 layer_factory.hpp:77] Creating layer group2_block1_conv0_relu
I1105 06:20:55.264262 13083 net.cpp:100] Creating Layer group2_block1_conv0_relu
I1105 06:20:55.264268 13083 net.cpp:434] group2_block1_conv0_relu <- group2_block1_conv0
I1105 06:20:55.264308 13083 net.cpp:395] group2_block1_conv0_relu -> group2_block1_conv0 (in-place)
I1105 06:20:55.264319 13083 net.cpp:150] Setting up group2_block1_conv0_relu
I1105 06:20:55.264329 13083 net.cpp:157] Top shape: 100 64 8 8 (409600)
I1105 06:20:55.264335 13083 net.cpp:165] Memory required for data: 373146800
I1105 06:20:55.264343 13083 layer_factory.hpp:77] Creating layer group2_block1_conv1
I1105 06:20:55.264354 13083 net.cpp:100] Creating Layer group2_block1_conv1
I1105 06:20:55.264363 13083 net.cpp:434] group2_block1_conv1 <- group2_block1_conv0
I1105 06:20:55.264374 13083 net.cpp:408] group2_block1_conv1 -> group2_block1_conv1
I1105 06:20:55.265002 13083 net.cpp:150] Setting up group2_block1_conv1
I1105 06:20:55.265019 13083 net.cpp:157] Top shape: 100 64 8 8 (409600)
I1105 06:20:55.265025 13083 net.cpp:165] Memory required for data: 374785200
I1105 06:20:55.265036 13083 layer_factory.hpp:77] Creating layer group2_block1_conv1_bn
I1105 06:20:55.265049 13083 net.cpp:100] Creating Layer group2_block1_conv1_bn
I1105 06:20:55.265056 13083 net.cpp:434] group2_block1_conv1_bn <- group2_block1_conv1
I1105 06:20:55.265066 13083 net.cpp:395] group2_block1_conv1_bn -> group2_block1_conv1 (in-place)
I1105 06:20:55.265086 13083 net.cpp:150] Setting up group2_block1_conv1_bn
I1105 06:20:55.265099 13083 net.cpp:157] Top shape: 100 64 8 8 (409600)
I1105 06:20:55.265105 13083 net.cpp:165] Memory required for data: 376423600
I1105 06:20:55.265142 13083 layer_factory.hpp:77] Creating layer group2_block1_conv1_scale
I1105 06:20:55.265158 13083 net.cpp:100] Creating Layer group2_block1_conv1_scale
I1105 06:20:55.265166 13083 net.cpp:434] group2_block1_conv1_scale <- group2_block1_conv1
I1105 06:20:55.265177 13083 net.cpp:395] group2_block1_conv1_scale -> group2_block1_conv1 (in-place)
I1105 06:20:55.265192 13083 layer_factory.hpp:77] Creating layer group2_block1_conv1_scale
I1105 06:20:55.265213 13083 net.cpp:150] Setting up group2_block1_conv1_scale
I1105 06:20:55.265225 13083 net.cpp:157] Top shape: 100 64 8 8 (409600)
I1105 06:20:55.265233 13083 net.cpp:165] Memory required for data: 378062000
I1105 06:20:55.265241 13083 layer_factory.hpp:77] Creating layer group2_block1_sum
I1105 06:20:55.265252 13083 net.cpp:100] Creating Layer group2_block1_sum
I1105 06:20:55.265259 13083 net.cpp:434] group2_block1_sum <- group2_block1_conv1
I1105 06:20:55.265267 13083 net.cpp:434] group2_block1_sum <- group2_block0_sum_group2_block0_sum_0_split_1
I1105 06:20:55.265281 13083 net.cpp:408] group2_block1_sum -> group2_block1_sum
I1105 06:20:55.265303 13083 net.cpp:150] Setting up group2_block1_sum
I1105 06:20:55.265316 13083 net.cpp:157] Top shape: 100 64 8 8 (409600)
I1105 06:20:55.265326 13083 net.cpp:165] Memory required for data: 379700400
I1105 06:20:55.265333 13083 layer_factory.hpp:77] Creating layer group2_block1_sum_group2_block1_sum_0_split
I1105 06:20:55.265343 13083 net.cpp:100] Creating Layer group2_block1_sum_group2_block1_sum_0_split
I1105 06:20:55.265350 13083 net.cpp:434] group2_block1_sum_group2_block1_sum_0_split <- group2_block1_sum
I1105 06:20:55.265360 13083 net.cpp:408] group2_block1_sum_group2_block1_sum_0_split -> group2_block1_sum_group2_block1_sum_0_split_0
I1105 06:20:55.265372 13083 net.cpp:408] group2_block1_sum_group2_block1_sum_0_split -> group2_block1_sum_group2_block1_sum_0_split_1
I1105 06:20:55.265388 13083 net.cpp:150] Setting up group2_block1_sum_group2_block1_sum_0_split
I1105 06:20:55.265401 13083 net.cpp:157] Top shape: 100 64 8 8 (409600)
I1105 06:20:55.265410 13083 net.cpp:157] Top shape: 100 64 8 8 (409600)
I1105 06:20:55.265417 13083 net.cpp:165] Memory required for data: 382977200
I1105 06:20:55.265424 13083 layer_factory.hpp:77] Creating layer group2_block2_conv0
I1105 06:20:55.265435 13083 net.cpp:100] Creating Layer group2_block2_conv0
I1105 06:20:55.265444 13083 net.cpp:434] group2_block2_conv0 <- group2_block1_sum_group2_block1_sum_0_split_0
I1105 06:20:55.265455 13083 net.cpp:408] group2_block2_conv0 -> group2_block2_conv0
I1105 06:20:55.266072 13083 net.cpp:150] Setting up group2_block2_conv0
I1105 06:20:55.266099 13083 net.cpp:157] Top shape: 100 64 8 8 (409600)
I1105 06:20:55.266108 13083 net.cpp:165] Memory required for data: 384615600
I1105 06:20:55.266120 13083 layer_factory.hpp:77] Creating layer group2_block2_conv0_bn
I1105 06:20:55.266134 13083 net.cpp:100] Creating Layer group2_block2_conv0_bn
I1105 06:20:55.266142 13083 net.cpp:434] group2_block2_conv0_bn <- group2_block2_conv0
I1105 06:20:55.266152 13083 net.cpp:395] group2_block2_conv0_bn -> group2_block2_conv0 (in-place)
I1105 06:20:55.266175 13083 net.cpp:150] Setting up group2_block2_conv0_bn
I1105 06:20:55.266196 13083 net.cpp:157] Top shape: 100 64 8 8 (409600)
I1105 06:20:55.266203 13083 net.cpp:165] Memory required for data: 386254000
I1105 06:20:55.266216 13083 layer_factory.hpp:77] Creating layer group2_block2_conv0_scale
I1105 06:20:55.266225 13083 net.cpp:100] Creating Layer group2_block2_conv0_scale
I1105 06:20:55.266232 13083 net.cpp:434] group2_block2_conv0_scale <- group2_block2_conv0
I1105 06:20:55.266245 13083 net.cpp:395] group2_block2_conv0_scale -> group2_block2_conv0 (in-place)
I1105 06:20:55.266263 13083 layer_factory.hpp:77] Creating layer group2_block2_conv0_scale
I1105 06:20:55.266293 13083 net.cpp:150] Setting up group2_block2_conv0_scale
I1105 06:20:55.266304 13083 net.cpp:157] Top shape: 100 64 8 8 (409600)
I1105 06:20:55.266310 13083 net.cpp:165] Memory required for data: 387892400
I1105 06:20:55.266321 13083 layer_factory.hpp:77] Creating layer group2_block2_conv0_relu
I1105 06:20:55.266330 13083 net.cpp:100] Creating Layer group2_block2_conv0_relu
I1105 06:20:55.266338 13083 net.cpp:434] group2_block2_conv0_relu <- group2_block2_conv0
I1105 06:20:55.266347 13083 net.cpp:395] group2_block2_conv0_relu -> group2_block2_conv0 (in-place)
I1105 06:20:55.266357 13083 net.cpp:150] Setting up group2_block2_conv0_relu
I1105 06:20:55.266366 13083 net.cpp:157] Top shape: 100 64 8 8 (409600)
I1105 06:20:55.266373 13083 net.cpp:165] Memory required for data: 389530800
I1105 06:20:55.266379 13083 layer_factory.hpp:77] Creating layer group2_block2_conv1
I1105 06:20:55.266394 13083 net.cpp:100] Creating Layer group2_block2_conv1
I1105 06:20:55.266409 13083 net.cpp:434] group2_block2_conv1 <- group2_block2_conv0
I1105 06:20:55.266424 13083 net.cpp:408] group2_block2_conv1 -> group2_block2_conv1
I1105 06:20:55.267047 13083 net.cpp:150] Setting up group2_block2_conv1
I1105 06:20:55.267060 13083 net.cpp:157] Top shape: 100 64 8 8 (409600)
I1105 06:20:55.267066 13083 net.cpp:165] Memory required for data: 391169200
I1105 06:20:55.267079 13083 layer_factory.hpp:77] Creating layer group2_block2_conv1_bn
I1105 06:20:55.267088 13083 net.cpp:100] Creating Layer group2_block2_conv1_bn
I1105 06:20:55.267097 13083 net.cpp:434] group2_block2_conv1_bn <- group2_block2_conv1
I1105 06:20:55.267107 13083 net.cpp:395] group2_block2_conv1_bn -> group2_block2_conv1 (in-place)
I1105 06:20:55.267127 13083 net.cpp:150] Setting up group2_block2_conv1_bn
I1105 06:20:55.267146 13083 net.cpp:157] Top shape: 100 64 8 8 (409600)
I1105 06:20:55.267153 13083 net.cpp:165] Memory required for data: 392807600
I1105 06:20:55.267165 13083 layer_factory.hpp:77] Creating layer group2_block2_conv1_scale
I1105 06:20:55.267175 13083 net.cpp:100] Creating Layer group2_block2_conv1_scale
I1105 06:20:55.267182 13083 net.cpp:434] group2_block2_conv1_scale <- group2_block2_conv1
I1105 06:20:55.267191 13083 net.cpp:395] group2_block2_conv1_scale -> group2_block2_conv1 (in-place)
I1105 06:20:55.267206 13083 layer_factory.hpp:77] Creating layer group2_block2_conv1_scale
I1105 06:20:55.267227 13083 net.cpp:150] Setting up group2_block2_conv1_scale
I1105 06:20:55.267238 13083 net.cpp:157] Top shape: 100 64 8 8 (409600)
I1105 06:20:55.267244 13083 net.cpp:165] Memory required for data: 394446000
I1105 06:20:55.267254 13083 layer_factory.hpp:77] Creating layer group2_block2_sum
I1105 06:20:55.267267 13083 net.cpp:100] Creating Layer group2_block2_sum
I1105 06:20:55.267277 13083 net.cpp:434] group2_block2_sum <- group2_block2_conv1
I1105 06:20:55.267284 13083 net.cpp:434] group2_block2_sum <- group2_block1_sum_group2_block1_sum_0_split_1
I1105 06:20:55.267315 13083 net.cpp:408] group2_block2_sum -> group2_block2_sum
I1105 06:20:55.267328 13083 net.cpp:150] Setting up group2_block2_sum
I1105 06:20:55.267338 13083 net.cpp:157] Top shape: 100 64 8 8 (409600)
I1105 06:20:55.267345 13083 net.cpp:165] Memory required for data: 396084400
I1105 06:20:55.267351 13083 layer_factory.hpp:77] Creating layer global_avg_pool
I1105 06:20:55.267362 13083 net.cpp:100] Creating Layer global_avg_pool
I1105 06:20:55.267369 13083 net.cpp:434] global_avg_pool <- group2_block2_sum
I1105 06:20:55.267379 13083 net.cpp:408] global_avg_pool -> global_avg_pool
I1105 06:20:55.267417 13083 net.cpp:150] Setting up global_avg_pool
I1105 06:20:55.267429 13083 net.cpp:157] Top shape: 100 64 1 1 (6400)
I1105 06:20:55.267436 13083 net.cpp:165] Memory required for data: 396110000
I1105 06:20:55.267442 13083 layer_factory.hpp:77] Creating layer fc
I1105 06:20:55.267460 13083 net.cpp:100] Creating Layer fc
I1105 06:20:55.267477 13083 net.cpp:434] fc <- global_avg_pool
I1105 06:20:55.267488 13083 net.cpp:408] fc -> fc
I1105 06:20:55.267534 13083 net.cpp:150] Setting up fc
I1105 06:20:55.267550 13083 net.cpp:157] Top shape: 100 12 (1200)
I1105 06:20:55.267557 13083 net.cpp:165] Memory required for data: 396114800
I1105 06:20:55.267566 13083 layer_factory.hpp:77] Creating layer fc_fc_0_split
I1105 06:20:55.267576 13083 net.cpp:100] Creating Layer fc_fc_0_split
I1105 06:20:55.267583 13083 net.cpp:434] fc_fc_0_split <- fc
I1105 06:20:55.267592 13083 net.cpp:408] fc_fc_0_split -> fc_fc_0_split_0
I1105 06:20:55.267606 13083 net.cpp:408] fc_fc_0_split -> fc_fc_0_split_1
I1105 06:20:55.267624 13083 net.cpp:150] Setting up fc_fc_0_split
I1105 06:20:55.267634 13083 net.cpp:157] Top shape: 100 12 (1200)
I1105 06:20:55.267642 13083 net.cpp:157] Top shape: 100 12 (1200)
I1105 06:20:55.267647 13083 net.cpp:165] Memory required for data: 396124400
I1105 06:20:55.267654 13083 layer_factory.hpp:77] Creating layer loss
I1105 06:20:55.267663 13083 net.cpp:100] Creating Layer loss
I1105 06:20:55.267670 13083 net.cpp:434] loss <- fc_fc_0_split_0
I1105 06:20:55.267678 13083 net.cpp:434] loss <- label_data_1_split_0
I1105 06:20:55.267688 13083 net.cpp:408] loss -> loss
I1105 06:20:55.267702 13083 layer_factory.hpp:77] Creating layer loss
I1105 06:20:55.267737 13083 net.cpp:150] Setting up loss
I1105 06:20:55.267748 13083 net.cpp:157] Top shape: (1)
I1105 06:20:55.267755 13083 net.cpp:160]     with loss weight 1
I1105 06:20:55.267791 13083 net.cpp:165] Memory required for data: 396124404
I1105 06:20:55.267798 13083 layer_factory.hpp:77] Creating layer softmax
I1105 06:20:55.267807 13083 net.cpp:100] Creating Layer softmax
I1105 06:20:55.267814 13083 net.cpp:434] softmax <- fc_fc_0_split_1
I1105 06:20:55.267823 13083 net.cpp:408] softmax -> softmax
I1105 06:20:55.267839 13083 net.cpp:150] Setting up softmax
I1105 06:20:55.267855 13083 net.cpp:157] Top shape: 100 12 (1200)
I1105 06:20:55.267863 13083 net.cpp:165] Memory required for data: 396129204
I1105 06:20:55.267869 13083 layer_factory.hpp:77] Creating layer Accuracy
I1105 06:20:55.267879 13083 net.cpp:100] Creating Layer Accuracy
I1105 06:20:55.267886 13083 net.cpp:434] Accuracy <- softmax
I1105 06:20:55.267894 13083 net.cpp:434] Accuracy <- label_data_1_split_1
I1105 06:20:55.267904 13083 net.cpp:408] Accuracy -> Accuracy
…
